cool/checkpoints/D3QN/Q_target/D3QN_Q_target_1600.pth (torch, 278863 bytes, 7 tensors)

fc1.weight f4 [256, 5]
0	0xbedc5cdc	-0.43039596
1	0xbe90454a	-0.28177863
2	0xbe5f8f99	-0.21832122
3	0x3d2e075e	0.042487495
4	0x3eb8d705	0.36101547
5	0xbe216752	-0.1576207
6	0x3ea9dcfc	0.3317641
7	0x3ea94060	0.33056927
8	0xbe334418	-0.17506444
9	0x3d968590	0.07349694
10	0xbeb682b9	-0.35646608
11	0x3e7d4884	0.24734694
12	0xbe408928	-0.18802321
13	0xbdae167c	-0.08500382
14	0x3e91ccaa	0.2847646
15	0xbe0f9886	-0.14023027
16	0xbdeef5e3	-0.11667993
17	0x3d466cd0	0.048443615
18	0xbe237160	-0.15961218
19	0x3d010768	0.031501204
20	0x3e83e904	0.25763714
21	0xbeaa10cf	-0.3321595
22	0x3e4b1538	0.19832313
23	0xbe85e5c5	-0.26151863
24	0x3e85198c	0.25996053
25	0xbd177846	-0.036979936
26	0xbe1390d3	-0.14410715
27	0x3e76fd57	0.24120079
28	0x3dfb6123	0.12274387
29	0x3e73a714	0.23794204
30	0x3e237100	0.15961075
31	0x3e9c56b0	0.30534887
32	0x3cf5e804	0.03001786
33	0xbddd293c	-0.107988805
34	0xbe8dfd18	-0.27732158
35	0x3e9b95c9	0.30387715
36	0x3dc9950f	0.09842884
37	0xbe5082e0	-0.20362425
38	0x3e93d8b4	0.2887627
39	0x3e02b329	0.12763657
40	0xbd428b91	-0.047496382
41	0x3e79ed14	0.24406844
42	0xbdc56044	-0.09637502
43	0xbe148ab2	-0.14506033
44	0xbc9f5400	-0.019449234
45	0xbda63bb4	-0.08116856
46	0x3eab6dfe	0.33482355
47	0x3e8fbca2	0.28073603
48	0xbde8eaf0	-0.11372936
49	0xbd06dfc8	-0.03292826
50	0xbee4ca4d	-0.44685593
51	0xbed47f32	-0.41503292
52	0x3ed09ba6	0.4074375
53	0xbedb20cf	-0.42798468
54	0xbebfac68	-0.37436223
55	0x3ec304b6	0.38089532
56	0xbeecd3b5	-0.4625527
57	0x3ea6fb0f	0.32613418
58	0x3ea034ab	0.31290182
59	0xbe296a2e	-0.1654441
60	0xbe51239a	-0.20423737
61	0xbeefbd37	-0.46824047
62	0x3e4373f6	0.19087204
63	0x3dc9f659	0.0986144
64	0xbd632cf5	-0.055462796
65	0xbe01467e	-0.12624547
66	0x3ea2ced6	0.31798428
67	0x3ea09734	0.3136536
68	0xbe3fab7e	-0.18717763
69	0xbe199fde	-0.1500239
70	0x3eb4df99	0.3532684
71	0x3e2bb0ef	0.16766714
72	0xbe5436d4	-0.2072404
73	0x3e1042dc	0.14088005
74	0xbea77ab1	-0.32710794
75	0x3cac5fc6	0.021041762
76	0xbecab311	-0.39589742
77	0x3e9e7b85	0.30953613
78	0xbc2cf5c7	-0.010556645
79	0x3e07bc14	0.1325534
80	0xbe5d7c3a	-0.2162942
81	0xbed82e4c	-0.42222822
82	0x3ec9099e	0.3926515
83	0xbc5c60a0	-0.013450772
84	0x3cae0de0	0.02124685
85	0xbecd3588	-0.40079904
86	0xbe875701	-0.26433566
87	0xbe74776c	-0.23873681
88	0x3ebe8cf9	0.3721693
89	0xbcfcac16	-0.030843776
90	0xbe97575c	-0.29558837
91	0x3e560b94	0.20902854
92	0x3bc85b98	0.0061144345
93	0x3ec70f1a	0.3887871
94	0xbe117c26	-0.14207515
95	0xbe914254	-0.28370917
96	0xbe4f5678	-0.20247829
97	0xbd4ced36	-0.05003091
98	0x3e361e0f	0.17784904
99	0xbd85c0f6	-0.06530945
100	0x3eb3563e	0.35026735
101	0x3e00f954	0.12595111
102	0x3e197b74	0.149885
103	0xbe92d9ef	-0.28681895
104	0xbe92e196	-0.28687733
105	0xbe6f5724	-0.23373085
106	0x3eadeb06	0.3396837
107	0x3e6c2060	0.23059225
108	0xbe82fe3e	-0.25584596
109	0xbeaea403	-0.34109506
110	0x3ecb8c04	0.3975526
111	0xbdd7f4a8	-0.10544711
112	0x3ea1acb7	0.31577083
113	0xbd79a6e8	-0.06095019
114	0x3e975ee2	0.29564577
115	0xbe34ab26	-0.17643413
116	0x3ec45524	0.38346207
117	0x3b87e600	0.004147291
118	0xbeb79fed	-0.358642
119	0xbea724fc	-0.32645404
120	0xbed16dc9	-0.40904072
121	0xbe8839fe	-0.26606745
122	0xbec64694	-0.38725722
123	0x3e08d3da	0.13362065
124	0x3ecb303d	0.3968524
125	0x3e7433ed	0.23847933
126	0x3eb49365	0.35268703
127	0x3e26a9eb	0.16275756
128	0x3d58c20b	0.05291943
129	0x3de48036	0.11157267
130	0xbe3fb4ca	-0.1872131
131	0x3cfd2f4c	0.030906342
132	0x3d9b3fc8	0.07580525
133	0xbe62af22	-0.2213712
134	0x3e985a90	0.29756594
135	0x3e63e0cc	0.22253722
136	0xbebe2eab	-0.3714498
137	0xbe6adfe2	-0.22936967
138	0xbe73bbc4	-0.23802096
139	0x3dacd1e0	0.08438468
140	0xbebbc726	-0.36675376
141	0x3dcdd0a0	0.10049558
142	0xbe1dcbd4	-0.15409786
143	0xbe19fab2	-0.15037039
144	0x3ddc8d18	0.10769099
145	0x3d0086f8	0.031378716
146	0xbe6b00ef	-0.22949575
147	0x3ebbb054	0.36657965
148	0xbe7438a8	-0.23849738
149	0xbdfc1c38	-0.1231007
150	0x3ea1f9a9	0.31635788
151	0x3e3d5e51	0.1849301
152	0x3bf1e0a3	0.007381515
153	0x3ebcffba	0.36913854
154	0xbe8fb67f	-0.2806892
155	0x3ea7783c	0.3270892
156	0x3e2be4bc	0.16786474
157	0x3d454748	0.048163682
158	0xbe6b928b	-0.2300512
159	0x3eb1cd4a	0.34726936
160	0x3edc8bd0	0.43075418
161	0x3e291845	0.16513164
162	0x3ec78e01	0.38975528
163	0x3ece9e8c	0.40355337
164	0xbeeaee00	-0.45884705
165	0xbdb17ffe	-0.08666991
166	0xbef273ed	-0.4735407
167	0x3e80b6b9	0.25139406
168	0x3eda1d23	0.42600355
169	0xbb9a330c	-0.0047057923
170	0xbd21cf90	-0.039504588
171	0xbdd013a4	-0.10159996
172	0x3edbd3c4	0.42935002
173	0xbc596800	-0.013269424
174	0xbec1ddfc	-0.37864673
175	0x3ee0a79a	0.4387787
176	0xbe17e52e	-0.14833519
177	0x3ecf7bb0	0.40524054
178	0xbe39771a	-0.1811184
179	0xbed85a94	-0.42256606
180	0x3d78bbd0	0.060725987
181	0x3d9c7428	0.076393425
182	0xbe2e5b30	-0.17026973
183	0xbe9037ba	-0.28167516
184	0x3e344e74	0.17608052
185	0x3eaa6ec6	0.33287638
186	0x3df651e0	0.12027335
187	0xbe917888	-0.2841227
188	0xbe9fc338	-0.31203628
189	0x3e89d45a	0.26919824
190	0xbec37ab0	-0.3817954
191	0xbe5788ab	-0.21048228
192	0x3e08f15e	0.13373324
193	0x3e23e4ce	0.16005251
194	0x3d7db2b3	0.061938
195	0x3e3d7e26	0.18505153
196	0x3e8692ce	0.26283878
197	0xbe85b5c5	-0.26115242
198	0x3ecbbc54	0.3979212
199	0xbed53534	-0.41642153
200	0xbe9d31ee	-0.30702156
201	0xbd2d4118	-0.042298406
202	0xbbcb42c0	-0.0062030256
203	0xbe8439c6	-0.25825328
204	0x3c8592c0	0.016305327
205	0x3ebfd704	0.3746873
206	0x3c6a2800	0.014291763
207	0xbdec6320	-0.11542344
208	0xbeaffbdb	-0.34371838
209	0xbeb103a1	-0.3457308
210	0x3e38807e	0.18017766
211	0xbe87af35	-0.2650086
212	0x3ec234c2	0.37930876
213	0x3d9db48f	0.077004544
214	0x3e67731d	0.22602506
215	0xbe9cc70d	-0.30620614
216	0x3d9fb2c0	0.07797766
217	0x3e9be7dc	0.30450332
218	0xbee04fe3	-0.4381095
219	0x3d1d37c8	0.038383275
220	0x3e00e234	0.1258629
221	0xbe8b0134	-0.27149355
222	0x3ec93768	0.39300084
223	0xbe08c4d4	-0.13356334
224	0x3e475640	0.19466496
225	0x3ecc94ea	0.39957362
226	0xbd5f5a04	-0.054529205
227	0xbde17c9d	-0.11010096
228	0x3ecab98b	0.39594683
229	0xbe94f438	-0.29092574
230	0x3d5fc050	0.054626763
231	0xbe3b6a06	-0.18302163
232	0xbe6fc108	-0.2341348
233	0xbdbbbf30	-0.091673255
234	0xbea54348	-0.32277894
235	0xbe3e008c	-0.18554896
236	0xbed35f62	-0.4128371
237	0x3e8cddd8	0.27513003
238	0xbebdce93	-0.37071666
239	0xbee179fa	-0.44038373
240	0xbe15c53c	-0.1462602
241	0x3e2d5bcd	0.1692955
242	0x3eca8099	0.39551237
243	0x3e4bada4	0.19890457
244	0x3e84d8b9	0.25946596
245	0x3ec7ba72	0.39009434
246	0xbeb39e3d	-0.35081664
247	0x3e3ab66b	0.1823365
248	0x3e437265	0.19086607
249	0x3eb29cf4	0.3488537
250	0xbebd5242	-0.3697682
251	0xbe392e20	-0.18084002
252	0xbe3fe130	-0.18738246
253	0xbdb82fd4	-0.089934975
254	0xbc7d92e0	-0.015476912
255	0xba58d000	-0.00082707405

fc1.bias f4 [256]
0	0x3e2e8453	0.17042665
1	0x3d74e3c0	0.05978751
2	0x3e6517d0	0.22372365
3	0x3aa18700	0.0012323558
4	0xbcd72620	-0.026263297
5	0x3e55725d	0.20844407
6	0xbe556715	-0.20840104
7	0xbe90a29d	-0.28249064
8	0xbe480e81	-0.19536783
9	0x3ddd06c0	0.10792303
10	0x3ec075b8	0.37589812
11	0xbd999b08	-0.07500273
12	0x3eb03ef1	0.3442302
13	0xbec5cc8b	-0.38632616
14	0xbe992b87	-0.2991602
15	0x3e376b1f	0.17911957
16	0xbd3785a0	-0.04480517
17	0x3ebdd5ed	0.37077275
18	0x3e137609	0.14400496
19	0x3d1e2a68	0.03861466
20	0x3e07087c	0.1318683
21	0xbe9d621c	-0.30738914
22	0xbea520a8	-0.32251477
23	0xbed81337	-0.4220216
24	0x3ce8b51c	0.028406672
25	0xbeae133b	-0.33999047
26	0xbdccfe40	-0.10009432
27	0x3e8263d4	0.25466788
28	0xbed94c03	-0.42440805
29	0x3e9ecc9c	0.3101548
30	0x3ea26eaf	0.3172507
31	0x3e87c760	0.265193
32	0xbecc4b51	-0.39901212
33	0xbe97d28c	-0.29652822
34	0xbe832be8	-0.25619435
35	0xbdc4f1e0	-0.096164465
36	0x3e4e641c	0.20155376
37	0xbddbe704	-0.10737422
38	0xbe6c497e	-0.2307491
39	0x3db90511	0.090341695
40	0x3ee37a3e	0.444292
41	0x3ed1383e	0.40863222
42	0x3ee1166b	0.43962416
43	0x3e796e44	0.24358469
44	0x3e06edd8	0.13176668
45	0xbd8f94d8	-0.070108116
46	0xbe0d49da	-0.13797703
47	0xbe9801a2	-0.29688746
48	0x3ed4aac5	0.41536537
49	0xbeb47934	-0.3524872
50	0xbe970df6	-0.2950284
51	0xbdecb8c4	-0.11558679
52	0x3e985afe	0.29756922
53	0x3e951528	0.29117703
54	0xbe96c823	-0.29449567
55	0x3e0351a0	0.12824106
56	0x3eb55583	0.35416803
57	0x3e97793c	0.29584682
58	0xbec74c77	-0.38925526
59	0xbee1d07c	-0.44104373
60	0xbe343a65	-0.17600401
61	0x3e02105c	0.12701553
62	0x3de923f0	0.11383808
63	0xbe1998ec	-0.14999741
64	0xbeb4b80b	-0.35296664
65	0xbdd0d314	-0.1019651
66	0xbd683bb2	-0.056697555
67	0x3e952bf7	0.29135105
68	0xbec26c85	-0.3797342
69	0x3ec13150	0.37732935
70	0x3ec8b820	0.39202976
71	0x3ed91024	0.42395127
72	0xbec88fd3	-0.3917223
73	0xbe10170c	-0.14071292
74	0x3e2d253b	0.16908734
75	0x3eabfbf4	0.33590662
76	0xbdfc6503	-0.12323954
77	0x3e7d5a39	0.24741448
78	0xbe8ec9d6	-0.27888364
79	0x3e221e65	0.15831907
80	0xbeba912e	-0.36438888
81	0x3ed4fc82	0.41598898
82	0x3e610693	0.21975164
83	0x3e19e0c7	0.15027152
84	0xbeb474d2	-0.35245377
85	0x3e8418ba	0.25800115
86	0xbdab55ce	-0.08365975
87	0x3e651b58	0.22373712
88	0xbe8bc545	-0.27298942
89	0xbe534613	-0.206322
90	0x3db437c9	0.08799703
91	0xbcc4a170	-0.02400276
92	0x3dd35588	0.10319048
93	0xbe89b622	-0.2689677
94	0xbe7441b5	-0.2385319
95	0x3e5996e0	0.2124896
96	0x3db323d0	0.08747065
97	0xbecd9c6b	-0.401584
98	0x3e7e67f2	0.2484434
99	0x3e271f4c	0.16320533
100	0xbe18b256	-0.1491178
101	0xbcb696e0	-0.02228874
102	0x3e23db9c	0.16001743
103	0xbd9600b0	-0.0732435
104	0x3d2d2a20	0.0422765
105	0x3e480dbc	0.19536489
106	0x3e9cc245	0.30616966
107	0x3e1e6544	0.15468317
108	0x3e6f3f84	0.23364073
109	0x3e07565e	0.1321654
110	0xbe174b7a	-0.14774886
111	0xbde5f60c	-0.1122857
112	0x3d115de3	0.035489928
113	0x3ec7eba0	0.39046955
114	0x3e1ceecc	0.15325469
115	0x3e30f51b	0.17281
116	0x3dda62a5	0.10663346
117	0xbdd572bc	-0.104222745
118	0xbe867c84	-0.26266873
119	0x3e94b20d	0.29042092
120	0x3ebe46e6	0.37163466
121	0x3ddc07ab	0.1074365
122	0x3d84e840	0.06489611
123	0x3dfa5eb8	0.122250974
124	0xbebca992	-0.36848122
125	0x3dd6bdb8	0.10485405
126	0x3ed1a229	0.4094403
127	0xbc2f8ac0	-0.010714233
128	0x3ce6821d	0.028138215
129	0xbe720796	-0.23635706
130	0xbda7c570	-0.08191955
131	0x3e806710	0.2507863
132	0x3ec72f6e	0.38903373
133	0x3e82001d	0.2539071
134	0xbe70ff48	-0.23534882
135	0xbea52295	-0.32252946
136	0x3e7ca330	0.24671626
137	0xbd5ff5c6	-0.054677747
138	0x3ec6fde2	0.38865572
139	0x3ecb035e	0.39651006
140	0xbec6a862	-0.3880034
141	0xbe4c024c	-0.19922751
142	0x3e14e5d1	0.14540793
143	0x3e5b7359	0.2143072
144	0x3e329784	0.17440611
145	0xbd9c64cc	-0.07636413
146	0xbec787f0	-0.389709
147	0xbeb7fcb2	-0.3593498
148	0xbd9c0ba8	-0.07619411
149	0x3db9c5fc	0.09070966
150	0x3e4a12e9	0.19733776
151	0xbd280ba8	-0.04102674
152	0x3e5c4b2c	0.21513051
153	0x3c0ab1e5	0.008465265
154	0x3e559978	0.20859325
155	0xbecbde4b	-0.39818034
156	0x3ebf46f8	0.37358832
157	0x3c7888aa	0.015169302
158	0x3eb0d2a4	0.34535706
159	0x3d52aa38	0.051431865
160	0x3eb2eafa	0.34944898
161	0x3c1a3234	0.009411383
162	0x3e36ecf8	0.17863834
163	0xbe0b3323	-0.13593726
164	0xbe92f768	-0.2870438
165	0xbeb1621a	-0.34645158
166	0xbea9a2df	-0.33132073
167	0x3e1eeda0	0.15520334
168	0xbc8168b0	-0.01579699
169	0xbe5a29f0	-0.2130506
170	0x3e9629c0	0.29328728
171	0xbeaaf072	-0.3338657
172	0x3e0ef24f	0.13959621
173	0xbe4ed8df	-0.20199917
174	0x3ea2aac0	0.31770897
175	0xbc995d2b	-0.018721184
176	0x3e1ce371	0.15321137
177	0x3ea0faec	0.31441438
178	0xbea15653	-0.31511173
179	0xbea67e28	-0.32518125
180	0xbec4e857	-0.3845851
181	0x3dcdb9a8	0.10045177
182	0xbe8ecb10	-0.278893
183	0x3ea97d96	0.33103627
184	0x3e544cac	0.20732373
185	0x3cdd8cc0	0.027044654
186	0x3eaf99c0	0.3429699
187	0xbe7420f6	-0.23840699
188	0x3e5f4e18	0.21807134
189	0x3d8a6348	0.06757218
190	0x3df7273d	0.12068031
191	0x3dde75b8	0.10862297
192	0x3c861cf0	0.01637122
193	0x3dc2a7f8	0.09504694
194	0x3e6fe6f5	0.23427947
195	0x3e09af88	0.13445866
196	0x3e316470	0.1732347
197	0x3e11a08b	0.14221399
198	0xbebaf2d1	-0.3651338
199	0xbdb5dd98	-0.08880156
200	0xbea315d7	-0.318526
201	0xbe622233	-0.22083358
202	0x3e7f20e7	0.24914895
203	0x3ec13d62	0.37742144
204	0xbcc3b220	-0.023888648
205	0xbe68c759	-0.22732295
206	0x3e0e6584	0.13905913
207	0x3d903928	0.07042152
208	0x3e2cf695	0.16890939
209	0x3dcbb295	0.09946171
210	0x3e1c6e05	0.15276344
211	0x3e3f4b6d	0.18681116
212	0x3d5cbc50	0.053890526
213	0x3e8b6ac8	0.27229905
214	0xbea1f930	-0.31635427
215	0x3ed28e71	0.411243
216	0x3ea54083	0.3227578
217	0xbe39b6b9	-0.1813611
218	0x3ed95920	0.4245081
219	0x3e682988	0.22672093
220	0x3e9e2968	0.30890965
221	0x3d69a940	0.057046175
222	0xbd6e8394	-0.05823095
223	0xbe4259a0	-0.18979502
224	0xbec60bdb	-0.3868092
225	0xbe8fabf2	-0.2806087
226	0xbdeef704	-0.11668208
227	0xbec22bd0	-0.3792405
228	0x3e5e67e2	0.21719316
229	0x3ccb5b70	0.024823874
230	0xbead4f1a	-0.33849412
231	0xbca9c290	-0.020722657
232	0x3e045ce8	0.12926066
233	0x3eafce7c	0.34337223
234	0xbc85e340	-0.016343713
235	0x3edbee15	0.4295508
236	0xbe29b2fd	-0.16572185
237	0x3ede4294	0.4341017
238	0xbe7a685c	-0.24453872
239	0x3e2ec50f	0.1706736
240	0xbe136476	-0.14393792
241	0xbed49a14	-0.41523802
242	0xbe56c4ee	-0.2097356
243	0x3ea9d306	0.3316881
244	0xbe3b0a19	-0.1826557
245	0x3eab5884	0.3346597
246	0xbe793c29	-0.24339356
247	0xbde32fa8	-0.11093074
248	0xbe021b7e	-0.127058
249	0x3ec63255	0.38710275
250	0x3e8818dc	0.26581466
251	0xbbd8dc40	-0.0066180527
252	0xbda07864	-0.07835463
253	0x3e1e942c	0.1548621
254	0xbec5e331	-0.38649896
255	0x3d830d28	0.06398994

fc2.weight f4 [256, 256]
0	0x3b9f1689	0.0048549813
1	0x3d7d8848	0.061897546
2	0xbd3e6578	-0.046483487
3	0xbd2e0cf0	-0.042492807
4	0x3bea0550	0.0071417466
5	0xbd5abb79	-0.053401444
6	0xbce88304	-0.028382786
7	0x3cd093c2	0.025461081
8	0xbd183c3a	-0.03716681
9	0xbd458072	-0.048218198
10	0x3b3c32c0	0.0028716773
11	0xbd312be3	-0.043254744
12	0x3d7202bc	0.05908464
13	0xbd526588	-0.05136636
14	0x3d0d1d23	0.034451615
15	0x3c1d9b4e	0.009619547
16	0xbbeeeea0	-0.00729163
17	0xbcdf5252	-0.027260933
18	0x3d068b4a	0.03284768
19	0xbd6893c7	-0.056781556
20	0xbb532e60	-0.0032223687
21	0x3d2ff8e2	0.042961963
22	0xbcc806b1	-0.024417253
23	0xbcb6d6fc	-0.02231931
24	0x3afe9c14	0.0019425177
25	0xbd68b7a5	-0.056815762
26	0xbd684d02	-0.056714065
27	0xbbec47f3	-0.0072107255
28	0xbb830950	-0.003998913
29	0xbc9deb08	-0.01927711
30	0xbc84b69e	-0.01620036
31	0x3d6a28e0	0.057167888
32	0xbcf155a8	-0.02945979
33	0xbac94695	-0.0015356118
34	0xbcd28720	-0.025699198
35	0x3d577812	0.052604742
36	0x3d6d440c	0.057926223
37	0xbc8821d8	-0.0166177
38	0x3ccb85e2	0.024844114
39	0xbc49ac71	-0.01230918
40	0x3d58cfea	0.052932657
41	0xbc1d487e	-0.009599803
42	0x3d3f7ab4	0.04674788
43	0xbcbc77f8	-0.023006424
44	0xbc949e08	-0.018141761
45	0x3c27088c	0.010194909
46	0x3d51dea4	0.051237717
47	0xbd5faa2a	-0.05460564
48	0xbc755bcc	-0.014975499
49	0x3d6647c1	0.056220774
50	0xbd610e48	-0.05494526
51	0x3b5c0460	0.0033571944
52	0x3d78fabc	0.060785994
53	0x3c14a4c6	0.009072488
54	0x3d4fff56	0.050780617
55	0xbd06438c	-0.03277926
56	0x3d08e5a7	0.03342214
57	0xbca9acdc	-0.020712309
58	0x3d20c622	0.039251454
59	0xbd0afebe	-0.033934347
60	0x3d5f329c	0.054491624
61	0x3c829d5f	0.015944181
62	0xbd031a0a	-0.032007255
63	0x3be81ae0	0.007083282
64	0xbd5034e2	-0.050831683
65	0xbd6d7e74	-0.057981923
66	0x3bf99ea9	0.0076177907
67	0xbc136c47	-0.008997983
68	0xbb6bebac	-0.0035998626
69	0xbc3beff1	-0.011470781
70	0x3cb0d7a4	0.0215872
71	0x3d53137e	0.05153226
72	0x3b90e300	0.0044215918
73	0x3c8a18d0	0.016857535
74	0x3d545a2e	0.051843815
75	0xbcad49a2	-0.021153275
76	0xbd694208	-0.056947738
77	0xbcf98d86	-0.030462991
78	0x3cbdb7c0	0.023158908
79	0xbd60deb9	-0.054899905
80	0x3d415bc7	0.047206666
81	0xbc0c0cb0	-0.008547947
82	0x3d5fa7f7	0.054603543
83	0xbcb20e0b	-0.021735212
84	0xbd497040	-0.049179316
85	0x3c84eef8	0.01622723
86	0xbd074eac	-0.03303401
87	0x3be7eaa0	0.00707753
88	0x3ce11c92	0.027479444
89	0x3c50de23	0.012748274
90	0xbd7fb252	-0.06242592
91	0x3c0d8d58	0.008639656
92	0xbc473ea0	-0.012160927
93	0xbcd7ec9c	-0.026357941
94	0x3d4eca91	0.05048615
95	0x3cade4ac	0.021227203
96	0xbae61e40	-0.0017556623
97	0x3d2e75a9	0.04259268
98	0x3d057652	0.032583542
99	0xbd782ff4	-0.060592607
100	0xbc1d98f8	-0.00961899
101	0xbd633750	-0.055472672
102	0x3bbcd9d5	0.0057632723
103	0x3d56ef68	0.05247441
104	0xbc08c11a	-0.00834682
105	0x3cdff120	0.027336657
106	0x3c859a0a	0.016308803
107	0x3d193a68	0.037409216
108	0xbd6ae598	-0.057347864
109	0x3d06b5ff	0.03288841
110	0xbd2c6d66	-0.042096518
111	0xbd25792a	-0.040398754
112	0x3d1c2cdb	0.038128715
113	0xbc657210	-0.014004245
114	0xbca57530	-0.02019748
115	0x3d3bc03a	0.04583762
116	0x3c4e12b1	0.012577699
117	0xbd796e32	-0.060896106
118	0x3d4260cc	0.047455594
119	0xba649146	-0.0008719157
120	0x3bc5aac9	0.006032322
121	0xbcf15be8	-0.02946277
122	0x3cc535a4	0.02407343
123	0x3d44c154	0.048035935
124	0x3d5108c7	0.05103376
125	0x3bd77950	0.006575741
126	0x3ca3d3e8	0.019998506
127	0xbc8f0f3c	-0.017463319
128	0xbd587f88	-0.052856
129	0xbcf90334	-0.030397035
130	0xbd553d02	-0.052060135
131	0xbd624842	-0.05524469
132	0x3cbf5440	0.023355603
133	0x3cd4f90c	0.025997661
134	0xbd0db2a8	-0.034594208
135	0x3d302f15	0.04301365
136	0x3d131016	0.035904013
137	0xbd44c5bc	-0.048040137
138	0x3d10dac6	0.03536489
139	0x3c818ddd	0.015814716
140	0x3d41145e	0.047138564
141	0x3ca0e3a2	0.019639794
142	0xbb96d667	-0.0046031955
143	0xbd02d6fd	-0.03194331
144	0xbcc94468	-0.024568751
145	0x3d38ad6a	0.045087256
146	0x3d3f75fa	0.04674337
147	0xbd15827c	-0.036501393
148	0xbca3a2dc	-0.019975118
149	0x3c85ffe4	0.01635737
150	0x3d30b2ba	0.043139197
151	0xbd0ec5d2	-0.034856625
152	0x3b91dd20	0.004451409
153	0x3d57a0c8	0.052643567
154	0xbd091446	-0.0334666
155	0x3d03dcc0	0.032192945
156	0x3b7c4035	0.0038490419
157	0xbc839d16	-0.016066115
158	0xbb1c89e0	-0.002388589
159	0xbb595b40	-0.0033165962
160	0x3cd6367d	0.026149029
161	0xbd387377	-0.04503199
162	0x3d7c7f64	0.061644927
163	0xbca02530	-0.019548982
164	0xbcbe5b5d	-0.023236925
165	0xbd5442e2	-0.051821597
166	0x3cc673d0	0.024225146
167	0xbc2ca6e8	-0.01053784
168	0xbc044858	-0.008073889
169	0xbcabf696	-0.020991605
170	0xbc266cc9	-0.010157772
171	0xbc1783f8	-0.009247772
172	0x3ca42dc4	0.020041354
173	0xbcba5a89	-0.022748249
174	0xbcb33ab0	-0.02187857
175	0x3d4b5dd0	0.049650013
176	0x3d0f95f1	0.035055105
177	0x3c5f2230	0.013618991
178	0x3b3b6704	0.0028595338
179	0xbcf80db1	-0.030279966
180	0x3d6a4dda	0.05720315
181	0x3ce4dfa0	0.027938664
182	0x3d337015	0.04380806
183	0x3d360a90	0.044443667
184	0xbd01993a	-0.03164027
185	0x3d619b44	0.055079713
186	0x3c1a39e8	0.00941322
187	0x3d373b58	0.04473433
188	0x3d0d09da	0.034433223
189	0x3c7b73d8	0.0153474435
190	0x3d0f38d8	0.03496632
191	0x3a445d80	0.0007490739
192	0x3c97f83c	0.018550985
193	0x3c8c6dc4	0.017142184
194	0xbcbd2857	-0.023090525
195	0xbd4dd7ae	-0.050254516
196	0xbc97c5d8	-0.018526956
197	0x3c8690d2	0.016426478
198	0xbd23159c	-0.03981553
199	0x3cd83268	0.026391223
200	0xbcfea026	-0.031082224
201	0x3cb131f1	0.02163026
202	0x3cc20f43	0.023688918
203	0x3d0b0942	0.033944376
204	0xbce1584c	-0.027507924
205	0xbc5d9659	-0.013524615
206	0xbca5c1d0	-0.020234019
207	0x3d2d7f47	0.04235771
208	0xbd7972ca	-0.060900487
209	0x3d51193a	0.05104945
210	0x3c90cecd	0.017676735
211	0x3ced4481	0.02896333
212	0xbd4f53be	-0.050616972
213	0x3ca60684	0.020266779
214	0x3d157398	0.036487192
215	0x3d2f172b	0.042746704
216	0x3d22d50c	0.03975396
217	0x3d505c29	0.05086914
218	0x3cad661c	0.021166854
219	0xbcc8a07c	-0.024490587
220	0x3d298eb0	0.041395843
221	0xbd6044f3	-0.054753255
222	0x3c2874e8	0.010281779
223	0xbd15b3a0	-0.036548257
224	0xbd4a60f0	-0.049408853
225	0x3cb838dd	0.022488052
226	0x3d3b7d98	0.045774072
227	0x3d02c248	0.031923562
228	0xbd068561	-0.032842044
229	0x3b01bf45	0.0019797843
230	0x3d57c00a	0.052673377
231	0xbbbaeb90	-0.005704351
232	0xbb94a170	-0.0045358464
233	0xbcaa82dc	-0.020814352
234	0xbd17065e	-0.036871307
235	0xbd0c9a7e	-0.034327023
236	0x3d5dd836	0.054161273
237	0x3d036ec6	0.032088064
238	0x3cb40b20	0.021977961
239	0xbd0b459a	-0.034001924
240	0x3d443c14	0.047908857
241	0xbd754ca7	-0.059887554
242	0x3c6668c2	0.014063062
243	0xbd0f2a8e	-0.034952693
244	0xbc1a7423	-0.009427103
245	0xbc1d3d60	-0.0095971525
246	0xbd081faa	-0.033233322
247	0xbccb3470	-0.024805278
248	0x3d4ca35c	0.04996048
249	0xbd2bf0d3	-0.041977715
250	0xbd666164	-0.056245223
251	0x3c77c5f0	0.015122876
252	0xbd37b29a	-0.044848062
253	0xbcc638de	-0.024197038
254	0x3d1a38b6	0.03765174
255	0xbd222e74	-0.039595082

fc2.bias f4 [256]
0	0xbd27bbe0	-0.040950656
1	0x3d4ae0ef	0.04953092
2	0xbd5d56bd	-0.0540378
3	0xbc8cfa0c	-0.017209075
4	0x3b681780	0.0035414398
5	0xbd27d097	-0.04097041
6	0x3c363ed0	0.011123374
7	0xbc79b574	-0.015241016
8	0xbd13fd30	-0.03613013
9	0xbd272f77	-0.04081675
10	0x3cc6ca5c	0.024266414
11	0xbb8418d5	-0.0040312805
12	0xbd6491ea	-0.055803217
13	0x3cf97c94	0.030454911
14	0xbd7e9040	-0.062149286
15	0xbce7cabb	-0.028294912
16	0x3d6ecd76	0.05830141
17	0xbc601760	-0.013677448
18	0xbc574950	-0.013140038
19	0xbd52856a	-0.051396765
20	0xbd073e06	-0.033018135
21	0xbd199804	-0.03749849
22	0xbd7f844e	-0.062382035
23	0x3d5c0120	0.05371201
24	0x3c30bf80	0.010787845
25	0x3d1e10d6	0.038590275
26	0xbc72e710	-0.014825597
27	0x3c64c60d	0.013963235
28	0xbcfc0b70	-0.030767173
29	0x3d45c4b5	0.048283298
30	0xbd575ee6	-0.052580737
31	0xbc412fe9	-0.011791208
32	0xbd7a5f9b	-0.061126333
33	0xbcbab844	-0.022792943
34	0x3d2e2bf9	0.042522404
35	0xbc760ef0	-0.01501821
36	0xbd662e84	-0.056196705
37	0x3d2e1902	0.042504318
38	0xbd7171f2	-0.058946557
39	0xbd29edff	-0.041486736
40	0xbd4db8a7	-0.050224926
41	0xba19936c	-0.00058584544
42	0xbd5f8b02	-0.054575928
43	0x3d6113ac	0.0549504
44	0xbd44d9cc	-0.04805927
45	0x3d634556	0.055486046
46	0x3c4b5d20	0.012412339
47	0x3d175ba4	0.03695263
48	0xbbe15ff0	-0.0068778917
49	0xbcd919ca	-0.026501555
50	0x3ce23668	0.027613834
51	0xbce6a4e7	-0.028154803
52	0xbd574ff3	-0.05256648
53	0x3cc2872c	0.023746096
54	0xbc7947f0	-0.015214905
55	0x3bb0d6c0	0.005396694
56	0xbd7b86d6	-0.061407886
57	0xbbeb9be7	-0.007190216
58	0x3d60cc7c	0.05488251
59	0x3cb91200	0.02259159
60	0xbd48da0c	-0.04903607
61	0xbd239ea6	-0.03994622
62	0x3d643634	0.055715755
63	0xbc601a78	-0.013678186
64	0x3d3cc04c	0.046081826
65	0x3d5dcd02	0.05415059
66	0xbd1be0b0	-0.038056076
67	0x3d1acffc	0.037796006
68	0xbb267fc0	-0.0025405735
69	0x3d3e9e46	0.04653766
70	0x3d4f9dbc	0.050687537
71	0x3d4ac1f6	0.04950138
72	0x3d6cc28f	0.057802733
73	0x3cfcf22c	0.030877195
74	0xbcba1150	-0.022713333
75	0xbd55bc5c	-0.052181587
76	0xbd7ddc86	-0.061977886
77	0x3d5d5620	0.054037213
78	0x3cd8c8ae	0.026462879
79	0x3cea0284	0.028565653
80	0xbcc1752c	-0.023615442
81	0xbd6aaf3a	-0.057296015
82	0x3c3f7c7a	0.011687392
83	0x3d56cb84	0.05244018
84	0x3d79a9f8	0.06095311
85	0xbcd65a44	-0.026166089
86	0xbc6d3c98	-0.014479779
87	0x3d5c6852	0.053810425
88	0x3ce13157	0.027489347
89	0x3d106865	0.03525581
90	0x3d631f8e	0.055450015
91	0x3d41b0b9	0.047287676
92	0x3cdf5e38	0.027266607
93	0x3c975529	0.018473225
94	0xbd504acb	-0.050852578
95	0xbca24084	-0.019806154
96	0x3ce3ac33	0.027792072
97	0xb9a11800	-0.00030726194
98	0x3b3cdfff	0.0028820036
99	0xbd30a2da	-0.043124057
100	0x3c834c88	0.016027704
101	0xbd6de974	-0.058083966
102	0xbcec3ef0	-0.028838605
103	0x3c34fc88	0.011046536
104	0xbbb92185	-0.005649748
105	0x3d56d472	0.052448697
106	0xbc847b90	-0.0161722
107	0x3b540e5d	0.0032357194
108	0x3d537785	0.051627655
109	0x3d5ef5b0	0.054433525
110	0xbd3bfd04	-0.04589559
111	0x3d5bc309	0.053652797
112	0xbd6ca5f2	-0.057775445
113	0x3d2d59b8	0.04232189
114	0xbbd33c20	-0.0064463764
115	0xbc3b30c8	-0.011425205
116	0x3cc95178	0.02457498
117	0x3d64c504	0.05585195
118	0xbd0445e9	-0.032293234
119	0x3d283910	0.041070044
120	0xbcb08c98	-0.021551415
121	0xbd5c8112	-0.05383403
122	0xbc6e50f0	-0.014545664
123	0x3cd0c173	0.025482869
124	0xbd2a0299	-0.041506384
125	0x3d7c8a62	0.06165541
126	0xbc5916c0	-0.013250053
127	0xbd590d86	-0.052991413
128	0x3d1e5a16	0.03866013
129	0xbd82e6e4	-0.06391695
130	0x3d2a73c8	0.041614324
131	0x3c1579e8	0.009123303
132	0xbd3da79a	-0.046302415
133	0xbcd4fb1a	-0.02599864
134	0xbd7457de	-0.05965411
135	0x3c92ab58	0.017903969
136	0xbd3bcb48	-0.04584816
137	0x3cca8edc	0.024726324
138	0xbd4dcfa8	-0.050246865
139	0xbd0c7133	-0.034287643
140	0xbd3f783c	-0.046745524
141	0xbc5d35c8	-0.013501592
142	0xbd0a26b0	-0.0337283
143	0xbd5a49b8	-0.05329296
144	0x3d02e552	0.03195698
145	0x3d159d0f	0.036526736
146	0xbc94629c	-0.018113427
147	0xbcf9529d	-0.0304349
148	0xbb27bbc0	-0.0025594085
149	0x3d28a9c6	0.041177534
150	0xbd4498b0	-0.047997177
151	0x3d44df58	0.04806456
152	0x3cde4d6c	0.027136527
153	0xbd4364cc	-0.04770355
154	0xbc3c6c3e	-0.011500416
155	0xbcc3dd30	-0.023909181
156	0x3d43ce19	0.047803972
157	0xbcfa93da	-0.03058808
158	0x3d6127de	0.05496966
159	0xbd449306	-0.047991775
160	0xbd3a8d14	-0.0455447
161	0xbaf25940	-0.0018489733
162	0xbd3600d6	-0.04443439
163	0x3d00807e	0.03137254
164	0x3d1914f6	0.037373506
165	0x3d6a5a1e	0.05721485
166	0x3cf7c520	0.030245364
167	0xbd2392cc	-0.03993492
168	0xbd5049db	-0.050851684
169	0x3c1fac40	0.009745657
170	0x3d5b6e6e	0.05357211
171	0xbc0d8d25	-0.0086396085
172	0xbd354c90	-0.04426247
173	0xbbb9b530	-0.005667351
174	0xbcf34054	-0.02969376
175	0x3bab63c0	0.005230397
176	0x3d022f3c	0.031783327
177	0x3c708cd0	0.01468201
178	0xbd65833e	-0.056033365
179	0x3cf53671	0.029933186
180	0xbd243fd3	-0.04009993
181	0xbc155942	-0.009115519
182	0x3d24dde1	0.040250663
183	0x3d02ebff	0.031963345
184	0xbd01e944	-0.0317166
185	0x3d0c66c6	0.0342777
186	0xbc3906b3	-0.011293101
187	0x3ce69b8a	0.028150339
188	0xbd7068a6	-0.05869355
189	0xbd56174a	-0.052268304
190	0x3d7a3a6c	0.06109087
191	0xbd6b542b	-0.057453316
192	0xbd34cdca	-0.04414157
193	0xbd471b89	-0.048610244
194	0x3d493c92	0.04913003
195	0xbd154b3a	-0.036448695
196	0x3d358706	0.04431822
197	0x3cc11d28	0.023573473
198	0x3d719b7d	0.058986176
199	0x3d5275b4	0.05138178
200	0x3cab7f8e	0.020934846
201	0x3cd984fc	0.02655267
202	0xbd1fb9a8	-0.038995415
203	0x3c9488f1	0.018131705
204	0xbd0d4940	-0.034493685
205	0xbd1ff7b8	-0.039054602
206	0xbd054162	-0.032533057
207	0xbd57bc51	-0.052669827
208	0xbcd04b46	-0.025426518
209	0xbd4eabb7	-0.05045673
210	0xbd56f970	-0.052483976
211	0x3d1dcd4d	0.03852587
212	0x3b802c3b	0.0039115227
213	0x3d3eedc7	0.04661348
214	0xbc0f8892	-0.008760588
215	0xbd471386	-0.048602603
216	0x3d7362b4	0.059420303
217	0xbd3c73a8	-0.046008736
218	0xbb1f890e	-0.0024343166
219	0x3c811207	0.015755666
220	0xbc5d6a60	-0.013514131
221	0xbd588afb	-0.052866917
222	0xbd2377d1	-0.039909188
223	0xbc31f378	-0.01086127
224	0xbb999e36	-0.0046880497
225	0x3bb79487	0.0056024226
226	0x3cdcb497	0.02694158
227	0x3cc7faa0	0.0244115
228	0x3c6c2592	0.014413254
229	0x3b25caa0	0.0025297776
230	0x3d676116	0.056489073
231	0x3cfa07a0	0.030521214
232	0x3ca24394	0.019807614
233	0x3bc9550d	0.006144172
234	0xbd78825a	-0.060671188
235	0xbb35c6e0	-0.0027736947
236	0x3d678ea0	0.056532502
237	0x3b2fbb80	0.002681464
238	0x3cd263ac	0.025682293
239	0x3d7cacbc	0.06168817
240	0x3a276a41	0.00063863775
241	0xbc4000a0	-0.011718899
242	0x3c452a48	0.012034006
243	0x3ce82b9a	0.028341103
244	0x3cc8e955	0.024525324
245	0x3c40a200	0.011757374
246	0xbc836765	-0.016040513
247	0x3d1886d6	0.037237965
248	0x3d63246c	0.055454656
249	0xbd3453e4	-0.044025317
250	0xbd067294	-0.032824114
251	0x3d2d44af	0.04230183
252	0x3c8e1ad2	0.017346773
253	0xbd3d3780	-0.046195507
254	0x3d0728cc	0.03299789
255	0xbd0a1e24	-0.03372015

V.weight f4 [1, 256]
0	0xbd38bbca	-0.045100965
1	0xbcd411b4	-0.025887348
2	0xbd424d40	-0.047436953
3	0xbcaffbbc	-0.021482341
4	0xbd03f058	-0.03221163
5	0x3c9e21ae	0.01930317
6	0xbd639a28	-0.055566937
7	0xbd4c5f30	-0.049895465
8	0xbd56e2d2	-0.052462406
9	0xba8100a0	-0.0009842105
10	0xbb7e9b20	-0.0038849786
11	0x3bfbe664	0.007687377
12	0x3d3cd62e	0.046102695
13	0x3c969e5c	0.018386059
14	0x3a8b8d82	0.0010647031
15	0xbd18121d	-0.03712665
16	0xbcc04d18	-0.023474261
17	0x3d2ce06c	0.042206213
18	0x3c876df5	0.016531924
19	0x3cb9254f	0.022600798
20	0x3b1fbcc5	0.002437399
21	0x3d53ab5e	0.0516771
22	0xbc7b21c0	-0.015327871
23	0x3d226f84	0.03965713
24	0x3d23f358	0.040026993
25	0x3d3300ee	0.04370206
26	0xbd49a8e4	-0.049233332
27	0xbcbeafd8	-0.023277208
28	0x3d0e0592	0.03467328
29	0x3cfdd67a	0.03098606
30	0xbb85d0d0	-0.0040837303
31	0x3d315894	0.043297365
32	0x3d706e3e	0.058698885
33	0x3b3de6c0	0.002897665
34	0x3cf85705	0.030314932
35	0x3d78f5f2	0.060781427
36	0xbd57e440	-0.05270791
37	0x3c3bebee	0.011469824
38	0x3d0e5c9d	0.03475629
39	0x3d4882e8	0.048952967
40	0x3ced4a0c	0.028965972
41	0xbd0ab5d5	-0.033864815
42	0x3cbc5e88	0.022994295
43	0xbd048828	-0.03235641
44	0x3c6561a0	0.014000326
45	0xbd2adb36	-0.041712962
46	0x3d642384	0.055697933
47	0x3c937488	0.017999902
48	0x3d7fd0aa	0.062454857
49	0xbd470b08	-0.048594505
50	0x3d0e6a9e	0.034769647
51	0x3d229f92	0.03970296
52	0xbd422351	-0.04739696
53	0x3cffbb1d	0.031217152
54	0xbd5eec42	-0.05442453
55	0x3c5c5c40	0.0134497285
56	0xbd580c2c	-0.052745983
57	0xbc2f05ab	-0.010682504
58	0xba8e90c0	-0.0010876879
59	0x3bbed780	0.0058240294
60	0xbcbee6ea	-0.023303468
61	0x3ce97d38	0.028502092
62	0xbcc74134	-0.024323083
63	0x3b964916	0.0045863492
64	0x3beea400	0.007282734
65	0x3cd27d9a	0.025694657
66	0x3cf99041	0.030464293
67	0x3ccc2a2c	0.024922453
68	0x3d15c170	0.03656143
69	0x3ce2c110	0.02767995
70	0x3c5ad256	0.013355812
71	0xbca240f4	-0.019806363
72	0x3d4f2cbb	0.050579768
73	0x3d640eb0	0.05567807
74	0xbd3c5ac8	-0.045985013
75	0x3bb010b2	0.005373084
76	0xbd5a3de6	-0.053281687
77	0x3d09be5f	0.033628818
78	0xbd089115	-0.033341486
79	0xbb9b1d60	-0.0047337264
80	0xbccfed59	-0.02538173
81	0xbd4a9346	-0.049456857
82	0xbbfac6e9	-0.0076531065
83	0x3d57faec	0.052729532
84	0xbd32c348	-0.043643266
85	0x3b15d41f	0.002286203
86	0x3d39c944	0.045357957
87	0x3d4069c4	0.046975866
88	0xbd1ebaef	-0.038752493
89	0x3d394557	0.045232143
90	0xbd187f30	-0.03723067
91	0xbcc5621a	-0.02409463
92	0xbcd55f2f	-0.026046364
93	0xbd3988b1	-0.045296375
94	0xbc1524e0	-0.00910303
95	0xbd611aa2	-0.05495704
96	0xbd45b23e	-0.048265688
97	0x3b726de0	0.003699176
98	0x3c9c94cd	0.019113922
99	0x3d6b9a50	0.05752021
100	0xbc6b82b0	-0.01437442
101	0x3ceb0c9c	0.028692536
102	0x3d5ba508	0.053624183
103	0xbbaa89b0	-0.005204402
104	0xbcd12bce	-0.025533583
105	0xbb54589e	-0.0032401453
106	0xbd0d789f	-0.03453886
107	0x3d337f29	0.04382244
108	0xbd28c0ca	-0.041199483
109	0xbcff74d8	-0.031183645
110	0xbceee670	-0.029162616
111	0x3d24feb6	0.040281974
112	0x3d20f600	0.039297104
113	0xbcde28eb	-0.02711912
114	0x3a0ab580	0.0005291328
115	0xbc094cb8	-0.008380108
116	0xbcb9ee44	-0.022696622
117	0xbca664fc	-0.020311825
118	0xbc99f3de	-0.018793043
119	0x3d6845fd	0.05670737
120	0xbcbdcd9c	-0.023169331
121	0xbcb1d798	-0.021709248
122	0x3c165378	0.009175174
123	0xbc1610e1	-0.009159298
124	0x3d08f917	0.033440676
125	0x3d2621e4	0.040559664
126	0x3ca8e1d7	0.020615501
127	0x3d278768	0.040900618
128	0x389f1400	7.585436e-05
129	0x3c7a216c	0.015266757
130	0xbac66b40	-0.0015138164
131	0x3d57c670	0.05267948
132	0x3d0e3d2a	0.0347263
133	0xbc9c02b5	-0.01904426
134	0xbba961f9	-0.00516915
135	0x3d11cf40	0.03559804
136	0x3d5faab4	0.054606155
137	0x3d4371da	0.047716
138	0x3d1e9d2a	0.038724102
139	0x3d429a57	0.04751047
140	0x3c542a68	0.012949564
141	0xbcd95350	-0.026528984
142	0x39ff74a6	0.000487243
143	0xbc0d05a0	-0.008607298
144	0xbd40e213	-0.0470906
145	0xbc91f336	-0.017816167
146	0xbcbf0cf4	-0.023321606
147	0x3c0d5cb2	0.008628057
148	0x3ba57f40	0.00505057
149	0x3bb8011f	0.005615368
150	0xbbc40002	-0.0059814462
151	0xbd654ce4	-0.05598153
152	0xbc3fd420	-0.011708289
153	0x3bfa94f0	0.0076471493
154	0xbcdeacb5	-0.027181963
155	0xbd215e7d	-0.03939675
156	0x3c9d13d8	0.019174501
157	0xbc2a81f5	-0.010406961
158	0x3d2fcf0c	0.042922065
159	0x3d5d0b2a	0.053965725
160	0x3d3b3f16	0.04571446
161	0xbd4a3a36	-0.04937192
162	0x3bbb4f8f	0.005716271
163	0xbd1749b4	-0.036935523
164	0x3d484418	0.048893064
165	0x3cf12cec	0.029440366
166	0x3d5a8bfa	0.05335615
167	0xbc6c9018	-0.0144386515
168	0xbcd002fe	-0.025392052
169	0xbcac1c8c	-0.021009706
170	0x3d7a5a76	0.061121427
171	0x3c0362cc	0.0080191605
172	0xbcc07da0	-0.023497403
173	0xbc526d18	-0.012843393
174	0xbcb9ac64	-0.02266521
175	0x3d392982	0.0452056
176	0xba06a14c	-0.00051357294
177	0xbd389edc	-0.045073375
178	0x3cc37e48	0.023863927
179	0x3cf5af8a	0.02999093
180	0x3bfcc12d	0.007713458
181	0xbccb2110	-0.024796039
182	0x3c8e9e8f	0.017409591
183	0xbced5e18	-0.028975531
184	0x3d76bd7a	0.060239293
185	0x3c7115b3	0.014714646
186	0x3d65ab68	0.05607167
187	0x3cca483d	0.024692649
188	0x3ce12b84	0.02748657
189	0xbd7301b2	-0.05932779
190	0x39990200	0.00029183924
191	0xbcc10433	-0.023561573
192	0xbd680928	-0.056649357
193	0xbc093e04	-0.008376602
194	0xbd323b9e	-0.043513887
195	0x3a2b4400	0.0006533265
196	0xbd5b74d0	-0.053578198
197	0x3bcc3a78	0.006232556
198	0x3d6713a0	0.0564152
199	0x3d63cb94	0.05561407
200	0x3d11ca4d	0.03559332
201	0xbd7a2d1c	-0.061078176
202	0xbc02fb4e	-0.007994486
203	0xbcd5c20e	-0.026093509
204	0xbce41797	-0.02784328
205	0xbd2f47ff	-0.04279327
206	0xbd331854	-0.043724373
207	0xbc6490de	-0.013950555
208	0xbcaa935b	-0.020822218
209	0x3d098670	0.033575475
210	0x3c264f7b	0.010150786
211	0xbc066904	-0.008203749
212	0xbd243704	-0.04009153
213	0x3d630d72	0.055432744
214	0xb8df9f22	-0.000106631094
215	0x3d2bbfb0	0.041930854
216	0xbd7ce6d4	-0.061743572
217	0xbd295c04	-0.04134752
218	0x3d34466f	0.044012483
219	0x3cb89e35	0.022536376
220	0x3d0ad7d4	0.033897236
221	0xbd45b8a9	-0.04827181
222	0xbc60c284	-0.013718251
223	0xbcf77ce0	-0.030210912
224	0x3cf06ab8	0.029347762
225	0xbbc6c7f0	-0.006066315
226	0xbbfa1ed8	-0.0076330714
227	0xbd6f76e9	-0.05846301
228	0xbce7490a	-0.02823307
229	0xbc9eac74	-0.019369341
230	0x3d5cab70	0.053874433
231	0x3d5ea8fa	0.054360367
232	0x3cfe3314	0.031030215
233	0x3d158592	0.036504336
234	0x3cb4ad00	0.02205515
235	0x3d2c5674	0.042074636
236	0xbd02a11e	-0.031891935
237	0xbd5c6cf2	-0.053814836
238	0xbd4059f4	-0.046960786
239	0x3d30b814	0.0431443
240	0xbcd71841	-0.026256682
241	0x3d495a52	0.0491584
242	0x3d5ee2d6	0.054415546
243	0x3c2aeb1f	0.010432034
244	0x3d26cdf0	0.04072374
245	0x3d04c20c	0.03241162
246	0xbae8763c	-0.0017735432
247	0x3cf945f4	0.030428864
248	0xbc8db626	-0.01729877
249	0xbd2c85d0	-0.0421198
250	0xbcb576d0	-0.02215138
251	0xbd32d1c8	-0.043657094
252	0x3d3168ee	0.04331296
253	0x3d07b5d4	0.03313239
254	0xbc8e57e3	-0.017375892
255	0xbd362619	-0.044469927

A.weight f4 [6, 256]
0	0xbd8fb351	-0.07016624
1	0xbd1346b5	-0.035956103
2	0x3ce453cd	0.02787199
3	0x3d4d8cb2	0.050183006
4	0xbce8b1fc	-0.028405182
5	0x3d6708fa	0.056405045
6	0xbd269852	-0.040672608
7	0xbcf1c6fb	-0.029513827
8	0xbcf6ae38	-0.03011237
9	0xbc8e5473	-0.017374253
10	0xbd5da580	-0.05411291
11	0x3d36455f	0.04449975
12	0x3d224576	0.039617024
13	0x3c764140	0.015030205
14	0x3d06bb0c	0.032893226
15	0x3d0a47a5	0.03375973
16	0x3d577464	0.052601233
17	0xbc672970	-0.014109001
18	0xbd35c232	-0.044374652
19	0xbd7034a3	-0.05864395
20	0xba80f3a5	-0.0009838237
21	0xbbab9b20	-0.005236998
22	0xbd43a606	-0.047765754
23	0xbd2d9a8e	-0.042383723
24	0xbd08b3d4	-0.033374622
25	0x3d438576	0.0477347
26	0x3c96bbdc	0.018400125
27	0xbd414d81	-0.047193054
28	0xbcd0a9d0	-0.025471598
29	0xbcab3ec3	-0.02090395
30	0xbd4a5982	-0.049401768
31	0xbd1d4cd2	-0.03840334
32	0xbb9d3cc5	-0.004798504
33	0x3d489ce4	0.048977748
34	0x3d31e0e5	0.043427367
35	0x3d0c0de6	0.034192942
36	0x3d7e0a52	0.06202156
37	0x3aee1bdd	0.0018166263
38	0x3d632116	0.055451475
39	0x3cc7f649	0.02440943
40	0x3cd71331	0.026254268
41	0x3c4f6b4e	0.012659861
42	0x3ccd20a8	0.025039986
43	0xbd6732ad	-0.056444813
44	0x3a003800	0.0004891157
45	0xbc9aa177	-0.01887582
46	0xbc092108	-0.008369692
47	0xbd007234	-0.031358913
48	0x3d09eef2	0.03367514
49	0xbc36f5e0	-0.01116702
50	0xbce24abc	-0.027623527
51	0xbc663a0b	-0.014051924
52	0xbcec0e17	-0.028815312
53	0x3cdd12ea	0.026986558
54	0x3d6b3b6a	0.05742971
55	0xbd7c8188	-0.061646968
56	0x3cc9d42c	0.024637304
57	0xbcda9721	-0.026683392
58	0x3d3d4018	0.046203703
59	0x3d103524	0.03520693
60	0xbd79bbe0	-0.060970187
61	0x3d62f0b4	0.055405334
62	0x3b5f9120	0.00341136
63	0x3d2bc6de	0.0419377
64	0xbd298978	-0.041390866
65	0xbd42d119	-0.047562692
66	0x3b136ff3	0.0022497147
67	0xbd07cf26	-0.033156537
68	0x3c8a3f1c	0.016875796
69	0xbc8e407f	-0.017364739
70	0xbc174cf4	-0.009234656
71	0x3d7d4d68	0.0618414
72	0xbba58fa9	-0.005052526
73	0xbd293e4e	-0.041319184
74	0x3d6cb140	0.057786226
75	0x3d33c416	0.043888174
76	0x3d443388	0.047900707
77	0xbaf297b2	-0.0018508343
78	0x3d127c6a	0.03576318
79	0x3bfa70c0	0.0076428354
80	0xbd15ba1e	-0.03655445
81	0x3d5cd4df	0.053913947
82	0x3c890781	0.016727211
83	0x3d713f40	0.05889821
84	0xbb0a4d00	-0.0021103024
85	0xbd372a90	-0.044718325
86	0x3d18daf2	0.037318178
87	0x3ba4f6b0	0.0050342903
88	0xbd588026	-0.052856587
89	0xbd263286	-0.040575527
90	0xbd256ea4	-0.04038872
91	0xbca60fef	-0.02027127
92	0x3c3405b7	0.010987691
93	0x3ce23711	0.027614148
94	0x3c29d7c3	0.010366383
95	0x3c5f1e00	0.013617992
96	0x3d2e62b8	0.042574614
97	0xbbd64520	-0.006539002
98	0x3d692ca3	0.056927335
99	0x3d7fec52	0.062481232
100	0xbca585ec	-0.02020546
101	0x3cc62ae9	0.024190383
102	0x3c7dd9a8	0.015493788
103	0x3d549f00	0.051909447
104	0xbcb7cafe	-0.022435661
105	0xbd05aaaa	-0.03263346
106	0x3d5673c4	0.052356496
107	0x3cfe5221	0.031045021
108	0x3b096a6a	0.0020967969
109	0xbce52d7c	-0.02797579
110	0x3c9aac44	0.01888097
111	0x3c19e616	0.009393236
112	0xbd3ed400	-0.046588898
113	0xbaf52d8f	-0.0018705594
114	0x3d2441ce	0.04010182
115	0xbb98f100	-0.0046674013
116	0xbbbba6b8	-0.0057266615
117	0x3d73d7ac	0.059531853
118	0x3c2cec0d	0.010554326
119	0x3d51f3fa	0.051258065
120	0x3d767c0a	0.060176887
121	0x3d3255f6	0.04353901
122	0x3d424326	0.04742732
123	0xbd0af248	-0.033922464
124	0x3d1ea342	0.038729914
125	0x3d575478	0.05257079
126	0xbd25ad9c	-0.04044877
127	0x3d1db7d2	0.038505383
128	0x3c864254	0.01638905
129	0x3cb55758	0.022136375
130	0x3cdfc2cc	0.027314566
131	0xbce38554	-0.027773537
132	0x3ba8c500	0.0051504374
133	0xbd35b7f7	-0.044364896
134	0xbd16f29d	-0.036852468
135	0x3d109e86	0.03530743
136	0xbd76d538	-0.060261935
137	0x3ba48aa0	0.005021408
138	0xbcc0a690	-0.023516923
139	0x3cf54332	0.029939268
140	0x3d01da32	0.031702228
141	0xbd3689ae	-0.044564895
142	0x3d4adf26	0.049529217
143	0x3c64a4b8	0.013955288
144	0xbcd5ee28	-0.026114538
145	0xbd435f40	-0.04769826
146	0xbc70c4b0	-0.014695331
147	0xbcf10732	-0.029422376
148	0xbc0b0edd	-0.00848743
149	0xbc408408	-0.011750229
150	0xbd3ff9cb	-0.04686908
151	0xbd040222	-0.032228597
152	0x3d0d2d22	0.03446687
153	0x3c4741d8	0.0121616945
154	0xbcfb2b8e	-0.030660417
155	0xbd5a94e4	-0.05336465
156	0xbbce8745	-0.0063027465
157	0xbce21759	-0.027599024
158	0x3d3ab97a	0.04558704
159	0xbd3403be	-0.04394888
160	0xbd14a404	-0.03628923
161	0x39a99200	0.0003234297
162	0x3cf6943d	0.030099982
163	0xbc4cbb38	-0.012495808
164	0xbcc392c4	-0.023873694
165	0xbd2b82af	-0.041872676
166	0xbd002fe0	-0.031295657
167	0x3c5ca710	0.013467565
168	0x3d2ae477	0.041721787
169	0x3d2dc9a7	0.04242864
170	0x3d24a434	0.04019566
171	0x3d3620a8	0.044464737
172	0x3d7fb126	0.0624248
173	0xbd394e2a	-0.04524056
174	0xb9d1aa00	-0.00039990246
175	0x3cc24968	0.023716643
176	0x3cc7c5c0	0.024386287
177	0xbd522080	-0.051300526
178	0x3d4ef324	0.050524846
179	0xbca2ae23	-0.019858425
180	0x3d497797	0.049186315
181	0xbc5f4bc9	-0.013628908
182	0x3d6bf36d	0.057605196
183	0x3cb7187f	0.022350548
184	0xbd3e1eaa	-0.046415962
185	0x3b2336eb	0.002490456
186	0x3d048df4	0.03236194
187	0xbcf77d68	-0.030211166
188	0x3b679914	0.0035339044
189	0x3c4ebc48	0.012618132
190	0xbd332d30	-0.043744266
191	0xbd182b1e	-0.037150495
192	0xbd35dd1e	-0.044400327
193	0xbb120035	-0.0022277955
194	0xbd3b8870	-0.045784414
195	0xbd00b078	-0.031418294
196	0x3d647010	0.055770934
197	0x3c87eedd	0.016593391
198	0xbd433997	-0.047662344
199	0xba6d9080	-0.00090623647
200	0xbc85ba04	-0.01632405
201	0xbbaddd30	-0.0053059086
202	0xbd74b1aa	-0.059739746
203	0x3d4cc46d	0.049992014
204	0x3ccd99e9	0.025097804
205	0xbd215876	-0.039391004
206	0xbc90e232	-0.017685983
207	0xb9ac470f	-0.0003285934
208	0xbd17c6fb	-0.037054997
209	0xbd1173b6	-0.03551074
210	0xbd5a04be	-0.05322718
211	0xbcb701a7	-0.022339655
212	0xbccb4420	-0.024812758
213	0xbc2ee6a6	-0.010675108
214	0xbd040543	-0.03223158
215	0x3cfd12b5	0.03089271
216	0xbd565e72	-0.052336164
217	0x3c48c298	0.012253426
218	0xbc31ae5f	-0.010844796
219	0xbd27cac9	-0.040964875
220	0x3c842088	0.016128793
221	0x3b1ec0a9	0.002422372
222	0xbc7aab7a	-0.015299672
223	0x3ca7cd60	0.020483673
224	0x38512000	4.9859285e-05
225	0xbcfb9f4b	-0.030715605
226	0xbcae5b4d	-0.02128377
227	0xbd3c3867	-0.045952227
228	0xbc041a64	-0.008062933
229	0x3cc45278	0.023965105
230	0xbd58552c	-0.0528156
231	0xbd19bbb6	-0.03753253
232	0x3b8dd1a0	0.0043279678
233	0x3b3e2145	0.002901153
234	0xba14ce80	-0.0005676523
235	0xbc0f0b10	-0.008730665
236	0x3d6cd426	0.057819508
237	0x3d22c4a2	0.039738305
238	0xbd55e8d6	-0.052224003
239	0x3d6f35ba	0.058400847
240	0xbd0f9d06	-0.03506186
241	0x3cd78bb0	0.026311725
242	0xbd3fb242	-0.04680086
243	0xbca5edc6	-0.02025498
244	0xbbd4a396	-0.0064892275
245	0x3cc82d74	0.024435736
246	0xbd58cee7	-0.052931692
247	0x3d376a7a	0.04477928
248	0xbd39f710	-0.045401633
249	0x3cde4df4	0.02713678
250	0x3d2670a4	0.040634766
251	0x3d723100	0.05912876
252	0xbd2e845a	-0.04260669
253	0x3c53760a	0.012906561
254	0x3d2a1628	0.041525036
255	0x3cf51eb1	0.029921861

A.bias f4 [6]
0	0x3d3e22c3	0.04641987
1	0x3d6aca3d	0.057321776
2	0x3d2b522e	0.04182642
3	0xbd5eeae8	-0.054423243
4	0xbcd57b0a	-0.026059646
5	0xbbea6228	-0.0071528144
