cool/checkpoints/D3QN/Q_target/D3QN_Q_target_2900.pth (torch, 278863 bytes, 7 tensors)

fc1.weight f4 [256, 5]
000000 e4 2d e0 be 66 a8 a2 be 37 30 66 be ae 23 26 3d
       -0.43785012 -0.31769103 -0.2247933 0.04056137
000010 eb 37 d1 3e 52 67 21 be fc dc a9 3e 60 40 a9 3e
       0.40862975 -0.1576207 0.3317641 0.33056927
000020 18 44 33 be 90 85 96 3d b9 82 b6 be 84 48 7d 3e
       -0.17506444 0.07349694 -0.35646608 0.24734694
000030 28 89 40 be 7c 16 ae bd aa cc 91 3e 86 98 0f be
       -0.18802321 -0.08500382 0.2847646 -0.14023027
000040 e3 f5 ee bd d0 6c 46 3d 60 71 23 be 68 07 01 3d
       -0.11667993 0.048443615 -0.15961218 0.031501204
000050 04 e9 83 3e cf 10 aa be 38 15 4b 3e c5 e5 85 be
       0.25763714 -0.3321595 0.19832313 -0.26151863
000060 8c 19 85 3e 06 ea 2b bd a2 da 06 be d4 1e 78 3e
       0.25996053 -0.04197123 -0.1316934 0.2423051
000070 02 7d f2 3d 92 f6 68 3e 00 71 23 3e b0 56 9c 3e
       0.118402496 0.22750309 0.15961075 0.30534887
000080 04 e8 f5 3c 3c 29 dd bd 18 fd 8d be 68 be 9e 3e
       0.03001786 -0.107988805 -0.27732158 0.31004643
000090 45 6b 7f 3d b1 91 4d be 9b c3 91 3e cc 61 03 3e
       0.06235816 -0.20075108 0.28469548 0.12830275
0000a0 91 8b 42 bd 14 ed 79 3e 44 60 c5 bd b2 8a 14 be
       -0.047496382 0.24406844 -0.09637502 -0.14506033
0000b0 00 54 9f bc b4 3b a6 bd fe 6d ab 3e a2 bc 8f 3e
       -0.019449234 -0.08116856 0.33482355 0.28073603
0000c0 f0 ea e8 bd c8 df 06 bd 4d ca e4 be 32 7f d4 be
       -0.11372936 -0.03292826 -0.44685593 -0.41503292
0000d0 a6 9b d0 3e cf 20 db be 68 ac bf be 09 04 c6 3e
       0.4074375 -0.42798468 -0.37436223 0.38674954
0000e0 b6 5e 0b bf d9 99 a4 3e 60 e9 9d 3e 8b 7f ff bd
       -0.5444139 0.32148626 0.30842113 -0.12475499
0000f0 dd ea 50 be d7 75 fd be 44 46 48 3e 48 59 c6 3d
       -0.20402093 -0.49503967 0.19558054 0.09684998
000100 09 f0 1e bd 7e 46 01 be d6 ce a2 3e 34 97 a0 3e
       -0.038803134 -0.12624547 0.31798428 0.3136536
000110 7e ab 3f be de 9f 19 be ad 0b b3 3e c5 64 12 3e
       -0.18717763 -0.1500239 0.34969845 0.14296253
000120 66 d6 51 be dd ae 0e 3e d4 a1 99 be c6 5f ac 3c
       -0.20491943 0.13933893 -0.30006278 0.021041762
000130 11 b3 ca be 85 7b 9e 3e c7 f5 2c bc 14 bc 07 3e
       -0.39589742 0.30953613 -0.010556645 0.1325534
000140 3a 7c 5d be 4c 2e d8 be 9e 09 c9 3e a0 60 5c bc
       -0.2162942 -0.42222822 0.3926515 -0.013450772
000150 e0 0d ae 3c f3 10 d3 be fa 12 61 be 87 38 80 be
       0.02124685 -0.4122387 -0.21979895 -0.25043127
000160 51 e4 bb 3e 9a 1d 89 bd 24 f5 96 be 6b 33 32 3e
       0.3669763 -0.06695099 -0.29483902 0.17402427
000170 e0 4c 0a 3c 42 d4 c5 3e a5 01 fa bd 3e 15 96 be
       0.00844118 0.38638502 -0.12207345 -0.29313082
000180 58 2a 2c be 50 9e 3c bd 1d f7 2f 3e f1 05 ca bd
       -0.16813028 -0.046049416 0.1718411 -0.098644145
000190 3e 56 b3 3e 54 f9 00 3e 74 7b 19 3e ef d9 92 be
       0.35026735 0.12595111 0.149885 -0.28681895
0001a0 96 e1 92 be 24 57 6f be 06 eb ad 3e 60 20 6c 3e
       -0.28687733 -0.23373085 0.3396837 0.23059225
0001b0 3e fe 82 be 03 a4 ae be 04 8c cb 3e a8 f4 d7 bd
       -0.25584596 -0.34109506 0.3975526 -0.10544711
0001c0 b7 ac a1 3e e8 a6 79 bd e2 5e 97 3e 26 ab 34 be
       0.31577083 -0.06095019 0.29564577 -0.17643413
0001d0 24 55 c4 3e 00 e6 87 3b ed 9f b7 be fc 24 a7 be
       0.38346207 0.004147291 -0.358642 -0.32645404
0001e0 89 ba db be c0 a4 9f be 72 18 d1 be e1 c8 fe 3d
       -0.42915753 -0.31180382 -0.40838963 0.12440658
0001f0 ed 5a de 3e 5a c8 43 3e 3c 95 e0 3e 16 00 21 3e
       0.43428746 0.19119397 0.43863857 0.15722689
000200 ae af 37 3d b2 95 dd 3d ca b4 3f be 4c 2f fd 3c
       0.044845276 0.10819568 -0.1872131 0.030906342
000210 c8 3f 9b 3d 22 af 62 be 90 5a 98 3e cc e0 63 3e
       0.07580525 -0.2213712 0.29756594 0.22253722
000220 ab 2e be be e2 df 6a be c4 bb 73 be e0 d1 ac 3d
       -0.3714498 -0.22936967 -0.23802096 0.08438468
000230 26 c7 bb be a0 d0 cd 3d d4 cb 1d be b2 fa 19 be
       -0.36675376 0.10049558 -0.15409786 -0.15037039
000240 18 8d dc 3d f8 86 00 3d ef 00 6b be 54 b0 bb 3e
       0.10769099 0.031378716 -0.22949575 0.36657965
000250 a8 38 74 be 38 1c fc bd 6e 89 b1 3e 9a 90 92 3d
       -0.23849738 -0.1231007 0.34675163 0.07156487
000260 1b 40 92 3c b5 35 ba 3e ab 96 8c be 3c 78 a7 3e
       0.017852833 0.363691 -0.274587 0.3270892
000270 bc e4 2b 3e 48 47 45 3d 8b 92 6b be 4a cd b1 3e
       0.16786474 0.048163682 -0.2300512 0.34726936
000280 10 c7 cf 3e 50 d6 5f 3e 91 13 c3 3e 7d a5 ca 3e
       0.4058156 0.21859097 0.38100865 0.39579383
000290 55 c7 f5 be d5 d2 c5 bd 37 19 fb be e5 fb 74 3e
       -0.4800364 -0.09659354 -0.49042675 0.23924215
0002a0 86 cf d4 3e fb a2 61 bc 90 cf 21 bd a4 13 d0 bd
       0.41564578 -0.013771768 -0.039504588 -0.10159996
0002b0 c4 d3 db 3e 00 68 59 bc fc dd c1 be 9a a7 e0 3e
       0.42935002 -0.013269424 -0.37864673 0.4387787
0002c0 2e e5 17 be b0 7b cf 3e 1a 77 39 be 94 5a d8 be
       -0.14833519 0.40524054 -0.1811184 -0.42256606
0002d0 d0 bb 78 3d 28 74 9c 3d 30 5b 2e be ba 37 90 be
       0.060725987 0.076393425 -0.17026973 -0.28167516
0002e0 74 4e 34 3e c6 6e aa 3e e0 51 f6 3d 88 78 91 be
       0.17608052 0.33287638 0.12027335 -0.2841227
0002f0 38 c3 9f be 5a d4 89 3e 67 cc c4 be 4f 4d 41 be
       -0.31203628 0.26919824 -0.38437197 -0.18877147
000300 8c 2d 01 3e f6 9e 21 3e 99 cf 21 3d 40 b0 3e 3e
       0.12615031 0.15783295 0.03950462 0.18621922
000310 16 02 8b 3e 4f 07 87 be c1 1a c8 3e 86 96 eb be
       0.2715003 -0.26372764 0.39082912 -0.46013278
000320 ee 31 9d be 18 41 2d bd c0 42 cb bb c6 39 84 be
       -0.30702156 -0.042298406 -0.0062030256 -0.25825328
000330 c0 92 85 3c 04 d7 bf 3e 00 28 6a 3c 20 63 ec bd
       0.016305327 0.3746873 0.014291763 -0.11542344
000340 db fb af be a1 03 b1 be 5f 93 3c 3e da 27 8b be
       -0.34371838 -0.3457308 0.18415593 -0.27178842
000350 71 eb c0 3e ff 77 99 3d 0c 51 59 3e 0d c7 9c be
       0.37679628 0.074935906 0.21222323 -0.30620614
000360 c0 b2 9f 3d dc e7 9b 3e e3 4f e0 be c8 37 1d 3d
       0.07797766 0.30450332 -0.4381095 0.038383275
000370 34 e2 00 3e 34 01 8b be 68 37 c9 3e d4 c4 08 be
       0.1258629 -0.27149355 0.39300084 -0.13356334
000380 40 56 47 3e f7 fa c1 3e 1c 7f 07 bd f6 f3 f8 bd
       0.19466496 0.37886783 -0.033080205 -0.12155907
000390 3c b6 c8 3e a7 8c 8b be 50 c0 5f 3d 06 6a 3b be
       0.39201534 -0.27255747 0.054626763 -0.18302163
0003a0 08 c1 6f be 30 bf bb bd 48 43 a5 be 8c 00 3e be
       -0.2341348 -0.091673255 -0.32277894 -0.18554896
0003b0 62 5f d3 be d8 dd 8c 3e 93 ce bd be fa 79 e1 be
       -0.4128371 0.27513003 -0.37071666 -0.44038373
0003c0 31 2c 05 be 2a b0 2c 3e 34 03 cc 3e 44 dd 46 3e
       -0.13005139 0.16864076 0.39846194 0.19420344
0003d0 8e 22 3e 3e 4e 3e bf 3e 2c 92 a7 be 3a 07 3b 3e
       0.18567869 0.37352222 -0.32728708 0.18264475
0003e0 cf cb 3e 3e 8b c3 b2 3e 42 52 bd be 20 2e 39 be
       0.18632434 0.34914812 -0.3697682 -0.18084002
0003f0 30 e1 3f be d4 2f b8 bd e0 92 7d bc 00 d0 58 ba
       -0.18738246 -0.089934975 -0.015476912 -0.00082707405

fc1.bias f4 [256]
000000 b2 86 2f 3e c0 e3 74 3d d0 17 65 3e 00 87 a1 3a
       0.17141226 0.05978751 0.22372365 0.0012323558
000010 20 26 d7 bc c3 20 52 3e 15 67 55 be f0 03 93 be
       -0.026263297 0.2052031 -0.20840104 -0.28713942
000020 81 0e 48 be c0 06 dd 3d b8 75 c0 3e 30 b0 a0 bd
       -0.19536783 0.10792303 0.37589812 -0.07846105
000030 38 c9 af 3e 8b cc c5 be 04 f8 98 be 1f 6b 37 3e
       0.34333205 -0.38632616 -0.2987672 0.17911957
000040 a0 85 37 bd 39 b3 ba 3e aa 15 12 3e d6 e1 00 3d
       -0.04480517 0.3646486 0.14266077 0.031465374
000050 7c 08 07 3e 1c 62 9d be a8 20 a5 be 37 13 d8 be
       0.1318683 -0.30738914 -0.32251477 -0.4220216
000060 58 f4 b2 3c 92 77 b0 be 40 fe cc bd d4 63 82 3e
       0.021845028 -0.34466225 -0.10009432 0.25466788
000070 03 4c d9 be 9c cc 9e 3e 70 48 9e 3e 60 c7 87 3e
       -0.42440805 0.3101548 0.3091464 0.265193
000080 fa fc cf be 39 61 9d be e8 2b 83 be e0 f1 c4 bd
       -0.40622693 -0.30738238 -0.25619435 -0.096164465
000090 1c 64 4e 3e 04 e7 db bd 99 a5 6f be 20 a9 a4 3d
       0.20155376 -0.10737422 -0.23403014 0.080400705
0000a0 3e 7a e3 3e 3e 38 d1 3e 81 35 df 3e 44 6e 79 3e
       0.444292 0.40863222 0.43595508 0.24358469
0000b0 d8 ed 06 3e 75 5b 90 bd da 49 0d be a2 01 98 be
       0.13176668 -0.07048694 -0.13797703 -0.29688746
0000c0 c4 a3 cf 3e bc ea b5 be f6 0d 97 be c4 b8 ec bd
       0.4055463 -0.3553065 -0.2950284 -0.11558679
0000d0 fe 5a 98 3e 28 15 95 3e 2b 31 9d be a0 51 03 3e
       0.29756922 0.29117703 -0.30701575 0.12824106
0000e0 93 b5 ab 3e 3c 79 97 3e c2 b4 ca be 7c d0 e1 be
       0.33536968 0.29584682 -0.39591032 -0.44104373
0000f0 b8 c6 37 be 01 ff ed 3d f0 23 e9 3d ec 98 19 be
       -0.17946899 0.11620904 0.11383808 -0.14999741
000100 0b b8 b4 be 14 d3 d0 bd 0f 88 72 bd 04 6f 95 3e
       -0.35296664 -0.1019651 -0.059211787 0.2918626
000110 ff ad c4 be 5d 26 ba 3e 20 b8 c8 3e 24 10 d9 3e
       -0.38413998 0.36357394 0.39202976 0.42395127
000120 d3 8f c8 be 0c 17 10 be 0f d7 28 3e fd b8 a8 3e
       -0.3917223 -0.14071292 0.16488288 0.32953635
000130 f4 fd 00 be c3 e1 73 3e d6 c9 8e be 76 e3 0c 3e
       -0.12596875 0.2381659 -0.27888364 0.13758644
000140 48 a5 bc be 82 fc d4 3e 18 43 5d 3e 84 f6 0f 3e
       -0.3684485 0.41598898 0.21607625 0.14058882
000150 44 21 b8 be ba 18 84 3e 8a 5f b7 bd 58 1b 65 3e
       -0.3596288 0.25800115 -0.089537695 0.22373712
000160 cc 7b 8f be fc 61 57 be 35 78 a2 3d 70 a1 c4 bc
       -0.28024137 -0.21033472 0.07933084 -0.02400276
000170 88 55 d3 3d 22 b6 89 be 46 c0 82 be e0 96 59 3e
       0.10319048 -0.2689677 -0.25537318 0.2124896
000180 d0 23 b3 3d bc db d2 be 6f 05 77 3e 4c 1f 27 3e
       0.08747065 -0.4118327 0.24123167 0.16320533
000190 56 b2 18 be e0 96 b6 bc 73 9e 20 3e b0 00 96 bd
       -0.1491178 -0.02228874 0.15685444 -0.0732435
0001a0 a9 a9 1a 3d bc 0d 48 3e b8 2f 9a 3e 44 65 1e 3e
       0.037759457 0.19536489 0.30114532 0.15468317
0001b0 ec 16 5a 3e 24 fc 01 3e 7a 4b 17 be 0c f6 e5 bd
       0.21297807 0.1269384 -0.14774886 -0.1122857
0001c0 12 d7 89 3c a0 eb c7 3e cc ee 1c 3e 50 94 30 3e
       0.016826186 0.39046955 0.15325469 0.17244077
0001d0 a4 e5 d5 3d bc 72 d5 bd 7c e8 85 be 89 6c 93 3e
       0.10444191 -0.104222745 -0.26153934 0.28793743
0001e0 e6 46 be 3e 5f eb b4 3d 40 e8 84 3d b8 5e fa 3d
       0.37163466 0.08833956 0.06489611 0.122250974
0001f0 17 b9 c3 be b8 bd d6 3d be 3c ce 3e c0 8a 2f bc
       -0.3822715 0.10485405 0.40280718 -0.010714233
000200 12 a5 40 3c 96 07 72 be 70 c5 a7 bd 10 67 80 3e
       0.011758106 -0.23635706 -0.08191955 0.2507863
000210 6e 2f c7 3e 1d 00 82 3e 48 ff 70 be da 3b a9 be
       0.38903373 0.2539071 -0.23534882 -0.33053476
000220 30 a3 7c 3e 90 2c 73 bd e2 fd c6 3e 72 8b c9 3e
       0.24671626 -0.05936867 0.38865572 0.393642
000230 62 a8 c6 be bc 66 51 be 4b 26 12 3e f8 71 59 3e
       -0.3880034 -0.20449346 0.1427242 0.21234882
000240 84 97 32 3e cc 64 9c bd 00 bf c9 be b2 fc b7 be
       0.17440611 -0.07636413 -0.39403534 -0.3593498
000250 a8 0b 9c bd 80 a5 b2 3d e9 12 4a 3e a8 0b 28 bd
       -0.07619411 0.08722973 0.19733776 -0.04102674
000260 2c 4b 5c 3e e5 b1 0a 3c df c9 49 3e b3 5f ce be
       0.21513051 0.008465265 0.19705914 -0.40307388
000270 b5 db b8 3e 3e d5 1e 3c a4 d2 b0 3e 38 aa 52 3d
       0.36105123 0.009694396 0.34535706 0.051431865
000280 cb fd af 3e 7b 01 61 bc f8 ec 36 3e f9 c8 11 be
       0.34373316 -0.013733263 0.17863834 -0.14236821
000290 cc a2 93 be 1a 62 b1 be df a2 a9 be a0 ed 1e 3e
       -0.28835142 -0.34645158 -0.33132073 0.15520334
0002a0 b0 68 81 bc f7 bd 5c be 03 9f 94 3e 72 f0 aa be
       -0.01579699 -0.21556841 0.29027566 -0.3338657
0002b0 6b 4f 0a 3e 5c 4c 55 be 97 eb a3 3e 1b cc 02 bd
       0.13506858 -0.2082991 0.32015678 -0.03193293
0002c0 5c bc 16 3e ec fa a0 3e f7 75 a7 be a5 68 a9 be
       0.14720291 0.31441438 -0.32707188 -0.3308765
0002d0 5f 76 c4 be a8 b9 cd 3d 44 22 8f be 96 7d a9 3e
       -0.3837156 0.10045177 -0.2795583 0.33103627
0002e0 ac 4c 54 3e c0 8c dd 3c c0 99 af 3e e7 b4 75 be
       0.20732373 0.027044654 0.3429699 -0.2399479
0002f0 18 4e 5f 3e 48 63 8a 3d 5a 2d f6 3d b8 75 de 3d
       0.21807134 0.06757218 0.12020369 0.10862297
000300 f0 1c 86 3c f8 a7 c2 3d 77 88 6c 3e 88 af 09 3e
       0.01637122 0.09504694 0.23098932 0.13445866
000310 70 64 31 3e ee cf 0b 3e c8 a1 c1 be 98 dd b5 bd
       0.1732347 0.13653538 -0.37818742 -0.08880156
000320 a1 d8 a7 be ff d2 61 be 3a 8b 75 3e 62 3d c1 3e
       -0.32782462 -0.22053145 0.23978892 0.37742144
000330 20 b2 c3 bc b8 19 6f be 84 65 0e 3e 28 39 90 3d
       -0.023888648 -0.23349655 0.13905913 0.07042152
000340 ca df 24 3e 1f 36 cb 3d ba db 14 3e 68 f8 36 3e
       0.16100994 0.09922432 0.14536944 0.17868197
000350 50 bc 5c 3d c8 6a 8b 3e ad ca a3 be 7a 3f ce 3e
       0.053890526 0.27229905 -0.31990567 0.40282804
000360 60 f5 a3 3e 42 60 3b be 20 59 d9 3e 88 29 68 3e
       0.32023144 -0.18298438 0.4245081 0.22672093
000370 68 29 9e 3e 40 a9 69 3d de 03 80 bd 45 4d 42 be
       0.30890965 0.057046175 -0.062507376 -0.18974788
000380 db 0b c6 be 47 c1 91 be 04 f7 ee bd d0 2b c2 be
       -0.3868092 -0.2846777 -0.11668208 -0.3792405
000390 11 0d 58 3e 70 5b cb 3c b0 e8 ad be 90 c2 a9 bc
       0.21098734 0.024823874 -0.3396659 -0.020722657
0003a0 e8 5c 04 3e 7c ce af 3e 40 e3 85 bc 4e b9 d8 3e
       0.12926066 0.34337223 -0.016343713 0.42328876
0003b0 70 90 2a be 94 42 de 3e 5c 68 7a be d5 3a 2b 3e
       -0.16656661 0.4341017 -0.24453872 0.16721661
0003c0 76 64 13 be 77 f7 d6 be f6 46 63 be 06 d3 a9 3e
       -0.14393792 -0.41985676 -0.22195038 0.3316881
0003d0 45 9e 44 be 84 58 ab 3e 29 3c 79 be a8 2f e3 bd
       -0.19201 0.3346597 -0.24339356 -0.11093074
0003e0 7e 1b 02 be 95 b2 c4 3e e9 75 84 3e 40 dc d8 bb
       -0.127058 0.38417497 0.25871208 -0.0066180527
0003f0 64 78 a0 bd 8e 58 1b 3e da af c6 be 28 0d 83 3d
       -0.07835463 0.151705 -0.3880604 0.06398994

fc2.weight f4 [256, 256]
000000 c7 9d af 3b 48 88 7d 3d 78 65 3e bd f0 0c 2e bd
       0.0053593847 0.061897546 -0.046483487 -0.042492807
000010 50 05 ea 3b d0 15 5d bd 04 83 e8 bc bf 36 ca 3c
       0.0071417466 -0.05397588 -0.028382786 0.024684308
000020 3a 3c 18 bd 72 80 45 bd c0 32 3c 3b 77 72 34 bd
       -0.03716681 -0.048218198 0.0028716773 -0.044054475
000030 b2 f8 6e 3d 88 65 52 bd 06 30 08 3d 4e 9b 1d 3c
       0.058342643 -0.05136636 0.033248924 0.009619547
000040 a0 ee ee bb 0a 7c e5 bc 76 e2 02 3d 68 a4 6b bd
       -0.00729163 -0.028013248 0.03195425 -0.057529837
000050 60 2e 53 bb e2 f8 2f 3d b1 06 c8 bc fc d6 b6 bc
       -0.0032223687 0.042961963 -0.024417253 -0.02231931
000060 0d dd e3 3a a9 56 6b bd 02 4d 68 bd f3 47 ec bb
       0.0017384604 -0.057455692 -0.056714065 -0.0072107255
000070 50 09 83 bb 08 eb 9d bc a5 43 8c bc e0 28 6a 3d
       -0.003998913 -0.01927711 -0.0171221 0.057167888
000080 f9 01 f9 bc 02 77 13 bb 20 87 d2 bc 12 78 57 3d
       -0.030396448 -0.0022501354 -0.025699198 0.052604742
000090 0c 44 6d 3d d8 21 88 bc a1 43 c6 3c b0 04 59 bc
       0.057926223 -0.0166177 0.02420217 -0.0132457465
0000a0 ea cf 58 3d 7e 48 1d bc e9 df 3e 3d f8 77 bc bc
       0.052932657 -0.009599803 0.046600256 -0.023006424
0000b0 08 9e 94 bc e7 50 18 3c a4 de 51 3d 2a aa 5f bd
       -0.018141761 0.009296632 0.051237717 -0.05460564
0000c0 3f ea 7f bc 4f 37 64 3d 48 0e 61 bd 60 04 5c 3b
       -0.015619813 0.05571681 -0.05494526 0.0033571944
0000d0 bc fa 78 3d c6 a4 14 3c 23 03 4e 3d 8c 43 06 bd
       0.060785994 0.009072488 0.05029596 -0.03277926
0000e0 3c 31 05 3d dc ac a9 bc 68 73 25 3d be fe 0a bd
       0.032517657 -0.020712309 0.040393263 -0.033934347
0000f0 48 d8 5d 3d 2d c4 7f 3c 0a 1a 03 bd e0 1a e8 3b
       0.05416134 0.015610737 -0.032007255 0.007083282
000100 e2 34 50 bd 74 7e 6d bd 4e 4f dc 3b 2c 84 1a bc
       -0.050831683 -0.057981923 0.006723321 -0.009430926
000110 e7 6a 95 bb 14 36 45 bc a4 d7 b0 3c 7e 13 53 3d
       -0.004559863 -0.012036819 0.0215872 0.05153226
000120 00 e3 90 3b d0 18 8a 3c 04 1d 50 3d 17 e6 b4 bc
       0.0044215918 0.016857535 0.05080892 -0.022082372
000130 18 4a 6d bd aa 61 ff bc c0 b7 bd 3c 96 f3 63 bd
       -0.05793199 -0.0311745 0.023158908 -0.055652224
000140 a5 1e 3e 3d b0 0c 0c bc d6 1a 5e 3d 21 01 b8 bc
       0.046415944 -0.008547947 0.05422481 -0.022461476
000150 af 7d 4b bd f8 ee 84 3c 9d 47 0b bd a0 ea e7 3b
       -0.049680408 0.01622723 -0.034003843 0.00707753
000160 87 08 da 3c 9a 91 43 3c c4 d5 81 bd 58 8d 0d 3c
       0.026615394 0.01193657 -0.06339601 0.008639656
000170 a0 3e 47 bc 9c ec d7 bc 89 f5 4c 3d ac e4 ad 3c
       -0.012160927 -0.026357941 0.050038848 0.021227203
000180 40 1e e6 ba 41 38 2b 3d 0a 6e fd 3c f4 2f 78 bd
       -0.0017556623 0.041801695 0.03093626 -0.060592607
000190 f8 98 1d bc 50 37 63 bd 61 2b a8 3b 68 ef 56 3d
       -0.00961899 -0.055472672 0.0051321243 0.05247441
0001a0 dd 72 15 bc 20 f1 df 3c 24 6e 7b 3c 68 3a 19 3d
       -0.009121624 0.027336657 0.015346084 0.037409216
0001b0 b5 f7 6e bd bf 88 04 3d 66 6d 2c bd 2a 79 25 bd
       -0.0583417 0.032356974 -0.042096518 -0.040398754
0001c0 ee b8 17 3d 10 72 65 bc 30 75 a5 bc 7e 68 39 3d
       0.037041597 -0.014004245 -0.02019748 0.045265667
0001d0 86 97 5b 3c 32 6e 79 bd 1e 7a 3f 3d 76 c7 dd ba
       0.013402825 -0.060896106 0.04674732 -0.0016920406
0001e0 c9 aa c5 3b 4a 2b f8 bc a4 35 c5 3c 54 c1 44 3d
       0.006032322 -0.03029408 0.02407343 0.048035935
0001f0 dd fb 31 3d 50 79 d7 3b 3a 47 9d 3c 3c 0f 8f bc
       0.043453086 0.006575741 0.019199003 -0.017463319
000200 9e 11 5c bd 34 03 f9 bc 02 3d 55 bd 42 48 62 bd
       -0.05372774 -0.030397035 -0.052060135 -0.05524469
000210 40 54 bf 3c 0c f9 d4 3c a8 b2 0d bd 26 22 2e 3d
       0.023355603 0.025997661 -0.034594208 0.042513035
000220 16 10 13 3d 66 4c 47 bd c6 da 10 3d cb 6f 72 3c
       0.035904013 -0.048656844 0.03536489 0.014797161
000230 5e 14 41 3d c5 b6 98 3c 34 86 b4 bb d5 3c 05 bd
       0.047138564 0.018641839 -0.0055091623 -0.032528717
000240 68 44 c9 bc 6a ad 38 3d 42 a2 3d 3d 7c 82 15 bd
       -0.024568751 0.045087256 0.04629732 -0.036501393
000250 dc a2 a3 bc f8 c9 84 3c ba b2 30 3d d2 c5 0e bd
       -0.019975118 0.016209587 0.043139197 -0.034856625
000260 20 dd 91 3b c8 a0 57 3d 1b 9e 0d bd 18 36 00 3d
       0.004451409 0.052643567 -0.03457461 0.031301588
000270 0e ed 42 3b 02 2a 8a bc e0 89 1c bb 40 5b 59 bb
       0.0029743346 -0.016865734 -0.002388589 -0.0033165962
000280 6e 8f d2 3c d1 bc 3c bd 64 7f 7c 3d 65 ce a9 bc
       0.025703158 -0.046078507 0.061644927 -0.0207283
000290 06 1b c3 bc e2 42 54 bd d0 73 c6 3c e8 a6 2c bc
       -0.023816597 -0.051821597 0.024225146 -0.01053784
0002a0 58 48 04 bc 21 57 b3 bc 3f bd 32 bc f8 83 17 bc
       -0.008073889 -0.021892132 -0.010909378 -0.009247772
0002b0 2c b0 9d 3c e0 c4 bf bc e6 11 bc bc 23 49 49 3d
       0.019249044 -0.023409307 -0.022957753 0.049142014
0002c0 a3 06 10 3d 30 22 5f 3c dd eb 05 3b ec 8c ff bc
       0.03516258 0.013618991 0.0020434775 -0.031195126
0002d0 b3 48 66 3d a0 df e4 3c 58 5b 2f 3d 90 0a 36 3d
       0.056221675 0.027938664 0.04281172 0.044443667
0002e0 3a 99 01 bd 44 9b 61 3d e8 39 1a 3c 61 84 31 3d
       -0.03164027 0.055079713 0.00941322 0.043339137
0002f0 da 09 0d 3d d8 73 7b 3c bd 3a 0e 3d 80 5d 44 3a
       0.034433223 0.0153474435 0.034723986 0.0007490739
000300 3c f8 97 3c c4 6d 8c 3c 17 1e c2 bc ae d7 4d bd
       0.018550985 0.017142184 -0.023695989 -0.050254516
000310 d8 c5 97 bc 00 09 80 3c db c0 25 bd 68 32 d8 3c
       -0.018526956 0.015629292 -0.040467124 0.026391223
000320 b5 08 04 bd 91 f3 ac 3c 6f 64 bb 3c 42 09 0b 3d
       -0.032234866 0.021112235 0.022875039 0.033944376
000330 4c 58 e1 bc c0 36 89 bc d0 c1 a5 bc 47 7f 2d 3d
       -0.027507924 -0.01674974 -0.020234019 0.04235771
000340 78 fc 7b bd ee 43 4f 3d 7b 06 89 3c 47 76 e7 3c
       -0.06152007 0.050601892 0.016726723 0.028254641
000350 be 53 4f bd 84 06 a6 3c f1 53 13 3d 1a 2d 2b 3d
       -0.050616972 0.020266779 0.035968725 0.04179106
000360 f9 db 1f 3d 35 cf 4e 3d 1c 66 ad 3c 7c a0 c8 bc
       0.03902814 0.050490577 0.021166854 -0.024490587
000370 b0 8e 29 3d f3 44 60 bd e6 aa 16 3c 7a 2c 18 bd
       0.041395843 -0.054753255 0.009196019 -0.03715179
000380 f0 60 4a bd ab c6 b0 3c 98 7d 3b 3d 48 c2 02 3d
       -0.049408853 0.021579107 0.045774072 0.031923562
000390 15 e9 09 bd 45 bf 01 3b 72 db 54 3d 90 eb ba bb
       -0.03366955 0.0019797843 0.05196709 -0.005704351
0003a0 70 a1 94 bb dc 82 aa bc 5e 06 17 bd 45 31 12 bd
       -0.0045358464 -0.020814352 -0.036871307 -0.03569152
0003b0 13 e3 5c 3d c6 6e 03 3d 20 0b b4 3c c5 00 0d bd
       0.053927492 0.032088064 0.021977961 -0.034424562
0003c0 14 3c 44 3d 73 e3 79 bd e3 aa 66 3c 8e 2a 0f bd
       0.047908857 -0.061007928 0.0140788285 -0.034952693
0003d0 a7 34 1b bc 60 3d 1d bc aa 1f 08 bd 70 34 cb bc
       -0.0094730025 -0.0095971525 -0.033233322 -0.024805278
0003e0 5c a3 4c 3d ab 85 2f bd a9 ad 6a bd f0 c5 77 3c
       0.04996048 -0.042852085 -0.05729452 0.015122876
0003f0 9a b2 37 bd 11 88 d8 bc 4d ce 17 3d 74 2e 22 bd
       -0.044848062 -0.026432069 0.037061978 -0.039595082

fc2.bias f4 [256]
000000 68 9b 28 bd e8 c1 4a 3d 45 a9 57 bd 0c fa 8c bc
       -0.041163832 0.04950133 -0.052651662 -0.017209075
000010 80 17 68 3b df f6 27 bd d0 3e 36 3c 74 b5 79 bc
       0.0035414398 -0.04100692 0.011123374 -0.015241016
000020 30 fd 13 bd c7 32 27 bd 5c ca c6 3c 57 a8 87 bb
       -0.03613013 -0.04081991 0.024266414 -0.0041399407
000030 ea 91 64 bd 94 7c f9 3c 7c 4d 7f bd bb ca e7 bc
       -0.055803217 0.030454911 -0.062329754 -0.028294912
000040 76 cd 6e 3d 60 17 60 bc 50 49 57 bc 6a 85 52 bd
       0.05830141 -0.013677448 -0.013140038 -0.051396765
000050 bf 9a e3 bc 04 98 19 bd 4e 84 7f bd 20 01 5c 3d
       -0.02778375 -0.03749849 -0.062382035 0.05371201
000060 80 bf 30 3c d6 10 1e 3d 10 e7 72 bc 42 42 68 3c
       0.010787845 0.038590275 -0.014825597 0.014175953
000070 70 0b fc bc f2 59 36 3d e6 5e 57 bd e9 2f 41 bc
       -0.030767173 0.044519372 -0.052580737 -0.011791208
000080 18 70 82 bd 44 b8 ba bc 7d d2 2a 3d f0 0e 76 bc
       -0.063690364 -0.022792943 0.041704644 -0.01501821
000090 84 2e 66 bd fe 24 25 3d 74 db 7b bd ff ed 29 bd
       -0.056196705 0.04031848 -0.061488584 -0.041486736
0000a0 c5 f1 56 bd 68 e8 b9 ba 02 8b 5f bd 53 68 65 3d
       -0.052476663 -0.0014183642 -0.054575928 0.056007694
0000b0 cc d9 44 bd 03 39 65 3d 20 5d 4b 3c a4 5b 17 3d
       -0.04805927 0.055962574 0.012412339 0.03695263
0000c0 f0 5f e1 bb ca 19 d9 bc c4 e7 d1 3c 4c 9c 00 bd
       -0.0068778917 -0.026501555 0.02562321 -0.031399056
0000d0 b1 da 53 bd 1e 5b b6 3c f0 47 79 bc c0 d6 b0 3b
       -0.051722232 0.022260245 -0.015214905 0.005396694
0000e0 d6 86 7b bd 53 d4 eb bb 7c cc 60 3d 00 12 b9 3c
       -0.061407886 -0.007196942 0.05488251 0.02259159
0000f0 aa a1 35 bd a6 9e 23 bd 34 36 64 3d 78 1a 60 bc
       -0.044343628 -0.03994622 0.055715755 -0.013678186
000100 4c c0 3c 3d 02 cd 5d 3d 82 bc 23 bd fc cf 1a 3d
       0.046081826 0.05415059 -0.039974697 0.037796006
000110 c0 7f 26 bb 9d 4b 38 3d 74 5d 40 3d f6 c1 4a 3d
       -0.0025405735 0.044993985 0.046964124 0.04950138
000120 c7 27 5e 3d 2c f2 fc 3c 50 11 ba bc f6 d2 56 bd
       0.054237153 0.030877195 -0.022713333 -0.05244728
000130 86 dc 7d bd 8c 41 4b 3d 76 c6 f1 3c 84 02 ea 3c
       -0.061977886 0.049623057 0.029513579 0.028565653
000140 2c 75 c1 bc b3 23 68 bd f2 cc 68 3c 18 d8 45 3d
       -0.023615442 -0.05667467 0.014209019 0.048301786
000150 f8 a9 79 3d 1a a0 df bc 98 3c 6d bc 52 68 5c 3d
       0.06095311 -0.027298022 -0.014479779 0.053810425
000160 b8 e0 ed 3c 65 68 10 3d 8e 1f 63 3d 7c 83 41 3d
       0.029037818 0.03525581 0.055450015 0.047244534
000170 a4 46 e5 3c da c7 9a 3c da fb 57 bd 84 40 a2 bc
       0.027987786 0.018894125 -0.05273042 -0.019806154
000180 e0 de ed 3c 00 18 a1 b9 ff df 3c 3b da a2 30 bd
       0.02903694 -0.00030726194 0.0028820036 -0.043124057
000190 88 4c 83 3c 74 e9 6d bd f0 3e ec bc 88 fc 34 3c
       0.016027704 -0.058083966 -0.028838605 0.011046536
0001a0 cc fe 56 bb 8c f2 32 3d d3 f3 78 bc 66 0a 52 bb
       -0.003280568 0.043688342 -0.015194851 -0.0032049655
0001b0 e2 77 50 3d b0 f5 5e 3d 04 fd 3b bd 09 c3 5b 3d
       0.05089558 0.054433525 -0.04589559 0.053652797
0001c0 f2 a5 6c bd af 66 38 3d 20 3c d3 bb c8 30 3b bc
       -0.057775445 0.0450198 -0.0064463764 -0.011425205
0001d0 78 51 c9 3c 04 c5 64 3d 7c 8f ed bc 4c 87 20 3d
       0.02457498 0.05585195 -0.028999083 0.03919153
0001e0 98 8c b0 bc 12 81 5c bd f0 50 6e bc a1 80 db 3c
       -0.021551415 -0.05383403 -0.014545664 0.026794733
0001f0 ec 96 32 bd 62 8a 7c 3d 55 2c 88 bc 8c 29 61 bd
       -0.04360096 0.06165541 -0.016622702 -0.054971263
000200 16 5a 1e 3d 2d 34 84 bd c8 73 2a 3d e8 79 15 3c
       0.03866013 -0.06455264 0.041614324 0.009123303
000210 9a a7 3d bd 1a fb d4 bc cb f2 7b bd 58 ab 92 3c
       -0.046302415 -0.02599864 -0.061510842 0.017903969
000220 48 cb 3b bd dc 8e ca 3c a8 cf 4d bd 89 17 1a bd
       -0.04584816 0.024726324 -0.050246865 -0.0376201
000230 3c 78 3f bd c8 35 5d bc a6 81 11 bd b8 49 5a bd
       -0.046745524 -0.013501592 -0.035524033 -0.05329296
000240 16 a5 08 3d bc e6 2a 3d 9c 62 94 bc 9d a2 02 bd
       0.033360563 0.04172395 -0.018113427 -0.03189336
000250 c0 bb 27 bb c6 a9 28 3d db fc 3f bd 58 df 44 3d
       -0.0025594085 0.041177534 -0.046872 0.04806456
000260 6c 4d de 3c cc 64 43 bd 37 4b 05 bc ea ed c4 bc
       0.027136527 -0.04770355 -0.008135608 -0.024039228
000270 0f e2 3e 3d 04 c4 da bc de 27 61 3d 06 93 44 bd
       0.046602305 -0.026704796 0.05496966 -0.047991775
000280 14 8d 3a bd 40 59 f2 ba 11 ab 59 bd 7e 80 00 3d
       -0.0455447 -0.0018489733 -0.053141657 0.03137254
000290 f6 14 19 3d 1e 5a 6a 3d 20 c5 f7 3c cc 92 23 bd
       0.037373506 0.05721485 0.030245364 -0.03993492
0002a0 20 28 53 bd b3 07 81 3c 6e 6e 5b 3d 25 8d 0d bc
       -0.051551938 0.015750742 0.05357211 -0.0086396085
0002b0 90 4c 35 bd 30 b5 b9 bb 54 40 f3 bc c0 63 ab 3b
       -0.04426247 -0.005667351 -0.02969376 0.005230397
0002c0 ec 08 06 3d d0 8c 70 3c 3e 83 65 bd ab 8c da 3c
       0.032723352 0.01468201 -0.056033365 0.026678404
0002d0 87 c8 26 bd dc 6c 26 bc 76 a1 26 3d da 69 03 3d
       -0.04071858 -0.01015779 0.040681325 0.03208337
0002e0 44 e9 01 bd 74 f6 03 3d 2f 06 41 bc 50 e7 a5 3c
       -0.0317166 0.032217458 -0.011781259 0.0202519
0002f0 eb 0d 75 bd 4a 17 56 bd 6c 3a 7a 3d 33 a0 6f bd
       -0.059827726 -0.052268304 0.06109087 -0.058502387
000300 ca cd 34 bd 89 1b 47 bd 92 3c 49 3d 3a 4b 15 bd
       -0.04414157 -0.048610244 0.04913003 -0.036448695
000310 a9 7e 39 3d 28 1d c1 3c 1e e8 69 3d b4 75 52 3d
       0.04528681 0.023573473 0.05710613 0.05138178
000320 8e 7f ab 3c fc 84 d9 3c bc b8 1f bd d3 ed 9e 3c
       0.020934846 0.02655267 -0.038994536 0.019400513
000330 a5 b8 0c bd fc 70 16 bd e5 37 05 bd b2 88 5c bd
       -0.03435578 -0.036728844 -0.03252401 -0.0538413
000340 58 af c2 bc 6a 03 5b bd fb 16 6d bd 4d cd 1d 3d
       -0.023765251 -0.053470053 -0.057883244 0.03852587
000350 ea f0 1b 3b c7 ed 3e 3d 3e a3 11 bc 2d ee 4f bd
       0.002379472 0.04661348 -0.008889018 -0.05076425
000360 b4 62 73 3d a8 73 3c bd 0e 89 1f bb 88 93 62 3c
       0.059420303 -0.046008736 -0.0024343166 0.0138291195
000370 60 6a 5d bc d1 b3 4f bd d9 6c 0c bd 78 f3 31 bc
       -0.013514131 -0.050708596 -0.034283493 -0.01086127
000380 36 9e 99 bb 87 94 b7 3b cc fa c5 3c 85 07 d4 3c
       -0.0046880497 0.0056024226 0.02416744 0.025882492
000390 92 25 6c 3c a0 ca 25 3b 16 61 67 3d a0 07 fa 3c
       0.014413254 0.0025297776 0.056489073 0.030521214
0003a0 94 43 a2 3c a6 44 6a 3b 5a 82 78 bd e0 c6 35 bb
       0.019807614 0.0035746484 -0.060671188 -0.0027736947
0003b0 a0 8e 67 3d 80 bb 2f 3b ac 63 d2 3c bc ac 7c 3d
       0.056532502 0.002681464 0.025682293 0.06168817
0003c0 74 fd 86 3a 51 12 87 bc 48 2a 45 3c 9a 2b e8 3c
       0.0010298924 -0.016488226 0.012034006 0.028341103
0003d0 58 11 a9 3c 00 a2 40 3c b8 91 56 bc d6 86 18 3d
       0.020638153 0.011757374 -0.0130962655 0.037237965
0003e0 91 3e 56 3d e4 53 34 bd 94 72 06 bd af 44 2d 3d
       0.05230576 -0.044025317 -0.032824114 0.04230183
0003f0 58 2e 31 3c 80 37 3d bd c0 b5 0a 3d 1c ca 05 bd
       0.010814272 -0.046195507 0.033864737 -0.03266345

V.weight f4 [1, 256]
000000 cc f0 e6 bc 39 d2 d3 bc 0c 23 30 bd bc fb af bc
       -0.028190993 -0.025857078 -0.043002173 -0.021482341
000010 58 f0 03 bd 1d 20 9e 3c 28 9a 63 bd 30 5f 4c bd
       -0.03221163 0.019302422 -0.055566937 -0.049895465
000020 d2 e2 56 bd 66 85 80 ba 20 9b 7e bb dc eb fb 3b
       -0.052462406 -0.0009805381 -0.0038849786 0.0076880287
000030 2e d6 3c 3d 5c 9e 96 3c 10 50 b5 3a 1d 12 18 bd
       0.046102695 0.018386059 0.0013833065 -0.03712665
000040 18 4d c0 bc 6c e0 2c 3d f5 6d 87 3c 4f 25 b9 3c
       -0.023474261 0.042206213 0.016531924 0.022600798
000050 ce ac 00 bb 5e ab 53 3d c0 21 7b bc 84 6f 22 3d
       -0.001963425 0.0516771 -0.015327871 0.03965713
000060 58 f3 23 3d ee 00 33 3d e4 a8 49 bd 3c 44 8c bc
       0.040026993 0.04370206 -0.049233332 -0.01712238
000070 92 05 0e 3d f9 32 c3 3c d0 d0 85 bb 94 58 31 3d
       0.03467328 0.023828017 -0.0040837303 0.043297365
000080 2f 4c 65 3d c0 e6 3d 3b cf 3d e6 3c f2 f5 78 3d
       0.055980857 0.002897665 0.028105645 0.060781427
000090 40 e4 57 bd 03 d3 6c 3c 2a 0f ed 3c e8 82 48 3d
       -0.05270791 0.014454606 0.028937895 0.048952967
0000a0 c4 1a c8 3c 58 61 f6 bc 88 5e bc 3c 10 2d f4 bc
       0.024426825 -0.030075714 0.022994295 -0.029806644
0000b0 a0 61 65 3c 81 ae 1a bd 84 23 64 3d 88 74 93 3c
       0.014000326 -0.037764076 0.055697933 0.017999902
0000c0 aa d0 7f 3d 08 0b 47 bd 4a 2a e2 3c 30 ef 1a 3d
       0.062454857 -0.048594505 0.027608056 0.037825763
0000d0 40 95 ff bc 1b 8e e0 3c 42 ec 5e bd 40 5c 5c 3c
       -0.031199098 0.027411511 -0.05442453 0.0134497285
0000e0 2c 0c 58 bd 56 eb 2e bc c0 90 8e ba 80 d7 be 3b
       -0.052745983 -0.010676226 -0.0010876879 0.0058240294
0000f0 5a db b1 bc 38 7d e9 3c 34 41 c7 bc 16 49 96 3b
       -0.02171104 0.028502092 -0.024323083 0.0045863492
000100 00 a4 ee 3b 9a 7d d2 3c 6b 38 ba 3c 2c 2a cc 3c
       0.007282734 0.025694657 0.02273198 0.024922453
000110 70 c1 15 3d c3 89 b5 3c 3b 98 2c 3c f4 40 a2 bc
       0.03656143 0.022160416 0.010534341 -0.019806363
000120 31 88 34 3d b0 0e 64 3d c8 5a 3c bd 1e 48 33 3b
       0.044075195 0.05567807 -0.045985013 0.0027356218
000130 e6 3d 5a bd d8 08 01 3d e4 5d fa bc 60 1d 9b bb
       -0.053281687 0.031502575 -0.030562349 -0.0047337264
000140 59 ed cf bc 8a 1b 30 bd 2f b5 bc bb b8 5e 47 3d
       -0.02538173 -0.042995013 -0.0057589035 0.048674315
000150 48 c3 32 bd fa e8 63 3b 44 c9 39 3d c4 69 40 3d
       -0.043643266 0.0034776316 0.045357957 0.046975866
000160 b2 e8 e2 bc 57 45 39 3d 30 7f 18 bd 2a c2 6c bc
       -0.027698848 0.045232143 -0.03723067 -0.014450589
000170 1a 61 c1 bc ab 94 30 bd 36 3d 41 bb a2 1a 61 bd
       -0.023605872 -0.04311053 -0.0029485947 -0.05495704
000180 fd 7b e5 bc e0 6d 72 3b cd 94 9c 3c 50 9a 6b 3d
       -0.028013224 0.003699176 0.019113922 0.05752021
000190 b0 82 6b bc 9c 0c eb 3c 08 a5 5b 3d b0 89 aa bb
       -0.01437442 0.028692536 0.053624183 -0.005204402
0001a0 19 5e 88 bc e6 27 75 bb dc 84 d3 bc 48 73 21 3d
       -0.016646432 -0.0037407815 -0.025820188 0.03941658
0001b0 7e 0b a9 bc d8 74 ff bc 70 e6 ee bc b6 fe 24 3d
       -0.020635363 -0.031183645 -0.029162616 0.040281974
0001c0 00 f6 20 3d e7 9e bb bc 80 b5 0a 3a b8 4c 09 bc
       0.039297104 -0.022902919 0.0005291328 -0.008380108
0001d0 44 ee b9 bc fc 64 a6 bc 3d 3a 84 bc 98 13 46 3d
       -0.022696622 -0.020311825 -0.016141051 0.04835853
0001e0 9c cd bd bc 98 d7 b1 bc 78 53 16 3c 92 23 e4 bb
       -0.023169331 -0.021709248 0.009175174 -0.006962248
0001f0 cd c7 fd 3c e4 21 26 3d ea a1 41 3c 4f cc f6 3c
       0.030979061 0.040559664 0.0118183885 0.030126719
000200 00 14 9f 38 59 ee 53 3c 40 6b c6 ba 70 c6 57 3d
       7.585436e-05 0.0129352445 -0.0015138164 0.05267948
000210 2a 3d 0e 3d b5 02 9c bc 53 b6 ce bb 40 cf 11 3d
       0.0347263 -0.01904426 -0.006308356 0.03559804
000220 b4 aa 5f 3d da 71 43 3d 2a 9d 1e 3d 43 b7 37 3d
       0.054606155 0.047716 0.038724102 0.044852506
000230 68 2a 54 3c 50 53 d9 bc 1b d4 e7 3b a0 05 0d bc
       0.012949564 -0.026528984 0.0070748455 -0.008607298
000240 df cd 27 bd 55 2b aa bc f4 0c bf bc fd 7a 9f 3b
       -0.04096782 -0.020772615 -0.023321606 0.0048669563
000250 40 7f a5 3b 1f 01 b8 3b c8 f6 47 bb e4 4c 65 bd
       0.00505057 0.005615368 -0.0030512083 -0.05598153
000260 20 d4 3f bc f0 94 fa 3b 9d 2d d1 bc 4b 3f f0 bc
       -0.011708289 0.0076471493 -0.025534445 -0.029327055
000270 22 95 e2 3b e2 28 57 bc 0c cf 2f 3d 2a 0b 5d 3d
       0.0069147507 -0.013132306 0.042922065 0.053965725
000280 16 3f 3b 3d 36 3a 4a bd d3 b3 20 3c b4 49 17 bd
       0.04571446 -0.04937192 0.009808498 -0.036935523
000290 18 44 48 3d ec 2c f1 3c fa 8b 5a 3d 18 90 6c bc
       0.048893064 0.029440366 0.05335615 -0.0144386515
0002a0 28 d2 a7 bc f1 8b 41 bc 76 5a 7a 3d cc 62 03 3c
       -0.020485952 -0.01181315 0.061121427 0.0080191605
0002b0 a0 7d c0 bc 18 6d 52 bc 64 ac b9 bc 82 29 39 3d
       -0.023497403 -0.012843393 -0.02266521 0.0452056
0002c0 08 de 31 3a dc 9e 38 bd 48 7e c3 3c 24 9d e3 3c
       0.00067850994 -0.045073375 0.023863927 0.027784891
0002d0 53 1c 00 3c e1 a2 65 bc 8e 38 22 3c 14 de 76 bc
       0.007819253 -0.014015884 0.009901179 -0.015067596
0002e0 7a bd 76 3d fd 7d 12 3c 86 a2 4c 3d b4 53 b1 3c
       0.060239293 0.008941171 0.049959682 0.021646358
0002f0 a3 65 ae 3c b2 01 73 bd 00 02 99 39 2e 3c a4 bc
       0.021288699 -0.05932779 0.00029183924 -0.020048227
000300 28 09 68 bd 04 3e 09 bc 9e 3b 32 bd 00 44 2b 3a
       -0.056649357 -0.008376602 -0.043513887 0.0006533265
000310 09 66 52 bd 78 3a cc 3b c6 49 58 3d 94 cb 63 3d
       -0.05136684 0.006232556 0.05280473 0.05561407
000320 4d ca 11 3d 1c 2d 7a bd d3 74 7f bb 66 47 64 bc
       0.03559332 -0.061078176 -0.0038979545 -0.013933038
000330 97 e5 b0 bc 65 bc 22 bd 86 a6 f1 bc 51 32 54 bc
       -0.021593852 -0.03973045 -0.02949835 -0.0129514495
000340 d5 57 3d bc 8c 65 f8 3c 4f 1f 3a 3c 04 69 06 bc
       -0.011556585 0.030321859 0.011360004 -0.008203749
000350 bc f3 15 bd 72 0d 63 3d b4 de 88 b8 3d b3 15 3d
       -0.036609396 0.055432744 -6.526467e-05 0.036547888
000360 d4 e6 7c bd 04 5c 29 bd 6f 46 34 3d d2 42 eb 3b
       -0.061743572 -0.04134752 0.044012483 0.0071795965
000370 d4 d7 0a 3d 71 34 f3 bc 5b e9 04 bc e0 7c f7 bc
       0.033897236 -0.029688092 -0.008112277 -0.030210912
000380 b8 6a f0 3c f0 c7 c6 bb 82 d6 26 bb c1 50 5f bd
       0.029347762 -0.006066315 -0.0025457446 -0.054520372
000390 0a 49 e7 bc 74 ac 9e bc 70 ab 5c 3d fa a8 5e 3d
       -0.02823307 -0.019369341 0.053874433 0.054360367
0003a0 14 33 fe 3c ac 39 a9 3c 00 ad b4 3c 74 56 2c 3d
       0.031030215 0.020657383 0.02205515 0.042074636
0003b0 1e a1 02 bd f2 6c 5c bd f4 59 40 bd 14 b8 30 3d
       -0.031891935 -0.053814836 -0.046960786 0.0431443
0003c0 9d 12 9a bc 93 0d 29 3d d6 e2 5e 3d 1f eb 2a 3c
       -0.018807704 0.04127271 0.054415546 0.010432034
0003d0 90 bf ac 3c 0c c2 04 3d 63 d3 ed bb f4 45 f9 3c
       0.021087438 0.03241162 -0.0072578653 0.030428864
0003e0 63 e6 30 bc d0 85 2c bd d0 76 b5 bc c8 d1 32 bd
       -0.010797116 -0.0421198 -0.02215138 -0.043657094
0003f0 07 03 21 3d d4 b5 07 3d 66 b6 4f bc 94 b3 2d bd
       0.039309528 0.03313239 -0.0126777645 -0.042407587

A.weight f4 [6, 256]
000000 d0 c5 b8 bd 96 67 13 bd a4 86 be 3c b2 8c 4d 3d
       -0.09022105 -0.03598746 0.023257561 0.050183006
000010 fc b1 e8 bc c3 09 67 3d 52 98 26 bd fb c6 f1 bc
       -0.028405182 0.056405794 -0.040672608 -0.029513827
000020 38 ae f6 bc 15 60 8e bc 80 a5 5d bd 07 43 36 3d
       -0.03011237 -0.0173798 -0.05411291 0.044497516
000030 76 45 22 3d 40 41 76 3c 9c c8 04 3d a5 47 0a 3d
       0.039617024 0.015030205 0.03241788 0.03375973
000040 64 74 57 3d 70 29 67 bc 32 c2 35 bd a3 34 70 bd
       0.052601233 -0.014109001 -0.044374652 -0.05864395
000050 99 50 2a 3b 20 9b ab bb 06 a6 43 bd 8e 9a 2d bd
       0.0025987981 -0.005236998 -0.047765754 -0.042383723
000060 d4 b3 08 bd 76 85 43 3d dc bb 96 3c fb a9 61 bd
       -0.033374622 0.0477347 0.018400125 -0.055093747
000070 d0 a9 d0 bc 43 6b 53 bc 82 59 4a bd d2 4c 1d bd
       -0.025471598 -0.012903991 -0.049401768 -0.03840334
000080 47 a0 3e bb e4 9c 48 3d af 4b 36 3d e6 0d 0c 3d
       -0.0029087232 0.048977748 0.04450577 0.034192942
000090 52 0a 7e 3d b7 23 a3 39 24 f1 74 3d 49 f6 c7 3c
       0.06202156 0.00031116392 0.059800282 0.02440943
0000a0 36 8b f3 3c 60 8d 07 3c a8 20 cd 3c 33 d1 72 bd
       0.029729467 0.0082734525 0.025039986 -0.05928154
0000b0 00 38 00 3a 10 8d bb bc 08 21 09 bc 34 72 00 bd
       0.0004891157 -0.022894412 -0.008369692 -0.031358913
0000c0 f2 ee 09 3d e0 f5 36 bc 3e d7 ad bc 27 5b 55 bc
       0.03367514 -0.01116702 -0.0212208 -0.013022221
0000d0 97 ca 32 bd e0 cc f9 3c 6a 3b 6b 3d 88 81 7c bd
       -0.043650236 0.0304932 0.05742971 -0.061646968
0000e0 2c d4 c9 3c 3a da da bc 18 40 3d 3d 24 35 10 3d
       0.024637304 -0.026715387 0.046203703 0.03520693
0000f0 a8 ef 79 bd b4 f0 62 3d 20 91 5f 3b de c6 2b 3d
       -0.06101957 0.055405334 0.00341136 0.0419377
000100 78 89 29 bd 19 d1 42 bd 03 39 01 3c 26 cf 07 bd
       -0.041390866 -0.047562692 0.007887128 -0.033156537
000110 1c 3f 8a 3c ea 85 48 bc cb a3 07 bc 68 4d 7d 3d
       0.016875796 -0.012238959 -0.008278797 0.0618414
000120 47 4f d9 3a 4e 3e 29 bd 40 b1 6c 3d 44 4f 3b 3d
       0.0016579413 -0.041319184 0.057786226 0.04572989
000130 88 33 44 3d 66 67 a7 b9 12 50 01 3d c0 70 fa 3b
       0.047900707 -0.0003192976 0.0315705 0.0076428354
000140 1e ba 15 bd a7 bb 3b 3d b4 0a 66 3c 83 14 80 3d
       -0.03655445 0.045833256 0.014040638 0.06253912
000150 00 4d 0a bb be 91 2f bd f2 da 18 3d b0 f6 a4 3b
       -0.0021103024 -0.0428636 0.037318178 0.0050342903
000160 24 99 72 bd 86 32 26 bd a4 6e 25 bd 3e 59 fd bc
       -0.059228078 -0.040575527 -0.04038872 -0.030926343
000170 b3 11 fc 3b 3f 0b cc 3c 10 55 8a 3b 00 1e 5f 3c
       0.0076925396 0.024907706 0.004221566 0.013617992
000180 05 17 b1 3c 20 45 d6 bb a3 2c 69 3d 52 ec 7f 3d
       0.021617422 -0.006539002 0.056927335 0.062481232
000190 ec 85 a5 bc e9 2a c6 3c a8 d9 7d 3c 00 9f 54 3d
       -0.02020546 0.024190383 0.015493788 0.051909447
0001a0 63 e8 ff bc fd e2 fc bc 8a c7 2b 3d 6f c9 0a 3d
       -0.03123874 -0.030869955 0.041938342 0.03388351
0001b0 30 aa 8a bc 7c 2d e5 bc 44 ac 9a 3c 16 e6 19 3c
       -0.016926855 -0.02797579 0.01888097 0.009393236
0001c0 00 d4 3e bd 14 d0 f3 bb ce 41 24 3d 00 f1 98 bb
       -0.046588898 -0.0074405763 0.04010182 -0.0046674013
0001d0 b8 a6 bb bb ac d7 73 3d f8 54 09 3c b5 0f 76 3d
       -0.0057266615 0.059531853 0.008382075 0.060073573
0001e0 0a 7c 76 3d f6 55 32 3d 26 43 42 3d 7c 95 0c bd
       0.060176887 0.04353901 0.04742732 -0.034322247
0001f0 19 c2 25 3d 78 54 57 3d e5 5c f3 bc e8 5d 4a 3d
       0.04046831 0.05257079 -0.029707382 0.049405962
000200 54 42 86 3c 41 28 cb 3c cc c2 df 3c 54 85 e3 bc
       0.01638905 0.024799468 0.027314566 -0.027773537
000210 00 c5 a8 3b f7 b7 35 bd 67 9f 05 bd 86 9e 10 3d
       0.0051504374 -0.044364896 -0.03262272 0.03530743
000220 38 d5 76 bd a0 8a a4 3b 90 a6 c0 bc be 81 01 3d
       -0.060261935 0.005021408 -0.023516923 0.031617872
000230 32 da 01 3d ae 89 36 bd 56 c5 2c 3d b8 a4 64 3c
       0.031702228 -0.044564895 0.04218038 0.013955288
000240 85 6c 00 bd ae 5d 34 bd b0 c4 70 bc 11 8a d5 bc
       -0.031353492 -0.044034652 -0.014695331 -0.026066812
000250 dd 0e 0b bc 08 84 40 bc bd fc 4d bd 22 02 04 bd
       -0.00848743 -0.011750229 -0.050289858 -0.032228597
000260 22 2d 0d 3d d8 41 47 3c 1e e7 08 bd 03 e3 7a bd
       0.03446687 0.0121616945 -0.033423536 -0.06125165
000270 9d 73 8e 3b 70 59 d4 bc 7a b9 3a 3d be 03 34 bd
       0.0043472783 -0.025921553 0.04558704 -0.04394888
000280 04 a4 14 bd 00 92 a9 39 31 69 cb 3c 38 bb 4c bc
       -0.03628923 0.0003234297 0.024830433 -0.012495808
000290 c4 92 c3 bc af 82 2b bd e0 2f 00 bd 10 a7 5c 3c
       -0.023873694 -0.041872676 -0.031295657 0.013467565
0002a0 a4 0b 12 3d ad 7a f3 3c 34 a4 24 3d a8 20 36 3d
       0.035655633 0.029721582 0.04019566 0.044464737
0002b0 26 b1 7f 3d 2a 4e 39 bd 00 aa d1 b9 68 49 c2 3c
       0.0624248 -0.04524056 -0.00039990246 0.023716643
0002c0 17 d5 b9 3c 80 20 52 bd 24 f3 4e 3d bc b6 98 bc
       0.022684617 -0.051300526 0.050524846 -0.018641822
0002d0 00 e9 47 3d ac 20 c2 bc 14 fe 7c 3d 84 5a 11 3c
       0.04880619 -0.02369722 0.061765745 0.008871678
0002e0 aa 1e 3e bd f4 e6 f7 3b a1 f9 16 3d a8 53 e1 bc
       -0.046415962 0.0075653736 0.03685916 -0.02750571
0002f0 e4 6a 19 3c 48 bc 4e 3c 30 2d 33 bd cc 96 0b bd
       0.009363864 0.012618132 -0.043744266 -0.034079358
000300 1e dd 35 bd 35 00 12 bb 70 88 3b bd 78 b0 00 bd
       -0.044400327 -0.0022277955 -0.045784414 -0.031418294
000310 1b 6d 57 3d dd ee 87 3c 77 4c 39 bd 80 90 6d ba
       0.052594285 0.016593391 -0.04523894 -0.00090623647
000320 04 ba 85 bc 30 dd ad bb fc f4 82 bd af bd 16 3d
       -0.01632405 -0.0053059086 -0.06394383 0.03680199
000330 04 7b 83 3c 9b ae 31 bd 21 71 03 bd e8 6f 47 b9
       0.01604987 -0.043379407 -0.03209031 -0.00019019807
000340 0e 6a 1f bd 6b c5 05 bd 90 24 4f bd a7 01 b7 bc
       -0.0389195 -0.032658976 -0.050571978 -0.022339655
000350 63 50 f1 bc a6 e6 2e bc 24 e2 03 bd 68 15 14 3d
       -0.029457277 -0.010675108 -0.032198086 0.036153227
000360 72 5e 56 bd 98 c2 48 3c 5f ae 31 bc cd 45 d2 bc
       -0.052336164 0.012253426 -0.010844796 -0.02566805
000370 88 20 84 3c f7 86 7a bc 30 94 98 bc 60 cd a7 3c
       0.016128793 -0.015290967 -0.018625349 0.020483673
000380 00 20 51 38 4b 9f fb bc fb 10 c0 bc 0c ce 4f bd
       4.9859285e-05 -0.030715605 -0.023445597 -0.05073361
000390 64 1a 04 bc 78 52 c4 3c 2c 55 58 bd b6 bb 19 bd
       -0.008062933 0.023965105 -0.0528156 -0.03753253
0003a0 a0 d1 8d 3b 66 a7 8f 3c 80 ce 14 ba 10 0b 0f bc
       0.0043279678 0.017535876 -0.0005676523 -0.008730665
0003b0 26 d4 6c 3d a2 c4 22 3d d6 e8 55 bd ba 35 6f 3d
       0.057819508 0.039738305 -0.052224003 0.058400847
0003c0 17 74 2c bd 19 9c 00 3d 42 b2 3f bd c6 ed a5 bc
       -0.0421029 0.031398866 -0.04680086 -0.02025498
0003d0 61 20 7d 3c 74 2d c8 3c 9e 7e 42 bd 7a 6a 37 3d
       0.015449614 0.024435736 -0.047484033 0.04477928
0003e0 1d 67 59 bd f4 4d de 3c a4 70 26 3d 00 31 72 3d
       -0.053076852 0.02713678 0.040634766 0.05912876
0003f0 f2 9b 24 bd 0a 76 53 3c 44 94 11 3d f9 3b dc 3c
       -0.040187784 0.012906561 0.035541788 0.026884066

A.bias f4 [6]
000000 40 ec 41 3d c6 66 77 3d 16 2a 0b 3d 20 53 79 bd
       0.047344446 0.060400747 0.033975683 -0.06087029
000010 23 82 c6 bc 61 d7 a7 bb
       -0.024231976 -0.0051221107
