cool/checkpoints/D3QN/Q_target/D3QN_Q_target_5000.pth (torch, 278863 bytes, 7 tensors)

fc1.weight f4 [256, 5]
0	0xbee3458e	-0.44389004
1	0xbf05b9a0	-0.52236366
2	0xbe73789b	-0.23776476
3	0x3d13b9c1	0.03606582
4	0x3f27a61d	0.65487844
5	0xbe216752	-0.1576207
6	0x3ea9dcfc	0.3317641
7	0x3ea94060	0.33056927
8	0xbe334418	-0.17506444
9	0x3d968590	0.07349694
10	0xbeb682b9	-0.35646608
11	0x3e7d4884	0.24734694
12	0xbe408928	-0.18802321
13	0xbdae167c	-0.08500382
14	0x3e91ccaa	0.2847646
15	0xbe0f9886	-0.14023027
16	0xbdeef5e3	-0.11667993
17	0x3d466cd0	0.048443615
18	0xbe237160	-0.15961218
19	0x3d010768	0.031501204
20	0x3e83e904	0.25763714
21	0xbeaa10cf	-0.3321595
22	0x3e4b1538	0.19832313
23	0xbe85e5c5	-0.26151863
24	0x3e85198c	0.25996053
25	0xbd7c506d	-0.061600138
26	0xbdd1fefc	-0.102537125
27	0x3e7b18b3	0.24521141
28	0x3de962a3	0.113957666
29	0x3e71045c	0.23536819
30	0x3e237100	0.15961075
31	0x3e9c56b0	0.30534887
32	0x3cf5e804	0.03001786
33	0xbddd293c	-0.107988805
34	0xbe8dfd18	-0.27732158
35	0x3eaaf479	0.33389643
36	0xbda25263	-0.0792587
37	0xbe5b394c	-0.21408576
38	0x3e8efba1	0.27926353
39	0x3e36da5a	0.17856732
40	0xbd428b91	-0.047496382
41	0x3e79ed14	0.24406844
42	0xbdc56044	-0.09637502
43	0xbe148ab2	-0.14506033
44	0xbc9f5400	-0.019449234
45	0xbda63bb4	-0.08116856
46	0x3eab6dfe	0.33482355
47	0x3e8fbca2	0.28073603
48	0xbde8eaf0	-0.11372936
49	0xbd06dfc8	-0.03292826
50	0xbee4ca4d	-0.44685593
51	0xbed47f32	-0.41503292
52	0x3ed09ba6	0.4074375
53	0xbedb20cf	-0.42798468
54	0xbebfac68	-0.37436223
55	0x3ed60a1b	0.41804585
56	0xbf6738be	-0.90320957
57	0x3e9b3af9	0.3031843
58	0x3e983ce3	0.29733953
59	0x3dd824e4	0.10553911
60	0xbe353d90	-0.17699265
61	0xbf1de36e	-0.61675155
62	0x3e433ef6	0.19066986
63	0x3dc14de2	0.09438683
64	0xbb3eec5e	-0.0029132585
65	0xbe01467e	-0.12624547
66	0x3ea2ced6	0.31798428
67	0x3ea09734	0.3136536
68	0xbe3fab7e	-0.18717763
69	0xbe199fde	-0.1500239
70	0x3ead7296	0.33876485
71	0x3d29ad5e	0.0414251
72	0xbe520790	-0.20510697
73	0x3e0ae73b	0.1356477
74	0xbe34c50a	-0.1765329
75	0x3cac5fc6	0.021041762
76	0xbecab311	-0.39589742
77	0x3e9e7b85	0.30953613
78	0xbc2cf5c7	-0.010556645
79	0x3e07bc14	0.1325534
80	0xbe5d7c3a	-0.2162942
81	0xbed82e4c	-0.42222822
82	0x3ec9099e	0.3926515
83	0xbc5c60a0	-0.013450772
84	0x3cae0de0	0.02124685
85	0xbef85d12	-0.48508507
86	0x3c0ed86b	0.00871859
87	0xbe77ac47	-0.24186812
88	0x3eb50f75	0.35363355
89	0xbe1e8c1f	-0.1548314
90	0xbe8e691d	-0.2781457
91	0x3d596a25	0.053079743
92	0x3bc4a7ab	0.006001433
93	0x3ec376b3	0.38176498
94	0xbd92b7f5	-0.07163993
95	0xbea0dfb9	-0.31420687
96	0xbe195183	-0.149725
97	0xbd36009f	-0.044434186
98	0x3e28ec9a	0.16496506
99	0xbddda205	-0.108219184
100	0x3eb3563e	0.35026735
101	0x3e00f954	0.12595111
102	0x3e197b74	0.149885
103	0xbe92d9ef	-0.28681895
104	0xbe92e196	-0.28687733
105	0xbe6f5724	-0.23373085
106	0x3eadeb06	0.3396837
107	0x3e6c2060	0.23059225
108	0xbe82fe3e	-0.25584596
109	0xbeaea403	-0.34109506
110	0x3ecb8c04	0.3975526
111	0xbdd7f4a8	-0.10544711
112	0x3ea1acb7	0.31577083
113	0xbd79a6e8	-0.06095019
114	0x3e975ee2	0.29564577
115	0xbe34ab26	-0.17643413
116	0x3ec45524	0.38346207
117	0x3b87e600	0.004147291
118	0xbeb79fed	-0.358642
119	0xbea724fc	-0.32645404
120	0xbee8511e	-0.45374388
121	0xbee0a851	-0.43878415
122	0xbeceeb3d	-0.40413848
123	0x3dd81952	0.105517045
124	0x3f003ab7	0.5008959
125	0x3e231d31	0.15929104
126	0x3f22d896	0.63611734
127	0x3e15cb29	0.1462828
128	0x3ce9512d	0.02848109
129	0xbd24f916	-0.04027661
130	0xbe3fb4ca	-0.1872131
131	0x3cfd2f4c	0.030906342
132	0x3d9b3fc8	0.07580525
133	0xbe62af22	-0.2213712
134	0x3e985a90	0.29756594
135	0x3e63e0cc	0.22253722
136	0xbebe2eab	-0.3714498
137	0xbe6adfe2	-0.22936967
138	0xbe73bbc4	-0.23802096
139	0x3dacd1e0	0.08438468
140	0xbebbc726	-0.36675376
141	0x3dcdd0a0	0.10049558
142	0xbe1dcbd4	-0.15409786
143	0xbe19fab2	-0.15037039
144	0x3ddc8d18	0.10769099
145	0x3d0086f8	0.031378716
146	0xbe6b00ef	-0.22949575
147	0x3ebbb054	0.36657965
148	0xbe7438a8	-0.23849738
149	0xbdfc1c38	-0.1231007
150	0x3ee6e825	0.45098987
151	0xbec30f00	-0.38097382
152	0xbc049699	-0.008092546
153	0x3eb302ff	0.34963223
154	0xbe3bb8a5	-0.18332155
155	0x3ea7783c	0.3270892
156	0x3e2be4bc	0.16786474
157	0x3d454748	0.048163682
158	0xbe6b928b	-0.2300512
159	0x3eb1cd4a	0.34726936
160	0x3ea96070	0.33081388
161	0x3ee20424	0.44143784
162	0x3eb764c8	0.35819077
163	0x3ec28225	0.37989917
164	0xbf0c4718	-0.5479598
165	0xbc8aa38b	-0.016923686
166	0xbf5e04a5	-0.86725837
167	0x3e319b8e	0.17344496
168	0x3ec5afb6	0.3861062
169	0x3ca8c593	0.020602023
170	0xbd21cf90	-0.039504588
171	0xbdd013a4	-0.10159996
172	0x3edbd3c4	0.42935002
173	0xbc596800	-0.013269424
174	0xbec1ddfc	-0.37864673
175	0x3ee0a79a	0.4387787
176	0xbe17e52e	-0.14833519
177	0x3ecf7bb0	0.40524054
178	0xbe39771a	-0.1811184
179	0xbed85a94	-0.42256606
180	0x3d78bbd0	0.060725987
181	0x3d9c7428	0.076393425
182	0xbe2e5b30	-0.17026973
183	0xbe9037ba	-0.28167516
184	0x3e344e74	0.17608052
185	0x3eaa6ec6	0.33287638
186	0x3df651e0	0.12027335
187	0xbe917888	-0.2841227
188	0xbe9fc338	-0.31203628
189	0x3e89d45a	0.26919824
190	0xbeccd682	-0.40007406
191	0xbddec91c	-0.10878202
192	0x3df40f6a	0.119170025
193	0x3e1e3c0f	0.15452598
194	0xbc1068fe	-0.008814095
195	0x3e2cfda8	0.16893637
196	0x3ef6ee3c	0.48228633
197	0xbe9576b1	-0.29192117
198	0x3ec14bc8	0.3775313
199	0xbf22ded3	-0.6362125
200	0xbe9d31ee	-0.30702156
201	0xbd2d4118	-0.042298406
202	0xbbcb42c0	-0.0062030256
203	0xbe8439c6	-0.25825328
204	0x3c8592c0	0.016305327
205	0x3ebfd704	0.3746873
206	0x3c6a2800	0.014291763
207	0xbdec6320	-0.11542344
208	0xbeaffbdb	-0.34371838
209	0xbeb103a1	-0.3457308
210	0x3e3f9852	0.1871045
211	0xbe91c272	-0.28468663
212	0x3ebf25e9	0.3733361
213	0x3d93abe5	0.07210521
214	0x3e47df7e	0.19518849
215	0xbe9cc70d	-0.30620614
216	0x3d9fb2c0	0.07797766
217	0x3e9be7dc	0.30450332
218	0xbee04fe3	-0.4381095
219	0x3d1d37c8	0.038383275
220	0x3e00e234	0.1258629
221	0xbe8b0134	-0.27149355
222	0x3ec93768	0.39300084
223	0xbe08c4d4	-0.13356334
224	0x3e475640	0.19466496
225	0x3ead2a8e	0.3382153
226	0x3c442e9f	0.011974006
227	0xbe02436f	-0.12721036
228	0x3ec5d22c	0.3863691
229	0xbe6a1603	-0.2285996
230	0x3d5fc050	0.054626763
231	0xbe3b6a06	-0.18302163
232	0xbe6fc108	-0.2341348
233	0xbdbbbf30	-0.091673255
234	0xbea54348	-0.32277894
235	0xbe3e008c	-0.18554896
236	0xbed35f62	-0.4128371
237	0x3e8cddd8	0.27513003
238	0xbebdce93	-0.37071666
239	0xbee179fa	-0.44038373
240	0xbd719456	-0.058979355
241	0xbcecfcd3	-0.02892915
242	0x3eb899b7	0.36054775
243	0x3e382281	0.17981912
244	0x3e0258fb	0.12729256
245	0x3eaaf72d	0.33391705
246	0xbea04b44	-0.31307423
247	0x3e2d3cbe	0.16917703
248	0x3e347ea8	0.1762644
249	0x3ecc1b66	0.39864653
250	0xbebd5242	-0.3697682
251	0xbe392e20	-0.18084002
252	0xbe3fe130	-0.18738246
253	0xbdb82fd4	-0.089934975
254	0xbc7d92e0	-0.015476912
255	0xba58d000	-0.00082707405

fc1.bias f4 [256]
0	0x3e31531e	0.17316863
1	0x3d74e3c0	0.05978751
2	0x3e6517d0	0.22372365
3	0x3aa18700	0.0012323558
4	0xbcd72620	-0.026263297
5	0x3e515709	0.20443358
6	0xbe556715	-0.20840104
7	0xbe955d2f	-0.29172656
8	0xbe480e81	-0.19536783
9	0x3ddd06c0	0.10792303
10	0x3ec075b8	0.37589812
11	0xbdb2ccc5	-0.08730463
12	0x3eae660c	0.3406223
13	0xbec5cc8b	-0.38632616
14	0xbe9865b2	-0.29765087
15	0x3e376b1f	0.17911957
16	0xbd3785a0	-0.04480517
17	0x3eb4f5d7	0.3534381
18	0x3e0e89de	0.1391978
19	0x3cbcbae3	0.023038333
20	0x3e07087c	0.1318683
21	0xbe9d621c	-0.30738914
22	0xbea520a8	-0.32251477
23	0xbed81337	-0.4220216
24	0x3afc6b18	0.0019257991
25	0xbeb88f9e	-0.3604707
26	0xbdccfe40	-0.10009432
27	0x3e8263d4	0.25466788
28	0xbed94c03	-0.42440805
29	0x3e9ecc9c	0.3101548
30	0x3e92cb06	0.2867052
31	0x3e87c760	0.265193
32	0xbed48c5a	-0.4151333
33	0xbeb0806c	-0.34472978
34	0xbe832be8	-0.25619435
35	0xbdc4f1e0	-0.096164465
36	0x3e4e641c	0.20155376
37	0xbddbe704	-0.10737422
38	0xbe749151	-0.23883559
39	0x3d8740c9	0.06604154
40	0x3ee37a3e	0.444292
41	0x3ed1383e	0.40863222
42	0x3edc232f	0.42995593
43	0x3e796e44	0.24358469
44	0x3e06edd8	0.13176668
45	0xbd8e4963	-0.06947591
46	0xbe0d49da	-0.13797703
47	0xbe9801a2	-0.29688746
48	0x3ec3a730	0.3821349
49	0xbeb81479	-0.3595312
50	0xbe970df6	-0.2950284
51	0xbdecb8c4	-0.11558679
52	0x3e985afe	0.29756922
53	0x3e951528	0.29117703
54	0xbea2aaac	-0.31770837
55	0x3e0351a0	0.12824106
56	0x3ea069d3	0.31330737
57	0x3e97793c	0.29584682
58	0xbed0f13a	-0.4080904
59	0xbee1d07c	-0.44104373
60	0xbe386193	-0.18005972
61	0x3dd3405d	0.10315011
62	0x3de923f0	0.11383808
63	0xbe1998ec	-0.14999741
64	0xbeb4b80b	-0.35296664
65	0xbdd0d314	-0.1019651
66	0xbd870a1b	-0.06593724
67	0x3e98ec3a	0.29867727
68	0xbec89e1e	-0.39183134
69	0x3eb4503b	0.3521746
70	0x3ec8b820	0.39202976
71	0x3ed91024	0.42395127
72	0xbec88fd3	-0.3917223
73	0xbe10170c	-0.14071292
74	0x3e215577	0.15755259
75	0x3ea30c41	0.31845286
76	0xbe0aa9ab	-0.13541286
77	0x3e745a1d	0.238625
78	0xbe8ec9d6	-0.27888364
79	0x3df8f573	0.12156191
80	0xbec00e83	-0.37511072
81	0x3ed4fc82	0.41598898
82	0x3e546217	0.20740543
83	0x3e007c4e	0.12547418
84	0xbebd35de	-0.3695516
85	0x3e8418ba	0.25800115
86	0xbdc5a5dc	-0.09650776
87	0x3e651b58	0.22373712
88	0xbe955b82	-0.29171377
89	0xbe50d0ee	-0.203922
90	0x3d85f87a	0.06541534
91	0xbcc4a170	-0.02400276
92	0x3dd35588	0.10319048
93	0xbe89b622	-0.2689677
94	0xbe901dd4	-0.28147757
95	0x3e5996e0	0.2124896
96	0x3db323d0	0.08747065
97	0xbed75aad	-0.42061368
98	0x3e6eb634	0.23311692
99	0x3e271f4c	0.16320533
100	0xbe18b256	-0.1491178
101	0xbcb696e0	-0.02228874
102	0x3e159ec0	0.1461134
103	0xbd9600b0	-0.0732435
104	0x3cf80c82	0.030279402
105	0x3e480dbc	0.19536489
106	0x3e95bfd5	0.2924792
107	0x3e1e6544	0.15468317
108	0x3e3747fb	0.17898552
109	0x3e0260fc	0.12732309
110	0xbe174b7a	-0.14774886
111	0xbde5f60c	-0.1122857
112	0xba87941c	-0.0010343823
113	0x3ec7eba0	0.39046955
114	0x3e1ceecc	0.15325469
115	0x3e30501b	0.17218058
116	0x3dce1c69	0.100640126
117	0xbdd572bc	-0.104222745
118	0xbe8370cf	-0.25672004
119	0x3e943aa4	0.2895099
120	0x3ebe46e6	0.37163466
121	0x3d621a6b	0.055200975
122	0x3d84e840	0.06489611
123	0x3dfa5eb8	0.122250974
124	0xbec8fd80	-0.39255905
125	0x3dd6bdb8	0.10485405
126	0x3ec59a96	0.38594502
127	0xbc2f8ac0	-0.010714233
128	0xbc7c10ae	-0.015384836
129	0xbe720796	-0.23635706
130	0xbda7c570	-0.08191955
131	0x3e806710	0.2507863
132	0x3ec72f6e	0.38903373
133	0x3e82001d	0.2539071
134	0xbe70ff48	-0.23534882
135	0xbeadd0bf	-0.33948323
136	0x3e7ca330	0.24671626
137	0xbd963c7a	-0.07335754
138	0x3ec6fde2	0.38865572
139	0x3ec99354	0.39370215
140	0xbec6a862	-0.3880034
141	0xbe56f846	-0.20993146
142	0x3e14f765	0.14547499
143	0x3e58de0c	0.21178454
144	0x3e329784	0.17440611
145	0xbd9c64cc	-0.07636413
146	0xbece10ed	-0.40247288
147	0xbeb7fcb2	-0.3593498
148	0xbd9c0ba8	-0.07619411
149	0x3da8ba3b	0.08238646
150	0x3e4a12e9	0.19733776
151	0xbd280ba8	-0.04102674
152	0x3e5c4b2c	0.21513051
153	0x3c0ab1e5	0.008465265
154	0x3e360566	0.17775497
155	0xbeced33c	-0.40395534
156	0x3ea933b4	0.3304726
157	0x3bf0d315	0.0073493817
158	0x3eb0d2a4	0.34535706
159	0x3d52aa38	0.051431865
160	0x3ea94621	0.33061317
161	0xbcbc3aac	-0.022977196
162	0x3e36ecf8	0.17863834
163	0xbe1a426d	-0.15064402
164	0xbe952052	-0.2912622
165	0xbeb1621a	-0.34645158
166	0xbea9a2df	-0.33132073
167	0x3e1eeda0	0.15520334
168	0xbc8168b0	-0.01579699
169	0xbe620d24	-0.22075325
170	0x3e8eb99e	0.2787599
171	0xbeaaf072	-0.3338657
172	0x3dffd5cd	0.12491951
173	0xbe597901	-0.21237566
174	0x3ea8e044	0.329836
175	0xbd57a1ec	-0.052644655
176	0x3e0af7ca	0.13571087
177	0x3ea0faec	0.31441438
178	0xbea9b886	-0.33148593
179	0xbeaeb488	-0.3412211
180	0xbec31aa5	-0.38106266
181	0x3dcdb9a8	0.10045177
182	0xbe8e1754	-0.27752173
183	0x3ea97d96	0.33103627
184	0x3e544cac	0.20732373
185	0x3cdd8cc0	0.027044654
186	0x3eaf99c0	0.3429699
187	0xbe756286	-0.23963365
188	0x3e5f4e18	0.21807134
189	0x3d8a6348	0.06757218
190	0x3deffe41	0.11718417
191	0x3dde75b8	0.10862297
192	0x3c861cf0	0.01637122
193	0x3dc2a7f8	0.09504694
194	0x3e6506de	0.22365901
195	0x3e09af88	0.13445866
196	0x3e316470	0.1732347
197	0x3e06b21e	0.13153884
198	0xbec72cc0	-0.3890133
199	0xbdb5dd98	-0.08880156
200	0xbea79d18	-0.3273704
201	0xbe5f61ad	-0.21814604
202	0x3e693426	0.227738
203	0x3ec13d62	0.37742144
204	0xbcc3b220	-0.023888648
205	0xbe76c024	-0.24096733
206	0x3e0e6584	0.13905913
207	0x3d903928	0.07042152
208	0x3e1c067d	0.1523685
209	0x3dc7e527	0.09760504
210	0x3e00141c	0.12507671
211	0x3e2ff0aa	0.1718165
212	0x3d5cbc50	0.053890526
213	0x3e8b6ac8	0.27229905
214	0xbea0008e	-0.31250423
215	0x3ecadfcb	0.39623865
216	0x3ea17533	0.31534728
217	0xbe3e427f	-0.18580054
218	0x3ed95920	0.4245081
219	0x3e682988	0.22672093
220	0x3e9e2968	0.30890965
221	0x3d69a940	0.057046175
222	0xbd893dfb	-0.06701275
223	0xbe431be5	-0.1905361
224	0xbec60bdb	-0.3868092
225	0xbe95b774	-0.29241526
226	0xbdeef704	-0.11668208
227	0xbec22bd0	-0.3792405
228	0x3e4c302b	0.1994025
229	0x3ccb5b70	0.024823874
230	0xbead4f28	-0.33849454
231	0xbca9c290	-0.020722657
232	0x3e045ce8	0.12926066
233	0x3eafce7c	0.34337223
234	0xbc85e340	-0.016343713
235	0x3ed56b4d	0.41683426
236	0xbe2799d8	-0.1636728
237	0x3ede4294	0.4341017
238	0xbe7a685c	-0.24453872
239	0x3e2691b3	0.16266517
240	0xbe136476	-0.14393792
241	0xbed985a8	-0.42484784
242	0xbe6d4507	-0.23170863
243	0x3ea9d306	0.3316881
244	0xbe493b13	-0.19651441
245	0x3eab5884	0.3346597
246	0xbe793c29	-0.24339356
247	0xbde32fa8	-0.11093074
248	0xbe021b7e	-0.127058
249	0x3ec3a3c1	0.38210872
250	0x3e7c9985	0.24667938
251	0xbbd8dc40	-0.0066180527
252	0xbda07864	-0.07835463
253	0x3e152b42	0.14567283
254	0xbec94eed	-0.39318028
255	0x3d830d28	0.06398994

fc2.weight f4 [256, 256]
0	0xb9e561a6	-0.00043751037
1	0x3d7d8848	0.061897546
2	0xbd3e6578	-0.046483487
3	0xbd2e0cf0	-0.042492807
4	0x3bea0550	0.0071417466
5	0xbd784b40	-0.06061864
6	0xbce88304	-0.028382786
7	0x3c93925e	0.01801413
8	0xbd183c3a	-0.03716681
9	0xbd458072	-0.048218198
10	0x3b3c32c0	0.0028716773
11	0xbd4fdec8	-0.05074957
12	0x3d53655f	0.051610347
13	0xbd526588	-0.05136636
14	0x3cd9342e	0.026514139
15	0x3c1d9b4e	0.009619547
16	0xbbeeeea0	-0.00729163
17	0xbd0df171	-0.034654085
18	0x3cce795a	0.02520435
19	0xbd8369ce	-0.06416665
20	0xbb532e60	-0.0032223687
21	0x3d2ff8e2	0.042961963
22	0xbcc806b1	-0.024417253
23	0xbcb6d6fc	-0.02231931
24	0xbb8bac89	-0.004262511
25	0xbd814be5	-0.06313304
26	0xbd684d02	-0.056714065
27	0xbbec47f3	-0.0072107255
28	0xbb830950	-0.003998913
29	0xbc9deb08	-0.01927711
30	0xbcc30a55	-0.023808638
31	0x3d6a28e0	0.057167888
32	0xbd18119d	-0.037126172
33	0xbc1092d9	-0.008824074
34	0xbcd28720	-0.025699198
35	0x3d577812	0.052604742
36	0x3d6d440c	0.057926223
37	0xbc8821d8	-0.0166177
38	0x3c8f4efd	0.01749372
39	0xbca33778	-0.01992391
40	0x3d58cfea	0.052932657
41	0xbc1d487e	-0.009599803
42	0x3d238454	0.03992112
43	0xbcbc77f8	-0.023006424
44	0xbc949e08	-0.018141761
45	0x3b27db94	0.0025613056
46	0x3d51dea4	0.051237717
47	0xbd5faa2a	-0.05460564
48	0xbcb62730	-0.022235483
49	0x3d4954bc	0.049153075
50	0xbd610e48	-0.05494526
51	0x3b5c0460	0.0033571944
52	0x3d78fabc	0.060785994
53	0x3c14a4c6	0.009072488
54	0x3d32f88b	0.04369406
55	0xbd06438c	-0.03277926
56	0x3cd4891e	0.025944289
57	0xbca9acdc	-0.020712309
58	0x3d113645	0.035452146
59	0xbd0afebe	-0.033934347
60	0x3d431a3c	0.04763244
61	0x3c17a646	0.009255951
62	0xbd031a0a	-0.032007255
63	0x3be81ae0	0.007083282
64	0xbd5034e2	-0.050831683
65	0xbd6d7e74	-0.057981923
66	0xb718369c	-9.072621e-06
67	0xbc833ff4	-0.016021706
68	0xbc36b60c	-0.011151802
69	0xbc9850e7	-0.018593265
70	0x3cb0d7a4	0.0215872
71	0x3d53137e	0.05153226
72	0x3b90e300	0.0044215918
73	0x3c8a18d0	0.016857535
74	0x3d34f5e5	0.044179816
75	0xbcec6111	-0.028854879
76	0xbd844174	-0.06457797
77	0xbd19da0a	-0.037561454
78	0x3cbdb7c0	0.023158908
79	0xbd7f090d	-0.06226449
80	0x3d224409	0.039615665
81	0xbc0c0cb0	-0.008547947
82	0x3d42f3f4	0.047595933
83	0xbceec028	-0.029144362
84	0xbd65119b	-0.055924993
85	0x3c84eef8	0.01622723
86	0xbd26f871	-0.040764276
87	0x3be7eaa0	0.00707753
88	0x3ca2d6fe	0.019877907
89	0x3ba94f57	0.0051669287
90	0xbd8f8f2a	-0.07009728
91	0x3c0d8d58	0.008639656
92	0xbc473ea0	-0.012160927
93	0xbcd7ec9c	-0.026357941
94	0x3d35f72a	0.044425167
95	0x3cade4ac	0.021227203
96	0xbae61e40	-0.0017556623
97	0x3d0f8fbf	0.035049196
98	0x3cc7702e	0.024345484
99	0xbd782ff4	-0.060592607
100	0xbc1d98f8	-0.00961899
101	0xbd633750	-0.055472672
102	0xbac41217	-0.0014959004
103	0x3d56ef68	0.05247441
104	0xbc81db83	-0.015851742
105	0x3cdff120	0.027336657
106	0x3c0cde3a	0.008597905
107	0x3d193a68	0.037409216
108	0xbd84d2cb	-0.06485518
109	0x3cd4c969	0.025974946
110	0xbd2c6d66	-0.042096518
111	0xbd25792a	-0.040398754
112	0x3cf8d107	0.03037311
113	0xbc657210	-0.014004245
114	0xbca57530	-0.02019748
115	0x3d1e31d3	0.038621735
116	0x3c11f872	0.008909332
117	0xbd796e32	-0.060896106
118	0x3d23de31	0.04000682
119	0xbc08e2a4	-0.008354817
120	0x3bc5aac9	0.006032322
121	0xbd16c5ae	-0.036809616
122	0x3cc535a4	0.02407343
123	0x3d44c154	0.048035935
124	0x3d14ced0	0.036330044
125	0x3bd77950	0.006575741
126	0x3c4e6114	0.012596387
127	0xbc8f0f3c	-0.017463319
128	0xbd763a8a	-0.06011442
129	0xbcf90334	-0.030397035
130	0xbd553d02	-0.052060135
131	0xbd624842	-0.05524469
132	0x3cbf5440	0.023355603
133	0x3cd4f90c	0.025997661
134	0xbd0db2a8	-0.034594208
135	0x3d12f151	0.03587467
136	0x3d131016	0.035904013
137	0xbd6277ba	-0.05528996
138	0x3d10dac6	0.03536489
139	0x3c03b044	0.0080376305
140	0x3d41145e	0.047138564
141	0x3c47c5f8	0.0121931955
142	0xbc488912	-0.012239711
143	0xbd20754a	-0.039174356
144	0xbcc94468	-0.024568751
145	0x3d38ad6a	0.045087256
146	0x3d2267f4	0.03964992
147	0xbd15827c	-0.036501393
148	0xbca3a2dc	-0.019975118
149	0x3c1fd88d	0.00975622
150	0x3d30b2ba	0.043139197
151	0xbd0ec5d2	-0.034856625
152	0x3b91dd20	0.004451409
153	0x3d57a0c8	0.052643567
154	0xbd287da4	-0.041135445
155	0x3cca1811	0.024669679
156	0xbb6aa22a	-0.0035802224
157	0xbcc0f7d4	-0.023555674
158	0xbb1c89e0	-0.002388589
159	0xbb595b40	-0.0033165962
160	0x3c9e814e	0.019348767
161	0xbd58201f	-0.052765008
162	0x3d7c7f64	0.061644927
163	0xbce0f4f3	-0.02746055
164	0xbcf9cc44	-0.03049291
165	0xbd5442e2	-0.051821597
166	0x3cc673d0	0.024225146
167	0xbc2ca6e8	-0.01053784
168	0xbc044858	-0.008073889
169	0xbceadfe5	-0.028671214
170	0xbc8faf72	-0.017539714
171	0xbc1783f8	-0.009247772
172	0x3c4decd7	0.012568674
173	0xbcf54444	-0.029939778
174	0xbcf374d3	-0.029718792
175	0x3d2ece09	0.04267696
176	0x3ceea0c4	0.029129393
177	0x3c5f2230	0.013618991
178	0xbb97726f	-0.004621796
179	0xbd1b9d63	-0.037991893
180	0x3d4a738b	0.049426597
181	0x3ce4dfa0	0.027938664
182	0x3d137ba8	0.0360066
183	0x3d360a90	0.044443667
184	0xbd01993a	-0.03164027
185	0x3d619b44	0.055079713
186	0x3c1a39e8	0.00941322
187	0x3d152ae8	0.03641787
188	0x3d0d09da	0.034433223
189	0x3c7b73d8	0.0153474435
190	0x3ce68269	0.028138356
191	0x3a445d80	0.0007490739
192	0x3c97f83c	0.018550985
193	0x3c8c6dc4	0.017142184
194	0xbcf95bb9	-0.030439245
195	0xbd4dd7ae	-0.050254516
196	0xbc97c5d8	-0.018526956
197	0x3c10e571	0.008843766
198	0xbd410218	-0.047121137
199	0x3cd83268	0.026391223
200	0xbd1fa3ea	-0.03897468
201	0x3c6c509e	0.0144235175
202	0x3c860f91	0.016364845
203	0x3d0b0942	0.033944376
204	0xbce1584c	-0.027507924
205	0xbcc1f9dc	-0.023678713
206	0xbca5c1d0	-0.020234019
207	0x3d2d7f47	0.04235771
208	0xbd8bbf5d	-0.06823609
209	0x3d34007d	0.04394578
210	0x3c24b52b	0.010052959
211	0x3cb2bd00	0.021818638
212	0xbd4f53be	-0.050616972
213	0x3ca60684	0.020266779
214	0x3cf39330	0.02973327
215	0x3d100bdf	0.03516757
216	0x3d042068	0.032257468
217	0x3d40de20	0.047086835
218	0x3cad661c	0.021166854
219	0xbcc8a07c	-0.024490587
220	0x3d298eb0	0.041395843
221	0xbd6044f3	-0.054753255
222	0x3b1dfbea	0.0024106451
223	0xbd32be96	-0.04363879
224	0xbd4a60f0	-0.049408853
225	0x3c738e7e	0.014865516
226	0x3d3b7d98	0.045774072
227	0x3d02c248	0.031923562
228	0xbd241336	-0.040057383
229	0x3b01bf45	0.0019797843
230	0x3d395af5	0.04525276
231	0xbbbaeb90	-0.005704351
232	0xbb94a170	-0.0045358464
233	0xbcaa82dc	-0.020814352
234	0xbd17065e	-0.036871307
235	0xbd2e1976	-0.04250475
236	0x3d42e445	0.047580976
237	0x3d036ec6	0.032088064
238	0x3cb40b20	0.021977961
239	0xbd285419	-0.041095827
240	0x3d443c14	0.047908857
241	0xbd8acc67	-0.06777268
242	0x3c0d6902	0.008630993
243	0xbd0f2a8e	-0.034952693
244	0xbc7351b4	-0.0148510225
245	0xbc1d3d60	-0.0095971525
246	0xbd081faa	-0.033233322
247	0xbccb3470	-0.024805278
248	0x3d4ca35c	0.04996048
249	0xbd4af110	-0.0495463
250	0xbd832378	-0.064032495
251	0x3c77c5f0	0.015122876
252	0xbd37b29a	-0.044848062
253	0xbd08b341	-0.033374075
254	0x3cfa56d9	0.03055899
255	0xbd222e74	-0.039595082

fc2.bias f4 [256]
0	0xbd43bc88	-0.04778722
1	0x3d4ac1e8	0.04950133
2	0xbd4a0b52	-0.049327202
3	0xbc8cfa0c	-0.017209075
4	0x3b681780	0.0035414398
5	0xbd4de441	-0.050266508
6	0x3c363ed0	0.011123374
7	0xbc79b574	-0.015241016
8	0xbd13fd30	-0.03613013
9	0xbd2732c7	-0.04081991
10	0x3cc6ca5c	0.024266414
11	0xbb90453e	-0.0044027856
12	0xbd6491ea	-0.055803217
13	0x3cf97c94	0.030454911
14	0xbd7f4d7c	-0.062329754
15	0xbce7cabb	-0.028294912
16	0x3d6ecd76	0.05830141
17	0xbc601760	-0.013677448
18	0xbc574950	-0.013140038
19	0xbd52856a	-0.051396765
20	0xbc35de1a	-0.011100316
21	0xbd199804	-0.03749849
22	0xbd92fafe	-0.07176779
23	0x3d5c0120	0.05371201
24	0x3c30bf80	0.010787845
25	0x3d1e10d6	0.038590275
26	0xbc72e710	-0.014825597
27	0x3c684242	0.014175953
28	0xbcfc0b70	-0.030767173
29	0x3d280fde	0.041030757
30	0xbd575ee6	-0.052580737
31	0xbc412fe9	-0.011791208
32	0xbd8d640c	-0.06903848
33	0xbcbab844	-0.022792943
34	0x3d25fe3f	0.04052567
35	0xbc760ef0	-0.01501821
36	0xbd662e84	-0.056196705
37	0x3d2524fe	0.04031848
38	0xbd7bdb74	-0.061488584
39	0xbd29edff	-0.041486736
40	0xbd655763	-0.05599154
41	0xbb8035f1	-0.0039126803
42	0xbd5f8b02	-0.054575928
43	0x3d7394a9	0.059467945
44	0xbd44d9cc	-0.04805927
45	0x3d68b0b2	0.056809135
46	0x3c4b5d20	0.012412339
47	0x3d175ba4	0.03695263
48	0xbbe15ff0	-0.0068778917
49	0xbcd919ca	-0.026501555
50	0x3cb13274	0.021630503
51	0xbd1ce7aa	-0.03830687
52	0xbd522552	-0.051305123
53	0x3cb292db	0.021798542
54	0xbc7947f0	-0.015214905
55	0x3bb0d6c0	0.005396694
56	0xbd7b86d6	-0.061407886
57	0xbbebd453	-0.007196942
58	0x3d60cc7c	0.05488251
59	0x3cb91200	0.02259159
60	0xbd2865cf	-0.041112717
61	0xbd239ea6	-0.03994622
62	0x3d643634	0.055715755
63	0xbc601a78	-0.013678186
64	0x3d3cc04c	0.046081826
65	0x3d5dcd02	0.05415059
66	0xbd2aa7ef	-0.04166406
67	0x3d1acffc	0.037796006
68	0xbb267fc0	-0.0025405735
69	0x3d2f3976	0.04277941
70	0x3d2e2cb6	0.04252311
71	0x3d4ac1f6	0.04950138
72	0x3d39c79c	0.045356378
73	0x3cfcf22c	0.030877195
74	0xbcba1150	-0.022713333
75	0xbd4fd909	-0.05074409
76	0xbd7ddc86	-0.061977886
77	0x3d2540d1	0.040345017
78	0x3d195485	0.03743412
79	0x3cea0284	0.028565653
80	0xbcc1752c	-0.023615442
81	0xbd60a61d	-0.054845918
82	0x3ca630cd	0.020286942
83	0x3d45d818	0.048301786
84	0x3d79a9f8	0.06095311
85	0xbcdfa01a	-0.027298022
86	0xbc6d3c98	-0.014479779
87	0x3d5c6852	0.053810425
88	0x3ceddfc2	0.02903736
89	0x3d106865	0.03525581
90	0x3d631f8e	0.055450015
91	0x3d4101d0	0.04712087
92	0x3cfa9828	0.030590132
93	0x3ca40deb	0.020026168
94	0xbd5fa8b2	-0.05460424
95	0xbca24084	-0.019806154
96	0x3cef26cd	0.029193306
97	0xb9a11800	-0.00030726194
98	0x3b3cdfff	0.0028820036
99	0xbd30a2da	-0.043124057
100	0x3c834c88	0.016027704
101	0xbd6de974	-0.058083966
102	0xbcec3ef0	-0.028838605
103	0x3c34fc88	0.011046536
104	0xbb06fa55	-0.0020595987
105	0x3d261ca6	0.040554665
106	0xbc4bcb88	-0.012438662
107	0xbc2b64ff	-0.010461091
108	0x3d507229	0.05089012
109	0x3d5ef5b0	0.054433525
110	0xbd3bfd04	-0.04589559
111	0x3d5bc309	0.053652797
112	0xbd6ca5f2	-0.057775445
113	0x3d3866af	0.0450198
114	0xbbd33c20	-0.0064463764
115	0xbc3b30c8	-0.011425205
116	0x3cc95178	0.02457498
117	0x3d64c504	0.05585195
118	0xbcedc78b	-0.029025814
119	0x3d138234	0.036012843
120	0xbcb08c98	-0.021551415
121	0xbd5c8112	-0.05383403
122	0xbc6e50f0	-0.014545664
123	0x3cdb80a1	0.026794733
124	0xbd442679	-0.047888253
125	0x3d7c8a62	0.06165541
126	0xbc88f495	-0.016718188
127	0xbd67ad0b	-0.05656151
128	0x3d1e5a16	0.03866013
129	0xbd84342d	-0.06455264
130	0x3d2a73c8	0.041614324
131	0x3c1579e8	0.009123303
132	0xbd3da79a	-0.046302415
133	0xbcd4fb1a	-0.02599864
134	0xbd7e11dc	-0.06202875
135	0x3c92ab58	0.017903969
136	0xbd3bcb48	-0.04584816
137	0x3cca8edc	0.024726324
138	0xbd4dcfa8	-0.050246865
139	0xbd384edc	-0.04499708
140	0xbd3f783c	-0.046745524
141	0xbc5d35c8	-0.013501592
142	0xbd1181a6	-0.035524033
143	0xbd5a49b8	-0.05329296
144	0x3d17c768	0.037055403
145	0x3d4405b0	0.047856987
146	0xbc94629c	-0.018113427
147	0xbd02a29d	-0.03189336
148	0xbb27bbc0	-0.0025594085
149	0x3d28a9c6	0.041177534
150	0xbd35d670	-0.044393957
151	0x3d44df58	0.04806456
152	0x3cde4d6c	0.027136527
153	0xbd4364cc	-0.04770355
154	0xbb87e195	-0.0041467645
155	0xbcc4ee81	-0.024039509
156	0x3d1ed05a	0.03877292
157	0xbcb02180	-0.021500349
158	0x3d6127de	0.05496966
159	0xbd449306	-0.047991775
160	0xbd3a8d14	-0.0455447
161	0xbaf25940	-0.0018489733
162	0xbd5b9042	-0.05360437
163	0x3d00807e	0.03137254
164	0x3d1914f6	0.037373506
165	0x3d6a5a1e	0.05721485
166	0x3cf7c520	0.030245364
167	0xbd2392cc	-0.03993492
168	0xbd5867aa	-0.052833237
169	0x3c7dc2f3	0.015488374
170	0x3d5b6e6e	0.05357211
171	0xbc0d8d25	-0.0086396085
172	0xbd354c90	-0.04426247
173	0xbbb9b530	-0.005667351
174	0xbcf34054	-0.02969376
175	0x3bab63c0	0.005230397
176	0x3d0608ec	0.032723352
177	0x3c708cd0	0.01468201
178	0xbd65833e	-0.056033365
179	0x3c9b3fda	0.018951345
180	0xbd26c887	-0.04071858
181	0xbc3fe354	-0.011711914
182	0x3d26a176	0.040681325
183	0x3d035bc4	0.032069936
184	0xbd01e944	-0.0317166
185	0x3d03f674	0.032217458
186	0xbc43286b	-0.011911492
187	0x3c9545b5	0.018221715
188	0xbd7c6814	-0.061622694
189	0xbd56174a	-0.052268304
190	0x3d7a3a6c	0.06109087
191	0xbd6fa033	-0.058502387
192	0xbd34cdca	-0.04414157
193	0xbd471b89	-0.048610244
194	0x3d493c92	0.04913003
195	0xbd154b3a	-0.036448695
196	0x3d435325	0.047686715
197	0x3cc11d28	0.023573473
198	0x3d599b20	0.053126454
199	0x3d5275b4	0.05138178
200	0x3cab7f8e	0.020934846
201	0x3cd984fc	0.02655267
202	0xbd1f5d4e	-0.03890734
203	0x3cac63ae	0.021043625
204	0xbd0cb8a5	-0.03435578
205	0xbcfc6499	-0.030809687
206	0xbd1299ea	-0.035791315
207	0xbd5c88b2	-0.0538413
208	0xbcc2bd91	-0.023772033
209	0xbd772caa	-0.06034533
210	0xbd6d16fb	-0.057883244
211	0x3d1dcd4d	0.03852587
212	0xbb0dbc8a	-0.002162727
213	0x3d3eedc7	0.04661348
214	0xbc11a33e	-0.008889018
215	0xbd653d9f	-0.05596697
216	0x3d7362b4	0.059420303
217	0xbd3c73a8	-0.046008736
218	0xbb1f890e	-0.0024343166
219	0x3c624bb2	0.0138119925
220	0xbc5d6a60	-0.013514131
221	0xbd4fba91	-0.050715033
222	0xbd0c6e6d	-0.034284998
223	0xbc31f378	-0.01086127
224	0xbb999e36	-0.0046880497
225	0x3bb79487	0.0056024226
226	0x3cc5f8e8	0.02416654
227	0x3cf1bcb5	0.029508928
228	0x3c6c2592	0.014413254
229	0x3b25caa0	0.0025297776
230	0x3d676116	0.056489073
231	0x3cfa07a0	0.030521214
232	0x3ca24394	0.019807614
233	0x3b69b172	0.0035658744
234	0xbd78825a	-0.060671188
235	0xbb35c6e0	-0.0027736947
236	0x3d678ea0	0.056532502
237	0x3b2fbb80	0.002681464
238	0x3cd263ac	0.025682293
239	0x3d7cacbc	0.06168817
240	0x3a86fd74	0.0010298924
241	0xbcaa790f	-0.020809678
242	0x3c452a48	0.012034006
243	0x3ce82b9a	0.028341103
244	0x3ca910e6	0.02063794
245	0x3c40a200	0.011757374
246	0xbbabf4bf	-0.005247682
247	0x3d1886d6	0.037237965
248	0x3d4f6ec8	0.05064276
249	0xbd3453e4	-0.044025317
250	0xbd067294	-0.032824114
251	0x3d2d44af	0.04230183
252	0xbb6e5437	-0.0036366114
253	0xbd3d3780	-0.046195507
254	0x3d0cc77c	0.03436993
255	0xbcf33021	-0.029686036

V.weight f4 [1, 256]
0	0xbcc2daf4	-0.023786046
1	0xbcd3d239	-0.025857078
2	0xbcf9b3ee	-0.030481305
3	0xbcaffbbc	-0.021482341
4	0xbd03f058	-0.03221163
5	0x3c207f5e	0.009795992
6	0xbd639a28	-0.055566937
7	0xbd4c5f30	-0.049895465
8	0xbd56e2d2	-0.052462406
9	0xba808566	-0.0009805381
10	0xbb7e9b20	-0.0038849786
11	0x3bfbeca4	0.007688122
12	0x3d3cd62e	0.046102695
13	0x3c969e5c	0.018386059
14	0x3ab55010	0.0013833065
15	0xbd18121d	-0.03712665
16	0xbcc04d18	-0.023474261
17	0x3d2ce06c	0.042206213
18	0x3c876df5	0.016531924
19	0x3cb9254f	0.022600798
20	0xbb810173	-0.0039369403
21	0x3d53ab5e	0.0516771
22	0xbbf42d1b	-0.007451666
23	0x3d226f84	0.03965713
24	0x3d23f358	0.040026993
25	0x3d3300ee	0.04370206
26	0xbd49a8e4	-0.049233332
27	0xbc8c443c	-0.01712238
28	0x3d0e0592	0.03467328
29	0x3c884724	0.016635485
30	0xbb85d0d0	-0.0040837303
31	0x3d315894	0.043297365
32	0x3d4df989	0.050286803
33	0x3b3de6c0	0.002897665
34	0x3cc05e13	0.023482358
35	0x3d78f5f2	0.060781427
36	0xbd57e440	-0.05270791
37	0x3c6cd303	0.014454606
38	0x3ced0f2a	0.028937895
39	0x3d4882e8	0.048952967
40	0x3c643bca	0.01393027
41	0xbc85000a	-0.01623537
42	0x3cbc5e88	0.022994295
43	0xbcc34487	-0.023836387
44	0x3c6561a0	0.014000326
45	0xbce0c0aa	-0.02743562
46	0x3d642384	0.055697933
47	0x3c937488	0.017999902
48	0x3d7fd0aa	0.062454857
49	0xbd470b08	-0.048594505
50	0x3c23c24a	0.009995053
51	0x3d0b375f	0.033988353
52	0xbcc89d78	-0.02448915
53	0x3cb02b93	0.021505153
54	0xbd5eec42	-0.05442453
55	0x3c5c5c40	0.0134497285
56	0xbd580c2c	-0.052745983
57	0xbc2eeb56	-0.010676226
58	0xba8e90c0	-0.0010876879
59	0x3bbed780	0.0058240294
60	0xbc8ac634	-0.016940214
61	0x3ce97d38	0.028502092
62	0xbcc74134	-0.024323083
63	0x3b964916	0.0045863492
64	0x3beea400	0.007282734
65	0x3cd27d9a	0.025694657
66	0x3c2debde	0.010615317
67	0x3ccc2a2c	0.024922453
68	0x3d15c170	0.03656143
69	0x3c4b0538	0.012391381
70	0x3b823e9d	0.0039747492
71	0xbca240f4	-0.019806363
72	0x3cc66464	0.024217792
73	0x3d640eb0	0.05567807
74	0xbd3c5ac8	-0.045985013
75	0xbb5bdbe3	-0.003354781
76	0xbd5a3de6	-0.053281687
77	0x3cdb754b	0.026789328
78	0xbcb824ab	-0.022478422
79	0xbb9b1d60	-0.0047337264
80	0xbccfed59	-0.02538173
81	0xbc988f54	-0.018623032
82	0xba354172	-0.0006914354
83	0x3d475eb8	0.048674315
84	0xbd32c348	-0.043643266
85	0x3b63e8fa	0.0034776316
86	0x3d39c944	0.045357957
87	0x3d4069c4	0.046975866
88	0xbce2e72a	-0.027698118
89	0x3d394557	0.045232143
90	0xbd187f30	-0.03723067
91	0xbbaaf2ee	-0.0052169478
92	0xbc8e716d	-0.01738807
93	0xbd1bc733	-0.038031768
94	0xbb4181f1	-0.0029526914
95	0xbd611aa2	-0.05495704
96	0xbcbbed08	-0.022940174
97	0x3b726de0	0.003699176
98	0x3c9c94cd	0.019113922
99	0x3d6b9a50	0.05752021
100	0xbc6b82b0	-0.01437442
101	0x3ceb0c9c	0.028692536
102	0x3d5ba508	0.053624183
103	0xbbaa89b0	-0.005204402
104	0xbc4fbc20	-0.01267913
105	0xbb85f0b5	-0.0040875324
106	0xbbc49bb0	-0.0060000047
107	0x3ced28f2	0.028950188
108	0xbca8d3f6	-0.020608883
109	0xbcff74d8	-0.031183645
110	0xbceee670	-0.029162616
111	0x3d24feb6	0.040281974
112	0x3d20f600	0.039297104
113	0xbcbb9ee7	-0.022902919
114	0x3a0ab580	0.0005291328
115	0xbc094cb8	-0.008380108
116	0xbcb9ee44	-0.022696622
117	0xbca664fc	-0.020311825
118	0xbc8438dd	-0.016140396
119	0x3d07b15c	0.033128127
120	0xbcbdcd9c	-0.023169331
121	0xbcb1d798	-0.021709248
122	0x3c165378	0.009175174
123	0xbbe42392	-0.006962248
124	0x3cd29ddf	0.025710044
125	0x3d2621e4	0.040559664
126	0x3c419fa0	0.011817843
127	0x3cbe9967	0.023266507
128	0x389f1400	7.585436e-05
129	0x3c53ee59	0.0129352445
130	0xbac66b40	-0.0015138164
131	0x3d57c670	0.05267948
132	0x3d0e3d2a	0.0347263
133	0xbc9c02b5	-0.01904426
134	0xbbce45e8	-0.0062949546
135	0x3d11cf40	0.03559804
136	0x3d5faab4	0.054606155
137	0x3d4371da	0.047716
138	0x3d1e9d2a	0.038724102
139	0x3d1f4a56	0.03888925
140	0x3c542a68	0.012949564
141	0xbcd95350	-0.026528984
142	0x3be7d41b	0.0070748455
143	0xbc0d05a0	-0.008607298
144	0xbcb7c538	-0.022432908
145	0xbc9ce545	-0.019152293
146	0xbcbf0cf4	-0.023321606
147	0x3b9f7afd	0.0048669563
148	0x3ba57f40	0.00505057
149	0x3bb8011f	0.005615368
150	0xba025864	-0.00049722777
151	0xbd654ce4	-0.05598153
152	0xbc3fd420	-0.011708289
153	0x3bfa94f0	0.0076471493
154	0xbcbadb97	-0.022809787
155	0xbcf03e03	-0.029326444
156	0x3b9ad218	0.004724752
157	0xbc65eb0a	-0.014033088
158	0x3d2fcf0c	0.042922065
159	0x3d5d0b2a	0.053965725
160	0x3d3b3f16	0.04571446
161	0xbd4a3a36	-0.04937192
162	0x3c222c0f	0.0098982
163	0xbd1749b4	-0.036935523
164	0x3d484418	0.048893064
165	0x3cf12cec	0.029440366
166	0x3d5a8bfa	0.05335615
167	0xbc6c9018	-0.0144386515
168	0xbc18586d	-0.009298426
169	0xbc3dbc4f	-0.011580541
170	0x3d7a5a76	0.061121427
171	0x3c0362cc	0.0080191605
172	0xbcc07da0	-0.023497403
173	0xbc526d18	-0.012843393
174	0xbcb9ac64	-0.02266521
175	0x3d392982	0.0452056
176	0x3a31de08	0.00067850994
177	0xbd389edc	-0.045073375
178	0x3cc37e48	0.023863927
179	0x3cbad00b	0.02280428
180	0x3c001c53	0.007819253
181	0xbbfcd435	-0.0077157267
182	0x3c22388e	0.009901179
183	0xbc765243	-0.015034261
184	0x3d76bd7a	0.060239293
185	0x3c127dfd	0.008941171
186	0x3d1242fa	0.035708405
187	0x3cab681e	0.02092367
188	0x3c346807	0.01101113
189	0xbd7301b2	-0.05932779
190	0x39990200	0.00029183924
191	0xbca43c2e	-0.020048227
192	0xbd680928	-0.056649357
193	0xbc093e04	-0.008376602
194	0xbd323b9e	-0.043513887
195	0x3a2b4400	0.0006533265
196	0xbd3e769f	-0.046499845
197	0x3bcc3a78	0.006232556
198	0x3d388f2f	0.045058426
199	0x3d63cb94	0.05561407
200	0x3d11ca4d	0.03559332
201	0xbd7a2d1c	-0.061078176
202	0x3a669303	0.000879571
203	0xbb77728b	-0.0037757482
204	0xbcb0e597	-0.021593852
205	0xbd07d267	-0.03315964
206	0xbca16d3f	-0.019705413
207	0xbc543251	-0.0129514495
208	0xbc3d1e7f	-0.011542915
209	0x3cba5b81	0.02274871
210	0x3c3a1f4f	0.011360004
211	0xbc066904	-0.008203749
212	0xbcdd64c2	-0.027025584
213	0x3d630d72	0.055432744
214	0xb888deb4	-6.526467e-05
215	0x3c9af6d0	0.018916517
216	0xbd7ce6d4	-0.061743572
217	0xbd295c04	-0.04134752
218	0x3d34466f	0.044012483
219	0x3be9a042	0.0071297
220	0x3d0ad7d4	0.033897236
221	0xbcf2921b	-0.029610684
222	0xbc04711c	-0.008083608
223	0xbcf77ce0	-0.030210912
224	0x3cf06ab8	0.029347762
225	0xbbc6c7f0	-0.006066315
226	0xbb26d506	-0.0025456562
227	0xbd3c1b89	-0.045924697
228	0xbce7490a	-0.02823307
229	0xbc9eac74	-0.019369341
230	0x3d5cab70	0.053874433
231	0x3d5ea8fa	0.054360367
232	0x3cfe3314	0.031030215
233	0x3ca8d4be	0.020609256
234	0x3cb4ad00	0.02205515
235	0x3d2c5674	0.042074636
236	0xbd02a11e	-0.031891935
237	0xbd5c6cf2	-0.053814836
238	0xbd4059f4	-0.046960786
239	0x3d30b814	0.0431443
240	0xbc9a129d	-0.018807704
241	0x3cf24a3b	0.029576411
242	0x3d5ee2d6	0.054415546
243	0x3c2aeb1f	0.010432034
244	0x3cacbe4e	0.021086838
245	0x3d04c20c	0.03241162
246	0xbc357d60	-0.011077255
247	0x3cf945f4	0.030428864
248	0xbbef6fc2	-0.0073070237
249	0xbd2c85d0	-0.0421198
250	0xbcb576d0	-0.02215138
251	0xbd32d1c8	-0.043657094
252	0x3ca6e5b0	0.020373195
253	0x3d07b5d4	0.03313239
254	0xbc09757c	-0.008389827
255	0xbd1aeaa5	-0.03782143

A.weight f4 [6, 256]
0	0xbdc2190d	-0.09477434
1	0xbd136796	-0.03598746
2	0x3c5385f4	0.012910355
3	0x3d4d8cb2	0.050183006
4	0xbce8b1fc	-0.028405182
5	0x3d86f8c5	0.06590418
6	0xbd269852	-0.040672608
7	0xbcf1c6fb	-0.029513827
8	0xbcf6ae38	-0.03011237
9	0xbc8e6015	-0.0173798
10	0xbd5da580	-0.05411291
11	0x3d36423f	0.04449677
12	0x3d224576	0.039617024
13	0x3c764140	0.015030205
14	0x3d04c89c	0.03241788
15	0x3d0a47a5	0.03375973
16	0x3d577464	0.052601233
17	0xbc672970	-0.014109001
18	0xbd35c232	-0.044374652
19	0xbd7034a3	-0.05864395
20	0x3b8fb029	0.0043850136
21	0xbbab9b20	-0.005236998
22	0xbd54ec42	-0.051983126
23	0xbd2d9a8e	-0.042383723
24	0xbd08b3d4	-0.033374622
25	0x3d438576	0.0477347
26	0x3c96bbdc	0.018400125
27	0xbd61a9fb	-0.055093747
28	0xbcd0a9d0	-0.025471598
29	0xbb58c569	-0.003307665
30	0xbd4a5982	-0.049401768
31	0xbd1d4cd2	-0.03840334
32	0x3af24d55	0.0018486182
33	0x3d489ce4	0.048977748
34	0x3d40c165	0.047059435
35	0x3d0c0de6	0.034192942
36	0x3d7e0a52	0.06202156
37	0x39a323b7	0.00031116392
38	0x3d74f124	0.059800282
39	0x3cc7f649	0.02440943
40	0x3d0e8404	0.03479387
41	0xbb988130	-0.004654072
42	0x3ccd20a8	0.025039986
43	0xbd834b48	-0.06410843
44	0x3a003800	0.0004891157
45	0xbcf82b1a	-0.03029399
46	0xbc092108	-0.008369692
47	0xbd007234	-0.031358913
48	0x3d09eef2	0.03367514
49	0xbc36f5e0	-0.01116702
50	0x38ba7e15	8.892656e-05
51	0xbc30d200	-0.010792255
52	0xbd43e991	-0.04783017
53	0x3d1479df	0.036249038
54	0x3d6b3b6a	0.05742971
55	0xbd7c8188	-0.061646968
56	0x3cc9d42c	0.024637304
57	0xbcdada3a	-0.026715387
58	0x3d3d4018	0.046203703
59	0x3d103524	0.03520693
60	0xbd554169	-0.052064333
61	0x3d62f0b4	0.055405334
62	0x3b5f9120	0.00341136
63	0x3d2bc6de	0.0419377
64	0xbd298978	-0.041390866
65	0xbd42d119	-0.047562692
66	0x3c5bb5c1	0.013410033
67	0xbd07cf26	-0.033156537
68	0x3c8a3f1c	0.016875796
69	0x3b050445	0.0020296734
70	0xbc064515	-0.008195181
71	0x3d7d4d68	0.0618414
72	0x3cd2b115	0.025719205
73	0xbd293e4e	-0.041319184
74	0x3d6cb140	0.057786226
75	0x3d432190	0.04763943
76	0x3d443388	0.047900707
77	0x3b802e3e	0.0039117625
78	0x3c966f8a	0.018363733
79	0x3bfa70c0	0.0076428354
80	0xbd15ba1e	-0.03655445
81	0x3c976e13	0.018485105
82	0x3c0c53f8	0.008564942
83	0x3d801483	0.06253912
84	0xbb0a4d00	-0.0021103024
85	0xbd2f91be	-0.0428636
86	0x3d18daf2	0.037318178
87	0x3ba4f6b0	0.0050342903
88	0xbd729924	-0.059228078
89	0xbd263286	-0.040575527
90	0xbd256ea4	-0.04038872
91	0xbd1dfc2e	-0.038570575
92	0x3a60fa04	0.0008582177
93	0x3ca18ac7	0.019719495
94	0x3b8a6ded	0.00422453
95	0x3c5f1e00	0.013617992
96	0x3c86fd75	0.01647828
97	0xbbd64520	-0.006539002
98	0x3d692ca3	0.056927335
99	0x3d7fec52	0.062481232
100	0xbca585ec	-0.02020546
101	0x3cc62ae9	0.024190383
102	0x3c7dd9a8	0.015493788
103	0x3d549f00	0.051909447
104	0xbd099afd	-0.033595074
105	0xbce9754a	-0.02849831
106	0x3c87b5d4	0.016566195
107	0x3d25db07	0.040492084
108	0xbc8acecd	-0.016944313
109	0xbce52d7c	-0.02797579
110	0x3c9aac44	0.01888097
111	0x3c19e616	0.009393236
112	0xbd3ed400	-0.046588898
113	0xbbf3d014	-0.0074405763
114	0x3d2441ce	0.04010182
115	0xbb98f100	-0.0046674013
116	0xbbbba6b8	-0.0057266615
117	0x3d73d7ac	0.059531853
118	0x3c09531d	0.008381632
119	0x3da20682	0.079113975
120	0x3d767c0a	0.060176887
121	0x3d3255f6	0.04353901
122	0x3d424326	0.04742732
123	0xbd0c957c	-0.034322247
124	0x3d3a9388	0.045550853
125	0x3d575478	0.05257079
126	0xbcf35bab	-0.029706797
127	0x3d5f312a	0.054490246
128	0x3c864254	0.01638905
129	0x3ccb2841	0.024799468
130	0x3cdfc2cc	0.027314566
131	0xbce38554	-0.027773537
132	0x3ba8c500	0.0051504374
133	0xbd35b7f7	-0.044364896
134	0xbcd89431	-0.02643785
135	0x3d109e86	0.03530743
136	0xbd76d538	-0.060261935
137	0x3ba48aa0	0.005021408
138	0xbcc0a690	-0.023516923
139	0x3d141125	0.036149163
140	0x3d01da32	0.031702228
141	0xbd3689ae	-0.044564895
142	0x3d2cc556	0.04218038
143	0x3c64a4b8	0.013955288
144	0xbd2e647f	-0.04257631
145	0xbd23215e	-0.039826743
146	0xbc70c4b0	-0.014695331
147	0xbcd58a11	-0.026066812
148	0xbc0b0edd	-0.00848743
149	0xbc408408	-0.011750229
150	0xbd2cc93e	-0.042184107
151	0xbd040222	-0.032228597
152	0x3d0d2d22	0.03446687
153	0x3c4741d8	0.0121616945
154	0xbd1a9386	-0.037738346
155	0xbd7ae303	-0.06125165
156	0x3bde2646	0.006779465
157	0xbcde2b72	-0.027120326
158	0x3d3ab97a	0.04558704
159	0xbd3403be	-0.04394888
160	0xbd14a404	-0.03628923
161	0x39a99200	0.0003234297
162	0x3cca8c00	0.02472496
163	0xbc4cbb38	-0.012495808
164	0xbcc392c4	-0.023873694
165	0xbd2b82af	-0.041872676
166	0xbd002fe0	-0.031295657
167	0x3c5ca710	0.013467565
168	0x3cb96307	0.022630228
169	0x3cee1bea	0.029066045
170	0x3d24a434	0.04019566
171	0x3d3620a8	0.044464737
172	0x3d7fb126	0.0624248
173	0xbd394e2a	-0.04524056
174	0xb9d1aa00	-0.00039990246
175	0x3cc24968	0.023716643
176	0x3cb9d517	0.022684617
177	0xbd522080	-0.051300526
178	0x3d4ef324	0.050524846
179	0xbc74f4f3	-0.014950979
180	0x3d47e900	0.04880619
181	0xbce7bd0a	-0.028288383
182	0x3d7cfe14	0.061765745
183	0x3c10f2ad	0.008846921
184	0xbd3e1eaa	-0.046415962
185	0x3bf7e6f4	0.0075653736
186	0x3d405f59	0.04696593
187	0xbcd6ca61	-0.026219549
188	0x3c968ab6	0.01837669
189	0x3c4ebc48	0.012618132
190	0xbd332d30	-0.043744266
191	0xbd0b96cc	-0.034079358
192	0xbd35dd1e	-0.044400327
193	0xbb120035	-0.0022277955
194	0xbd3b8870	-0.045784414
195	0xbd00b078	-0.031418294
196	0x3d3f25dd	0.04666697
197	0x3c87eedd	0.016593391
198	0xbd214690	-0.039373934
199	0xba6d9080	-0.00090623647
200	0xbc85ba04	-0.01632405
201	0xbbaddd30	-0.0053059086
202	0xbd6c39e2	-0.05767239
203	0x3cd30fb1	0.025764318
204	0x3c837b04	0.01604987
205	0xbd516251	-0.051119152
206	0xbcf32e68	-0.029685214
207	0xb9476fe8	-0.00019019807
208	0xbd1f53ed	-0.038898397
209	0xbcc8cf3b	-0.024512878
210	0xbd4f2490	-0.050571978
211	0xbcb701a7	-0.022339655
212	0xbd28649c	-0.041111574
213	0xbc2ee6a6	-0.010675108
214	0xbd03e224	-0.032198086
215	0x3d5dfde3	0.054197203
216	0xbd565e72	-0.052336164
217	0x3c48c298	0.012253426
218	0xbc31ae5f	-0.010844796
219	0xbcd1e091	-0.025619777
220	0x3c842088	0.016128793
221	0xbc7babcc	-0.015360784
222	0xbc98ba16	-0.01864342
223	0x3ca7cd60	0.020483673
224	0x38512000	4.9859285e-05
225	0xbcfb9f4b	-0.030715605
226	0xbcc00e10	-0.023444206
227	0xbd77fa92	-0.060541697
228	0xbc041a64	-0.008062933
229	0x3cc45278	0.023965105
230	0xbd58552c	-0.0528156
231	0xbd19bbb6	-0.03753253
232	0x3b8dd1a0	0.0043279678
233	0x3c9005f6	0.017580967
234	0xba14ce80	-0.0005676523
235	0xbc0f0b10	-0.008730665
236	0x3d6cd426	0.057819508
237	0x3d22c4a2	0.039738305
238	0xbd55e8d6	-0.052224003
239	0x3d6f35ba	0.058400847
240	0xbd2c7417	-0.0421029
241	0x3d1ee756	0.038794838
242	0xbd3fb242	-0.04680086
243	0xbca5edc6	-0.02025498
244	0x3c7d2394	0.015450377
245	0x3cc82d74	0.024435736
246	0xbd1aa70d	-0.03775697
247	0x3d376a7a	0.04477928
248	0xbd6840b3	-0.056702327
249	0x3cde4df4	0.02713678
250	0x3d2670a4	0.040634766
251	0x3d723100	0.05912876
252	0xbcd72e53	-0.026267206
253	0x3c53760a	0.012906561
254	0x3cf065db	0.029345443
255	0x3ca830ca	0.020531077

A.bias f4 [6]
0	0x3d4ed286	0.05049374
1	0x3d8924d5	0.06696478
2	0x3c8cdf9e	0.017196473
3	0xbd9d7cb7	-0.07689803
4	0xbca28c51	-0.019842299
5	0xba3241bf	-0.0006799958
