cool/checkpoints/D3QN/Q_target/D3QN_Q_target_14150.pth (torch, 278863 bytes, 7 tensors)

fc1.weight f4 [256, 5]
-0.18344092 -2.2156975 -0.24274954 0.27851784 0.2926561 -2.8082638 -2.82481 0.03752345
0.10576183 0.016466357 0.40459967 0.6030386 -0.16310602 -0.0016196531 -0.4728769 -2.6874804
-5.1736403 -0.16919047 0.03193732 0.40333012 0.079243705 0.16380712 -0.2193461 -0.0555378
0.053879295 -1.5857593 -3.0185015 -0.3549192 0.1205289 -0.19690563 -3.0669003 -4.497961
0.41476464 0.010842934 0.12697142 0.18670452 -0.36829987 -0.066176 -0.28606427 -0.28486478
-0.36763287 -0.0018545561 -0.24233791 -0.11772451 0.106034525 -1.79254 -4.2259736 -0.30606914
0.15716419 0.15626118 -2.6980665 -4.170756 0.21216387 0.006088946 -1.3251199 -2.741363
-3.8092887 -0.32277396 0.40724617 -0.46468717 0.12834233 0.17761455 -0.3653325 -0.350729
0.35260054 -0.45721874 0.0041055065 0.098471284 -0.23712987 0.24785869 0.34899446 0.16569063
-0.4311512 -0.2254384 0.22188595 -2.6230123 -3.9422312 0.27278227 0.06290755 0.30796853
-2.6060843 -4.4755497 -0.4259776 0.12790127 -0.11204119 3.2048495 3.6727226 0.30089563
0.041816052 -0.032677904 0.19363075 0.005952567 -0.2179506 -0.025862724 -0.07905996 -0.5517548
-2.120807 -0.15976682 0.36823484 0.24937563 0.08240871 0.78914833 0.3102799 -0.022664502
0.021819232 0.42437792 0.43744445 0.41335803 -0.020707786 -0.06088856 -0.08725458 1.4979973
-0.055737883 0.17063485 -0.21515657 -0.22158198 0.4134808 -0.30593473 0.26946986 -0.39099792
-1.9420524 -3.7200248 0.27809906 0.141813 0.122793876 -1.8642085 -2.9118803 -0.22642738
0.16810761 0.052417494 0.01494709 0.1743586 0.036464185 -0.34732014 -0.37971908 2.8835561
3.249826 -0.14378822 -0.012302876 -0.6172246 0.31222433 -0.41658023 -0.045393527 0.085813634
-0.4357789 -0.16464317 0.2283839 0.28292882 -0.36895305 0.385624 2.2891304 4.3647327
0.13435888 0.04983884 -0.06551079 1.1480463 0.9855101 -0.02025804 0.0072306558 0.2542111
-3.004244 -3.5135067 0.14423871 0.38062072 0.33631057 1.4877453 3.8560667 0.2307918
0.13512535 0.23263268 -3.6413941 -2.928808 -0.26674944 0.017702412 0.13138218 0.42972195
0.4374907 0.42678165 -0.13092238 -0.24383572 -0.3196213 -0.25664297 -0.3588234 -0.12830956
0.13169807 1.352681 0.20606986 -0.17763984 0.23887032 -0.23186973 -0.1538293 0.7622428
0.17462242 -0.16523467 0.43389538 2.918413 3.567246 -0.19699445 -0.0035127893 0.26108944
-0.50990033 -0.5570595 0.05124873 0.22809975 0.121780604 -1.2822522 -2.092292 -0.13793626
-0.03651049 0.3121349 0.17462426 -0.3582446 -0.41341117 -0.1351617 -0.34107748 -1.46953
-3.5536084 0.09782773 0.31371447 0.18329489 -0.6258077 -0.9743283 -0.0148772 0.24855904
0.2301859 -2.5730872 -3.151825 -0.0013771057 0.06951324 0.124230355 1.15651 1.4946593
0.33269113 0.2601477 0.01920035 -0.2605021 0.2894262 -0.18447438 -0.1346668 -0.2160727
0.014974773 0.35626316 -0.3085928 -0.17523003 0.024490148 0.1400283 -0.40680414 0.1664424
-0.39165166 -0.16330713 -0.9937475 0.15927419 0.094717145 0.047160357 -0.011116929 -0.46506867
00000000: f0d7 3bbe fdcd 0dc0 5693 78be e499 8e3e
00000010: 05d7 953e 98ba 33c0 b0c9 34c0 30b2 193d
00000020: a999 d83d 74e4 863c b027 cf3e bd60 1a3f
00000030: 4405 27be 8a4a d4ba ec1c f2be aeff 2bc0
00000040: 768e a5c0 4440 2dbe b5d0 023d 4981 ce3e
00000050: 864a a23d 0ebd 273e 449c 60be 9b7b 63bd
00000060: 89b0 5c3d 29fa cabf 212f 41c0 f8b7 b5be
00000070: dbd7 f63d a1a1 49be 1848 44c0 4cef 8fc0
00000080: 085c d43e 90a6 313c cc04 023e 782f 3f3e
00000090: cd91 bcbe 4887 87bd 0477 92be ccd9 91be
000000a0: 603a bcbe 9414 f3ba 6e27 78be 8c19 f1bd
000000b0: a128 d93d f371 e5bf 2d3b 87c0 18b5 9cbe
000000c0: a6ef 203e ee02 203e 1fad 2cc0 d576 85c0
000000d0: 7c41 593e c885 c73b 879d a9bf 7e72 2fc0
000000e0: 63cb 73c0 a142 a5be 9282 d03e 7aeb edbe
000000f0: 2c6c 033e 97e0 353e dd0c bbbe c092 b3be
00000100: 0f88 b43e 9318 eabe 7c87 863b 50ab c93d
00000110: 2cd2 72be abce 7d3e 67af b23e ceaa 293e
00000120: dabf dcbe 53d9 66be 1236 633e 6fdf 27c0
00000130: 844d 7cc0 1eaa 8b3e acd5 803d 0dae 9d3e
00000140: 16ca 26c0 b437 8fc0 bc19 dabe 8df8 023e
00000150: da75 e5bd 411c 4d40 e30d 6b40 fe0e 9a3e
00000160: 4f47 2b3d 44d9 05bd 2447 463e c00d c33b
00000170: 712e 5fbe 10de d3bc 30ea a1bd cd3f 0dbf
00000180: 4dbb 07c0 ea99 23be 4789 bc3e 535c 7f3e
00000190: e6c5 a83d a005 4a3f 02dd 9e3e e8aa b9bc
000001a0: 3fbe b23c 1048 d93e b8f8 df3e aaa3 d33e
000001b0: 60a3 a9bc 4866 79bd 87b2 b2bd 60be bf3f
000001c0: 684d 64bd e7ba 2e3e 0152 5cbe 63e6 62be
000001d0: c1b3 d33e 7aa3 9cbe f4f7 893e e130 c8be
000001e0: 2c95 f8bf e314 6ec0 0063 8e3e 6d37 113e
000001f0: 5b7b fb3d 629e eebf 3f5c 3ac0 94dc 67be
00000200: 6724 2c3e bab3 563d a4e4 743c 108b 323e
00000210: 785b 153d f2d3 b1be 8a6a c2be 2f8c 3840
00000220: 26fd 4f40 383d 13be 0192 49bc 6e02 1ebf
00000230: dedb 9f3e 014a d5be 90ee 39bd 0fbf af3d
00000240: 691e dfbe 3898 28be 78dd 693e 0cdc 903e
00000250: 6ae7 bcbe 8270 c53e 1d81 1240 e4ab 8b40
00000260: 6095 093e d023 4c3d 852a 86bd 2ef3 923f
00000270: 644a 7c3f 30f4 a5bc 23ef ec3b f527 823e
00000280: 8945 40c0 4bdd 60c0 50b3 133e b8e0 c23e
00000290: e630 ac3e 706e be3f ccc9 7640 b054 6c3e
000002a0: 4d5e 0a3e 4337 6e3e 9a0c 69c0 9771 3bc0
000002b0: 6293 88be a604 913c 0d89 063e 8404 dc3e
000002c0: c8fe df3e 2083 da3e 8410 06be 12b0 79be
000002d0: 67a5 a3be b566 83be b3b7 b7be 9563 03be
000002e0: dcdb 063e a724 ad3f fa03 533e 38e7 35be
000002f0: 6c9a 743e 426f 6dbe 6e85 1dbe 5822 433f
00000300: 38d0 323e 4733 29be 8927 de3e 47c7 3a40
00000310: c24d 6440 eab8 49be d336 66bb 84ad 853e
00000320: d488 02bf 749b 0ebf 30ea 513d fb92 693e
00000330: 1c68 f93d d720 a4bf 1de8 05c0 2a3f 0dbe
00000340: 068c 15bd 25d0 9f3e b4d0 323e d66b b7be
00000350: a1aa d3be d467 0abe b5a1 aebe 8f19 bcbf
00000360: 526e 63c0 e859 c83d 2f9f a03e a8b1 3b3e
00000370: ef34 20bf 946d 79bf 80bf 73bc 4386 7e3e
00000380: dab5 6b3e 76ad 24c0 80b7 49c0 0080 b4ba
00000390: f55c 8e3d 7c6c fe3d 8508 943f ff50 bf3f
000003a0: 7e56 aa3e 1432 853e 0d4a 9d3c 8860 85be
000003b0: ac2f 943e dae6 3cbe 18e6 09be 2942 5dbe
000003c0: c058 753c 2068 b63e e0ff 9dbe 806f 33be
000003d0: 909f c83c 9463 0f3e a248 d0be e06f 2a3e
000003e0: 9186 c8be fc39 27be 3c66 7ebf c618 233e
000003f0: 10fb c13d 382b 413d c823 36bc 7b1d eebe

fc1.bias f4 [256]
-0.04928303 0.12543735 0.3450546 0.41640145 -0.1942711 -0.08035385 0.3316197 -0.30857462
-0.4983579 -0.14442071 -0.15701221 0.13073547 -0.45441136 -0.228061 -0.35651064 -0.4748975
0.30415386 0.09817565 -0.17951548 -0.27333823 -0.36525464 -0.19891 0.22773616 0.034022734
0.097671986 0.1377122 0.061390996 0.1277284 -0.064667374 0.10045475 -0.39561132 -0.03171231
0.25303686 -0.43576697 0.36006308 -0.31030247 0.28604594 -0.34561488 -0.2585086 0.31492442
-0.36353204 0.40741304 -0.28643453 -0.043797906 -0.34907198 -0.2013849 0.14461143 -0.044847995
0.39284188 0.3996194 -0.49278486 0.15565021 0.04227948 -0.38014388 -0.4578446 -0.2956294
-0.4252825 0.016907059 -0.21544865 -0.24391288 -0.16849145 -0.38299075 -0.13997121 -0.21752587
0.09609246 -0.15128592 -0.09115719 0.27984118 -0.18775631 0.24653845 -0.07246368 0.25473017
-0.23574503 -0.14361902 -0.39186814 0.28081858 -0.51457334 0.38772184 -0.3185663 0.08082025
0.11980918 -0.3035459 -0.15997437 0.5867546 0.19953716 -0.26171532 0.1094836 -0.28057235
0.35760733 0.10573353 -0.24314994 -0.45894724 -0.47726977 0.48103678 -0.02002178 0.14381218
-0.24561079 -0.14540169 0.34413072 0.05583284 -0.46276197 0.03644716 -0.44480342 0.077299096
-0.16641186 -0.24224511 -0.23904616 0.22683313 -0.5059545 0.30832022 -0.46565875 -0.3405846
-0.4042063 -0.048185945 -0.21825303 -0.06095959 0.034832615 0.30122697 -0.21028985 0.35788298
0.20289588 -0.5107706 0.38045424 -0.21303838 -0.15739664 0.00036887103 0.40611959 0.1346454
0.3244314 -0.033885807 -0.27456012 -0.3253791 0.16397403 -0.3041896 -0.2636644 -0.5243247
-0.2850029 -0.5684799 -0.22421055 0.16504094 -0.32659504 -0.121282905 -0.3716532 -0.0379017
-0.15611741 -0.16940103 -0.3466848 -0.40953383 0.3910158 0.17232662 0.007822605 -0.105045095
-0.29434887 -0.19236673 -0.039815567 -0.35822126 0.3372674 -0.42067507 -0.0018171633 -0.1900809
0.1424925 0.25626743 0.071633674 0.29965967 0.27403557 0.044425994 -0.21634746 0.03420155
0.3304531 0.16027258 0.3493223 0.1495384 0.41881 -0.35339448 -0.5358642 -0.27000958
-0.204118 -0.08151167 -0.07273785 -0.3151748 0.3907299 -0.37916464 0.20157564 0.008539212
0.20184089 0.18140465 0.07789365 -0.21790732 0.39442515 -0.31010833 -0.19733885 -0.03159757
-0.29148787 0.26148883 -0.098968536 0.33923718 -0.4030857 -0.3022157 -0.08673337 0.261763
0.05498124 0.19111504 -0.43568352 -0.25864565 -0.44826016 0.38721898 -0.14591828 -0.2381044
-0.06619028 -0.30863807 -0.39099687 -0.119201206 -0.06222126 0.26183128 0.26679364 -0.44207317
0.2868864 -0.4151527 -0.19928981 -0.12112948 0.32011598 0.0994184 0.4066701 0.2547952
0.16259417 -0.31528205 0.14615822 -0.51465684 0.3820393 0.30421942 -0.43158275 -0.5033558
-0.1025964 0.41003567 0.14740103 0.42429307 -0.22181146 -0.38155356 -0.54817843 0.30695647
-0.29005733 0.34832096 -0.38612822 0.14764829 -0.21645299 0.07289432 -0.0029158108 0.18199152
-0.105213225 -0.35695764 0.23687953 -0.3306422 0.2393527 0.29037324 0.20810834 -0.13322917
00000000: 01dd 49bd a672 003e ffaa b03e 9232 d53e
00000010: 01ef 46be 8f90 a4bd 0fca a93e 7efd 9dbe
00000020: c428 ffbe 06e3 13be cfc7 20be 85df 053e
00000030: 9ba8 e8be d388 69be 9088 b6be c425 f3be
00000040: 0eba 9b3e 5110 c93d e8d2 37be fdf2 8bbe
00000050: a802 bbbe 10af 4bbe ab33 693e 6c5b 0b3d
00000060: 4008 c83d 6d04 0d3e 2075 7b3d 3ccb 023e
00000070: 5470 84bd 38bb cd3d 918d cabe c4e4 01bd
00000080: 0c8e 813e d91c dfbe 305a b83e f7df 9ebe
00000090: 9d74 923e 6ff4 b0be 3d5b 84be c63d a13e
000000a0: df20 babe 7198 d03e 8ca7 92be 6f65 33bd
000000b0: 90b9 b2be d837 4ebe 0515 143e 88b2 37bd
000000c0: 9222 c93e ea9a cc3e 4c4e fcbe c562 1f3e
000000d0: 3f2d 2d3d 38a2 c2be 9b6a eabe bd5c 97be
000000e0: a1be d9be ac80 8a3c 929e 5cbe 4cc4 79be
000000f0: 0689 2cbe 5d17 c4be 9d54 0fbe 1abf 5ebe
00000100: 20cc c43d b2ea 1abe 9fb0 babd 5847 8f3e
00000110: 3143 40be 9374 7c3e d667 94bd fe6b 823e
00000120: 2567 71be dd10 13be f1a2 c8be 74c7 8f3e
00000130: 14bb 03bf 7a83 c63e 1f1b a3be 1685 a53d
00000140: 845e f53d 5e6a 9bbe 52d0 23be 8d35 163f
00000150: 7853 4c3e 8dff 85be f038 e03d 2ea7 8fbe
00000160: 4f18 b73e d28a d83d 4cfc 78be 22fb eabe
00000170: b45c f4be 744a f63e b704 a4bc 8043 133e
00000180: 6581 7bbe 2ee4 14be e731 b03e fab0 643d
00000190: 23ef ecbe 9e49 153d 46bd e3be fd4e 9e3d
000001a0: df67 2abe 1a0f 78be 84c8 74be f246 683e
000001b0: 3c86 01bf 26dc 9d3e d36a eebe 1b61 aebe
000001c0: 21f4 cebe a05e 45bd b97d 5fbe c3b0 79bd
000001d0: a5ac 0e3d 6c3a 9a3e 3956 57be 703c b73e
000001e0: f0c3 4f3e ddc1 02bf e6ca c23e bc26 5abe
000001f0: 962c 21be 0865 c139 e8ee cf3e 7ce0 093e
00000200: df1b a63e d8cb 0abd 2593 8cbe 1798 a6be
00000210: cfe8 273e bdbe 9bbe 05ff 86be 253a 06bf
00000220: e6eb 91be e687 11bf 7397 65be 7e00 293e
00000230: 7737 a7be 2c63 f8bd 5449 bebe d03e 1bbd
00000240: 3edd 1fbe 7777 2dbe ac80 b1be 6bae d1be
00000250: 3933 c83e 6476 303e 622a 003c e221 d7bd
00000260: e5b4 96be c9fb 44be a615 23bd c768 b7be
00000270: 50ae ac3e b962 d7be e22d eeba 91a4 42be
00000280: 8ee9 113e 7c35 833e adb4 923d fe6c 993e
00000290: 644e 8c3e 08f8 353d 308a 5dbe ed16 0c3d
000002a0: 2631 a93e 7f1e 243e 5fda b23e 9820 193e
000002b0: 446e d63e 1ff0 b4be 652e 09bf b23e 8abe
000002c0: 4f04 51be 97ef a6bd 95f7 94bd 975e a1be
000002d0: c00d c83e de21 c2be d869 4e3e 0de8 0b3c
000002e0: 61af 4e3e 24c2 393e b586 9f3d 1923 5fbe
000002f0: 18f2 c93e 85c6 9ebe 3213 4abe 746c 01bd
00000300: e63d 95be dde1 853e 04b0 cabd 7fb0 ad3e
00000310: 4061 cebe 04bc 9abe 44a1 b1bd cd05 863e
00000320: 0234 613d a9b3 433e e911 dfbe 346d 84be
00000330: 5b82 e5be 9141 c63e 9a6b 15be a4d1 73be
00000340: c58e 87bd cf05 9ebe be30 c8be c31f f4bd
00000350: b8db 7ebd c00e 863e 2d99 883e 6a57 e2be
00000360: c6e2 923e e58e d4be a112 4cbe bc12 f8bd
00000370: 3ee6 a33e e09b cb3d 1037 d03e 8474 823e
00000380: 167f 263e a66c a1be 80aa 153e 8dc0 03bf
00000390: a89a c33e a6c2 9b3e 6af8 dcbe eddb 00bf
000003a0: 101e d2bd 32f0 d13e 4cf0 163e f13c d93e
000003b0: 8b22 63be fd5a c3be 6c55 0cbf 6629 9d3e
000003c0: 6582 94be 2057 b23e 99b2 c5be 1d31 173e
000003d0: daa5 5dbe 9e49 953d 3017 3fbb fc5b 3a3e
000003e0: 087a d7bd 27c3 b6be 8c90 723e ef49 a9be
000003f0: e018 753e cdab 943e 5a1a 553e 3a6d 08be

fc2.weight f4 [256, 256]
0.027501423 0.010946496 0.012775616 -0.03291856 -0.033508644 0.014369482 -0.0665494 0.044400103
0.02508445 -0.013576368 0.092016995 -0.010943703 -0.0015498968 0.017700175 0.05101306 -0.030915655
-0.046972606 -0.026879672 -0.049330942 0.02699739 0.033956423 -0.02984336 0.03656562 0.012279592
-0.016429106 -0.06545863 0.0008340478 -0.2141135 -0.032732297 0.021080047 0.0012406975 -0.06992749
-0.0013672644 0.02192354 -0.07145785 -0.009724788 -0.037075985 -0.06751946 0.017284058 0.0048523345
-0.057273787 -0.027941382 -0.030781128 0.017447226 0.013170869 0.01622831 0.03142397 0.05613239
-0.0066039413 -0.019831926 -0.04977924 -0.033376027 0.03132134 -0.006772165 -0.059873298 -0.010055095
0.0004193371 -0.027860168 -0.0025660396 -0.04899246 -0.019216448 0.02035436 -0.060977474 0.013474233
-0.07949405 -0.015955776 -0.057335626 0.028513603 -0.06608299 -0.045969754 0.034149393 0.005954489
0.010308929 0.02637303 -0.026304485 -0.005031615 0.0077642105 0.06248326 -0.0039137243 -0.029066417
-0.07101826 -0.033895798 0.036978386 -0.015397105 -0.059184864 -0.016479025 -0.041172475 -0.035300158
0.012121268 -0.07635288 0.05550576 -0.065866925 -0.09660805 -0.020663274 -0.009440733 0.0052975416
0.05504191 0.035947934 0.04917574 0.033359632 -0.26095238 -0.0449073 -0.007832959 -0.0009990424
-0.032388825 -0.01898899 0.013756113 0.0018754876 -0.036368184 -0.069461085 0.04542735 -0.049602672
-0.007887472 0.048597142 -0.09570653 0.0063027777 0.015829332 0.02005139 -0.017239356 -0.011423528
0.041548572 -0.02799726 -0.006701097 -0.023756914 0.030335253 0.028616775 0.025754632 0.042258628
0.011787109 0.0097261965 0.02943336 0.025481569 -0.012512797 -0.04141521 0.004406976 0.008300979
-0.02476594 -0.05356116 -0.022564664 -0.04487005 0.03213327 -0.03387298 0.017560259 -0.015106298
-0.03987443 -0.05473761 0.022623561 -0.0059117675 -0.0294125 0.060425937 -0.018334594 0.02659841
0.019940566 -0.046848178 -0.023874478 0.031089624 0.023927659 -0.06297014 -0.08052819 -0.06610534
0.01562472 -0.022094905 -0.015448887 -0.030390017 -0.034059245 -0.010883167 0.059764132 -0.040621724
-0.0073546693 -0.053042598 -0.060590044 -0.05592546 0.032382235 0.05929415 -0.002324793 -0.044821866
-0.0010200888 0.037327815 0.0054818164 -0.08026295 0.029817574 0.0601144 0.044640567 0.0050828373
0.020742621 -0.031887107 -0.0054763216 -0.03431927 -0.049386594 -0.01863448 -0.049907297 -0.0100772
-0.051531617 -0.032340396 -0.024704859 -0.023786934 -0.011962199 -0.043817706 -0.005824581 0.01368347
-0.01167535 0.024744138 -0.036886744 -0.0003668105 0.025298657 0.010456247 0.045827486 0.026554452
-0.046513647 0.003405489 0.0613285 -0.0017599104 -0.0023453534 0.037019104 0.034731284 0.00602068
-0.01815429 -0.044743508 0.024446309 0.010615736 -0.028781062 0.05805386 -0.05936964 0.03181885
-0.05376158 0.04123863 -0.0057971925 -0.053809263 -0.037270445 0.027326332 -0.061052725 0.011011503
-0.03156032 0.004563997 0.05025801 0.044394698 0.004049441 0.03075388 0.03187771 0.043275557
0.026542159 0.055190787 0.01619739 -0.0031634497 -0.035948716 0.038089264 0.0055980454 -0.038328767
0.023884967 0.066722244 -0.07535152 -0.08023464 0.062370054 -0.050513867 0.059966426 -0.014108576
00000000: aa4a e13c ef58 333c d150 513c 9dd5 06bd
00000010: 5c40 09bd fa6d 6b3c 0d4b 88bd e2dc 353d
00000020: e87d cd3c 6a6f 5ebc 6873 bc3d 384d 33bc
00000030: e825 cbba f5ff 903c 12f3 503d d442 fdbc
00000040: 5966 40bd c232 dcbc 3e0f 4abd a129 dd3c
00000050: e415 0b3d 107a f4bc d5c5 153d 5830 493c
00000060: 5596 86bc 2d0f 86bd 00a4 5a3a 9240 5bbe
00000070: 4d12 06bd 10b0 ac3c e69e a23a 2536 8fbd
00000080: c835 b3ba ff98 b33c 7e58 92bd b854 1fbc
00000090: fddc 17bd a547 8abd 4c97 8d3c 5500 9f3b
000000a0: eb97 6abd 53e5 e4bc b428 fcbc 7ced 8e3c
000000b0: a1ca 573c 3cf1 843c 6cb6 003d 14eb 653d
000000c0: e065 d8bb 9076 a2bc 51e5 4bbd 4db5 08bd
000000d0: ce4a 003d 0ae9 ddbb b43d 75bd 20be 24bc
000000e0: 79da db39 023b e4bc 002b 28bb 51ac 48bd
000000f0: d06b 9dbc 30be a63c 84c3 79bd 08c3 5c3c
00000100: c7cd a2bd b0b5 82bc c3d8 6abd 5c95 e93c
00000110: 8556 87bd c84a 3cbd 3ce0 0b3d e01d c33b
00000120: c8e6 283c 410c d83c 817c d7bc 3fe0 a4bb
00000130: eb6a fe3b 72ee 7f3d b33e 80bb b21c eebc
00000140: 0672 91bd 52d6 0abd a676 173d 2444 7cbc
00000150: d46b 72bd 05ff 86bc 78a4 28bd e696 10bd
00000160: 4898 463c e65e 9cbd 025a 633d 3de5 86bd
00000170: 71da c5bd 0746 a9bc 4ead 1abc 0097 ad3b
00000180: a073 613d 243e 133d 806c 493d 1ca4 083d
00000190: 8d9b 85be b8f0 37bd d055 00bc 4df2 82ba
000001a0: 25aa 04bd cc8e 9bbc 5261 613c ecd2 f53a
000001b0: cef6 14bd 9d41 8ebd 0712 3a3d 2c2c 4bbd
000001c0: 753a 01bc cc0d 473d c901 c4bd 8887 ce3b
000001d0: 84ac 813c d042 a43c 8d39 8dbc c029 3bbc
000001e0: d62e 2a3d 835a e5bc e094 dbbb dc9d c2bc
000001f0: a381 f83c ba6d ea3c 61fb d23c 6217 2d3d
00000200: b81e 413c a05a 1f3c 3b1e f13c b9be d03c
00000210: 7902 4dbc ffa2 29bd 6568 903b d400 083c
00000220: f1e1 cabc f262 5bbd 88d9 b8bc a8c9 37bd
00000230: 2d9e 033d 65be 0abd 88da 8f3c 6880 77bc
00000240: 5f53 23bd 8b34 60bd 0c55 b93c 80b7 c1bb
00000250: 7cf2 f0bc 3081 773d 6e32 96bc e9e4 d93c
00000260: 665a a33c e0e3 3fbd 6994 c3bc abaf fe3c
00000270: f003 c43c 7df6 80bd f7eb a4bd 3d62 87bd
00000280: d3fe 7f3c 6000 b5bc 541d 7dbc 7cf4 f8bc
00000290: b581 0bbd 504f 32bc 3ccb 743d f762 26bd
000002a0: 70ff f0bb 3243 59bd 442d 78bd 1812 65bd
000002b0: 3ca3 043d 6cde 723d 8e5b 18bb 2297 37bd
000002c0: 80b4 85ba 0de5 183d cfa0 b33b e760 a4bd
000002d0: fc43 f43c 843a 763d 07d9 363d ee8d a63b
000002e0: 6eec a93c 0e9c 02bd b772 b3bb 5d92 0cbd
000002f0: 9949 4abd 56a7 98bc 986b 4cbd d71a 25bc
00000300: d112 53bd 5d77 04bd d861 cabc d1dc c2bc
00000310: 19fd 43bc 327a 33bd 20dc bebb a230 603c
00000320: f849 3fbc 38b4 ca3c 8e16 17bd 7950 c0b9
00000330: 213f cf3c ae50 2b3c 9ab5 3b3d b988 d93c
00000340: 1885 3ebd a02e 5f3b 9833 7b3d cbac e6ba
00000350: 80b4 19bb 58a1 173d 6442 0e3d 2049 c53b
00000360: 4eb8 94bc f844 37bd a043 c83c a0ed 2d3c
00000370: 43c6 ebbc e2c9 6d3d 942d 73bd 7c54 023d
00000380: 1a35 5cbd d6e9 283d 60f6 bdbb 1a67 5cbd
00000390: e5a8 18bd 79db df3c 6c12 7abd 9769 343c
000003a0: 6545 01bd 958d 953b 58db 4d3d 37d7 353d
000003b0: 2cb1 843b 90ef fb3c 3492 023d b641 313d
000003c0: f16e d93c bc0f 623d 64b0 843c e151 4fbb
000003d0: f63e 13bd 7d03 1c3d cf6f b73b a0fe 1cbd
000003e0: 68aa c33c aca5 883d e651 9abd 0f52 a4bd
000003f0: be77 7f3d a1e7 4ebd 5b9f 753d a827 67bc

fc2.bias f4 [256]
-0.012433634 -0.025456239 -0.049684525 -0.02358167 0.013826894 -0.0045395344 -0.03581669 -0.023057185
-0.02927131 0.039977543 -0.015196126 -0.016637921 -0.010313011 -0.00408092 0.0036971446 -0.021402745
0.01138518 -0.009892255 0.0069005946 -0.056543477 -0.058395423 0.028147016 -0.009901404 0.02162589
-0.062179253 -0.058242362 -0.056366306 0.041263282 -0.0069473474 0.034193546 0.01465037 0.040758066
0.042475007 0.03176686 -0.004244926 -0.022841826 -0.0021864914 0.018100644 -0.05147642 -0.001238509
0.032095112 -0.01510169 -0.038130246 0.025638424 0.006044604 0.03239329 -0.027627133 0.028108273
-0.07332645 0.011667899 0.02436994 0.05021063 0.03226365 -0.07195853 0.03657456 0.0034838715
-0.02788923 -0.06219408 -0.010631151 0.037570707 0.04361835 -0.0071155448 0.050741687 -0.06721846
-0.01872724 0.03072082 0.040928997 0.042623565 0.056673788 -0.005630642 0.038689036 -0.00044360012
-0.043576628 0.05362076 -0.043970764 0.025008457 0.036302418 -0.055629373 -0.039063998 -0.045631714
-0.038834326 -0.01845184 -0.008561564 -0.032412667 0.007511077 0.045456406 -0.037000038 -0.036020987
-0.015477199 -0.015317198 0.005920656 0.0028180683 0.033932455 -0.025366582 -0.043216065 -0.044505715
0.004070023 -0.029770128 0.045664277 -0.0073942896 -0.0660666 -0.0016838212 -0.045700803 0.023771659
-0.009817361 -0.012367138 -0.015713105 0.035085186 0.03539946 0.044285174 0.020246785 0.020580571
-0.0068607344 -0.0069478136 0.047173835 -0.02361259 -0.00291574 -0.028828746 -0.046534345 0.00455962
-0.009148926 -0.03514703 -0.038920008 -0.057603847 -0.05591331 0.026361391 -0.0056218877 -0.022926599
0.013853716 0.016850807 0.049943894 -0.06227313 0.055057265 0.0020954236 -0.029305957 -0.015322972
-0.06743602 0.015695501 0.0092458995 -0.05632533 0.04012333 -0.009819224 -0.04917947 -0.015891068
-0.011157066 -0.059646733 0.019833278 0.016285308 0.0060814023 -0.04703817 -0.013278158 -0.03240596
0.006415189 -0.022812769 0.05407554 -0.028283363 -0.043649428 -0.04583192 -0.04112654 -0.053055264
-0.04507643 -0.016629526 -0.033319402 0.02809747 -0.02477041 0.011289596 0.015792452 -0.032540817
0.02333766 -0.062497392 -0.0028266367 0.028855938 0.031872496 0.029238898 0.0426191 0.041582845
0.0020582946 0.039133094 0.038034875 -0.027036134 -0.003002331 -0.07146083 -0.033536214 -0.028878665
-0.06312362 0.044957962 0.019793049 0.05050674 -0.008173779 -0.015227605 0.029347315 -0.0024271384
-0.002780443 0.0059525073 -0.022047967 -0.053631194 -0.008321375 -0.021835998 -0.067783214 0.01457102
-0.00072412146 0.010863609 0.01750832 0.008154202 -0.043753207 -0.012759225 -0.040466517 -0.039301068
-0.033531744 -0.007006114 -0.03244545 -0.05421997 0.051974 0.04833606 0.030142874 -0.067157365
-0.028099604 -0.05833177 -0.0297027 -0.051048078 0.055738635 -0.0040370547 -0.0017927395 -0.027416116
-0.013712714 -0.01995398 -0.04164767 -0.03963154 0.052511368 0.04977104 -0.017566064 -0.030541636
0.0114134615 -0.0072960346 -0.042385276 -0.042938855 -0.06502501 0.011347823 -0.028631678 -0.071025714
-0.020985885 -0.017131323 -0.030415721 0.040366165 -0.053391285 0.040425874 -0.003636323 0.019363783
-0.06634972 0.0036046174 -0.0319932 -0.021790922 -0.01497652 0.047888435 -0.04398492 -0.03212135
00000000: 71b6 4bbc 9a89 d0bc 0082 4bbd 592e c1bc
00000010: 328a 623c 60c0 94bb 86b4 12bd 6ce2 bcbc
00000020: 63ca efbc 7ebf 233d 2cf9 78bc 404c 88bc
00000030: e7f7 28bc 3db9 85bb cb4b 723b cf54 afbc
00000040: e888 3a3c 2013 22bc 621e e23b 229a 67bd
00000050: 0a30 6fbd 9294 e63c 8039 22bc c728 b13c
00000060: acaf 7ebd 8b8f 6ebd 5be0 66bd b003 293d
00000070: 93a6 e3bb 880e 0c3d 1b08 703c eef1 263d
00000080: 46fa 2d3d f81d 023d 0519 8bbb c81e bbbc
00000090: 3d4b 0fbb cd47 943c f0d8 52bd 7755 a2ba
000000a0: 2a76 033d 146d 77bc 762e 1cbd ac07 d23c
000000b0: d011 c63b d4ae 043d 4c52 e2bc 5243 e63c
000000c0: 2e2c 96bd b72a 3f3c 78a3 c73c a9a9 4d3d
000000d0: e426 043d fe5e 93bd 35cf 153d aa51 643b
000000e0: f477 e4bc 38bf 7ebd 472e 2ebc bee3 193d
000000f0: 28a9 323d 8429 e9bb 84d6 4f3d d5a9 89bd
00000100: de69 99bc 3baa fb3c 2aa5 273d 0c96 2e3d
00000110: c622 683d 4081 b8bb 6578 1e3d 0093 e8b9
00000120: 687d 32bd 71a1 5b3d b01a 34bd 89de cc3c
00000130: d8b1 143d a0db 63bd 9201 20bd 52e8 3abd
00000140: be10 1fbd 5028 97bc cd45 0cbc 25c3 04bd
00000150: 7b1f f63b 7f30 3a3d 5a8d 17bd be8a 13bd
00000160: 1494 7dbc fcf4 7abc 1002 c23b 57af 383b
00000170: c2fc 0a3d 94cd cfbc 5403 31bd a04b 36bd
00000180: d45d 853b 7ce0 f3bc 770a 3b3d cc4b f2bb
00000190: ed4d 87bd aab3 dcba c430 3bbd c8bc c23c
000001a0: ffd8 20bc 899f 4abc c5b8 80bc 7cb5 0f3d
000001b0: 06ff 103d 5f64 353d 96dc a53c 9698 a83c
000001c0: 03d0 e0bb 7caa e3bb 5a39 413d 316f c1bc
000001d0: 0016 3fbb 432a ecbc cc9a 3ebd dd68 953b
000001e0: 60e5 15bc 55f6 0fbd 966a 1fbd 03f2 6bbd
000001f0: 5b05 65bd d8f3 d73c d037 b8bb 90d0 bbbc
00000200: b2fa 623c b40a 8a3c f891 4c3d 1c12 7fbd
00000210: ba83 613d 6053 093b 0c13 f0bc 340d 7bbc
00000220: e51b 8abd da93 803c 1d7c 173c 64b5 66bd
00000230: 5c58 243d cfe0 20bc 6970 49bd fc2d 82bc
00000240: 20cc 36bc 2250 74bd 6679 a23c c468 853c
00000250: 8046 c73b 19ab 40bd a28c 59bc 1dbc 04bd
00000260: 8136 d23b d8e1 babc 507e 5d3d 83b2 e7bc
00000270: bec9 32bd 40ba 3bbd 4e74 28bd 7a50 59bd
00000280: 10a2 38bd a53a 88bc ed79 08bd aa2c e63c
00000290: 51eb cabc fff7 383c 2c5f 813c 8549 05bd
000002a0: 9f2e bf3c 44fd 7fbd 183f 39bb 4a63 ec3c
000002b0: bc8c 023d 6a86 ef3c 5e91 2e3d c652 2a3d
000002c0: 74e4 063b 064a 203d 75ca 1b3d e27a ddbc
000002d0: c1c2 44bb 0e5a 92bd 455d 09bd f392 ecbc
000002e0: f546 81bd d725 383d 0825 a23c 28e0 4e3d
000002f0: 50eb 05bc 347d 79bc c869 f03c a010 1fbb
00000300: 1838 36bb 400d c33b f09d b4bc 62ac 5bbd
00000310: 6056 08bc 68e1 b2bc edd1 8abd 4abb 6e3c
00000320: f8d2 3dba 47fd 313c 9c6d 8f3c 3499 053c
00000330: 9036 33bd 120c 51bc 38c0 25bd 28fa 20bd
00000340: 9558 09bd 8b93 e5bb 85e5 04bd c215 5ebd
00000350: b0e2 543d 08fc 453d 30ee f63c cd89 89bd
00000360: 2431 e6bc 4bed 6ebd 1453 f3bc ca17 51bd
00000370: 324e 643d 4549 84bb 5bfa eaba c397 e0bc
00000380: 4bab 60bc 8776 a3bc bf96 2abd af54 22bd
00000390: 2916 573d b8dc 4b3d b5e6 8fbc 7432 fabc
000003a0: 87ff 3a3c 9313 efbb 2f9c 2dbd a7e0 2fbd
000003b0: d52b 85bd 38ec 393c fb8c eabc ee75 91bd
000003c0: 97ea abbc fd56 8cbc 642a f9bc fe56 253d
000003d0: d2b0 5abd 9a95 253d 604f 6ebb cca0 9e3c
000003e0: 5de2 87bd 723b 6c3b 4d0b 03bd e082 b2bc
000003f0: 1460 75bc aa26 443d 8829 34bd ad91 03bd

V.weight f4 [1, 256]
-0.02598411 0.022514744 0.031853944 0.010409681 -0.0103247445 -0.025600985 -0.03734155 0.036813974
-0.029891944 0.011353061 -0.030410131 0.046267472 -0.026414756 -0.05159569 -0.021775274 0.022045359
-0.022082783 -0.034857526 -0.009914776 0.048849702 0.017015554 0.003911256 -0.028875954 -0.012930215
-0.0062514623 0.03541972 0.038534068 -0.024872683 0.002342255 -0.03576334 -0.014316584 0.045445975
0.019505888 0.057221632 0.014196256 -0.02331121 -0.04317802 0.026641624 -0.0050365105 -0.035393644
-0.06112542 0.0040499996 0.050017655 0.05141986 -0.005058959 -0.014259214 0.036210977 -0.05838988
0.0111409575 0.0016916676 0.12794895 0.046918124 0.0035542331 -0.009059076 0.0016042163 0.012437173
0.047903337 -0.041292593 -0.005690805 -0.017772675 0.040459953 0.039684437 -0.03717672 -0.012077682
-0.016856022 -0.003408667 -0.002440296 -0.035446547 -0.022535466 -0.004577222 0.0499357 -0.038937263
0.00558389 -0.0035519977 -0.004065646 0.045898564 0.00012245029 -0.041247353 -0.03776154 -0.035262354
-0.014301123 -0.033965066 -0.037584115 -0.050480336 -0.05578441 -0.014237607 0.0007507056 -0.03398995
-0.021795765 -0.030251807 -0.014744247 0.024849385 -0.029365964 -0.015892558 -0.045909308 0.026970195
-0.0041619446 -7.298011e-05 -0.0042370097 0.030783033 -0.017104127 0.0047000633 -0.033240378 0.004584673
0.029089514 0.0018162786 -0.019644406 -0.012419478 0.044200704 0.020976942 -0.026586117 0.008920496
0.0313925 -0.031654947 0.050604887 0.01706352 0.0052862167 -0.015811078 0.020076305 -0.045665022
0.029588073 -0.00064693805 0.008257579 0.0029096175 -0.00024062925 -0.056209385 -0.015309375 -0.049314253
-0.0071313763 -0.008027357 -0.0011182983 -0.0040564258 -0.012155056 -0.014812373 -0.0005676941 -0.010188771
-0.032365724 -0.048057407 -0.030618005 -0.019255858 0.0044087544 0.055701084 -0.0040831547 -0.04973498
0.038728632 0.03923219 -0.030956632 -0.02600758 -0.017275492 -0.035563517 -0.011302075 -0.0011062842
-0.021477623 0.012639643 -0.0550846 0.001372503 -0.031262368 0.0055043544 0.01733394 -0.004716082
-0.0064602653 0.04645553 0.03512393 -0.018938463 0.0051118014 -0.0010415106 0.027330058 -0.002007491
-0.00034811415 0.00797334 -0.012426369 0.00085981534 0.0071514 0.002457879 0.025463268 -0.027023094
-0.007490961 -0.068163194 0.009673377 -0.07292412 0.009725578 -0.017230414 -0.021233615 -0.021602795
0.00043665976 0.006215792 -0.023898035 0.029829986 0.036551006 0.023894968 -0.0038364902 0.0026004836
-0.020131674 0.029278386 -0.0015269397 -0.026502298 0.052342013 0.046972603 0.00970616 0.011194414
-0.0044627627 -0.020884927 0.013329753 0.034021243 -0.020550769 -0.0022958755 -0.0040631443 0.009326488
-0.004989798 -0.031006923 -0.03160353 0.008317679 0.037323825 -0.009387089 -0.013642572 0.009530139
0.005744517 0.0073198765 -0.008834441 -0.022439867 -0.0023125187 -0.049034923 0.040385537 0.051650826
0.0018462907 -0.021018667 -0.03406222 -0.008322959 -0.051148657 0.0066959825 -0.025597798 -0.028237168
-0.004713754 -0.011923082 -0.008127753 0.0070749386 0.026435243 -0.0574423 -0.04046824 0.005958189
0.019688364 0.05409983 -0.04385155 0.0032936952 -0.005023792 -0.017334938 0.0572732 0.051379815
-0.005594879 -0.0027965084 0.022420121 -0.00864203 -0.013285422 -0.030178986 -0.0053766705 -0.00439254
00000000: a1dc d4bc d770 b83c 4879 023d 5e8d 2a3c
00000010: 1e29 29bc 28b9 d1bc 74f3 18bd 40ca 163d
00000020: f3df f4bc 3002 3a3c ab1e f9bc f682 3d3d
00000030: c263 d8bc 0156 53bd 0f62 b2bc 7898 b43c
00000040: f4e6 b4bc c4c6 0ebd 9671 22bc a016 483d
00000050: 3464 8b3c fe29 803b 448d ecbc 41d9 53bc
00000060: 11d9 ccbb 4514 113d e6d5 1d3d ccc1 cbbc
00000070: 8580 193b 947c 12bd 1b90 6abc 8f25 3a3d
00000080: d0ca 9f3c 3b61 6a3d 6a97 683c 27f7 bebc
00000090: 6fdb 30bd 893f da3c 5009 a5bb edf8 10bd
000000a0: a65e 7abd dcb5 843b 50df 4c3d a29d 523d
000000b0: a0c5 a5bb 7a9f 69bc f651 143d 3a2a 6fbd
000000c0: 9088 363c f2ba dd3a 0d05 033e 382d 403d
000000d0: 23ee 683b 856c 14bc 9144 d23a 49c5 4b3c
000000e0: 4a36 443d 6c22 29bd ef79 babb 0098 91bc
000000f0: 56b9 253d 268c 223d 9e46 18bd 78e1 45bc
00000100: a415 8abc f163 5fbb 60ed 1fbb 6630 11bd
00000110: 4c9c b8bc 85fc 95bb 6089 4c3d ae7c 1fbd
00000120: 10f9 b63b a2c8 68bb 1c39 85bb 2200 3c3d
00000130: 0066 0039 fcf2 28bd d8ab 1abd 426f 10bd
00000140: 424f 6abc f41e 0bbd cdf1 19bd 78c4 4ebd
00000150: 327e 64bd da44 69bc 00cb 443a 0c39 0bbd
00000160: 088d b2bc a3d2 f7bc db91 71bc f090 cb3c
00000170: e490 f0bc 1c31 82bc 660b 3cbd 99f0 dc3c
00000180: ec60 88bb e60c 99b8 9dd6 8abb b32c fc3c
00000190: f41d 8cbc fd02 9a3b 1027 08bd 063b 963b
000001a0: 224d ee3c 3210 ee3a 4eed a0bc 117b 4bbc
000001b0: cc0b 353d d6d7 ab3c 21cb d9bc 4627 123c
000001c0: 6c95 003d 9ea8 01bd 1247 4f3d ccc8 8b3c
000001d0: 0038 ad3b 3c86 81bc 1077 a43c 3f0b 3bbd
000001e0: b062 f23c 4797 29ba cc4a 073c 48af 3e3b
000001f0: 6c51 7cb9 d03b 66bd 2cd4 7abc befd 49bd
00000200: 52ae e9bb 2d85 03bc dd93 92ba c4eb 84bb
00000210: 0026 47bc 98af 72bc 4ed1 14ba ceee 26bc
00000220: ec91 04bd d8d7 44bd 9cd2 fabc 76be 9dbc
00000230: 5077 903b d226 643d fccb 85bb e8b6 4bbd
00000240: eaa1 1e3d efb1 203d c398 fdbc d90d d5bc
00000250: 5585 8dbc 0dab 11bd 572c 39bc bd00 91ba
00000260: d7f1 afbc 8116 4f3c 64a0 61bd 8fe5 b33a
00000270: f80c 00bd df5d b43b e8ff 8d3c 5d89 9abb
00000280: a2b0 d3bb 2748 3e3d 1cde 0f3d d624 9bbc
00000290: e680 a73b 4c83 88ba 49e3 df3c 1c90 03bb
000002a0: 1783 b6b9 9da2 023c f897 4bbc 3b65 613a
000002b0: 4b56 ea3b 5e14 213b 5898 d03c 895f ddbc
000002c0: bc76 f5bb 2599 8bbd 157d 1e3c 3e59 95bd
000002d0: 0858 1f3c cc26 8dbc 1ef2 adbc 58f8 b0bc
000002e0: 7bef e439 d8ad cb3b d0c5 c3bc 045e f43c
000002f0: 82b6 153d 61bf c33c a06d 7bbb e06c 2a3b
00000300: 2eeb a4bc 3ad9 ef3c 9823 c8ba 591b d9bc
00000310: 9464 563d 5866 403d 9606 1f3c c768 373c
00000320: 5e3c 92bb de16 abbc 0965 5a3c dc59 0b3d
00000330: 165a a8bc 6676 16bb 2024 85bb 20ce 183c
00000340: 7681 a3bb 3b02 febc b472 01bd e046 083c
00000350: dee0 183d 4ecc 19bc 1885 5fbc 4d24 1c3c
00000360: 803c bc3b 93db ef3b 55be 10bc d0d3 b7bc
00000370: a08d 17bb d8d8 48bd 4e6b 253d d18f 533d
00000380: 3cff f13a 572f acbc d484 0bbd 055d 08bc
00000390: 4181 51bd f969 db3b 79b2 d1bc a251 e7bc
000003a0: d675 9abb 0859 43bc 442a 05bc e3d4 e73b
000003b0: b98e d83c 9e48 6bbd 06c2 25bd e93c c33b
000003c0: 7e49 a13c c997 5d3d af9d 33bd 09db 573b
000003d0: 9f9e a4bb 0002 8ebc 4e97 6a3d a473 523d
000003e0: 3f55 b7bb a045 37bb 67aa b73c 4d97 0dbc
000003f0: 19ab 59bc ec39 f7bc c82e b0bb 4cef 8fbb

A.weight f4 [6, 256]
-0.025207015 0.035164915 -0.031015031 0.07317893 0.04178699 -0.017011233 -0.037522107 -0.0099457055
0.0010309634 -0.02769202 -0.070647225 -0.022339769 0.025550859 0.030299863 -0.023603275 0.030963711
-0.011130646 0.003472127 0.023858087 -0.022431977 0.021109514 0.022579566 -0.031139024 -0.046076298
-0.048479855 0.060335234 -0.005950459 0.006945625 0.007574221 0.051633947 -0.0068893256 0.033925135
0.027903803 -0.044495538 0.020974334 -0.0023234892 0.0003623983 0.050615195 -0.017606251 0.03738593
-0.05432269 0.020222573 0.006216817 0.018085718 0.031998493 -0.02637415 -0.008172005 -0.10729367
-0.019370224 0.022055415 0.22499135 -0.0432565 -0.06028457 -0.0153471865 -0.012276985 0.009130043
0.042219512 -0.0013709962 -0.033542916 -0.004306525 -0.008279957 0.060385898 0.018350422 0.010268307
-0.010101787 -0.009535913 -0.015405841 0.05495414 0.030113973 -0.0152499555 -0.05067107 0.0068390816
-0.015017312 0.034165785 0.022784084 0.03651 0.023628794 -0.018273689 0.03925257 0.055017292
-0.03480803 -0.031154446 -0.00044385422 -0.04525003 0.03433864 -0.022800848 -0.020497374 0.044280704
-0.0073327287 -0.0356872 0.0032588171 0.030384056 0.04207047 0.048685066 -0.058148384 0.022662267
0.00017141155 0.022708459 0.0009420628 0.071687326 0.032542303 0.041298978 0.02158776 -0.040173944
0.023375658 -0.0058481987 -0.00069527375 0.01707209 0.029314637 0.0392307 0.010709381 0.009712678
-0.021560699 0.031030392 0.020588122 -0.037458204 0.030808866 -0.0015472192 -0.019797198 -0.0366066
0.051221706 -0.017560847 0.022236465 -0.004167253 0.029510476 0.024146743 0.036248975 0.032010414
0.0066118846 -0.0030687805 -0.027638143 -0.008226474 0.029826708 -0.016211271 0.009685671 0.05195779
-0.017487831 0.0027853788 0.039772358 -0.020795148 0.010469057 -0.0019080415 -0.015271004 -0.0028600395
-0.04113614 0.01165425 0.03211986 -0.050610725 -0.038730014 0.001676906 -0.03999587 -0.037246604
0.0540149 -0.00895868 0.049188778 0.00096285454 -0.026382305 -0.0056832614 -0.029646136 0.004440131
-0.0039221523 0.041503128 0.02064502 -0.013906056 0.024929106 0.018916482 -0.053734012 0.018122995
-0.042264577 0.021994693 -0.0318874 0.03371577 0.021493642 -0.0009308403 -0.041179582 0.008184937
-0.0048613683 -0.036853958 0.045574125 -0.13453823 0.014665715 -0.031120919 0.0071610855 0.04535508
0.02417995 0.02665876 0.028309904 0.012069702 -0.029800616 0.024401605 0.035651907 -0.0149113685
0.023120476 -0.012480386 -0.010596133 -0.038084798 0.052580893 0.061449096 -0.022021888 -0.015450935
-0.011060118 -0.04082289 0.021712689 -0.027844895 -0.06429485 -0.014337258 0.04184845 -0.06039691
-0.015287954 0.009235282 0.022744967 -0.022265807 0.042676136 0.03135636 0.0467475 -0.012850309
-0.006332308 0.017115675 -0.041035976 0.06529472 -0.013767727 0.026512358 0.052667834 0.04689214
-0.026046325 -0.038820915 0.037659366 -0.04491773 0.042076074 0.009019589 -0.03697466 -0.05586041
-0.0040356573 -0.027698493 -0.0072550564 0.0028799549 0.043857515 -0.040018693 -0.11746522 -0.011720241
0.045539107 -0.04810211 0.040845986 0.02234301 0.05603103 0.052618146 0.029687889 0.03306275
0.015868077 -0.009865416 0.04212078 -0.041068014 -0.03553968 -0.050813667 0.057618003 -0.013145537
00000000: f17e cebc 1609 103d 3c13 febc d6de 953d
00000010: d628 2b3d 245b 8bbc c8b0 19bd 50f3 22bc
00000020: 6421 873a 60da e2bc 7eaf 90bd e401 b7bc
00000030: 0950 d13c 6b37 f83c a85b c1bc 9ca7 fd3c
00000040: 505d 36bc a08c 633b 0972 c33c 44c3 b7bc
00000050: dced ac3c c8f8 b83c 4417 ffbc 80ba 3cbd
00000060: d092 46bd 1422 773d 11fc c2bb 2098 e33b
00000070: 2c31 f83b 1e7e 533d dabf e1bb 15f5 0a3d
00000080: 8496 e43c f440 36bd 5ed2 ab3c ae45 18bb
00000090: 4700 be39 e151 4f3d fc3a 90bc fd21 193d
000000a0: 7881 5ebd cfa9 a53c 71b6 cb3b 8028 943c
000000b0: da10 033d 9a0e d8bc e0e3 05bc c9bc dbbd
000000c0: 4eae 9ebc 8fad b43c 2264 663e ba2d 31bd
000000d0: f4ec 76bd c472 7bbc 6825 49bc 2d96 153c
000000e0: 5eee 2c3d 00b3 b3ba 4c64 09bd c01d 8dbb
000000f0: a8a8 07bc 3457 773d a053 963c 673c 283c
00000100: f781 25bc 853c 1cbc c868 7cbc 9817 613d
00000110: 94b1 f63c f3da 79bc 788c 4fbd 601a e03b
00000120: 2c0b 76bc 6cf1 0b3d b0a5 ba3c 828b 153d
00000130: 2c91 c13c b4b2 95bc 4ec7 203d d059 613d
00000140: dd92 0ebd 9c37 ffbc 1bb5 e8b9 1858 39bd
00000150: aca6 0c3d d8c8 babc 1cea a7bc af5f 353d
00000160: 6347 f0bb be2c 12bd e191 553b fce7 f83c
00000170: 1652 2c3d fe69 473d 002d 6ebd 38a6 b93c
00000180: f0bc 3339 1707 ba3c c4f4 763a ced0 923d
00000190: 144b 053d 1e29 293d d0d8 b03c 6f8d 24bd
000001a0: 4f7e bf3c 3fa2 bfbb 0843 36ba c5da 8b3c
000001b0: 4025 f03c 5fb0 203d 6676 2f3c ed21 1f3c
000001c0: 10a0 b0bc 7333 fe3c 6ca8 a83c c66d 19bd
000001d0: e062 fc3c 10cc caba bc2d a2bc cdf0 15bd
000001e0: dacd 513d c4db 8fbc 3f29 b63c 748d 88bb
000001f0: f4bf f13c 64cf c53c ce79 143d 5a1d 033d
00000200: 82a8 d83b 981d 49bb 6369 e2bc 55c8 06bc
00000210: 2457 f43c 80cd 84bc a6b0 1e3c b1d1 543d
00000220: a442 8fbc e78a 363b 57e8 223d 965a aabc
00000230: 6886 2b3c 4017 faba 3c33 7abc 806f 3bbb
00000240: 5e7e 28bd 78f1 3e3c 1d90 033d 314d 4fbd
00000250: 5da3 1ebd a1cb db3a b6d2 23bd e58f 18bd
00000260: ba3e 5d3d 6dc7 12bc 2c7a 493d 1368 7c3a
00000270: b41f d8bc a73a babb 74dc f2bc 857e 913b
00000280: 6685 80bb 2fff 293d bf1f a93c 3ad6 63bc
00000290: 2038 cc3c bdf6 9a3c 3218 5cbd ad76 943c
000002a0: 9f1d 2dbd 372e b43c 5d9c 02bd 8c19 0a3d
000002b0: 6f13 b03c a303 74ba ecab 28bd 1d1a 063c
000002c0: 1d4c 9fbb 2df4 16bd efab 3a3d 64c4 09be
000002d0: 7848 703c 4cf1 febc 8aa7 ea3b 40c6 393d
000002e0: 0815 c63c 7963 da3c 2cea e73c 00c0 453c
000002f0: 6c20 f4bc e0e5 c73c bc07 123d d04e 74bc
00000300: 2767 bd3c 887a 4cbc 679b 2dbc cefe 1bbd
00000310: 105f 573d 0cb2 7b3d 3f67 b4bc eb25 7dbc
00000320: 7f35 35bc e735 27bd cfde b13c fa1a e4bc
00000330: 05ad 83bd d2e6 6abc 4869 2b3d c062 77bd
00000340: 547a 7abc 954f 173c a753 ba3c c866 b6bc
00000350: 2ccd 2e3d 876f 003d 4e7a 3f3d 1a8a 52bc
00000360: 407f cfbb 2c36 8c3c 5715 28bd 3db9 853d
00000370: 0892 61bc 7230 d93c 3aba 573d f911 403d
00000380: 1a5f d5bc ae02 1fbd b540 1a3d a7fb 37bd
00000390: f657 2c3d e6c6 133c be72 17bd e3cd 64bd
000003a0: 8c3d 84bb f3e7 e2bc d3bb edbb a0bd 3c3b
000003b0: f0a3 333d a4ea 23bd 9b91 f0bd 4106 40bc
000003c0: 3787 3a3d b806 45bd 1f4e 273d b008 b73c
000003d0: cb80 653d 2086 573d 0434 f33c ce6c 073d
000003e0: c5fd 813c 8ea2 21bc d786 2c3d ef36 28bd
000003f0: 0e92 11bd fe21 50bd db00 6c3d 6160 57bc

A.bias f4 [6]
0.023035552 0.022995263 0.022143392 0.022168392 0.022836363 0.022413418
00000000: 0eb5 bc3c 9060 bc3c 0f66 b53c 7d9a b53c
00000010: 5313 bb3c 589c b73c
