cool/checkpoints/D3QN/Q_target/D3QN_Q_target_700.pth (torch, 278863 bytes, 7 tensors)

fc1.weight f4 [256, 5]
00000000: 0806 e0be 5ab5 87be 747f 5dbe fb60 323d
00000010: 909a b83e 5267 21be fcdc a93e 6040 a93e
00000020: 1844 33be 9085 963d b982 b6be 8448 7d3e
00000030: 2889 40be 7c16 aebd aacc 913e 8698 0fbe
00000040: e3f5 eebd d06c 463d 6071 23be 6807 013d
00000050: 04e9 833e cf10 aabe 3815 4b3e c5e5 85be
00000060: 8c19 853e 79e9 38bd edb2 0cbe 6c0d 773e
00000070: 286b ff3d a2b5 803e 0071 233e b056 9c3e
00000080: 04e8 f53c 3c29 ddbd 18fd 8dbe 236b 823e
00000090: dc79 e13d b88a 51be bf4e 953e 935a 5a3e
000000a0: 918b 42bd 14ed 793e 4460 c5bd b28a 14be
000000b0: 0054 9fbc b43b a6bd fe6d ab3e a2bc 8f3e
000000c0: f0ea e8bd c8df 06bd 4dca e4be 327f d4be
000000d0: a69b d03e cf20 dbbe 68ac bfbe c03d ba3e
000000e0: e3ab dcbe 0600 a73e 1a1c a13e 47f7 1cbe
000000f0: 85fa 6abe 5bd0 eabe d52d 413e d542 cc3d
00000100: cc58 82bc 7e46 01be d6ce a23e 3497 a03e
00000110: 7eab 3fbe de9f 19be f86c ad3e b39f 3c3e
00000120: fdd4 56be 0c26 113e 36d3 9fbe c65f ac3c
00000130: 11b3 cabe 857b 9e3e c7f5 2cbc 14bc 073e
00000140: 3a7c 5dbe 4c2e d8be 9e09 c93e a060 5cbc
00000150: e00d ae3c 86d9 b5be 70bf 93be 8445 6dbe
00000160: 4d8c c03e 85f6 94bd aeaf a0be 0a11 633e
00000170: 9b18 823b 20a1 c73e afb4 f0bd 4f9a 85be
00000180: 1d62 68be a734 4fbd 1210 393e 3a5b a0bd
00000190: 3e56 b33e 54f9 003e 747b 193e efd9 92be
000001a0: 96e1 92be 2457 6fbe 06eb ad3e 6020 6c3e
000001b0: 3efe 82be 03a4 aebe 048c cb3e a8f4 d7bd
000001c0: b7ac a13e e8a6 79bd e25e 973e 26ab 34be
000001d0: 2455 c43e 00e6 873b ed9f b7be fc24 a7be
000001e0: cd6a aebe 2a0b 64be f2f2 c2be 7ec6 0c3e
000001f0: 6630 863e 1102 8d3e dcee 9b3e a101 2f3e
00000200: cd49 6a3d c5c4 ad3d cab4 3fbe 4c2f fd3c
00000210: c83f 9b3d 22af 62be 905a 983e cce0 633e
00000220: ab2e bebe e2df 6abe c4bb 73be e0d1 ac3d
00000230: 26c7 bbbe a0d0 cd3d d4cb 1dbe b2fa 19be
00000240: 188d dc3d f886 003d ef00 6bbe 54b0 bb3e
00000250: a838 74be 381c fcbd b58f 923e 0c97 643e
00000260: 5736 b33b 0465 be3e 2351 7bbe 3c78 a73e
00000270: bce4 2b3e 4847 453d 8b92 6bbe 4acd b13e
00000280: 8427 e53e 4636 143e f7eb ca3e 9d22 d03e
00000290: d5c3 ecbe ed31 5cbd 6085 ebbe 3353 873e
000002a0: 9ea6 dd3e c48d 3fbd 90cf 21bd a413 d0bd
000002b0: c4d3 db3e 0068 59bc fcdd c1be 9aa7 e03e
000002c0: 2ee5 17be b07b cf3e 1a77 39be 945a d8be
000002d0: d0bb 783d 2874 9c3d 305b 2ebe ba37 90be
000002e0: 744e 343e c66e aa3e e051 f63d 8878 91be
000002f0: 38c3 9fbe 5ad4 893e bc08 b6be e823 60be
00000300: 9cdd 0c3e 3376 253e e11d 033d b5c3 513e
00000310: 3b30 803e 0b0e 82be d95e cd3e 0afa dbbe
00000320: ee31 9dbe 1841 2dbd c042 cbbb c639 84be
00000330: c092 853c 04d7 bf3e 0028 6a3c 2063 ecbd
00000340: dbfb afbe a103 b1be 2f22 4d3e 812f 87be
00000350: 50e7 c23e 4bf7 9f3d d55c 4a3e 0dc7 9cbe
00000360: c0b2 9f3d dce7 9b3e e34f e0be c837 1d3d
00000370: 34e2 003e 3401 8bbe 6837 c93e d4c4 08be
00000380: 4056 473e 707a d03e 7764 63bd 0c6b dcbd
00000390: c4e4 cb3e 96b0 99be 50c0 5f3d 066a 3bbe
000003a0: 08c1 6fbe 30bf bbbd 4843 a5be 8c00 3ebe
000003b0: 625f d3be d8dd 8c3e 93ce bdbe fa79 e1be
000003c0: 1257 18be f970 243e c0c0 cc3e 7f36 4e3e
000003d0: 4cad 913e 9ed2 bc3e 57e8 bcbe e097 3a3e
000003e0: 8ae7 453e d059 cd3e 4252 bdbe 202e 39be
000003f0: 30e1 3fbe d42f b8bd e092 7dbc 00d0 58ba
-0.437546 -0.26505548 -0.21630651 0.04354952 0.36055422 -0.1576207 0.3317641 0.33056927
-0.17506444 0.07349694 -0.35646608 0.24734694 -0.18802321 -0.08500382 0.2847646 -0.14023027
-0.11667993 0.048443615 -0.15961218 0.031501204 0.25763714 -0.3321595 0.19832313 -0.26151863
0.25996053 -0.045144532 -0.1374013 0.24126214 0.1247161 0.25138575 0.15961075 0.30534887
0.03001786 -0.107988805 -0.27732158 0.25472364 0.11009571 -0.20463073 0.2916164 0.21323614
-0.047496382 0.24406844 -0.09637502 -0.14506033 -0.019449234 -0.08116856 0.33482355 0.28073603
-0.11372936 -0.03292826 -0.44685593 -0.41503292 0.4074375 -0.42798468 -0.37436223 0.36375237
-0.4309989 0.32617205 0.31466752 -0.15328704 -0.22947128 -0.45862088 0.1886514 0.09973685
-0.015911482 -0.12624547 0.31798428 0.3136536 -0.18717763 -0.1500239 0.338722 0.18420295
-0.20979686 0.1417467 -0.3121583 0.021041762 -0.39589742 0.30953613 -0.010556645 0.1325534
-0.2162942 -0.42222822 0.3926515 -0.013450772 0.02124685 -0.3551752 -0.28856993 -0.2317105
0.3760704 -0.07273582 -0.31384033 0.22174469 0.0039702184 0.38990116 -0.11753213 -0.2609429
-0.22693677 -0.050587323 0.18072537 -0.078299 0.35026735 0.12595111 0.149885 -0.28681895
-0.28687733 -0.23373085 0.3396837 0.23059225 -0.25584596 -0.34109506 0.3975526 -0.10544711
0.31577083 -0.06095019 0.29564577 -0.17643413 0.38346207 0.004147291 -0.358642 -0.32645404
-0.34065858 -0.22269884 -0.38075978 0.13747594 0.262088 0.2754064 0.30455673 0.17090465
0.05719929 0.084847964 -0.1872131 0.030906342 0.07580525 -0.2213712 0.29756594 0.22253722
-0.3714498 -0.22936967 -0.23802096 0.08438468 -0.36675376 0.10049558 -0.15409786 -0.15037039
0.10769099 0.031378716 -0.22949575 0.36657965 -0.23849738 -0.1231007 0.28625265 0.22323245
0.0054691243 0.37186444 -0.2454267 0.3270892 0.16786474 0.048163682 -0.2300512 0.34726936
0.4475671 0.14473829 0.39633152 0.40651408 -0.46243158 -0.05375855 -0.46000195 0.26430663
0.4329118 -0.046766058 -0.039504588 -0.10159996 0.42935002 -0.013269424 -0.37864673 0.4387787
-0.14833519 0.40524054 -0.1811184 -0.42256606 0.060725987 0.076393425 -0.17026973 -0.28167516
0.17608052 0.33287638 0.12027335 -0.2841227 -0.31203628 0.26919824 -0.3555354 -0.21888697
0.13756412 0.1615837 0.032010917 0.20484813 0.25036797 -0.2540134 0.40111426 -0.42964202
-0.30702156 -0.042298406 -0.0062030256 -0.25825328 0.016305327 0.3746873 0.014291763 -0.11542344
-0.34371838 -0.3457308 0.20032571 -0.2640343 0.38067102 0.07810839 0.19761975 -0.30620614
0.07797766 0.30450332 -0.4381095 0.038383275 0.1258629 -0.27149355 0.39300084 -0.13356334
0.19466496 0.40718412 -0.055515733 -0.10762605 0.39822972 -0.30017537 0.054626763 -0.18302163
-0.2341348 -0.091673255 -0.32277894 -0.18554896 -0.4128371 0.27513003 -0.37071666 -0.44038373
-0.14876965 0.1605872 0.39990807 0.20137976 0.28452528 0.36879438 -0.3689601 0.18221998
0.19326606 0.40107584 -0.3697682 -0.18084002 -0.18738246 -0.089934975 -0.015476912 -0.00082707405

fc1.bias f4 [256]
00000000: c899 2e3e c0e3 743d d017 653e 0087 a13a
00000010: 2026 d7bc fffb 563e 1567 55be 90ef 8dbe
00000020: 810e 48be c006 dd3d b875 c03e dba6 95bd
00000030: ea24 b13e 8bcc c5be 3ab8 98be 1f6b 373e
00000040: a085 37bd 8b3f bf3e 16d8 143e 230d 293d
00000050: 7c08 073e 1c62 9dbe a820 a5be 3713 d8be
00000060: 6804 ed3c 705b adbe 40fe ccbd d463 823e
00000070: 034c d9be 9ccc 9e3e b68d a43e 60c7 873e
00000080: 72cb cabe 8509 95be e82b 83be e0f1 c4bd
00000090: 1c64 4e3e 04e7 dbbd 09db 6abe 055b bf3d
000000a0: 3e7a e33e 3e38 d13e bab9 e13e 446e 793e
000000b0: d8ed 063e e8d2 8dbd da49 0dbe a201 98be
000000c0: 6ac2 d63e 1c2a b3be f60d 97be c4b8 ecbd
000000d0: fe5a 983e 2815 953e 3924 93be a051 033e
000000e0: fd06 bc3e 3c79 973e 9203 c6be 7cd0 e1be
000000f0: 4c96 32be dea5 083e f023 e93d ec98 19be
00000100: 0bb8 b4be 14d3 d0bd 25d9 64bd e14b 953e
00000110: 325b c1be a410 c43e 20b8 c83e 2410 d93e
00000120: d38f c8be 0c17 10be 4aee 2f3e 3b29 ad3e
00000130: 9501 fabd b877 813e d6c9 8ebe 422c 2a3e
00000140: a9ba b9be 82fc d43e d31e 623e 6310 223e
00000150: 05e3 b2be ba18 843e 092e 9dbd 581b 653e
00000160: 675a 8abe 04a6 51be d0da ba3d 70a1 c4bc
00000170: 8855 d33d 22b6 89be 94bf 6dbe e096 593e
00000180: d023 b33d beaf c8be 14a8 813e 4c1f 273e
00000190: 56b2 18be e096 b6bc 68ea 263e b000 96bd
000001a0: df2b 363d bc0d 483e 7090 9e3e 4465 1e3e
000001b0: 983d 7d3e 54e0 083e 7a4b 17be 0cf6 e5bd
000001c0: c3d4 593d a0eb c73e ccee 1c3e 9d4d 323e
000001d0: 4272 dd3d bc72 d5bd 2d84 86be 7e8e 953e
000001e0: e646 be3e c103 ef3d 40e8 843d b85e fa3d
000001f0: 9523 b7be b8bd d63d a5c3 d23e c08a 2fbc
00000200: 7843 0c3d 9607 72be 70c5 a7bd 1067 803e
00000210: 6e2f c73e 1d00 823e 48ff 70be 9c8e a1be
00000220: 30a3 7c3e d459 5bbd e2fd c63e 692c cc3e
00000230: 62a8 c6be c088 49be 735e 1a3e 588b 5d3e
00000240: 8497 323e cc64 9cbd 92b1 c6be b2fc b7be
00000250: a80b 9cbd c517 bc3d e912 4a3e a80b 28bd
00000260: 2c4b 5c3e e5b1 0a3c 2b57 5f3e 2d5f cbbe
00000270: 515f c13e 3200 9f3c a4d2 b03e 38aa 523d
00000280: d10f b53e 8150 a43c f8ec 363e bc34 06be
00000290: 3ec6 92be 1a62 b1be dfa2 a9be a0ed 1e3e
000002a0: b068 81bc 5ca2 59be 1131 973e 72f0 aabe
000002b0: 2562 123e 6fbe 49be c1f8 a23e 3730 71bc
000002c0: e886 1f3e ecfa a03e 2b0c 9cbe 7555 a5be
000002d0: 43b4 c4be a8b9 cd3d ac0e 8ebe 967d a93e
000002e0: ac4c 543e c08c dd3c c099 af3e 4fef 71be
000002f0: 184e 5f3e 4863 8a3d 6f6c f63d b875 de3d
00000300: f01c 863c f8a7 c23d 844e 713e 88af 093e
00000310: 7064 313e 4910 143e 52f7 b4be 98dd b5bd
00000320: 19d8 a0be 4e6d 61be f316 813e 623d c13e
00000330: 20b2 c3bc 4baf 64be 8465 0e3e 2839 903d
00000340: c72e 323e 1a12 cd3d 22cf 203e 9cf3 463e
00000350: 50bc 5c3d c86a 8b3e 11df a0be 88cb d43e
00000360: 28a6 a53e 758f 37be 2059 d93e 8829 683e
00000370: 6829 9e3e 40a9 693d ea64 5bbd 9ad1 41be
00000380: db0b c6be 3b3f 8ebe 04f7 eebd d02b c2be
00000390: 724f 613e 705b cb3c 6876 acbe 90c2 a9bc
000003a0: e85c 043e 7cce af3e 40e3 85bc 010a df3e
000003b0: c577 28be 9442 de3e 5c68 7abe 3e54 303e
000003c0: 7664 13be 8497 d3be e064 51be 06d3 a93e
000003d0: 9807 33be 8458 ab3e 293c 79be a82f e3bd
000003e0: 7e1b 02be 804e c73e 3f4d 8a3e 40dc d8bb
000003f0: 6478 a0bd 567c 1f3e 0475 c5be 280d 833d
0.1705085 0.05978751 0.22372365 0.0012323558 -0.026263297 0.20994566 -0.20840104 -0.27721834
-0.19536783 0.10792303 0.37589812 -0.07307216 0.34598476 -0.38632616 -0.29828054 0.17911957
-0.04480517 0.37353167 0.14535555 0.041272294 0.1318683 -0.30738914 -0.32251477 -0.4220216
0.028932765 -0.33858824 -0.10009432 0.25466788 -0.42440805 0.3101548 0.32139367 0.265193
-0.3960834 -0.29108825 -0.25619435 -0.096164465 0.20155376 -0.10737422 -0.22935118 0.093435325
0.444292 0.40863222 0.4408701 0.24358469 0.13176668 -0.06924993 -0.13797703 -0.29688746
0.419452 -0.34993064 -0.2950284 -0.11558679 0.29756922 0.29117703 -0.28738573 0.12824106
0.36724082 0.29584682 -0.386746 -0.44104373 -0.17440146 0.13344523 0.11383808 -0.14999741
-0.35296664 -0.1019651 -0.055871148 0.29159454 -0.3776489 0.38293946 0.39202976 0.42395127
-0.3917223 -0.14071292 0.17180744 0.3382052 -0.12207333 0.2528665 -0.27888364 0.16618446
-0.36275223 0.41598898 0.22082071 0.15826564 -0.34938827 0.25800115 -0.07674796 0.22373712
-0.27022097 -0.20473486 0.091237664 -0.02400276 0.10319048 -0.2689677 -0.23217613 0.2124896
0.08747065 -0.3919658 0.25323546 0.16320533 -0.1491178 -0.02228874 0.16300356 -0.0732435
0.044475432 0.19536489 0.30969572 0.15468317 0.24730527 0.13366824 -0.14774886 -0.1122857
0.05318142 0.39046955 0.15325469 0.1741242 0.108128086 -0.104222745 -0.26272717 0.29210275
0.37163466 0.11670638 0.06489611 0.122250974 -0.35769334 0.10485405 0.4116489 -0.010714233
0.03424403 -0.23635706 -0.08191955 0.2507863 0.38903373 0.2539071 -0.23534882 -0.31554115
0.24671626 -0.053552464 0.38865572 0.39877632 -0.3880034 -0.19681072 0.15075092 0.21635187
0.17440611 -0.07636413 -0.3880735 -0.3593498 -0.07619411 0.09184221 0.19733776 -0.04102674
0.21513051 0.008465265 0.21810596 -0.3972105 0.37768033 0.019409273 0.34535706 0.051431865
0.3536363 0.020057919 0.17863834 -0.13106054 -0.28666872 -0.34645158 -0.33132073 0.15520334
-0.01579699 -0.21253341 0.29529622 -0.3338657 0.14295252 -0.19701551 0.3183041 -0.014720968
0.15578806 0.31441438 -0.30478033 -0.3229176 -0.3841878 0.10045177 -0.2774557 0.33103627
0.20732373 0.027044654 0.3429699 -0.23626445 0.21807134 0.06757218 0.12032401 0.10862297
0.01637122 0.09504694 0.23565108 0.13445866 0.1732347 0.14459337 -0.3534494 -0.08880156
-0.3141487 -0.22014353 0.2521282 0.37742144 -0.023888648 -0.22332494 0.13905913 0.07042152
0.17400657 0.10013218 0.15704015 0.19428867 0.053890526 0.27229905 -0.31420186 0.41561532
0.3235333 -0.17925818 0.4245081 0.22672093 0.30890965 0.057046175 -0.053563036 -0.18927613
-0.3868092 -0.27782616 -0.11668208 -0.3792405 0.22002962 0.024823874 -0.33684087 -0.020722657
0.12926066 0.34337223 -0.016343713 0.4356232 -0.16451938 0.4341017 -0.24453872 0.17219636
-0.14393792 -0.41326535 -0.20448637 0.3316881 -0.17483366 0.3346597 -0.24339356 -0.11093074
-0.127058 0.38927078 0.2701206 -0.0066180527 -0.07835463 0.15574774 -0.38565838 0.06398994

fc2.weight f4 [256, 256]
00000000: baa8 c73b 4888 7d3d 7865 3ebd f00c 2ebd
00000010: 5005 ea3b ecfc 58bd 0483 e8bc ceee d33c
00000020: 3a3c 18bd 7280 45bd c032 3c3b e52e 30bd
00000030: 7726 733d 8865 52bd e423 0e3d 4e9b 1d3c
00000040: a0ee eebb d0a6 dcbc 06f3 073d 2467 67bd
00000050: 602e 53bb e2f8 2f3d b106 c8bc fcd6 b6bc
00000060: b909 223b 2ea5 67bd 024d 68bd f347 ecbb
00000070: 5009 83bb 08eb 9dbc 0449 82bc e028 6a3d
00000080: 9bb0 efbc f842 a5ba 2087 d2bc 1278 573d
00000090: 0c44 6d3d d821 88bc 92e7 cd3c 2c47 45bc
000000a0: eacf 583d 7e48 1dbc d746 403d f877 bcbc
000000b0: 089e 94bc a7b2 2b3c a4de 513d 2aaa 5fbd
000000c0: 8a87 6fbc deef 673d 480e 61bd 6004 5c3b
000000d0: bcfa 783d c6a4 143c 8e89 513d 8c43 06bd
000000e0: fbe1 093d dcac a9bc a548 233d befe 0abd
000000f0: b16e 613d b929 853c 0a1a 03bd e01a e83b
00000100: e234 50bd 747e 6dbd 88c5 003c 6cba 0ebc
00000110: a57f 64bb 8b9f 35bc a4d7 b03c 7e13 533d
00000120: 00e3 903b d018 8a3c 7b1e 553d 60b1 abbc
00000130: c841 68bd 37f4 f5bc c0b7 bd3c 1132 5fbd
00000140: e702 423d b00c 0cbc 735f 603d 3691 afbc
00000150: 65e1 47bd f8ee 843c 2500 06bd a0ea e73b
00000160: ea16 e33c d793 543c df8c 7ebd 588d 0d3c
00000170: a03e 47bc 9cec d7bc 9b43 503d ace4 ad3c
00000180: 401e e6ba 559d 2f3d f711 033d f42f 78bd
00000190: f898 1dbc 5037 63bd 21dd c93b 68ef 563d
000001a0: a65f 04bc 20f1 df3c ca79 873c 683a 193d
000001b0: c2a3 69bd 0f83 083d 666d 2cbd 2a79 25bd
000001c0: e0d8 1c3d 1072 65bc 3075 a5bc d3e0 3d3d
000001d0: 5c26 5f3c 326e 79bd 9cd2 433d e8f1 0cba
000001e0: c9aa c53b f4b9 eebc a435 c53c 54c1 443d
000001f0: 1852 4e3d 5079 d73b 0e95 a63c 3c0f 8fbc
00000200: 2a93 57bd 3403 f9bc 023d 55bd 4248 62bd
00000210: 4054 bf3c 0cf9 d43c a8b2 0dbd 458d 303d
00000220: 1610 133d cf22 43bd c6da 103d 3adf 833c
00000230: 5e14 413d 6510 a33c fe3b 8abb 3389 00bd
00000240: 6844 c9bc 6aad 383d 9907 413d 7c82 15bd
00000250: dca2 a3bc 2305 8a3c bab2 303d d2c5 0ebd
00000260: 20dd 913b c8a0 573d b373 08bd 32a3 043d
00000270: 0d38 883b 0e93 80bc e089 1cbb 405b 59bb
00000280: 0f70 db3c 5bde 37bd 647f 7c3d fb94 9ebc
00000290: 9260 bbbc e242 54bd d073 c63c e8a6 2cbc
000002a0: 5848 04bc 5766 aabc 0ddc 1ebc f883 17bc
000002b0: 250f a73c 673e b8bc 5f85 b1bc c5bd 4c3d
000002c0: b7e3 113d 3022 5f3c 24bd 523b 6a2f f6bc
000002d0: 9372 6b3d a0df e43c 5283 343d 900a 363d
000002e0: 3a99 01bd 449b 613d e839 1a3c b0ab 373d
000002f0: da09 0d3d d873 7b3c b31a 113d 805d 443a
00000300: 3cf8 973c c46d 8c3c fa7e babc aed7 4dbd
00000310: d8c5 97bc 451c 873c 47b5 21bd 6832 d83c
00000320: 5bd0 fdbc f3c4 b53c 721e c53c 4209 0b3d
00000330: 4c58 e1bc 0542 65bc d0c1 a5bc 477f 2d3d
00000340: 55f1 77bd 3175 533d 86de 923c df6f ef3c
00000350: be53 4fbd 8406 a63c a112 183d 2128 303d
00000360: a9fa 233d 0b3e 563d 1c66 ad3c 7ca0 c8bc
00000370: b08e 293d f344 60bd 711b 2b3c a102 14bd
00000380: f060 4abd 088f ba3c 987d 3b3d 48c2 023d
00000390: f854 04bd 45bf 013b 8f55 593d 90eb babb
000003a0: 70a1 94bb dc82 aabc 5e06 17bd 3915 0cbd
000003b0: f101 613d c66e 033d 200b b43c 09c0 09bd
000003c0: 143c 443d da8d 74bd 7eb9 6d3c 8e2a 0fbd
000003d0: 3ef0 0dbc 603d 1dbc aa1f 08bd 7034 cbbc
000003e0: 5ca3 4c3d f343 2abd ab17 65bd f0c5 773c
000003f0: 9ab2 37bd ca95 c9bc 6203 1c3d 742e 22bd
0.006093112 0.061897546 -0.046483487 -0.042492807 0.0071417466 -0.05297558 -0.028382786 0.025870707
-0.03716681 -0.048218198 0.0028716773 -0.043013472 0.059362855 -0.05136636 0.034702197 0.009619547
-0.00729163 -0.026935011 0.03319075 -0.056494847 -0.0032223687 0.042961963 -0.024417253 -0.02231931
0.0024725033 -0.056554012 -0.056714065 -0.0072107255 -0.003998913 -0.01927711 -0.015903957 0.057167888
-0.029259017 -0.0012608459 -0.025699198 0.052604742 0.057926223 -0.0166177 0.025134835 -0.0120408945
0.052932657 -0.009599803 0.04694256 -0.023006424 -0.018141761 0.010479606 0.051237717 -0.05460564
-0.014619717 0.05662524 -0.05494526 0.0033571944 0.060785994 0.009072488 0.051156573 -0.03277926
0.033662777 -0.020712309 0.0398642 -0.033934347 0.055037204 0.016255246 -0.032007255 0.007083282
-0.050831683 -0.057981923 0.007859595 -0.008711439 -0.003486612 -0.011085401 0.0215872 0.05153226
0.0044215918 0.016857535 0.05203102 -0.020958602 -0.05670336 -0.030023677 0.023158908 -0.054491106
0.04736605 -0.008547947 0.054778527 -0.021431547 -0.048798937 0.01622723 -0.03271498 0.00707753
0.027720887 0.012974701 -0.062146064 0.008639656 -0.012160927 -0.026357941 0.050845724 0.021227203
-0.0017556623 0.042874653 0.031999554 -0.060592607 -0.00961899 -0.055472672 0.006160394 0.05247441
-0.008079445 0.027336657 0.016537566 0.037409216 -0.057040937 0.033328112 -0.042096518 -0.040398754
0.038292766 -0.014004245 -0.02019748 0.046356987 0.013619985 -0.060896106 0.047808275 -0.0005376623
0.006032322 -0.029141404 0.02407343 0.048035935 0.05037126 0.006575741 0.020334747 -0.017463319
-0.05263058 -0.030397035 -0.052060135 -0.05524469 0.023355603 0.025997661 -0.034594208 0.043103475
0.035904013 -0.047640618 0.03536489 0.016097654 0.047138564 0.019905278 -0.0042185774 -0.031380843
-0.024568751 0.045087256 0.047126386 -0.036501393 -0.019975118 0.016848153 0.043139197 -0.034856625
0.004451409 0.052643567 -0.033313464 0.032382198 0.0041570724 -0.015695121 -0.002388589 -0.0033165962
0.026786832 -0.04488979 0.061644927 -0.019358149 -0.022873197 -0.051821597 0.024225146 -0.01053784
-0.008073889 -0.020800753 -0.009696019 -0.009247772 0.020392964 -0.022490693 -0.021670042 0.049985666
0.035617556 0.013618991 0.0032156194 -0.030051906 0.057482313 0.027938664 0.04407055 0.044443667
-0.03164027 0.055079713 0.00941322 0.04484147 0.034433223 0.0153474435 0.035425853 0.0007490739
0.018550985 0.017142184 -0.022765625 -0.050254516 -0.018526956 0.016492972 -0.03947952 0.026391223
-0.03098314 0.02218864 0.024062369 0.033944376 -0.027507924 -0.013992791 -0.020234019 0.04235771
-0.060532887 0.051625434 0.017928373 0.029228149 -0.050616972 0.020266779 0.03712714 0.04300702
0.04003397 0.052305263 0.021166854 -0.024490587 0.041395843 -0.054753255 0.010443554 -0.03613532
-0.049408853 0.02277328 0.045774072 0.031923562 -0.032307595 0.0019797843 0.05306011 -0.005704351
-0.0045358464 -0.020814352 -0.036871307 -0.034199927 0.054933492 0.032088064 0.021977961 -0.033630405
0.047908857 -0.059705593 0.014509557 -0.034952693 -0.008663235 -0.0095971525 -0.033233322 -0.024805278
0.04996048 -0.041568708 -0.055930775 0.015122876 -0.044848062 -0.024607558 0.038089164 -0.039595082

fc2.bias f4 [256]
00000000: b83f 24bd 2815 6e3d 5424 5dbd 0cfa 8cbc
00000010: 8017 683b 7df8 21bd d03e 363c 74b5 79bc
00000020: 30fd 13bd 48a8 1ebd 5cca c63c 56eb 1dbb
00000030: ea91 64bd 947c f93c b79f 78bd bbca e7bc
00000040: 76cd 6e3d 6017 60bc 5049 57bc 6a85 52bd
00000050: a976 18bd 0498 19bd 4e84 7fbd 2001 5c3d
00000060: 80bf 303c d610 1e3d 10e7 72bc 2aaa 5c3c
00000070: 700b fcbc d46c 493d e65e 57bd e92f 41bc
00000080: def8 77bd 44b8 babc 28ad 2c3d f00e 76bc
00000090: 842e 66bd 63e9 433d 76c2 6abd ffed 29bd
000000a0: 3563 4cbd 56cc 493a 028b 5fbd e6d5 603d
000000b0: ccd9 44bd 9e57 653d 205d 4b3c a45b 173d
000000c0: f05f e1bb ca19 d9bc 98e2 e33c 1a1b debc
000000d0: ec1c 56bd 691c c33c f047 79bc c0d6 b03b
000000e0: d686 7bbd ec86 42bc 7ccc 603d 0012 b93c
000000f0: ab59 4ebd a69e 23bd 3436 643d 781a 60bc
00000100: 4cc0 3c3d 02cd 5d3d aaf8 1abd fccf 1a3d
00000110: c07f 26bb e495 3e3d 93a7 543d f6c1 4a3d
00000120: dd8d 713d 2cf2 fc3c 5011 babc 801a 5cbd
00000130: 86dc 7dbd b51c 643d 5fe4 d03c 8402 ea3c
00000140: 2c75 c1bc 8e6c 68bd d0b5 303c f6be 6c3d
00000150: f8a9 793d 1874 b8bc 983c 6dbc 5268 5c3d
00000160: 0292 db3c 6568 103d 8e1f 633d 7a3b 453d
00000170: 7143 e23c a589 9c3c 83ce 48bd 8440 a2bc
00000180: 528f e53c 0018 a1b9 ffdf 3c3b daa2 30bd
00000190: 884c 833c 74e9 6dbd f03e ecbc 88fc 343c
000001a0: 24b3 c5bb 9bb8 713d 38eb 81bc fb0a b53b
000001b0: b489 583d b0f5 5e3d 04fd 3bbd 09c3 5b3d
000001c0: f2a5 6cbd 6135 253d 203c d3bb c830 3bbc
000001d0: 7851 c93c 04c5 643d a07b 0abd 93ca 283d
000001e0: 988c b0bc 1281 5cbd f050 6ebc ccd5 c73c
000001f0: 46bf 26bd 628a 7c3d 6927 42bc f17d 58bd
00000200: 165a 1e3d d58a 81bd c873 2a3d e879 153c
00000210: 9aa7 3dbd 1afb d4bc 4956 73bd 58ab 923c
00000220: 48cb 3bbd dc8e ca3c a8cf 4dbd fe0e 08bd
00000230: 3c78 3fbd c835 5dbc d0e2 fcbc b849 5abd
00000240: 9ce5 023d d35b 093d 9c62 94bc db40 e8bc
00000250: c0bb 27bb 3cf2 2b3d b9e2 44bd 58df 443d
00000260: 6c4d de3c cc64 43bd 55b1 57bc bb98 c0bc
00000270: de77 443d b339 0abd de27 613d 0693 44bd
00000280: 148d 3abd 4059 f2ba f8e0 1dbd 7e80 003d
00000290: f614 193d 1e5a 6a3d 20c5 f73c cc92 23bd
000002a0: b022 4bbd fbe8 f93b 6e6e 5b3d 258d 0dbc
000002b0: 904c 35bd 30b5 b9bb 5440 f3bc c063 ab3b
000002c0: 884d f63c d08c 703c 3e83 65bd 9f77 ff3c
000002d0: 78d2 19bd 934e fcbb be36 1f3d 2a41 053d
000002e0: 44e9 01bd 2d3b 123d 5efb 42bc e22e ff3c
000002f0: e2ce 71bd 4a17 56bd 6c3a 7a3d 7240 68bd
00000300: cacd 34bd 891b 47bd 923c 493d 3a4b 15bd
00000310: 28a0 363d c043 c63c 02b7 723d b475 523d
00000320: 8e7f ab3c fc84 d93c 5eea 1bbd 4a81 953c
00000330: d708 0dbd f1fd 21bd 6338 02bd fcfe 4cbd
00000340: e992 d6bc dd26 4bbd f210 40bd 4dcd 1d3d
00000350: a5af bb3b c7ed 3e3d e66e 46bc 11ea 45bd
00000360: b462 733d a873 3cbd 0e89 1fbb 67ff 803c
00000370: 606a 5dbc 92f7 59bd ea28 30bd 78f3 31bc
00000380: 369e 99bb 8794 b73b 645e f13c 14dd c63c
00000390: 9225 6c3c a0ca 253b 1661 673d a007 fa3c
000003a0: 9443 a23c 56c8 db3b 5a82 78bd e0c6 35bb
000003b0: a08e 673d 80bb 2f3b ac63 d23c bcac 7c3d
000003c0: 3095 c836 b796 24bc 482a 453c 9a2b e83c
000003d0: 62e5 d33c 00a2 403c 8d4d a1bc d686 183d
000003e0: 32a6 6c3d e453 34bd 9472 06bd af44 2d3d
000003f0: 19a8 a63c 8037 3dbd f7f7 073d 68a0 09bd
-0.04009983 0.058125645 -0.053989723 -0.017209075 0.0035414398 -0.039543618 0.011123374 -0.015241016
-0.03613013 -0.038734704 0.024266414 -0.002409657 -0.055803217 0.030454911 -0.06069919 -0.028294912
0.05830141 -0.013677448 -0.013140038 -0.051396765 -0.03722254 -0.03749849 -0.062382035 0.05371201
0.010787845 0.038590275 -0.014825597 0.013468305 -0.030767173 0.049176052 -0.052580737 -0.011791208
-0.060540073 -0.022792943 0.042157322 -0.01501821 -0.056196705 0.047829997 -0.05731436 -0.041486736
-0.0498993 0.000769799 -0.054575928 0.05489149 -0.04805927 0.05599176 0.012412339 0.03695263
-0.0068778917 -0.026501555 0.02781801 -0.027112532 -0.052273676 0.023817258 -0.015214905 0.005396694
-0.061407886 -0.011872988 0.05488251 0.02259159 -0.050378483 -0.03994622 0.055715755 -0.013678186
0.046081826 0.05415059 -0.0378348 0.037796006 -0.0025405735 0.046529666 0.051917624 0.04950138
0.058973182 0.030877195 -0.022713333 -0.05373621 -0.061977886 0.05569144 0.02549952 0.028565653
-0.023615442 -0.05674415 0.010785535 0.057799302 0.06095311 -0.022516295 -0.014479779 0.053810425
0.02680302 0.03525581 0.055450015 0.048152424 0.02762005 0.019108603 -0.04902507 -0.019806154
0.028022442 -0.00030726194 0.0028820036 -0.043124057 0.016027704 -0.058083966 -0.028838605 0.011046536
-0.006033318 0.059013944 -0.015859231 0.0055249906 0.0528657 0.054433525 -0.04589559 0.053652797
-0.057775445 0.04033411 -0.0064463764 -0.011425205 0.02457498 0.05585195 -0.033809304 0.041208815
-0.021551415 -0.05383403 -0.014545664 0.024393938 -0.040709756 0.06165541 -0.011850216 -0.052854482
0.03866013 -0.06325308 0.041614324 0.009123303 -0.046302415 -0.02599864 -0.05940846 0.017903969
-0.04584816 0.024726324 -0.050246865 -0.033217423 -0.046745524 -0.013501592 -0.030869871 -0.05329296
0.031957254 0.033534836 -0.018113427 -0.028351238 -0.0025594085 0.04197906 -0.048067782 0.04806456
0.027136527 -0.04770355 -0.013164838 -0.023510328 0.047965877 -0.033746433 0.05496966 -0.047991775
-0.0455447 -0.0018489733 -0.038544625 0.03137254 0.037373506 0.05721485 0.030245364 -0.03993492
-0.049593627 0.0076266504 0.05357211 -0.0086396085 -0.04426247 -0.005667351 -0.02969376 0.005230397
0.030066267 0.01468201 -0.056033365 0.03118497 -0.037554234 -0.0076997965 0.038870566 0.03253285
-0.0317166 0.035700966 -0.011900751 0.031150285 -0.05903519 -0.052268304 0.06109087 -0.056702085
-0.04414157 -0.048610244 0.04913003 -0.036448695 0.04458633 0.024202228 0.05925656 0.05138178
0.020934846 0.02655267 -0.038065307 0.018250126 -0.03443226 -0.039548818 -0.031792056 -0.05004786
-0.0261931 -0.04959761 -0.04689116 0.03852587 0.0057277256 0.04661348 -0.012111401 -0.048318926
0.059420303 -0.046008736 -0.0024343166 0.015746785 -0.013514131 -0.053214617 -0.04300777 -0.01086127
-0.0046880497 0.0056024226 0.029463954 0.02427534 0.014413254 0.0025297776 0.056489073 0.030521214
0.019807614 0.0067072315 -0.060671188 -0.0027736947 0.056532502 0.002681464 0.025682293 0.06168817
5.977832e-06 -0.010045699 0.012034006 0.028341103 0.025866214 0.011757374 -0.0196903 0.037237965
0.057775684 -0.044025317 -0.032824114 0.04230183 0.020343827 -0.046195507 0.033195462 -0.03360024

V.weight f4 [1, 256]
00000000: 7d8b 51bd 1edd 0dbd d221 49bd bcfb afbc
00000010: 58f0 03bd 94f0 923c 289a 63bd 305f 4cbd
00000020: d2e2 56bd 4332 a2bb 209b 7ebb a16e ca3b
00000030: 2ed6 3c3d 5c9e 963c e670 22bb 1d12 18bd
00000040: 184d c0bc 6ce0 2c3d f56d 873c 4f25 b93c
00000050: 9622 9d3b 5eab 533d c021 7bbc 846f 223d
00000060: 58f3 233d ee00 333d e4a8 49bd 5a3b 0fbd
00000070: 9205 0e3d 56f9 083d d0d0 85bb 9458 313d
00000080: 4101 763d c0e6 3d3b 8609 003d f2f5 783d
00000090: 40e4 57bd 4814 ec3b d396 1b3d e882 483d
000000a0: 4ea6 fb3c 70be 10bd 885e bc3c 6298 08bd
000000b0: a061 653c 52cf 30bd 8423 643d 8874 933c
000000c0: aad0 7f3d 080b 47bd ea9c 1a3d 0f44 263d
000000d0: b830 55bd 2db9 053d 42ec 5ebd 405c 5c3c
000000e0: 2c0c 58bd afc4 01bc c090 8eba 80d7 be3b
000000f0: 317b bebc 387d e93c 3441 c7bc 1649 963b
00000100: 00a4 ee3b 9a7d d23c 4e35 073d 2c2a cc3c
00000110: 70c1 153d 95b4 f33c d04d 6b3c f440 a2bc
00000120: fd10 5a3d b00e 643d c85a 3cbd 559d da3b
00000130: e63d 5abd 91a4 0d3d a131 0cbd 601d 9bbb
00000140: 59ed cfbc 6083 55bd 06f5 0abc a67d 6d3d
00000150: 48c3 32bd c06b 1bbb 44c9 393d c469 403d
00000160: 8a53 30bd 5745 393d 307f 18bd 7827 e7bc
00000170: 9b7c ddbc 288a 3dbd 21e3 46bc a21a 61bd
00000180: bd70 64bd e06d 723b cd94 9c3c 509a 6b3d
00000190: b082 6bbc 9c0c eb3c 08a5 5b3d b089 aabb
000001a0: 11fe e9bc c1e0 69bb 87f1 1cbd b97b 383d
000001b0: ca43 43bd d874 ffbc 70e6 eebc b6fe 243d
000001c0: 00f6 203d 4ca0 f1bc 80b5 0a3a b84c 09bc
000001d0: 44ee b9bc fc64 a6bc 0e24 9dbc ae6e 763d
000001e0: 9ccd bdbc 98d7 b1bc 7853 163c 94f0 32bc
000001f0: a2c0 0d3d e421 263d 8db0 c63c 1fa7 353d
00000200: 0014 9f38 93af a93c 406b c6ba 70c6 573d
00000210: 2a3d 0e3d b502 9cbc 9b25 8fbb 40cf 113d
00000220: b4aa 5f3d da71 433d 2a9d 1e3d e40c 473d
00000230: 682a 543c 5053 d9bc ee23 b3bb a005 0dbc
00000240: 4a2f 49bd ee2d 85bc f40c bfbc f278 693c
00000250: 407f a53b 66a1 f63b 57fb ebbb e44c 65bd
00000260: 20d4 3fbc f094 fa3b 9d0a e2bc 2a41 33bd
00000270: 8dac e13c 63ea 14bc 0ccf 2f3d 2a0b 5d3d
00000280: 163f 3b3d 363a 4abd d3d3 8a3b b449 17bd
00000290: 1844 483d ec2c f13c fa8b 5a3d 1890 6cbc
000002a0: a130 e0bc f25f bfbc 765a 7a3d cc62 033c
000002b0: a07d c0bc 186d 52bc 64ac b9bc 8229 393d
000002c0: 88f4 c7ba dc9e 38bd 487e c33c 858a fd3c
000002d0: 12be d63b e23b e8bc a794 b03c 1dd4 07bd
000002e0: 7abd 763d 7e57 9e3c 38fb 6f3d 58b2 d03c
000002f0: 0468 f53c b201 73bd 0002 9939 0e11 d0bc
00000300: 2809 68bd 043e 09bc 9e3b 32bd 0044 2b3a
00000310: c557 5fbd 9732 d03b 6570 6d3d 94cb 633d
00000320: 4dca 113d 1c2d 7abd f7e9 1ebc dae6 f9bc
00000330: 2432 13bd a761 34bd 5b1d 46bd 8cbb 85bc
00000340: ff2f ccbc 244f 103d 98af eb3b 0469 06bc
00000350: 7ff5 2abd 720d 633d 7fb5 dc3a d203 353d
00000360: d4e6 7cbd 045c 29bd 6f46 343d 94aa e83c
00000370: d4d7 0a3d ab65 59bd 1823 78bc e07c f7bc
00000380: b86a f03c f0c7 c6bb aea9 46bc eada 76bd
00000390: 0a49 e7bc 74ac 9ebc 70ab 5c3d faa8 5e3d
000003a0: 1433 fe3c d08f 283d 00ad b43c 7456 2c3d
000003b0: 1ea1 02bd f26c 5cbd f459 40bd 14b8 303d
000003c0: 131d 1fbd be48 523d d6e2 5e3d 1feb 2a3c
000003d0: d262 453d 0cc2 043d 0788 713a f445 f93c
000003e0: 15ef a2bc d085 2cbd d076 b5bc c8d1 32bd
000003f0: d2e5 363d d4b5 073d d36a 9bbc 53af 39bd
-0.051158417 -0.034634702 -0.04910452 -0.021482341 -0.03221163 0.017936982 -0.055566937 -0.049895465
-0.052462406 -0.0049498393 -0.0038849786 0.006177739 0.046102695 0.018386059 -0.002478653 -0.03712665
-0.023474261 0.042206213 0.016531924 0.022600798 0.0047953827 0.0516771 -0.015327871 0.03965713
0.040026993 0.04370206 -0.049233332 -0.03496871 0.03467328 0.03344091 -0.0040837303 0.043297365
0.06005979 0.002897665 0.031259082 0.060781427 -0.05270791 0.007204566 0.037985634 0.048952967
0.030718949 -0.035337865 0.022994295 -0.03334845 0.014000326 -0.043166466 0.055697933 0.017999902
0.062454857 -0.048594505 0.0377473 0.04059225 -0.052048415 0.0326473 -0.05442453 0.0134497285
-0.052745983 -0.007920428 -0.0010876879 0.0058240294 -0.023252102 0.028502092 -0.024323083 0.0045863492
0.007282734 0.025694657 0.03300982 0.024922453 0.03656143 0.029749194 0.014361814 -0.019806363
0.053238858 0.05567807 -0.045985013 0.0066715875 -0.053281687 0.03458077 -0.034227017 -0.0047337264
-0.02538173 -0.052127242 -0.00848127 0.057981156 -0.043643266 -0.0023715347 0.045357957 0.046975866
-0.04304842 0.045232143 -0.03723067 -0.028217062 -0.027036956 -0.046274334 -0.012139113 -0.05495704
-0.055771578 0.003699176 0.019113922 0.05752021 -0.01437442 0.028692536 0.053624183 -0.005204402
-0.028563531 -0.0035686942 -0.038316276 0.045039866 -0.04767207 -0.031183645 -0.029162616 0.040281974
0.039297104 -0.02949538 0.0005291328 -0.008380108 -0.022696622 -0.020311825 -0.019182231 0.060164146
-0.023169331 -0.021709248 0.009175174 -0.010921616 0.034607537 0.040559664 0.024254108 0.044348832
7.585436e-05 0.020713603 -0.0015138164 0.05267948 0.0347263 -0.01904426 -0.0043684966 0.03559804
0.054606155 0.047716 0.038724102 0.048596278 0.012949564 -0.026528984 -0.0054669296 -0.008607298
-0.049117364 -0.016257253 -0.023321606 0.014250027 0.00505057 0.0075265644 -0.007201593 -0.05598153
-0.011708289 0.0076471493 -0.027592951 -0.043763317 0.027548099 -0.009089085 0.042922065 0.053965725
0.04571446 -0.04937192 0.004236677 -0.036935523 0.048893064 0.029440366 0.05335615 -0.0144386515
-0.027366938 -0.02336118 0.061121427 0.0080191605 -0.023497403 -0.012843393 -0.02266521 0.0452056
-0.0015255371 -0.045073375 0.023863927 0.03094984 0.00655342 -0.028348867 0.021555258 -0.03316127
0.060239293 0.019328829 0.05858919 0.025475666 0.029956825 -0.05932779 0.00029183924 -0.025398757
-0.056649357 -0.008376602 -0.043513887 0.0006533265 -0.054527063 0.006353687 0.057968516 0.05561407
0.03559332 -0.061078176 -0.009699336 -0.030505586 -0.03593649 -0.04403844 -0.04836784 -0.01632478
-0.02492523 0.035231724 0.0071925633 -0.008203749 -0.04173803 0.055432744 0.0016838758 0.044193096
-0.061743572 -0.04134752 0.044012483 0.02840165 0.033897236 -0.053075474 -0.015145086 -0.030210912
0.029347762 -0.006066315 -0.012125416 -0.060267366 -0.02823307 -0.019369341 0.053874433 0.054360367
0.031030215 0.041152775 0.02205515 0.042074636 -0.031891935 -0.053814836 -0.046960786 0.0431443
-0.038846087 0.051338904 0.054415546 0.010432034 0.048189946 0.03241162 0.000921369 0.030428864
-0.019889394 -0.0421198 -0.02215138 -0.043657094 0.044652767 0.03313239 -0.018971836 -0.045333218

A.weight f4 [6, 256]
00000000: a19e 73bd b0b9 dbbc 98e1 f33c b28c 4d3d
00000010: fcb1 e8bc d98b 763d 5298 26bd fbc6 f1bc
00000020: 38ae f6bc ebee 24bc 80a5 5dbd 9be8 483d
00000030: 7645 223d 4041 763c 52ea 253d a547 0a3d
00000040: 6474 573d 7029 67bc 32c2 35bd a334 70bd
00000050: dcbf 81bb 209b abbb 06a6 43bd 8e9a 2dbd
00000060: d4b3 08bd 7685 433d dcbb 963c cd32 f6bc
00000070: d0a9 d0bc 197f c7bc 8259 4abd d24c 1dbd
00000080: 6e9d d3bb e49c 483d b8fa 2e3d e60d 0c3d
00000090: 520a 7e3d 20ec ed3b 9c8c 543d 49f6 c73c
000000a0: 9658 c63c bd96 723c a820 cd3c f112 62bd
000000b0: 0038 003a 62f4 8dbc 0821 09bc 3472 00bd
000000c0: f2ee 093d e0f5 36bc b9f8 00bd 67b8 73bc
000000d0: 3c2d bdbc dfed cc3c 6a3b 6b3d 8881 7cbd
000000e0: 2cd4 c93c d22a f0bc 1840 3d3d 2435 103d
000000f0: 77f9 7abd b4f0 623d 2091 5f3b dec6 2b3d
00000100: 7889 29bd 19d1 42bd 3a19 4d39 26cf 07bd
00000110: 1c3f 8a3c 8aa9 a3bc 5028 1dbc 684d 7d3d
00000120: ec7b 12bc 4e3e 29bd 40b1 6c3d fa55 2d3d
00000130: 8833 443d 1935 3dbb 5c30 193d c070 fa3b
00000140: 1eba 15bd c714 6e3d 410b 953c 08ee 5d3d
00000150: 004d 0abb fa2e 19bd f2da 183d b0f6 a43b
00000160: f92a 47bd 8632 26bd a46e 25bd 26b1 68bc
00000170: f435 4f3c 9918 ee3c f56d 6e3c 001e 5f3c
00000180: 0c81 5c3d 2045 d6bb a32c 693d 52ec 7f3d
00000190: ec85 a5bc e92a c63c a8d9 7d3c 009f 543d
000001a0: 438e 95bc 524f 03bd d3f5 6e3d 3afb f63c
000001b0: 6ab8 213c 7c2d e5bc 44ac 9a3c 16e6 193c
000001c0: 00d4 3ebd 006f 5d3b ce41 243d 00f1 98bb
000001d0: b8a6 bbbb acd7 733d 9cd1 3c3c e8d6 3b3d
000001e0: 0a7c 763d f655 323d 2643 423d 3089 05bd
000001f0: 419e 183d 7854 573d 2f14 3bbd 5648 093d
00000200: 5442 863c d540 563c ccc2 df3c 5485 e3bc
00000210: 00c5 a83b f7b7 35bd 6b1f 1ebd 869e 103d
00000220: 38d5 76bd a08a a43b 90a6 c0bc d107 ed3c
00000230: 32da 013d ae89 36bd 7e2f 723d b8a4 643c
00000240: 57c0 c9bc 7e1b 4cbd b0c4 70bc b8ae 0fbd
00000250: dd0e 0bbc 42ec 96bc 5065 38bd 2202 04bd
00000260: 222d 0d3d d841 473c 9ae0 f1bc 22cd 3abd
00000270: 7fd3 92bc d3fd ecbc 7ab9 3a3d be03 34bd
00000280: 04a4 14bd 0092 a939 e98d 053d 38bb 4cbc
00000290: c492 c3bc af82 2bbd e02f 00bd 10a7 5c3c
000002a0: 04e1 373d c216 3e3d 34a4 243d a820 363d
000002b0: 26b1 7f3d 2a4e 39bd 00aa d1b9 6849 c23c
000002c0: f35e d23c 8020 52bd 24f3 4e3d 8dc3 a8bc
000002d0: b29e 553d b603 19bc 015a 5a3d 1fdc e23c
000002e0: aa1e 3ebd 8ec9 66bb ea84 f43c a10a ffbc
000002f0: 8694 1f39 48bc 4e3c 302d 33bd b7e9 18bd
00000300: 1edd 35bd 3500 12bb 7088 3bbd 78b0 00bd
00000310: 7ab1 6a3d d818 843c 06f2 48bd 8090 6dba
00000320: 04ba 85bc 30dd adbb 41ae 6bbd 896a 653d
00000330: 7a1d 233d 865b 18bd 8777 3bbc 00c9 02ba
00000340: 80eb 0bbd 3b01 1bbd ccef 4dbd a701 b7bc
00000350: 6065 b3bc a6e6 2ebc 5126 26bd 99a0 e43c
00000360: 725e 56bd 98c2 483c 5fae 31bc 2044 4abd
00000370: 8820 843c 101c 083c 158e 66bc 60cd a73c
00000380: 0020 5138 4b9f fbbc f5b1 74bc f4af 30bd
00000390: 641a 04bc 7852 c43c 2c55 58bd b6bb 19bd
000003a0: a0d1 8d3b f49f 32bb 80ce 14ba 100b 0fbc
000003b0: 26d4 6c3d a2c4 223d d6e8 55bd ba35 6f3d
000003c0: 29e0 8bbc ddc3 cb3c 42b2 3fbd c6ed a5bc
000003d0: bb0e 96bc 742d c83c 3884 68bd 7a6a 373d
000003e0: f034 27bd f44d de3c a470 263d 0031 723d
000003f0: 4c58 32bd 0a76 533c 8603 353d f275 003d
-0.059477452 -0.026821941 0.029770657 0.050183006 -0.028405182 0.060191963 -0.040672608 -0.029513827
-0.03011237 -0.010066728 -0.05411291 0.049049955 0.039617024 0.015030205 0.04050667 0.03375973
0.052601233 -0.014109001 -0.044374652 -0.05864395 -0.003959639 -0.005236998 -0.047765754 -0.042383723
-0.033374622 0.0477347 0.018400125 -0.03005352 -0.025471598 -0.024352597 -0.049401768 -0.03840334
-0.006457976 0.048977748 0.042719573 0.034192942 0.06202156 0.0072608143 0.051891908 0.02440943
0.024212163 0.014806447 0.025039986 -0.055193845 0.0004891157 -0.017328445 -0.008369692 -0.031358913
0.03367514 -0.01116702 -0.0314872 -0.014875508 -0.023092858 0.02501577 0.05742971 -0.061646968
0.024637304 -0.029317293 0.046203703 0.03520693 -0.061273064 0.055405334 0.00341136 0.0419377
-0.041390866 -0.047562692 0.00019559721 -0.033156537 0.016875796 -0.019978303 -0.009592131 0.0618414
-0.008940678 -0.041319184 0.057786226 0.04231832 0.047900707 -0.002887076 0.037399635 0.0076428354
-0.03655445 0.058125284 0.018193843 0.054182082 -0.0021103024 -0.037398316 0.037318178 0.0050342903
-0.048624966 -0.040575527 -0.04038872 -0.014202392 0.012647141 0.029064463 0.014552583 0.013617992
0.053834006 -0.006539002 0.056927335 0.062481232 -0.02020546 0.024190383 0.015493788 0.051909447
-0.018256312 -0.032058068 0.058339905 0.030149091 0.009870628 -0.02797579 0.01888097 0.009393236
-0.046588898 0.0033788085 0.04010182 -0.0046674013 -0.0057266615 0.059531853 0.011524584 0.045859247
0.060176887 0.04353901 0.04742732 -0.032601535 0.037260298 0.05257079 -0.045673545 0.03351625
0.01638905 0.013076981 0.027314566 -0.027773537 0.0051504374 -0.044364896 -0.03860418 0.03530743
-0.060261935 0.005021408 -0.023516923 0.028934391 0.031702228 -0.044564895 0.059127323 0.013955288
-0.024627848 -0.049830906 -0.014695331 -0.035078734 -0.00848743 -0.018423203 -0.045018494 -0.032228597
0.03446687 0.0121616945 -0.029526044 -0.045605786 -0.017923115 -0.028929627 0.04558704 -0.04394888
-0.03628923 0.0003234297 0.03260604 -0.012495808 -0.023873694 -0.041872676 -0.031295657 0.013467565
0.044892326 0.046408422 0.04019566 0.044464737 0.0624248 -0.04524056 -0.00039990246 0.023716643
0.025680041 -0.051300526 0.050524846 -0.020601058 0.052153297 -0.009339264 0.05330849 0.027692853
-0.046415962 -0.003521535 0.029848535 -0.031132998 0.00015218751 0.012618132 -0.043744266 -0.037332263
-0.044400327 -0.0022277955 -0.045784414 -0.031418294 0.05729816 0.016125128 -0.049058937 -0.00090623647
-0.01632405 -0.0053059086 -0.05753923 0.056009803 0.039823033 -0.03719666 -0.011442072 -0.0004989058
-0.034160137 -0.03784297 -0.050277516 -0.022339655 -0.021898925 -0.010675108 -0.040563885 0.02790861
-0.052336164 0.012253426 -0.010844796 -0.049381375 0.016128793 0.008307472 -0.014071961 0.020483673
4.9859285e-05 -0.030715605 -0.014935006 -0.043136552 -0.008062933 0.023965105 -0.0528156 -0.03753253
0.0043279678 -0.0027255984 -0.0005676523 -0.008730665 0.057819508 0.039738305 -0.052224003 0.058400847
-0.017074661 0.024873668 -0.04680086 -0.02025498 -0.01831757 0.024435736 -0.05676672 0.04477928
-0.04082197 0.02713678 0.040634766 0.05912876 -0.043541238 0.012906561 0.044192813 0.03136248

A.bias f4 [6]
00000000: f665 3f3d 410d 673d 3522 4a3d 1a57 4cbd
00000010: e492 efbc 5184 22bc
0.046728097 0.056409124 0.04934903 -0.049887754 -0.029244848 -0.009919242
