cool/checkpoints/D3QN/Q_target/D3QN_Q_target_4100.pth (torch, 278863 bytes, 7 tensors)

fc1.weight f4 [256, 5]
-0.4383043 -0.40178865 -0.22809042 0.03825331 0.49566174 -0.1576207 0.3317641 0.33056927
-0.17506444 0.07349694 -0.35646608 0.24734694 -0.18802321 -0.08500382 0.2847646 -0.14023027
-0.11667993 0.048443615 -0.15961218 0.031501204 0.25763714 -0.3321595 0.19832313 -0.26151863
0.25996053 -0.051075734 -0.11718411 0.24190663 0.11541719 0.22774363 0.15961075 0.30534887
0.03001786 -0.107988805 -0.27732158 0.31649676 0.0034994723 -0.2057103 0.28123772 0.15068008
-0.047496382 0.24406844 -0.09637502 -0.14506033 -0.019449234 -0.08116856 0.33482355 0.28073603
-0.11372936 -0.03292826 -0.44685593 -0.41503292 0.4074375 -0.42798468 -0.37436223 0.40443593
-0.7252825 0.31422558 0.30187246 -0.025096904 -0.19608659 -0.54030234 0.19317059 0.09535278
-0.023717014 -0.12624547 0.31798428 0.3136536 -0.18717763 -0.1500239 0.3455506 0.100691006
-0.20503776 0.13775569 -0.24860476 0.021041762 -0.39589742 0.30953613 -0.010556645 0.1325534
-0.2162942 -0.42222822 0.3926515 -0.013450772 0.02124685 -0.4417886 -0.13191509 -0.25118363
0.3584282 -0.10976146 -0.2946054 0.123788305 0.006181814 0.3839152 -0.089020476 -0.3043995
-0.14650725 -0.047900964 0.16809152 -0.11192012 0.35026735 0.12595111 0.149885 -0.28681895
-0.28687733 -0.23373085 0.3396837 0.23059225 -0.25584596 -0.34109506 0.3975526 -0.10544711
0.31577083 -0.06095019 0.29564577 -0.17643413 0.38346207 0.004147291 -0.358642 -0.32645404
-0.44014472 -0.3943882 -0.4186069 0.11361606 0.47430182 0.16834487 0.4772271 0.15224506
0.037131913 0.09560438 -0.1872131 0.030906342 0.07580525 -0.2213712 0.29756594 0.22253722
-0.3714498 -0.22936967 -0.23802096 0.08438468 -0.36675376 0.10049558 -0.15409786 -0.15037039
0.10769099 0.031378716 -0.22949575 0.36657965 -0.23849738 -0.1231007 0.38748738 -0.14125101
0.0104196435 0.35659182 -0.22201902 0.3270892 0.16786474 0.048163682 -0.2300512 0.34726936
0.36367026 0.30074832 0.37481 0.38787353 -0.48257634 -0.07713066 -0.59121317 0.2190431
0.40052772 -0.03277578 -0.039504588 -0.10159996 0.42935002 -0.013269424 -0.37864673 0.4387787
-0.14833519 0.40524054 -0.1811184 -0.42256606 0.060725987 0.076393425 -0.17026973 -0.28167516
0.17608052 0.33287638 0.12027335 -0.2841227 -0.31203628 0.26919824 -0.38863307 -0.15467758
0.12493751 0.15596785 0.013503889 0.171578 0.396236 -0.27526563 0.38215262 -0.57015556
-0.30702156 -0.042298406 -0.0062030256 -0.25825328 0.016305327 0.3746873 0.014291763 -0.11542344
-0.34371838 -0.3457308 0.18616144 -0.28781623 0.37565726 0.07317951 0.20970555 -0.30620614
0.07797766 0.30450332 -0.4381095 0.038383275 0.1258629 -0.27149355 0.39300084 -0.13356334
0.19466496 0.36035556 0.0038948744 -0.12419837 0.38860664 -0.26865298 0.054626763 -0.18302163
-0.2341348 -0.091673255 -0.32277894 -0.18554896 -0.4128371 0.27513003 -0.37071666 -0.44038373
-0.109788075 0.16971901 0.3832867 0.18746622 0.085033566 0.35133144 -0.28185785 0.1764713
0.1802323 0.34024897 -0.3697682 -0.18084002 -0.18738246 -0.089934975 -0.015476912 -0.00082707405
00000000: 6c69 e0be 3eb7 cdbe 8990 69be 81af 1c3d
00000010: 60c7 fd3e 5267 21be fcdc a93e 6040 a93e
00000020: 1844 33be 9085 963d b982 b6be 8448 7d3e
00000030: 2889 40be 7c16 aebd aacc 913e 8698 0fbe
00000040: e3f5 eebd d06c 463d 6071 23be 6807 013d
00000050: 04e9 833e cf10 aabe 3815 4b3e c5e5 85be
00000060: 8c19 853e ca34 51bd 39fe efbd 5fb6 773e
00000070: d95f ec3d a035 693e 0071 233e b056 9c3e
00000080: 04e8 f53c 3c29 ddbd 18fd 8dbe dd0b a23e
00000090: 6757 653b b9a5 52be 64fe 8f3e e14b 1a3e
000000a0: 918b 42bd 14ed 793e 4460 c5bd b28a 14be
000000b0: 0054 9fbc b43b a6bd fe6d ab3e a2bc 8f3e
000000c0: f0ea e8bd c8df 06bd 4dca e4be 327f d4be
000000d0: a69b d03e cf20 dbbe 68ac bfbe 3a12 cf3e
000000e0: 1dac 39bf 2de2 a03e 078f 9a3e 0698 cdbc
000000f0: ecca 48be 4151 0abf 83ce 453e 5148 c33d
00000100: 2f4a c2bc 7e46 01be d6ce a23e 3497 a03e
00000110: 7eab 3fbe de9f 19be 02ec b03e 1637 ce3d
00000120: 6bf5 51be d40f 0d3e 3f92 7ebe c65f ac3c
00000130: 11b3 cabe 857b 9e3e c7f5 2cbc 14bc 073e
00000140: 3a7c 5dbe 4c2e d8be 9e09 c93e a060 5cbc
00000150: e00d ae3c 1e32 e2be c014 07be 249b 80be
00000160: e783 b73e 9eca e0bd 85d6 96be b984 fd3d
00000170: d090 ca3b 8890 c43e 5e50 b6bd 40da 9bbe
00000180: ff05 16be cd33 44bd 2f20 2c3e 6036 e5bd
00000190: 3e56 b33e 54f9 003e 747b 193e efd9 92be
000001a0: 96e1 92be 2457 6fbe 06eb ad3e 6020 6c3e
000001b0: 3efe 82be 03a4 aebe 048c cb3e a8f4 d7bd
000001c0: b7ac a13e e8a6 79bd e25e 973e 26ab 34be
000001d0: 2455 c43e 00e6 873b ed9f b7be fc24 a7be
000001e0: a65a e1be 40ed c9be a553 d6be 89af e83d
000001f0: b0d7 f23e 9962 2c3e 1c57 f43e 21e6 1b3e
00000200: a217 183d 3bcc c33d cab4 3fbe 4c2f fd3c
00000210: c83f 9b3d 22af 62be 905a 983e cce0 633e
00000220: ab2e bebe e2df 6abe c4bb 73be e0d1 ac3d
00000230: 26c7 bbbe a0d0 cd3d d4cb 1dbe b2fa 19be
00000240: 188d dc3d f886 003d ef00 6bbe 54b0 bb3e
00000250: a838 74be 381c fcbd bf64 c63e 1ba4 10be
00000260: 27b7 2a3c 3493 b63e f458 63be 3c78 a73e
00000270: bce4 2b3e 4847 453d 8b92 6bbe 4acd b13e
00000280: fd32 ba3e affb 993e 19e7 bf3e 5c97 c63e
00000290: 3f14 f7be aef6 9dbd bf59 17bf d64c 603e
000002a0: f811 cd3e e53f 06bd 90cf 21bd a413 d0bd
000002b0: c4d3 db3e 0068 59bc fcdd c1be 9aa7 e03e
000002c0: 2ee5 17be b07b cf3e 1a77 39be 945a d8be
000002d0: d0bb 783d 2874 9c3d 305b 2ebe ba37 90be
000002e0: 744e 343e c66e aa3e e051 f63d 8878 91be
000002f0: 38c3 9fbe 5ad4 893e eafa c6be cd63 1ebe
00000300: 3ddf ff3d 09b6 1f3e 6a3f 5d3c 25b2 2f3e
00000310: 72df ca3e 9eef 8cbe 82a9 c33e b7f5 11bf
00000320: ee31 9dbe 1841 2dbd c042 cbbb c639 84be
00000330: c092 853c 04d7 bf3e 0028 6a3c 2063 ecbd
00000340: dbfb afbe a103 b1be 1ba1 3e3e a65c 93be
00000350: 2656 c03e 24df 953d 0dbd 563e 0dc7 9cbe
00000360: c0b2 9f3d dce7 9b3e e34f e0be c837 1d3d
00000370: 34e2 003e 3401 8bbe 6837 c93e d4c4 08be
00000380: 4056 473e 8680 b83e 2641 7f3b b75b febd
00000390: 73f7 c63e e28c 89be 50c0 5f3d 066a 3bbe
000003a0: 08c1 6fbe 30bf bbbd 4843 a5be 8c00 3ebe
000003b0: 625f d3be d8dd 8c3e 93ce bdbe fa79 e1be
000003c0: 92d8 e0bd d2ca 2d3e 283e c43e 25f7 3f3e
000003d0: 1426 ae3d b7e1 b33e ac4f 90be e4b4 343e
000003e0: d18e 383e 1d35 ae3e 4252 bdbe 202e 39be
000003f0: 30e1 3fbe d42f b8bd e092 7dbc 00d0 58ba

fc1.bias f4 [256]
0.17233409 0.05978751 0.22372365 0.0012323558 -0.026263297 0.20401387 -0.20840104 -0.29000524
-0.19536783 0.10792303 0.37589812 -0.08420774 0.341888 -0.38632616 -0.29760092 0.17911957
-0.04480517 0.35700193 0.14154805 0.026988737 0.1318683 -0.30738914 -0.32251477 -0.4220216
0.010796509 -0.35109785 -0.10009432 0.25466788 -0.42440805 0.3101548 0.29863063 0.265193
-0.40917692 -0.32637024 -0.25619435 -0.096164465 0.20155376 -0.10737422 -0.2368096 0.06982943
0.444292 0.40863222 0.4328195 0.24358469 0.13176668 -0.07040916 -0.13797703 -0.29688746
0.3927629 -0.35865468 -0.2950284 -0.11558679 0.29756922 0.29117703 -0.31353918 0.12824106
0.32297993 0.29584682 -0.4025767 -0.44104373 -0.18216239 0.10883112 0.11383808 -0.14999741
-0.35296664 -0.1019651 -0.06204595 0.29616418 -0.3881919 0.35602626 0.39202976 0.42395127
-0.3917223 -0.14071292 0.1608492 0.32300952 -0.13254428 0.23529136 -0.27888364 0.12530634
-0.37259644 0.41598898 0.21168254 0.13223119 -0.36641148 0.25800115 -0.09336245 0.22373712
-0.28728142 -0.20925136 0.07059487 -0.02400276 0.10319048 -0.2689677 -0.2707958 0.2124896
0.08747065 -0.41724998 0.23676515 0.16320533 -0.1491178 -0.02228874 0.15227745 -0.0732435
0.033796314 0.19536489 0.29682055 0.15468317 0.19377233 0.12547226 -0.14774886 -0.1122857
0.0058791167 0.39046955 0.15325469 0.1721057 0.1024864 -0.104222745 -0.25927925 0.28872484
0.37163466 0.07071583 0.06489611 0.122250974 -0.3894421 0.10485405 0.3932346 -0.010714233
-0.0052223476 -0.23635706 -0.08191955 0.2507863 0.38903373 0.2539071 -0.23534882 -0.33568424
0.24671626 -0.06653749 0.38865572 0.39238045 -0.3880034 -0.20813471 0.1435321 0.21139191
0.17440611 -0.07636413 -0.398887 -0.3593498 -0.07619411 0.08424311 0.19733776 -0.04102674
0.21513051 0.008465265 0.18337008 -0.40479586 0.3415251 0.0074657914 0.34535706 0.051431865
0.33605164 -0.019579263 0.17863834 -0.1471278 -0.2889717 -0.34645158 -0.33132073 0.15520334
-0.01579699 -0.21852529 0.2865447 -0.3338657 0.13000393 -0.21141315 0.32556874 -0.043745458
0.14109251 0.31441438 -0.33093077 -0.33649364 -0.38246956 0.10045177 -0.27887973 0.33103627
0.20732373 0.027044654 0.3429699 -0.24027361 0.21807134 0.06757218 0.1184091 0.10862297
0.01637122 0.09504694 0.22752973 0.13445866 0.1732347 0.13298574 -0.3849749 -0.08880156
-0.32711244 -0.21930768 0.22979236 0.37742144 -0.023888648 -0.23777294 0.13905913 0.07042152
0.15635417 0.09790071 0.13531335 0.17467305 0.053890526 0.27229905 -0.31704268 0.3984947
0.31736016 -0.18408936 0.4245081 0.22672093 0.30890965 0.057046175 -0.06591945 -0.19007595
-0.3868092 -0.28763345 -0.11668208 -0.3792405 0.2038078 0.024823874 -0.3394169 -0.020722657
0.12926066 0.34337223 -0.016343713 0.41966483 -0.16554804 0.4341017 -0.24453872 0.16452138
-0.14393792 -0.42287067 -0.22960201 0.3316881 -0.1961071 0.3346597 -0.24339356 -0.11093074
-0.127058 0.3825402 0.24923639 -0.0066180527 -0.07835463 0.1484321 -0.3914801 0.06398994
00000000: 5978 303e c0e3 743d d017 653e 0087 a13a
00000010: 2026 d7bc 03e9 503e 1567 55be 917b 94be
00000020: 810e 48be c006 dd3d b875 c03e 1c75 acbd
00000030: f20b af3e 8bcc c5be 265f 98be 1f6b 373e
00000040: a085 37bd f5c8 b63e f9f1 103e 7c17 dd3c
00000050: 7c08 073e 1c62 9dbe a820 a5be 3713 d8be
00000060: d7e3 303c 19c3 b3be 40fe ccbd d463 823e
00000070: 034c d9be 9ccc 9e3e 1de6 983e 60c7 873e
00000080: a37f d1be 001a a7be e82b 83be e0f1 c4bd
00000090: 1c64 4e3e 04e7 dbbd 377e 72be bb02 8f3d
000000a0: 3e7a e33e 3e38 d13e 849a dd3e 446e 793e
000000b0: d8ed 063e ad32 90bd da49 0dbe a201 98be
000000c0: 3818 c93e 96a1 b7be f60d 97be c4b8 ecbd
000000d0: fe5a 983e 2815 953e 3588 a0be a051 033e
000000e0: a05d a53e 3c79 973e 891e cebe 7cd0 e1be
000000f0: c788 3abe dae2 de3d f023 e93d ec98 19be
00000100: 0bb8 b4be 14d3 d0bd e523 7ebd d5a2 973e
00000110: 17c1 c6be 1349 b63e 20b8 c83e 2410 d93e
00000120: d38f c8be 0c17 10be a7b5 243e 8161 a53e
00000130: b0b9 07be 38f0 703e d6c9 8ebe 4e50 003e
00000140: f6c4 bebe 82fc d43e 4fc3 583e 9d67 073e
00000150: 499a bbbe ba18 843e d034 bfbd 581b 653e
00000160: 8d16 93be fd45 56be 0b94 903d 70a1 c4bc
00000170: 8855 d33d 22b6 89be bfa5 8abe e096 593e
00000180: d023 b33d caa1 d5be 9072 723e 4c1f 273e
00000190: 56b2 18be e096 b6bc 9fee 1b3e b000 96bd
000001a0: 016e 0a3d bc0d 483e ddf8 973e 4465 1e3e
000001b0: 416c 463e cd7b 003e 7a4b 17be 0cf6 e5bd
000001c0: 9ba5 c03b a0eb c73e ccee 1c3e 7a3c 303e
000001d0: 64e4 d13d bc72 d5bd 40c0 84be bed3 933e
000001e0: e646 be3e 76d3 903d 40e8 843d b85e fa3d
000001f0: f464 c7be b8bd d63d 0c56 c93e c08a 2fbc
00000200: 3a20 abbb 9607 72be 70c5 a7bd 1067 803e
00000210: 6e2f c73e 1d00 823e 48ff 70be cede abbe
00000220: 30a3 7c3e cf44 88bd e2fd c63e 17e6 c83e
00000230: 62a8 c6be 4421 55be 14fa 123e 1f77 583e
00000240: 8497 323e cc64 9cbd eb3a ccbe b2fc b7be
00000250: a80b 9cbd a787 ac3d e912 4a3e a80b 28bd
00000260: 2c4b 5c3e e5b1 0a3c 5ec5 3b3e 6741 cfbe
00000270: 61dc ae3e 99a3 f43b a4d2 b03e 38aa 523d
00000280: f60e ac3e b164 a0bc f8ec 363e aca8 16be
00000290: 19f4 93be 1a62 b1be dfa2 a9be a0ed 1e3e
000002a0: b068 81bc 18c5 5fbe fdb5 923e 72f0 aabe
000002b0: c01f 053e b07c 58be f2b0 a63e 702e 33bd
000002c0: 8e7a 103e ecfa a03e c26f a9be e548 acbe
000002d0: 0dd3 c3be a8b9 cd3d 53c9 8ebe 967d a93e
000002e0: ac4c 543e c08c dd3c c099 af3e 490a 76be
000002f0: 184e 5f3e 4863 8a3d 7880 f23d b875 de3d
00000300: f01c 863c f8a7 c23d 8efd 683e 88af 093e
00000310: 7064 313e 6a2d 083e 6e1b c5be 98dd b5bd
00000320: 487b a7be 3192 60be b04e 6b3e 623d c13e
00000330: 20b2 c3bc c07a 73be 8465 0e3e 2839 903d
00000340: 4f1b 203e 2b80 c83d 958f 0a3e 7edd 323e
00000350: 50bc 5c3d c86a 8b3e 6b53 a2be 7f07 cc3e
00000360: 087d a23e ec81 3cbe 2059 d93e 8829 683e
00000370: 6829 9e3e 40a9 693d c700 87bd 45a3 42be
00000380: db0b c6be b144 93be 04f7 eebd d02b c2be
00000390: feb2 503e 705b cb3c 0dc8 adbe 90c2 a9bc
000003a0: e85c 043e 7cce af3e 40e3 85bc 4fde d63e
000003b0: 6d85 29be 9442 de3e 5c68 7abe 4b78 283e
000003c0: 7664 13be 8182 d8be ca1c 6bbe 06d3 a93e
000003d0: 4dd0 48be 8458 ab3e 293c 79be a82f e3bd
000003e0: 7e1b 02be 4fdc c33e d337 7f3e 40dc d8bb
000003f0: 6478 a0bd 96fe 173e 1470 c8be 280d 833d

fc2.weight f4 [256, 256]
0.0054256576 0.061897546 -0.046483487 -0.042492807 0.0071417466 -0.0542712 -0.028382786 0.024389312
-0.03716681 -0.048218198 0.0028716773 -0.0443798 0.05802182 -0.05136636 0.032896206 0.009619547
-0.00729163 -0.0283154 0.03162588 -0.05784003 -0.0032223687 0.042961963 -0.024417253 -0.02231931
0.0015863115 -0.057799052 -0.056714065 -0.0072107255 -0.003998913 -0.01927711 -0.017456168 0.057167888
-0.030754723 -0.002561908 -0.025699198 0.052604742 0.057926223 -0.0166177 0.023892358 -0.013579348
0.052932657 -0.009599803 0.046313968 -0.023006424 -0.018141761 0.008970973 0.051237717 -0.05460564
-0.015946308 0.0554469 -0.05494526 0.0033571944 0.060785994 0.009072488 0.050037026 -0.03277926
0.032207027 -0.020712309 0.04042279 -0.033934347 0.053966466 0.015300619 -0.032007255 0.007083282
-0.050831683 -0.057981923 0.0064022434 -0.009745089 -0.0048520556 -0.012305298 0.0215872 0.05153226
0.0044215918 0.016857535 0.050477356 -0.02243428 -0.058322083 -0.031476874 0.023158908 -0.05595131
0.046056177 -0.008547947 0.05393443 -0.022764713 -0.049946878 0.01622723 -0.034363974 0.00707753
0.026267605 0.011596932 -0.06373308 0.008639656 -0.012160927 -0.026357941 0.04988578 0.021227203
-0.0017556623 0.041477047 0.03045558 -0.060592607 -0.00961899 -0.055472672 0.0048537315 0.05247441
-0.009434773 0.027336657 0.014998685 0.037409216 -0.05868344 0.03211762 -0.042096518 -0.040398754
0.036657263 -0.014004245 -0.02019748 0.04501831 0.013433688 -0.060896106 0.046443608 -0.0019978054
0.006032322 -0.030599378 0.02407343 0.048035935 0.041690134 0.006575741 0.018893758 -0.017463319
-0.054080464 -0.030397035 -0.052060135 -0.05524469 0.023355603 0.025997661 -0.034594208 0.042223595
0.035904013 -0.048923913 0.03536489 0.014446596 0.047138564 0.018296594 -0.0058380477 -0.03282245
-0.024568751 0.045087256 0.046053197 -0.036501393 -0.019975118 0.016044654 0.043139197 -0.034856625
0.004451409 0.052643567 -0.034960765 0.030942848 0.0026590447 -0.017172301 -0.002388589 -0.0033165962
0.025499078 -0.04647565 0.061644927 -0.021112544 -0.024105819 -0.051821597 0.024225146 -0.01053784
-0.008073889 -0.022229388 -0.01119069 -0.009247772 0.018935481 -0.0236789 -0.023322761 0.048867285
0.035059854 0.013618991 0.0017270346 -0.03154691 0.05587233 0.027938664 0.042453818 0.044443667
-0.03164027 0.055079713 0.00941322 0.042858385 0.034433223 0.0153474435 0.03450553 0.0007490739
0.018550985 0.017142184 -0.024006354 -0.050254516 -0.018526956 0.015226486 -0.040751364 0.026391223
-0.03264438 0.020821597 0.022576584 0.033944376 -0.027507924 -0.017465109 -0.020234019 0.04235771
-0.061823115 0.05009365 0.016378067 0.027970437 -0.050616972 0.020266779 0.035676766 0.04144501
0.038705427 0.050560802 0.021166854 -0.024490587 0.041395843 -0.054753255 0.008789551 -0.03736507
-0.049408853 0.021242928 0.045774072 0.031923562 -0.033934075 0.0019797843 0.051666472 -0.005704351
-0.0045358464 -0.020814352 -0.036871307 -0.036135726 0.053821925 0.032088064 0.021977961 -0.034695525
0.047908857 -0.06137757 0.013987267 -0.034952693 -0.0094902795 -0.0095971525 -0.033233322 -0.024805278
0.04996048 -0.043165356 -0.057649296 0.015122876 -0.044848062 -0.02702235 0.03681447 -0.039595082
00000000: b7c9 b13b 4888 7d3d 7865 3ebd f00c 2ebd
00000010: 5005 ea3b 7a4b 5ebd 0483 e8bc 18cc c73c
00000020: 3a3c 18bd 7280 45bd c032 3c3b 98c7 35bd
00000030: 4aa8 6d3d 8865 52bd 2cbe 063d 4e9b 1d3c
00000040: a0ee eebb b3f5 e7bc 248a 013d abe9 6cbd
00000050: 602e 53bb e2f8 2f3d b106 c8bc fcd6 b6bc
00000060: c8eb cf3a b3be 6cbd 024d 68bd f347 ecbb
00000070: 5009 83bb 08eb 9dbc 3d00 8fbc e028 6a3d
00000080: 54f1 fbbc afe5 27bb 2087 d2bc 1278 573d
00000090: 0c44 6d3d d821 88bc e8b9 c33c ea7b 5ebc
000000a0: eacf 583d 7e48 1dbc b7b3 3d3d f877 bcbc
000000b0: 089e 94bc fdfa 123c a4de 513d 2aaa 5fbd
000000c0: d5a1 82bc 4a1c 633d 480e 61bd 6004 5c3b
000000d0: bcfa 783d c6a4 143c a0f3 4c3d 8c43 06bd
000000e0: 84eb 033d dcac a9bc 5e92 253d befe 0abd
000000f0: f10b 5d3d 73af 7a3c 0a1a 03bd e01a e83b
00000100: e234 50bd 747e 6dbd e9c9 d13b dea9 1fbc
00000110: fefd 9ebb 299c 49bc a4d7 b03c 7e13 533d
00000120: 00e3 903b d018 8a3c 58c1 4e3d 18c8 b7bc
00000130: 23e3 6ebd e5ed 00bd c0b7 bd3c 332d 65bd
00000140: 67a5 3c3d b00c 0cbc 59ea 5c3d 107d babc
00000150: 1995 4cbd f8ee 843c 3dc1 0cbd a0ea e73b
00000160: 292f d73c 0f01 3e3c 7d86 82bd 588d 0d3c
00000170: a03e 47bc 9cec d7bc 0855 4c3d ace4 ad3c
00000180: 401e e6ba d6e3 293d fb7d f93c f42f 78bd
00000190: f898 1dbc 5037 63bd 0d0c 9f3b 68ef 563d
000001a0: 4e94 1abc 20f1 df3c 0bbd 753c 683a 193d
000001b0: 0c5e 70bd c48d 033d 666d 2cbd 2a79 25bd
000001c0: ed25 163d 1072 65bc 3075 a5bc 1f65 383d
000001d0: f918 5c3c 326e 79bd a73b 3e3d 9ded 02bb
000001e0: c9aa c53b 8cab fabc a435 c53c 54c1 443d
000001f0: 46c3 2a3d 5079 d73b 15c7 9a3c 3c0f 8fbc
00000200: 7a83 5dbd 3403 f9bc 023d 55bd 4248 62bd
00000210: 4054 bf3c 0cf9 d43c a8b2 0dbd a6f2 2c3d
00000220: 1610 133d 7164 48bd c6da 103d 6ab1 6c3c
00000230: 5e14 413d bde2 953c 184d bfbb d570 06bd
00000240: 6844 c9bc 6aad 383d 47a2 3c3d 7c82 15bd
00000250: dca2 a3bc 1470 833c bab2 303d d2c5 0ebd
00000260: 20dd 913b c8a0 573d 0533 0fbd db7b fd3c
00000270: 5e43 2e3b edac 8cbc e089 1cbb 405b 59bb
00000280: 71e3 d03c 405d 3ebd 647f 7c3d 37f4 acbc
00000290: 9179 c5bc e242 54bd d073 c63c e8a6 2cbc
000002a0: 5848 04bc 681a b6bc 2859 37bc f883 17bc
000002b0: 951e 9b3c 41fa c1bc 600f bfbc 1029 483d
000002c0: ec9a 0f3d 3022 5f3c aa5d e23a 5537 01bd
000002d0: 62da 643d a0df e43c 0ee4 2d3d 900a 363d
000002e0: 3a99 01bd 449b 613d e839 1a3c 468c 2f3d
000002f0: da09 0d3d d873 7b3c ac55 0d3d 805d 443a
00000300: 3cf8 973c c46d 8c3c f9a8 c4bc aed7 4dbd
00000310: d8c5 97bc 8378 793c e7ea 26bd 6832 d83c
00000320: 1db6 05bd 0e92 aa3c 87f2 b83c 4209 0b3d
00000330: 4c58 e1bc fd12 8fbc d0c1 a5bc 477f 2d3d
00000340: 3c3a 7dbd 002f 4d3d 4c2b 863c 4222 e53c
00000350: be53 4fbd 8406 a63c cd21 123d 3ec2 293d
00000360: 9589 1e3d d818 4f3d 1c66 ad3c 7ca0 c8bc
00000370: b08e 293d f344 60bd 0d02 103c 1e0c 19bd
00000380: f060 4abd a605 ae3c 987d 3b3d 48c2 023d
00000390: 75fe 0abd 45bf 013b 39a0 533d 90eb babb
000003a0: 70a1 94bb dc82 aabc 5e06 17bd 0e03 14bd
000003b0: 6174 5c3d c66e 033d 200b b43c e51c 0ebd
000003c0: 143c 443d 0c67 7bbd da2a 653c 8e2a 0fbd
000003d0: 1e7d 1bbc 603d 1dbc aa1f 08bd 7034 cbbc
000003e0: 5ca3 4c3d 28ce 30bd ab21 6cbd f0c5 773c
000003f0: 9ab2 37bd fa5d ddbc c5ca 163d 742e 22bd

fc2.bias f4 [256]
-0.041404035 0.04950133 -0.05093856 -0.017209075 0.0035414398 -0.041141775 0.011123374 -0.015241016
-0.03613013 -0.04081991 0.024266414 -0.0044027856 -0.055803217 0.030454911 -0.062329754 -0.028294912
0.05830141 -0.013677448 -0.013140038 -0.051396765 -0.019970417 -0.03749849 -0.062382035 0.05371201
0.010787845 0.038590275 -0.014825597 0.014175953 -0.030767173 0.041030757 -0.052580737 -0.011791208
-0.06649155 -0.022792943 0.04113653 -0.01501821 -0.056196705 0.04031848 -0.061488584 -0.041486736
-0.0546567 -0.002487235 -0.054575928 0.05719426 -0.04805927 0.056257874 0.012412339 0.03695263
-0.0068778917 -0.026501555 0.023167342 -0.0350047 -0.051305123 0.021689456 -0.015214905 0.005396694
-0.061407886 -0.007196942 0.05488251 0.02259159 -0.04088213 -0.03994622 0.055715755 -0.013678186
0.046081826 0.05415059 -0.041394323 0.037796006 -0.0025405735 0.04345219 0.043406073 0.04950138
0.049682837 0.030877195 -0.022713333 -0.051776994 -0.061977886 0.044722047 0.03340287 0.028565653
-0.023615442 -0.05566703 0.01723089 0.048301786 0.06095311 -0.027298022 -0.014479779 0.053810425
0.02903736 0.03525581 0.055450015 0.04712087 0.02888002 0.019493293 -0.054604005 -0.019806154
0.029249635 -0.00030726194 0.0028820036 -0.043124057 0.016027704 -0.058083966 -0.028838605 0.011046536
-0.0020595987 0.040554665 -0.013395501 -0.009702845 0.05089012 0.054433525 -0.04589559 0.053652797
-0.057775445 0.0450198 -0.0064463764 -0.011425205 0.02457498 0.05585195 -0.029025814 0.037445992
-0.021551415 -0.05383403 -0.014545664 0.026794733 -0.045728635 0.06165541 -0.01671815 -0.05656151
0.03866013 -0.06455264 0.041614324 0.009123303 -0.046302415 -0.02599864 -0.06202875 0.017903969
-0.04584816 0.024726324 -0.050246865 -0.041407038 -0.046745524 -0.013501592 -0.035524033 -0.05329296
0.035084233 0.047790337 -0.018113427 -0.03189336 -0.0025594085 0.041177534 -0.04511628 0.04806456
0.027136527 -0.04770355 -0.0039535086 -0.024039509 0.046516623 -0.020943051 0.05496966 -0.047991775
-0.0455447 -0.0018489733 -0.05360437 0.03137254 0.037373506 0.05721485 0.030245364 -0.03993492
-0.052403744 0.015488374 0.05357211 -0.0086396085 -0.04426247 -0.005667351 -0.02969376 0.005230397
0.032723352 0.01468201 -0.056033365 0.022709053 -0.04071858 -0.010889128 0.040681325 0.032069936
-0.0317166 0.032217458 -0.012092666 0.018221715 -0.06081995 -0.052268304 0.06109087 -0.058502387
-0.04414157 -0.048610244 0.04913003 -0.036448695 0.04662482 0.023573473 0.054869413 0.05138178
0.020934846 0.02655267 -0.039445776 0.021043625 -0.03435578 -0.034210138 -0.032602996 -0.0538413
-0.023772033 -0.057070084 -0.057883244 0.03852587 0.00030320892 0.04661348 -0.008889018 -0.0533555
0.059420303 -0.046008736 -0.0024343166 0.0138119925 -0.013514131 -0.050715033 -0.034284998 -0.01086127
-0.0046880497 0.0056024226 0.02416654 0.027609555 0.014413254 0.0025297776 0.056489073 0.030521214
0.019807614 0.0035658744 -0.060671188 -0.0027736947 0.056532502 0.002681464 0.025682293 0.06168817
0.0010298924 -0.020809678 0.012034006 0.028341103 0.02063794 0.011757374 -0.008376155 0.037237965
0.05064276 -0.044025317 -0.032824114 0.04230183 0.0033096862 -0.046195507 0.03436993 -0.03113596
00000000: 4797 29bd e8c1 4a3d f4a4 50bd 0cfa 8cbc
00000010: 8017 683b 4784 28bd d03e 363c 74b5 79bc
00000020: 30fd 13bd c732 27bd 5cca c63c 3e45 90bb
00000030: ea91 64bd 947c f93c 7c4d 7fbd bbca e7bc
00000040: 76cd 6e3d 6017 60bc 5049 57bc 6a85 52bd
00000050: 0099 a3bc 0498 19bd 4e84 7fbd 2001 5c3d
00000060: 80bf 303c d610 1e3d 10e7 72bc 4242 683c
00000070: 700b fcbc de0f 283d e65e 57bd e92f 41bc
00000080: b92c 88bd 44b8 babc c77e 283d f00e 76bc
00000090: 842e 66bd fe24 253d 74db 7bbd ffed 29bd
000000a0: b4df 5fbd e100 23bb 028b 5fbd 8744 6a3d
000000b0: ccd9 44bd a86e 663d 205d 4b3c a45b 173d
000000c0: f05f e1bb ca19 d9bc 70c9 bd3c 1761 0fbd
000000d0: 5225 52bd 16ae b13c f047 79bc c0d6 b03b
000000e0: d686 7bbd 53d4 ebbb 7ccc 603d 0012 b93c
000000f0: 0574 27bd a69e 23bd 3436 643d 781a 60bc
00000100: 4cc0 3c3d 02cd 5d3d 188d 29bd fccf 1a3d
00000110: c07f 26bb ecfa 313d 91ca 313d f6c1 4a3d
00000120: 3b80 4b3d 2cf2 fc3c 5011 babc 1d14 54bd
00000130: 86dc 7dbd 772e 373d 73d1 083d 8402 ea3c
00000140: 2c75 c1bc 1d03 64bd cc27 8d3c 18d8 453d
00000150: f8a9 793d 1aa0 dfbc 983c 6dbc 5268 5c3d
00000160: c2df ed3c 6568 103d 8e1f 633d d001 413d
00000170: cb95 ec3c 66b0 9f3c 73a8 5fbd 8440 a2bc
00000180: ee9c ef3c 0018 a1b9 ffdf 3c3b daa2 30bd
00000190: 884c 833c 74e9 6dbd f03e ecbc 88fc 343c
000001a0: 55fa 06bb a61c 263d ce78 5bbc aef8 1ebc
000001b0: 2972 503d b0f5 5e3d 04fd 3bbd 09c3 5b3d
000001c0: f2a5 6cbd af66 383d 203c d3bb c830 3bbc
000001d0: 7851 c93c 04c5 643d 8bc7 edbc f860 193d
000001e0: 988c b0bc 1281 5cbd f050 6ebc a180 db3c
000001f0: f34d 3bbd 628a 7c3d 80f4 88bc 0bad 67bd
00000200: 165a 1e3d 2d34 84bd c873 2a3d e879 153c
00000210: 9aa7 3dbd 1afb d4bc dc11 7ebd 58ab 923c
00000220: 48cb 3bbd dc8e ca3c a8cf 4dbd 6d9a 29bd
00000230: 3c78 3fbd c835 5dbc a681 11bd b849 5abd
00000240: 7cb4 0f3d cdbf 433d 9c62 94bc 9da2 02bd
00000250: c0bb 27bb c6a9 283d d9cb 38bd 58df 443d
00000260: 6c4d de3c cc64 43bd 6f8c 81bb 81ee c4bc
00000270: 3788 3e3d c390 abbc de27 613d 0693 44bd
00000280: 148d 3abd 4059 f2ba 4290 5bbd 7e80 003d
00000290: f614 193d 1e5a 6a3d 20c5 f73c cc92 23bd
000002a0: 4fa5 56bd f3c2 7d3c 6e6e 5b3d 258d 0dbc
000002b0: 904c 35bd 30b5 b9bb 5440 f3bc c063 ab3b
000002c0: ec08 063d d08c 703c 3e83 65bd 5608 ba3c
000002d0: 87c8 26bd 5068 32bc 76a1 263d c45b 033d
000002e0: 44e9 01bd 74f6 033d 5120 46bc b545 953c
000002f0: 571e 79bd 4a17 56bd 6c3a 7a3d 33a0 6fbd
00000300: cacd 34bd 891b 47bd 923c 493d 3a4b 15bd
00000310: abf9 3e3d 281d c13c c0be 603d b475 523d
00000320: 8e7f ab3c fc84 d93c e591 21bd ae63 ac3c
00000330: a5b8 0cbd ee1f 0cbd b88a 05bd b288 5cbd
00000340: 91bd c2bc 52c2 69bd fb16 6dbd 4dcd 1d3d
00000350: 03f8 9e39 c7ed 3e3d 3ea3 11bc 4c8b 5abd
00000360: b462 733d a873 3cbd 0e89 1fbb b24b 623c
00000370: 606a 5dbc 91ba 4fbd 6d6e 0cbd 78f3 31bc
00000380: 369e 99bb 8794 b73b e8f8 c53c 6f2d e23c
00000390: 9225 6c3c a0ca 253b 1661 673d a007 fa3c
000003a0: 9443 a23c 72b1 693b 5a82 78bd e0c6 35bb
000003b0: a08e 673d 80bb 2f3b ac63 d23c bcac 7c3d
000003c0: 74fd 863a 0f79 aabc 482a 453c 9a2b e83c
000003d0: e610 a93c 00a2 403c 243c 09bc d686 183d
000003e0: c86e 4f3d e453 34bd 9472 06bd af44 2d3d
000003f0: 52e7 583b 8037 3dbd 7cc7 0c3d d710 ffbc

V.weight f4 [1, 256]
-0.02634062 -0.025857078 -0.036855146 -0.021482341 -0.03221163 0.01930242 -0.055566937 -0.049895465
-0.052462406 -0.0009805381 -0.0038849786 0.007688122 0.046102695 0.018386059 0.0013833065 -0.03712665
-0.023474261 0.042206213 0.016531924 0.022600798 -0.004368237 0.0516771 -0.015327871 0.03965713
0.040026993 0.04370206 -0.049233332 -0.01712238 0.03467328 0.016635695 -0.0040837303 0.043297365
0.05298481 0.002897665 0.025711942 0.060781427 -0.05270791 0.014454606 0.028937895 0.048952967
0.016728751 -0.024041066 0.022994295 -0.026711443 0.014000326 -0.03262846 0.055697933 0.017999902
0.062454857 -0.048594505 0.016063668 0.035862584 -0.02448915 0.02209119 -0.05442453 0.0134497285
-0.052745983 -0.010676226 -0.0010876879 0.0058240294 -0.017779779 0.028502092 -0.024323083 0.0045863492
0.007282734 0.025694657 0.011144874 0.024922453 0.03656143 0.014560429 0.0055612954 -0.019806363
0.033796757 0.05567807 -0.045985013 -0.00096666726 -0.053281687 0.029102122 -0.026532108 -0.0047337264
-0.02538173 -0.032955706 -0.0029244923 0.048674315 -0.043643266 0.0034776316 0.045357957 0.046975866
-0.027698118 0.045232143 -0.03723067 -0.005217292 -0.020413151 -0.040399965 -0.0029526914 -0.05495704
-0.022933787 0.003699176 0.019113922 0.05752021 -0.01437442 0.028692536 0.053624183 -0.005204402
-0.01267913 -0.0040875324 -0.011097745 0.030515207 -0.020608883 -0.031183645 -0.029162616 0.040281974
0.039297104 -0.022902919 0.0005291328 -0.008380108 -0.022696622 -0.020311825 -0.016140396 0.03636141
-0.023169331 -0.021709248 0.009175174 -0.006962248 0.028104657 0.040559664 0.011817843 0.023266507
7.585436e-05 0.0129352445 -0.0015138164 0.05267948 0.0347263 -0.01904426 -0.0062949546 0.03559804
0.054606155 0.047716 0.038724102 0.041794047 0.012949564 -0.026528984 0.0070748455 -0.008607298
-0.032303315 -0.019963253 -0.023321606 0.0048669563 0.00505057 0.005615368 -0.0012821169 -0.05598153
-0.011708289 0.0076471493 -0.023308506 -0.029326444 0.0069148443 -0.014309842 0.042922065 0.053965725
0.04571446 -0.04937192 0.0098982 -0.036935523 0.048893064 0.029440366 0.05335615 -0.0144386515
-0.011447705 -0.011580541 0.061121427 0.0080191605 -0.023497403 -0.012843393 -0.02266521 0.0452056
0.00067850994 -0.045073375 0.023863927 0.02530971 0.007819253 -0.0077580637 0.009901179 -0.015034261
0.060239293 0.008941171 0.042458028 0.02092367 0.012521837 -0.05932779 0.00029183924 -0.020048227
-0.056649357 -0.008376602 -0.043513887 0.0006533265 -0.048705816 0.006232556 0.04870796 0.05561407
0.03559332 -0.061078176 0.00022591835 -0.0037757533 -0.021593852 -0.036062475 -0.023711104 -0.0129514495
-0.011542915 0.026518516 0.011360004 -0.008203749 -0.031940248 0.055432744 -6.526467e-05 0.028861076
-0.061743572 -0.04134752 0.044012483 0.0071297 0.033897236 -0.029610684 -0.008083608 -0.030210912
0.029347762 -0.006066315 -0.0025456562 -0.049959935 -0.02823307 -0.019369341 0.053874433 0.054360367
0.031030215 0.020609256 0.02205515 0.042074636 -0.031891935 -0.053814836 -0.046960786 0.0431443
-0.018807704 0.029576411 0.054415546 0.010432034 0.021086838 0.03241162 -0.010955586 0.030428864
-0.0073070237 -0.0421198 -0.02215138 -0.043657094 0.032333586 0.03313239 -0.008389827 -0.039910764
00000000: 49c8 d7bc 39d2 d3bc 6cf5 16bd bcfb afbc
00000010: 58f0 03bd 1c20 9e3c 289a 63bd 305f 4cbd
00000020: d2e2 56bd 6685 80ba 209b 7ebb a4ec fb3b
00000030: 2ed6 3c3d 5c9e 963c 1050 b53a 1d12 18bd
00000040: 184d c0bc 6ce0 2c3d f56d 873c 4f25 b93c
00000050: 6e23 8fbb 5eab 533d c021 7bbc 846f 223d
00000060: 58f3 233d ee00 333d e4a8 49bd 3c44 8cbc
00000070: 9205 0e3d 9547 883c d0d0 85bb 9458 313d
00000080: 9a06 593d c0e6 3d3b daa1 d23c f2f5 783d
00000090: 40e4 57bd 03d3 6c3c 2a0f ed3c e882 483d
000000a0: bc0a 893c c5f1 c4bc 885e bc3c f5d1 dabc
000000b0: a061 653c 6ca5 05bd 8423 643d 8874 933c
000000c0: aad0 7f3d 080b 47bd f497 833c a5e4 123d
000000d0: 789d c8bc 95f8 b43c 42ec 5ebd 405c 5c3c
000000e0: 2c0c 58bd 56eb 2ebc c090 8eba 80d7 be3b
000000f0: e6a6 91bc 387d e93c 3441 c7bc 1649 963b
00000100: 00a4 ee3b 9a7d d23c fd98 363c 2c2a cc3c
00000110: 70c1 153d de8e 6e3c 873b b63b f440 a2bc
00000120: 786e 0a3d b00e 643d c85a 3cbd f167 7dba
00000130: e63d 5abd 9367 ee3c dd59 d9bc 601d 9bbb
00000140: 59ed cfbc 90fc 06bd d7a8 3fbb b85e 473d
00000150: 48c3 32bd fae8 633b 44c9 393d c469 403d
00000160: 2ae7 e2bc 5745 393d 307f 18bd d1f5 aabb
00000170: 7b39 a7bc 6f7a 25bd f181 41bb a21a 61bd
00000180: a3df bbbc e06d 723b cd94 9c3c 509a 6b3d
00000190: b082 6bbc 9c0c eb3c 08a5 5b3d b089 aabb
000001a0: 20bc 4fbc b5f0 85bb 51d3 35bc 07fb f93c
000001b0: f6d3 a8bc d874 ffbc 70e6 eebc b6fe 243d
000001c0: 00f6 203d e79e bbbc 80b5 0a3a b84c 09bc
000001d0: 44ee b9bc fc64 a6bc dd38 84bc b4ef 143d
000001e0: 9ccd bdbc 98d7 b1bc 7853 163c 9223 e4bb
000001f0: bd3b e63c e421 263d a09f 413c 6799 be3c
00000200: 0014 9f38 59ee 533c 406b c6ba 70c6 573d
00000210: 2a3d 0e3d b502 9cbc e845 cebb 40cf 113d
00000220: b4aa 5f3d da71 433d 2a9d 1e3d 3c30 2b3d
00000230: 682a 543c 5053 d9bc 1bd4 e73b a005 0dbc
00000240: 7b50 04bd fa89 a3bc f40c bfbc fd7a 9f3b
00000250: 407f a53b 1f01 b83b b40c a8ba e44c 65bd
00000260: 20d4 3fbc f094 fa3b 7bf1 bebc 033e f0bc
00000270: eb95 e23b d473 6abc 0ccf 2f3d 2a0b 5d3d
00000280: 163f 3b3d 363a 4abd 0f2c 223c b449 17bd
00000290: 1844 483d ec2c f13c fa8b 5a3d 1890 6cbc
000002a0: 288f 3bbc 4fbc 3dbc 765a 7a3d cc62 033c
000002b0: a07d c0bc 186d 52bc 64ac b9bc 8229 393d
000002c0: 08de 313a dc9e 38bd 487e c33c 4f56 cf3c
000002d0: 531c 003c 5b37 febb 8e38 223c 4352 76bc
000002e0: 7abd 763d fd7d 123c 78e8 2d3d 1e68 ab3c
000002f0: 6428 4d3c b201 73bd 0002 9939 2e3c a4bc
00000300: 2809 68bd 043e 09bc 9e3b 32bd 0044 2b3a
00000310: c07f 47bd 783a cc3b ff81 473d 94cb 633d
00000320: 4dca 113d 1c2d 7abd 7fe4 6c39 a172 77bb
00000330: 97e5 b0bc 3fb6 13bd ca3d c2bc 5132 54bc
00000340: 7f1e 3dbc 5c3d d93c 4f1f 3a3c 0469 06bc
00000350: c7d3 02bd 720d 633d b4de 88b8 106e ec3c
00000360: d4e6 7cbd 045c 29bd 6f46 343d 42a0 e93b
00000370: d4d7 0a3d 1b92 f2bc 1c71 04bc e07c f7bc
00000380: b86a f03c f0c7 c6bb 06d5 26bb caa2 4cbd
00000390: 0a49 e7bc 74ac 9ebc 70ab 5c3d faa8 5e3d
000003a0: 1433 fe3c bed4 a83c 00ad b43c 7456 2c3d
000003b0: 1ea1 02bd f26c 5cbd f459 40bd 14b8 303d
000003c0: 9d12 9abc 3b4a f23c d6e2 5e3d 1feb 2a3c
000003d0: 4ebe ac3c 0cc2 043d 0f7f 33bc f445 f93c
000003e0: c26f efbb d085 2cbd d076 b5bc c8d1 32bd
000003f0: 3970 043d d4b5 073d 7c75 09bc 7879 23bd

A.weight f4 [6, 256]
-0.092280746 -0.03598746 0.017478269 0.050183006 -0.028405182 0.05640654 -0.040672608 -0.029513827
-0.03011237 -0.0173798 -0.05411291 0.04449677 0.039617024 0.015030205 0.03241788 0.03375973
0.052601233 -0.014109001 -0.044374652 -0.05864395 0.0043230215 -0.005236998 -0.047765754 -0.042383723
-0.033374622 0.0477347 0.018400125 -0.055093747 -0.025471598 -0.003307978 -0.049401768 -0.03840334
-0.00036413592 0.048977748 0.04584497 0.034192942 0.06202156 0.00031116392 0.059800282 0.02440943
0.035017658 0.0020093485 0.025039986 -0.062149607 0.0004891157 -0.027248846 -0.008369692 -0.031358913
0.03367514 -0.01116702 -0.0088945 -0.011777768 -0.04783017 0.033730417 0.05742971 -0.061646968
0.024637304 -0.026715387 0.046203703 0.03520693 -0.053976316 0.055405334 0.00341136 0.0419377
-0.041390866 -0.047562692 0.013803332 -0.033156537 0.016875796 -0.004495696 -0.0056321747 0.0618414
0.012503683 -0.041319184 0.057786226 0.047720503 0.047900707 0.0016300087 0.026313951 0.0076428354
-0.03655445 0.035334356 0.010480999 0.06253912 -0.0021103024 -0.0428636 0.037318178 0.0050342903
-0.059228078 -0.040575527 -0.04038872 -0.038570575 0.00417558 0.021935517 0.00422453 0.013617992
0.016470253 -0.006539002 0.056927335 0.062481232 -0.02020546 0.024190383 0.015493788 0.051909447
-0.033595074 -0.02849831 0.024596578 0.039734103 -0.016944313 -0.02797579 0.01888097 0.009393236
-0.046588898 -0.0074405763 0.04010182 -0.0046674013 -0.0057266615 0.059531853 0.008381632 0.07193767
0.060176887 0.04353901 0.04742732 -0.034322247 0.043060884 0.05257079 -0.029706797 0.054490246
0.01638905 0.024799468 0.027314566 -0.027773537 0.0051504374 -0.044364896 -0.02643785 0.03530743
-0.060261935 0.005021408 -0.023516923 0.033956308 0.031702228 -0.044564895 0.04218038 0.013955288
-0.038163483 -0.040377285 -0.014695331 -0.026066812 -0.00848743 -0.011750229 -0.046064954 -0.032228597
0.03446687 0.0121616945 -0.037041467 -0.06125165 0.0043470915 -0.026594358 0.04558704 -0.04394888
-0.03628923 0.0003234297 0.02472496 -0.012495808 -0.023873694 -0.041872676 -0.031295657 0.013467565
0.025533803 0.029066045 0.04019566 0.044464737 0.0624248 -0.04524056 -0.00039990246 0.023716643
0.022684617 -0.051300526 0.050524846 -0.016813824 0.04880619 -0.028267344 0.061765745 0.008846921
-0.046415962 0.0075653736 0.04282087 -0.026219549 0.016704816 0.012618132 -0.043744266 -0.034079358
-0.044400327 -0.0022277955 -0.045784414 -0.031418294 0.049483195 0.016593391 -0.04193849 -0.00090623647
-0.01632405 -0.0053059086 -0.0629356 0.025764318 0.01604987 -0.047459677 -0.03721978 -0.00019019807
-0.038898397 -0.028590739 -0.050571978 -0.022339655 -0.034943093 -0.010675108 -0.032198086 0.04302632
-0.052336164 0.012253426 -0.010844796 -0.025619777 0.016128793 -0.015360784 -0.01864342 0.020483673
4.9859285e-05 -0.030715605 -0.023444206 -0.055860955 -0.008062933 0.023965105 -0.0528156 -0.03753253
0.0043279678 0.017580967 -0.0005676523 -0.008730665 0.057819508 0.039738305 -0.052224003 0.058400847
-0.0421029 0.038794838 -0.04680086 -0.02025498 0.015450377 0.024435736 -0.041640446 0.04477928
-0.056702327 0.02713678 0.040634766 0.05912876 -0.03401933 0.012906561 0.029345443 0.023656763
00000000: b0fd bcbd 9667 13bd 962e 8f3c b28c 4d3d
00000010: fcb1 e8bc 8b0a 673d 5298 26bd fbc6 f1bc
00000020: 38ae f6bc 1560 8ebc 80a5 5dbd 3f42 363d
00000030: 7645 223d 4041 763c 9cc8 043d a547 0a3d
00000040: 6474 573d 7029 67bc 32c2 35bd a334 70bd
00000050: 22a8 8d3b 209b abbb 06a6 43bd 8e9a 2dbd
00000060: d4b3 08bd 7685 433d dcbb 963c fba9 61bd
00000070: d0a9 d0bc a9ca 58bb 8259 4abd d24c 1dbd
00000080: 7fe9 beb9 e49c 483d efc7 3b3d e60d 0c3d
00000090: 520a 7e3d b723 a339 24f1 743d 49f6 c73c
000000a0: ad6e 0f3d 46af 033b a820 cd3c 9690 7ebd
000000b0: 0038 003a f938 dfbc 0821 09bc 3472 00bd
000000c0: f2ee 093d e0f5 36bc 3dba 11bc 8af7 40bc
000000d0: 91e9 43bd e828 0a3d 6a3b 6b3d 8881 7cbd
000000e0: 2cd4 c93c 3ada dabc 1840 3d3d 2435 103d
000000f0: 4516 5dbd b4f0 623d 2091 5f3b dec6 2b3d
00000100: 7889 29bd 19d1 42bd 5f27 623c 26cf 07bd
00000110: 1c3f 8a3c a250 93bb 1b8e b8bb 684d 7d3d
00000120: 3fdc 4c3c 4e3e 29bd 40b1 6c3d 9376 433d
00000130: 8833 443d 04a6 d53a 5b90 d73c c070 fa3b
00000140: 1eba 15bd c2ba 103d 7fb8 2b3c 8314 803d
00000150: 004d 0abb be91 2fbd f2da 183d b0f6 a43b
00000160: 2499 72bd 8632 26bd a46e 25bd 2efc 1dbd
00000170: 4ed3 883b 1db2 b33c ed6d 8a3b 001e 5f3c
00000180: a0ec 863c 2045 d6bb a32c 693d 52ec 7f3d
00000190: ec85 a5bc e92a c63c a8d9 7d3c 009f 543d
000001a0: fd9a 09bd 4a75 e9bc c37e c93c 3ac0 223d
000001b0: cdce 8abc 7c2d e5bc 44ac 9a3c 16e6 193c
000001c0: 00d4 3ebd 14d0 f3bb ce41 243d 00f1 98bb
000001d0: b8a6 bbbb acd7 733d 1d53 093c 0f54 933d
000001e0: 0a7c 763d f655 323d 2643 423d 7c95 0cbd
000001f0: 9c60 303d 7854 573d ab5b f3bc 2a31 5f3d
00000200: 5442 863c 4128 cb3c ccc2 df3c 5485 e3bc
00000210: 00c5 a83b f7b7 35bd 3194 d8bc 869e 103d
00000220: 38d5 76bd a08a a43b 90a6 c0bc c515 0b3d
00000230: 32da 013d ae89 36bd 56c5 2c3d b8a4 643c
00000240: 5051 1cbd a762 25bd b0c4 70bc 118a d5bc
00000250: dd0e 0bbc 0884 40bc 9bae 3cbd 2202 04bd
00000260: 222d 0d3d d841 473c cbb8 17bd 03e3 7abd
00000270: 0c72 8e3b 69dc d9bc 7ab9 3a3d be03 34bd
00000280: 04a4 14bd 0092 a939 008c ca3c 38bb 4cbc
00000290: c492 c3bc af82 2bbd e02f 00bd 10a7 5c3c
000002a0: 442c d13c ea1b ee3c 34a4 243d a820 363d
000002b0: 26b1 7f3d 2a4e 39bd 00aa d1b9 6849 c23c
000002c0: 17d5 b93c 8020 52bd 24f3 4e3d 25bd 89bc
000002d0: 00e9 473d eb90 e7bc 14fe 7c3d adf2 103c
000002e0: aa1e 3ebd f4e6 f73b f064 2f3d 61ca d6bc
000002f0: 8ad8 883c 48bc 4e3c 302d 33bd cc96 0bbd
00000300: 1edd 35bd 3500 12bb 7088 3bbd 78b0 00bd
00000310: e4ae 4a3d ddee 873c b2c7 2bbd 8090 6dba
00000320: 04ba 85bc 30dd adbb 61e4 80bd b10f d33c
00000330: 047b 833c 1465 42bd c573 18bd e86f 47b9
00000340: ed53 1fbd 2037 eabc 9024 4fbd a701 b7bc
00000350: 7d20 0fbd a6e6 2ebc 24e2 03bd 5e3c 303d
00000360: 725e 56bd 98c2 483c 5fae 31bc 91e0 d1bc
00000370: 8820 843c ccab 7bbc 16ba 98bc 60cd a73c
00000380: 0020 5138 4b9f fbbc 100e c0bc 75ce 64bd
00000390: 641a 04bc 7852 c43c 2c55 58bd b6bb 19bd
000003a0: a0d1 8d3b f605 903c 80ce 14ba 100b 0fbc
000003b0: 26d4 6c3d a2c4 223d d6e8 55bd ba35 6f3d
000003c0: 1774 2cbd 56e7 1e3d 42b2 3fbd c6ed a5bc
000003d0: 9423 7d3c 742d c83c 2c8f 2abd 7a6a 373d
000003e0: b340 68bd f44d de3c a470 263d 0031 723d
000003f0: da57 0bbd 0a76 533c db65 f03c d4cb c13c

A.bias f4 [6]
0.049491778 0.06364949 0.02490899 -0.068268396 -0.022295415 -0.0029834514
00000000: e4b7 4a3d aa5a 823d f00d cc3c 4dd0 8bbd
00000010: e0a4 b6bc 0286 43bb
