cool/checkpoints/D3QN/Q_eval/D3QN_q_eval_4400.pth (torch, 278863 bytes, 7 tensors)

fc1.weight f4 [256, 5]
-0.44503486 -0.4450867 -0.23613021 0.03749556 0.5640526 -0.1576207 0.3317641 0.33056927
-0.17506444 0.07349694 -0.35646608 0.24734694 -0.18802321 -0.08500382 0.2847646 -0.14023027
-0.11667991 0.048443615 -0.15961218 0.031501204 0.25763714 -0.3321595 0.19832313 -0.2615185
0.25996053 -0.05304453 -0.11420318 0.24198692 0.114748806 0.2284399 0.15961075 0.30534887
0.030017853 -0.107988805 -0.27732158 0.323578 -0.020662598 -0.2096508 0.2804526 0.15493643
-0.04749638 0.24406844 -0.09637502 -0.14506033 -0.019449234 -0.08116856 0.33482355 0.28073603
-0.11372936 -0.03292826 -0.44685593 -0.41503292 0.4074375 -0.42798468 -0.37436202 0.40702426
-0.78849113 0.30489814 0.30024368 0.023863614 -0.18908463 -0.56973016 0.19128427 0.09510886
-0.014846735 -0.12624547 0.31798428 0.3136536 -0.18717763 -0.1500239 0.34011406 0.078918524
-0.20879309 0.13721523 -0.21400869 0.021041662 -0.39589843 0.30953225 -0.010556696 0.13255167
-0.2162942 -0.42222822 0.3926515 -0.013450772 0.02124685 -0.45622173 -0.09224146 -0.24653918
0.35615665 -0.121122666 -0.28785092 0.10524863 0.005052159 0.38322458 -0.088449955 -0.31238768
-0.13996297 -0.045461822 0.16711123 -0.10838664 0.35026735 0.12595111 0.149885 -0.28681895
-0.28687733 -0.23373085 0.3396837 0.23059225 -0.25584596 -0.34109506 0.3975526 -0.10544711
0.31577063 -0.06095019 0.29564577 -0.17643413 0.38346207 0.004147291 -0.358642 -0.32645404
-0.44639564 -0.41225818 -0.41886872 0.110220306 0.48552278 0.17527905 0.5240948 0.16597693
0.033923518 0.041163493 -0.1872131 0.03090632 0.07580525 -0.2213712 0.29756594 0.22253722
-0.3714498 -0.22936967 -0.23802082 0.08438468 -0.36675376 0.10049558 -0.15409786 -0.15037039
0.10769099 0.031378716 -0.22949575 0.36657965 -0.23849738 -0.1231007 0.40668654 -0.21851085
0.0018222879 0.3540471 -0.20929132 0.3270892 0.16786474 0.048163682 -0.2300512 0.34726936
0.3513145 0.3402658 0.37779224 0.38544765 -0.49591124 -0.058708016 -0.6731352 0.2044717
0.3950666 -0.024033507 -0.039504588 -0.10159996 0.42935002 -0.013269424 -0.37864673 0.4387787
-0.14833519 0.40524054 -0.1811184 -0.42256606 0.060725987 0.076393425 -0.17026973 -0.28167516
0.17608052 0.33287638 0.12027335 -0.2841227 -0.31203628 0.26919824 -0.39496684 -0.14357275
0.12279673 0.15545182 0.013218659 0.17107384 0.44251442 -0.27666232 0.3799416 -0.60814625
-0.30702156 -0.042298406 -0.0062030256 -0.25825328 0.016305327 0.3746873 0.014291763 -0.11542344
-0.34371838 -0.3457308 0.1823711 -0.28808928 0.3749967 0.07276117 0.21276633 -0.30620614
0.07797766 0.30450332 -0.4381092 0.038383275 0.1258629 -0.27149355 0.39300084 -0.13356334
0.19466496 0.35056826 0.006974349 -0.12819603 0.38777202 -0.2510757 0.054626763 -0.18302163
-0.2341348 -0.091673255 -0.32277894 -0.18554896 -0.412837 0.27513003 -0.37071666 -0.44038373
-0.09042981 0.13819487 0.3786004 0.18513131 0.06366712 0.34252018 -0.2836775 0.17396742
0.1786779 0.3558719 -0.3697682 -0.18084002 -0.18738246 -0.089934975 -0.015476912 -0.00082707405
00000000: 9cdb e3be 67e2 e3be 1ecc 71be f294 193d
00000010: c065 103f 5267 21be fcdc a93e 6040 a93e
00000020: 1844 33be 9085 963d b982 b6be 8448 7d3e
00000030: 2889 40be 7c16 aebd aacc 913e 8698 0fbe
00000040: e0f5 eebd d06c 463d 6071 23be 6807 013d
00000050: 04e9 833e cf10 aabe 3815 4b3e c1e5 85be
00000060: 8c19 853e 3945 59bd 5be3 e9bd 6bcb 773e
00000070: 6c01 eb3d 26ec 693e 0071 233e b056 9c3e
00000080: 00e8 f53c 3c29 ddbd 18fd 8dbe 04ac a53e
00000090: 9c44 a9bc b3ae 56be 7c97 8f3e a8a7 1e3e
000000a0: 908b 42bd 14ed 793e 4460 c5bd b28a 14be
000000b0: 0054 9fbc b43b a6bd fe6d ab3e a2bc 8f3e
000000c0: f0ea e8bd c8df 06bd 4dca e4be 327f d4be
000000d0: a69b d03e cf20 dbbe 61ac bfbe 7c65 d03e
000000e0: 8eda 49bf 9c1b 9c3e 8ab9 993e a07d c33c
000000f0: 679f 41be d6d9 11bf 06e0 433e 6fc8 c23d
00000100: b83f 73bc 7e46 01be d6ce a23e 3497 a03e
00000110: 7eab 3fbe de9f 19be 6e23 ae3e 09a0 a13d
00000120: dbcd 55be 2682 0c3e 1825 5bbe 905f ac3c
00000130: 33b3 cabe 037b 9e3e fef5 2cbc a0bb 073e
00000140: 3a7c 5dbe 4c2e d8be 9e09 c93e a060 5cbc
00000150: e00d ae3c e595 e9be 17e9 bcbd c474 7cbe
00000160: 2a5a b63e 290f f8bd 3261 93be 988c d73d
00000170: 958c a53b 0336 c43e 4025 b5bd 47f1 9fbe
00000180: 7452 0fbe 2d36 3abd 351f 2b3e d1f9 ddbd
00000190: 3e56 b33e 54f9 003e 747b 193e efd9 92be
000001a0: 96e1 92be 2457 6fbe 06eb ad3e 6020 6c3e
000001b0: 3efe 82be 03a4 aebe 048c cb3e a8f4 d7bd
000001c0: b0ac a13e e8a6 79bd e25e 973e 26ab 34be
000001d0: 2455 c43e 00e6 873b ed9f b7be fc24 a7be
000001e0: f88d e4be 8113 d3be f675 d6be 2fbb e13d
000001f0: 7196 f83e 5a7c 333e 142b 063f dbf5 293e
00000200: 63f3 0a3d 0d9b 283d cab4 3fbe 402f fd3c
00000210: c83f 9b3d 22af 62be 905a 983e cce0 633e
00000220: ab2e bebe e2df 6abe bbbb 73be e0d1 ac3d
00000230: 26c7 bbbe a0d0 cd3d d4cb 1dbe b2fa 19be
00000240: 188d dc3d f886 003d ef00 6bbe 54b0 bb3e
00000250: a838 74be 381c fcbd 3839 d03e 4fc1 5fbe
00000260: d6d9 ee3a a945 b53e 7750 56be 3c78 a73e
00000270: bce4 2b3e 4847 453d 8b92 6bbe 4acd b13e
00000280: 7fdf b33e 5237 ae3e fc6d c13e 6559 c53e
00000290: 14e8 fdbe d177 70bd 9752 2cbf 0861 513e
000002a0: 2b46 ca3e ebe1 c4bc 90cf 21bd a413 d0bd
000002b0: c4d3 db3e 0068 59bc fcdd c1be 9aa7 e03e
000002c0: 2ee5 17be b07b cf3e 1a77 39be 945a d8be
000002d0: d0bb 783d 2874 9c3d 305b 2ebe ba37 90be
000002e0: 744e 343e c66e aa3e e051 f63d 8878 91be
000002f0: 38c3 9fbe 5ad4 893e 1839 cabe bc04 13be
00000300: da7c fb3d c32e 1f3e 1393 583c fb2d 2f3e
00000310: 4091 e23e afa6 8dbe b587 c23e 79af 1bbf
00000320: ee31 9dbe 1841 2dbd c042 cbbb c639 84be
00000330: c092 853c 04d7 bf3e 0028 6a3c 2063 ecbd
00000340: dbfb afbe a103 b1be 7dbf 3a3e 7080 93be
00000350: 91ff bf3e cf03 953d 6bdf 593e 0dc7 9cbe
00000360: c0b2 9f3d dce7 9b3e d94f e0be c837 1d3d
00000370: 34e2 003e 3401 8bbe 6837 c93e d4c4 08be
00000380: 4056 473e af7d b33e 1489 e43b d245 03be
00000390: 0e8a c63e ff8c 80be 50c0 5f3d 066a 3bbe
000003a0: 08c1 6fbe 30bf bbbd 4843 a5be 8c00 3ebe
000003b0: 5f5f d3be d8dd 8c3e 93ce bdbe fa79 e1be
000003c0: 4433 b9bd f582 0d3e e9d7 c13e 1093 3d3e
000003d0: e863 823d ce5e af3e 2d3e 91be 8424 323e
000003e0: 57f7 363e d734 b63e 4252 bdbe 202e 39be
000003f0: 30e1 3fbe d42f b8bd e092 7dbc 00d0 58ba

fc1.bias f4 [256]
0.1728679 0.05978751 0.22372365 0.0012323558 -0.026263297 0.20392653 -0.20840104 -0.2907178
-0.1953677 0.10792303 0.37589812 -0.08515249 0.34158123 -0.38632616 -0.29723814 0.17911792
-0.04480517 0.35519823 0.14081307 0.025864705 0.1318683 -0.30738914 -0.32251477 -0.4220216
0.007202422 -0.35499948 -0.10009432 0.25466788 -0.42440805 0.3101548 0.294472 0.265193
-0.41093087 -0.3332627 -0.25619435 -0.096164465 0.20155376 -0.10737422 -0.23740739 0.06760662
0.444292 0.40863222 0.43201873 0.24358469 0.13176668 -0.070033625 -0.13797703 -0.29688746
0.38900432 -0.35914248 -0.29502833 -0.11558679 0.29756922 0.29117703 -0.31503674 0.12824106
0.3192789 0.29584682 -0.4046239 -0.44104373 -0.18203163 0.10706363 0.11383808 -0.14999741
-0.35296664 -0.1019651 -0.064059146 0.29722527 -0.38956362 0.35473308 0.39202976 0.42395127
-0.3917223 -0.14071292 0.1595111 0.32131255 -0.13316005 0.23615696 -0.27888364 0.124138944
-0.37341514 0.41598898 0.21028449 0.12911867 -0.36745748 0.25800115 -0.09468831 0.22373712
-0.2891293 -0.20691814 0.06852061 -0.02400276 0.10319048 -0.2689677 -0.27487326 0.2124896
0.08747065 -0.4184878 0.23548923 0.16320533 -0.1491178 -0.02228874 0.14988303 -0.0732435
0.032603484 0.19536489 0.29554605 0.15468317 0.18771411 0.12635098 -0.14774886 -0.1122857
0.002798306 0.39046955 0.15325469 0.17204331 0.10229426 -0.104222745 -0.25830975 0.28893265
0.37163466 0.06445432 0.06489611 0.122250974 -0.39104292 0.10485405 0.39138684 -0.010714233
-0.008290761 -0.23635706 -0.08191955 0.2507863 0.38903373 0.25390708 -0.23534882 -0.33680943
0.24671626 -0.0689297 0.38865572 0.39268455 -0.3880034 -0.20824453 0.14429417 0.2113772
0.17440611 -0.07636413 -0.40031552 -0.3593498 -0.07619411 0.08352012 0.19733775 -0.04102674
0.21513051 0.00846526 0.18066777 -0.40471256 0.33720517 0.0072156894 0.34535706 0.051431865
0.33434495 -0.020814981 0.17863834 -0.14847276 -0.29020166 -0.34645158 -0.33132073 0.15520334
-0.01579699 -0.21920468 0.28469104 -0.3338657 0.12823622 -0.2119196 0.32720622 -0.047882877
0.13868114 0.31441438 -0.33070737 -0.3382792 -0.38215593 0.10045177 -0.27862754 0.33103627
0.20732373 0.027044654 0.3429699 -0.24015532 0.21807134 0.06757218 0.11784605 0.10862297
0.01637122 0.09504694 0.226201 0.13445866 0.1732347 0.13260119 -0.3865007 -0.08880156
-0.32776695 -0.21879265 0.22855608 0.37742144 -0.023888648 -0.23892769 0.13905913 0.07042152
0.15479623 0.09755543 0.1319739 0.17412633 0.053890526 0.27229905 -0.31515807 0.39790565
0.31672078 -0.18391511 0.4245081 0.22672093 0.30890965 0.057046175 -0.06644369 -0.19019555
-0.3868092 -0.2889952 -0.11668208 -0.3792405 0.20261437 0.024823874 -0.339137 -0.020722657
0.12926066 0.34337223 -0.016343713 0.41850805 -0.16495863 0.4341017 -0.24453859 0.16400963
-0.14393786 -0.42329738 -0.23110276 0.3316881 -0.19625627 0.3346597 -0.24339356 -0.11093074
-0.127058 0.3823073 0.24770173 -0.0066180527 -0.07835463 0.1474386 -0.39255774 0.06398994
00000000: 4804 313e c0e3 743d d017 653e 0087 a13a
00000010: 2026 d7bc 1ed2 503e 1567 55be f7d8 94be
00000020: 780e 48be c006 dd3d b875 c03e 6e64 aebd
00000030: bce3 ae3e 8bcc c5be 992f 98be b06a 373e
00000040: a085 37bd 8bdc b53e 4d31 103e 38e2 d33c
00000050: 7c08 073e 1c62 9dbe a820 a5be 3713 d8be
00000060: 4b02 ec3b 7ec2 b5be 40fe ccbd d463 823e
00000070: 034c d9be 9ccc 9e3e 09c5 963e 60c7 873e
00000080: 8865 d2be 69a1 aabe e82b 83be e0f1 c4bd
00000090: 1c64 4e3e 04e7 dbbd ec1a 73be 5775 8a3d
000000a0: 3e7a e33e 3e38 d13e 8f31 dd3e 446e 793e
000000b0: d8ed 063e ca6d 8fbd da49 0dbe a201 98be
000000c0: 932b c73e 86e1 b7be f40d 97be c4b8 ecbd
000000d0: fe5a 983e 2815 953e 7f4c a1be a051 033e
000000e0: 8678 a33e 3c79 973e dd2a cfbe 7cd0 e1be
000000f0: 8066 3abe 2d44 db3d f023 e93d ec98 19be
00000100: 0bb8 b4be 14d3 d0bd 7131 83bd e92d 983e
00000110: e274 c7be 939f b53e 20b8 c83e 2410 d93e
00000120: d38f c8be 0c17 10be e156 233e 1483 a43e
00000130: 1c5b 08be 21d3 713e d6c9 8ebe 8f3c fe3d
00000140: 4530 bfbe 82fc d43e d154 573e af37 043e
00000150: 6323 bcbe ba18 843e f2eb c1bd 581b 653e
00000160: c108 94be 59e2 53be 8954 8c3d 70a1 c4bc
00000170: 8855 d33d 22b6 89be 30bc 8cbe e096 593e
00000180: d023 b33d 0844 d6be 1724 713e 4c1f 273e
00000190: 56b2 18be e096 b6bc f07a 193e b000 96bd
000001a0: 3b8b 053d bc0d 483e d051 973e 4465 1e3e
000001b0: 2138 403e 2762 013e 7a4b 17be 0cf6 e5bd
000001c0: c963 373b a0eb c73e ccee 1c3e 1f2c 303e
000001d0: a77f d13d bc72 d5bd 2d41 84be fbee 933e
000001e0: e646 be3e a000 843d 40e8 843d b85e fa3d
000001f0: c736 c8be b8bd d63d db63 c83e c08a 2fbc
00000200: f9d5 07bc 9607 72be 70c5 a7bd 1067 803e
00000210: 6e2f c73e 1c00 823e 48ff 70be 4972 acbe
00000220: 30a3 7c3e 042b 8dbd e2fd c63e f30d c93e
00000230: 62a8 c6be 0e3e 55be dac1 133e 4473 583e
00000240: 8497 323e cc64 9cbd 28f6 ccbe b2fc b7be
00000250: a80b 9cbd 990c ab3d e812 4a3e a80b 28bd
00000260: 2c4b 5c3e e0b1 0a3c f900 393e 7c36 cfbe
00000270: 28a6 ac3e 9771 ec3b a4d2 b03e 38aa 523d
00000280: 432f ab3e 2e84 aabc f8ec 363e 3e09 18be
00000290: 5095 94be 1a62 b1be dfa2 a9be a0ed 1e3e
000002a0: b068 81bc 3177 60be 06c3 913e 72f0 aabe
000002b0: 5b50 033e 7401 59be 9387 a73e d620 44bd
000002c0: 6e02 0e3e ecfa a03e 7a52 a9be ee32 adbe
000002d0: f1a9 c3be a8b9 cd3d 45a8 8ebe 967d a93e
000002e0: ac4c 543e c08c dd3c c099 af3e 47eb 75be
000002f0: 184e 5f3e 4863 8a3d 4559 f13d b875 de3d
00000300: f01c 863c f8a7 c23d 3ca1 673e 88af 093e
00000310: 7064 313e 9bc8 073e 6be3 c5be 98dd b5bd
00000320: 12d1 a7be 2e0b 60be 9b0a 6a3e 623d c13e
00000330: 20b2 c3bc 76a9 74be 8465 0e3e 2839 903d
00000340: e782 1e3e 24cb c73d 2b24 073e 2c4e 323e
00000350: 50bc 5c3d c86a 8b3e 665c a1be 4aba cb3e
00000360: 3a29 a23e 3e54 3cbe 2059 d93e 8829 683e
00000370: 6829 9e3e 40a9 693d a113 88bd 9fc2 42be
00000380: db0b c6be 2ef7 93be 04f7 eebd d02b c2be
00000390: 247a 4f3e 705b cb3c 5da3 adbe 90c2 a9bc
000003a0: e85c 043e 7cce af3e 40e3 85bc b046 d63e
000003b0: eaea 28be 9442 de3e 5368 7abe 24f2 273e
000003c0: 7264 13be 6fba d8be 34a6 6cbe 06d3 a93e
000003d0: 67f7 48be 8458 ab3e 293c 79be a82f e3bd
000003e0: 7e1b 02be c8bd c33e 86a5 7d3e 40dc d8bb
000003f0: 6478 a0bd 25fa 163e 54fd c8be 280d 833d

fc2.weight f4 [256, 256]
0.005425589 0.061897546 -0.046483487 -0.042492807 0.0071417466 -0.05427179 -0.028382786 0.024389248
-0.03716681 -0.048218198 0.0028716773 -0.044380255 0.05802142 -0.05136636 0.03289608 0.009619548
-0.00729163 -0.028315516 0.03162567 -0.05784068 -0.0032223687 0.042961963 -0.024417236 -0.02231931
0.0015862993 -0.05779933 -0.056714065 -0.007210724 -0.003998913 -0.01927711 -0.017456189 0.057167888
-0.03075479 -0.0025619168 -0.025699198 0.052604742 0.057926223 -0.0166177 0.02389207 -0.0135794785
0.052932657 -0.009599797 0.046313524 -0.023006424 -0.018141761 0.008970939 0.051237717 -0.05460564
-0.015946295 0.055446453 -0.05494526 0.0033571944 0.060785994 0.009072483 0.05003653 -0.03277926
0.0322066 -0.020712309 0.040422447 -0.033934347 0.053965956 0.0153005095 -0.032007255 0.007083282
-0.050831683 -0.057981923 0.0064021875 -0.009745264 -0.00485213 -0.012305459 0.0215872 0.05153226
0.0044215918 0.016857535 0.050476786 -0.022434367 -0.05832255 -0.031476997 0.023158908 -0.055951357
0.046055824 -0.008547947 0.053934302 -0.022764964 -0.049947016 0.01622723 -0.034364622 0.00707753
0.026267234 0.011596779 -0.06373313 0.008639656 -0.012160927 -0.026357941 0.049885113 0.021227203
-0.0017556623 0.04147643 0.03045522 -0.060592607 -0.00961899 -0.055472672 0.004853698 0.05247441
-0.00943483 0.027336657 0.014998622 0.037409216 -0.05868385 0.03211728 -0.042096518 -0.040398754
0.036657058 -0.014004245 -0.02019748 0.045017827 0.01343363 -0.060896106 0.046443317 -0.0019978054
0.006032318 -0.030599391 0.02407343 0.048035935 0.041689765 0.006575741 0.01889362 -0.017463319
-0.05408042 -0.030397035 -0.052060135 -0.05524469 0.023355603 0.025997661 -0.034594208 0.042223133
0.035903983 -0.048923876 0.03536489 0.014446557 0.047138564 0.018296331 -0.0058381087 -0.032822687
-0.024568751 0.045087256 0.04605304 -0.036501393 -0.019975118 0.016044343 0.043139197 -0.034856625
0.004451409 0.052643567 -0.034960967 0.030942779 0.0026590314 -0.017172448 -0.002388589 -0.0033165962
0.025498763 -0.04647575 0.061644927 -0.021112742 -0.024105938 -0.051821597 0.024225146 -0.01053784
-0.008073889 -0.02222957 -0.011190764 -0.009247772 0.0189354 -0.023678921 -0.023322783 0.048866883
0.035059664 0.013618991 0.0017270216 -0.031546928 0.055872172 0.027938664 0.042453237 0.044443667
-0.03164027 0.055079713 0.00941322 0.04285814 0.034433223 0.0153474435 0.034505446 0.0007490739
0.018550985 0.017142184 -0.024006594 -0.050254516 -0.018526956 0.01522638 -0.040751647 0.026391223
-0.03264462 0.02082137 0.02257656 0.033944376 -0.027507924 -0.017465128 -0.020234019 0.042357698
-0.061823234 0.05009322 0.016377755 0.027970321 -0.050616972 0.020266779 0.03567651 0.04144434
0.038704805 0.050560273 0.021166854 -0.024490587 0.041395843 -0.05475323 0.008789469 -0.037365235
-0.049408853 0.02124264 0.045774072 0.031923562 -0.033934604 0.0019797832 0.051666003 -0.005704351
-0.0045358464 -0.020814352 -0.036871307 -0.0361359 0.05382157 0.032088064 0.021977961 -0.034696072
0.047908857 -0.061377913 0.013987245 -0.034952693 -0.009490429 -0.0095971525 -0.033233322 -0.024805278
0.04996048 -0.043165367 -0.057649795 0.015122876 -0.044848062 -0.02702251 0.036814023 -0.039595082
00000000: 24c9 b13b 4888 7d3d 7865 3ebd f00c 2ebd
00000010: 5005 ea3b 194c 5ebd 0483 e8bc f6cb c73c
00000020: 3a3c 18bd 7280 45bd c032 3c3b 12c8 35bd
00000030: dea7 6d3d 8865 52bd 0abe 063d 4f9b 1d3c
00000040: a0ee eebb f1f5 e7bc eb89 013d 59ea 6cbd
00000050: 602e 53bb e2f8 2f3d a806 c8bc fcd6 b6bc
00000060: 5feb cf3a febe 6cbd 024d 68bd f047 ecbb
00000070: 5009 83bb 08eb 9dbc 4800 8fbc e028 6a3d
00000080: 78f1 fbbc d5e5 27bb 2087 d2bc 1278 573d
00000090: 0c44 6d3d d821 88bc 4db9 c33c 767c 5ebc
000000a0: eacf 583d 7848 1dbc 40b3 3d3d f877 bcbc
000000b0: 089e 94bc d8fa 123c a4de 513d 2aaa 5fbd
000000c0: cea1 82bc d21b 633d 480e 61bd 6004 5c3b
000000d0: bcfa 783d c0a4 143c 1bf3 4c3d 8c43 06bd
000000e0: 11eb 033d dcac a9bc 0292 253d befe 0abd
000000f0: 680b 5d3d fdae 7a3c 0a1a 03bd e01a e83b
00000100: e234 50bd 747e 6dbd 71c9 d13b 9aaa 1fbc
00000110: 9efe 9ebb d69c 49bc a4d7 b03c 7e13 533d
00000120: 00e3 903b d018 8a3c bfc0 4e3d 47c8 b7bc
00000130: a0e3 6ebd 06ee 00bd c0b7 bd3c 402d 65bd
00000140: 08a5 3c3d b00c 0cbc 37ea 5c3d 977d babc
00000150: 3e95 4cbd f8ee 843c ebc1 0cbd a0ea e73b
00000160: 622e d73c 6b00 3e3c 8486 82bd 588d 0d3c
00000170: a03e 47bc 9cec d7bc 5554 4c3d ace4 ad3c
00000180: 401e e6ba 30e3 293d 3a7d f93c f42f 78bd
00000190: f898 1dbc 5037 63bd c50b 9f3b 68ef 563d
000001a0: 8c94 1abc 20f1 df3c c8bc 753c 683a 193d
000001b0: 7a5e 70bd 698d 033d 666d 2cbd 2a79 25bd
000001c0: b625 163d 1072 65bc 3075 a5bc 9d64 383d
000001d0: ba18 5c3c 326e 79bd 593b 3e3d 9ded 02bb
000001e0: c0aa c53b 93ab fabc a435 c53c 54c1 443d
000001f0: e3c2 2a3d 5079 d73b cbc6 9a3c 3c0f 8fbc
00000200: 6e83 5dbd 3403 f9bc 023d 55bd 4248 62bd
00000210: 4054 bf3c 0cf9 d43c a8b2 0dbd 2af2 2c3d
00000220: 0e10 133d 6764 48bd c6da 103d 40b1 6c3c
00000230: 5e14 413d 30e2 953c 9b4d bfbb 1571 06bd
00000240: 6844 c9bc 6aad 383d 1da2 3c3d 7c82 15bd
00000250: dca2 a3bc 6d6f 833c bab2 303d d2c5 0ebd
00000260: 20dd 913b c8a0 573d 3b33 0fbd b67b fd3c
00000270: 2543 2e3b 3cad 8cbc e089 1cbb 405b 59bb
00000280: c8e2 d03c 5b5d 3ebd 647f 7c3d a1f4 acbc
00000290: d179 c5bc e242 54bd d073 c63c e8a6 2cbc
000002a0: 5848 04bc ca1a b6bc 7759 37bc f883 17bc
000002b0: 691e 9b3c 4cfa c1bc 6c0f bfbc a428 483d
000002c0: b99a 0f3d 3022 5f3c 3b5d e23a 5a37 01bd
000002d0: 38da 643d a0df e43c 72e3 2d3d 900a 363d
000002e0: 3a99 01bd 449b 613d e839 1a3c 048c 2f3d
000002f0: da09 0d3d d873 7b3c 9555 0d3d 805d 443a
00000300: 3cf8 973c c46d 8c3c 7aa9 c4bc aed7 4dbd
00000310: d8c5 97bc 1178 793c 33eb 26bd 6832 d83c
00000320: 5db6 05bd 9491 aa3c 7af2 b83c 4209 0b3d
00000330: 4c58 e1bc 0713 8fbc d0c1 a5bc 447f 2d3d
00000340: 5c3a 7dbd 8c2e 4d3d a42a 863c 0422 e53c
00000350: be53 4fbd 8406 a63c 8821 123d 8ac1 293d
00000360: ee88 1e3d 4a18 4f3d 1c66 ad3c 7ca0 c8bc
00000370: b08e 293d ec44 60bd b401 103c 4a0c 19bd
00000380: f060 4abd 0c05 ae3c 987d 3b3d 48c2 023d
00000390: 03ff 0abd 40bf 013b bb9f 533d 90eb babb
000003a0: 70a1 94bb dc82 aabc 5e06 17bd 3d03 14bd
000003b0: 0274 5c3d c66e 033d 200b b43c 781d 0ebd
000003c0: 143c 443d 6867 7bbd c22a 653c 8e2a 0fbd
000003d0: bf7d 1bbc 603d 1dbc aa1f 08bd 7034 cbbc
000003e0: 5ca3 4c3d 2bce 30bd 3122 6cbd f0c5 773c
000003f0: 9ab2 37bd 505e ddbc 4dca 163d 742e 22bd

fc2.bias f4 [256]
-0.041404434 0.049501244 -0.05050691 -0.017209075 0.0035414398 -0.0411423 0.011123374 -0.015241063
-0.03613013 -0.04082002 0.024266414 -0.004402783 -0.055803217 0.030454911 -0.06232982 -0.028294897
0.05830141 -0.013677448 -0.013140038 -0.05139713 -0.016534645 -0.03749849 -0.062382035 0.05371201
0.010787845 0.038590275 -0.014825597 0.014175895 -0.030767173 0.041030336 -0.052580737 -0.011791199
-0.06728029 -0.022792943 0.04064447 -0.01501821 -0.056196705 0.0403179 -0.06148924 -0.04148682
-0.055707037 -0.0030383312 -0.054575898 0.058376558 -0.04805927 0.056437086 0.012412339 0.03695263
-0.0068778917 -0.026501544 0.022658313 -0.036100995 -0.051305182 0.021436274 -0.015214905 0.005396694
-0.061407886 -0.007196939 0.05488251 0.02259159 -0.041113228 -0.03994622 0.055715755 -0.013678186
0.046081826 0.05415059 -0.041664425 0.037796006 -0.0025405735 0.043090254 0.042688567 0.04950138
0.047877766 0.030877195 -0.022713333 -0.050816968 -0.061977886 0.043268885 0.034946967 0.028565653
-0.023615442 -0.05543457 0.01799591 0.04830148 0.06095311 -0.027298147 -0.014479779 0.053810425
0.029037071 0.035255224 0.055450015 0.04712044 0.029629564 0.01962128 -0.05460461 -0.019806154
0.029214868 -0.00030726194 0.0028819595 -0.043124057 0.016027704 -0.058083966 -0.028838605 0.011046536
-0.0020596003 0.040554285 -0.012438474 -0.010461227 0.050890055 0.054433525 -0.04589559 0.053652108
-0.057775445 0.045019705 -0.0064463764 -0.011425205 0.02457498 0.05585195 -0.029025922 0.036741775
-0.021551415 -0.05383403 -0.014545664 0.026794648 -0.046826743 0.06165541 -0.016718194 -0.056562014
0.03866013 -0.064554036 0.041614324 0.009123303 -0.046302415 -0.025998725 -0.06202874 0.017903969
-0.04584816 0.024726324 -0.050246865 -0.042773988 -0.046745524 -0.013501592 -0.035524707 -0.05329296
0.035768814 0.04785652 -0.018113427 -0.031893715 -0.0025594085 0.041177217 -0.04439419 0.04806456
0.027136527 -0.04770355 -0.0041468143 -0.024039522 0.046516534 -0.021500682 0.05496966 -0.047991775
-0.0455447 -0.0018489733 -0.053604938 0.03137254 0.037373506 0.05721485 0.030245364 -0.03993492
-0.05283369 0.015488323 0.05357211 -0.00863961 -0.04426247 -0.005667351 -0.02969376 0.005230397
0.032723106 0.01468201 -0.056033365 0.021224018 -0.040719077 -0.01088916 0.040680833 0.03206916
-0.0317166 0.032217048 -0.0120049985 0.018221613 -0.061623204 -0.052268304 0.06109087 -0.05850255
-0.04414157 -0.04861041 0.04913003 -0.036448695 0.04691737 0.02357324 0.054345775 0.05138178
0.020934533 0.02655267 -0.038662903 0.021043405 -0.034356095 -0.032832876 -0.032640353 -0.053841762
-0.023772078 -0.058068555 -0.057883292 0.03852573 -0.0006026875 0.046613432 -0.008889073 -0.054195806
0.059420288 -0.046008736 -0.0024343494 0.013811819 -0.013514131 -0.050715655 -0.034285534 -0.01086127
-0.004688047 0.0056024 0.024166461 0.028319051 0.0144131435 0.0025297776 0.056489073 0.030521214
0.019807614 0.0035658607 -0.060671188 -0.0027736947 0.056532502 0.002681464 0.025682293 0.06168817
0.0010298835 -0.020809999 0.012034006 0.02834097 0.02063775 0.011757374 -0.005700338 0.037237965
0.050642107 -0.044025317 -0.032824114 0.04230181 0.0005959027 -0.04619556 0.034369316 -0.030567631
00000000: b297 29bd d1c1 4a3d 55e0 4ebd 0cfa 8cbc
00000010: 8017 683b d484 28bd d03e 363c a7b5 79bc
00000020: 30fd 13bd e532 27bd 5cca c63c 3845 90bb
00000030: ea91 64bd 947c f93c 8e4d 7fbd b3ca e7bc
00000040: 76cd 6e3d 6017 60bc 5049 57bc cc85 52bd
00000050: aa73 87bc 0498 19bd 4e84 7fbd 2001 5c3d
00000060: 80bf 303c d610 1e3d 10e7 72bc 0342 683c
00000070: 700b fcbc 6d0f 283d e65e 57bd e02f 41bc
00000080: 40ca 89bd 44b8 babc d17a 263d f00e 76bc
00000090: 842e 66bd 6224 253d 24dc 7bbd 15ee 29bd
000000a0: 102d 64bd bd1e 47bb fa8a 5fbd 421c 6f3d
000000b0: ccd9 44bd 932a 673d 205d 4b3c a45b 173d
000000c0: f05f e1bb c419 d9bc ed9d b93c a3de 13bd
000000d0: 6225 52bd 209b af3c f047 79bc c0d6 b03b
000000e0: d686 7bbd 4dd4 ebbb 7ccc 603d 0012 b93c
000000f0: 5866 28bd a69e 23bd 3436 643d 781a 60bc
00000100: 4cc0 3c3d 02cd 5d3d 51a8 2abd fccf 1a3d
00000110: c07f 26bb 687f 303d 35da 2e3d f6c1 4a3d
00000120: 7a1b 443d 2cf2 fc3c 5011 babc 7425 50bd
00000130: 86dc 7dbd b73a 313d 8d24 0f3d 8402 ea3c
00000140: 2c75 c1bc 5c0f 63bd 296c 933c c6d7 453d
00000150: f8a9 793d 5da0 dfbc 983c 6dbc 5268 5c3d
00000160: 27df ed3c c867 103d 8e1f 633d 5d01 413d
00000170: b3b9 f23c cebc a03c 15a9 5fbd 8440 a2bc
00000180: 0554 ef3c 0018 a1b9 42df 3c3b daa2 30bd
00000190: 884c 833c 74e9 6dbd f03e ecbc 88fc 343c
000001a0: 5cfa 06bb 401c 263d beca 4bbc 9165 2bbc
000001b0: 1772 503d b0f5 5e3d 04fd 3bbd 50c2 5b3d
000001c0: f2a5 6cbd 9566 383d 203c d3bb c830 3bbc
000001d0: 7851 c93c 04c5 643d c5c7 edbc 8b7e 163d
000001e0: 988c b0bc 1281 5cbd f050 6ebc 7380 db3c
000001f0: 66cd 3fbd 628a 7c3d 98f4 88bc 92ad 67bd
00000200: 165a 1e3d e834 84bd c873 2a3d e879 153c
00000210: 9aa7 3dbd 47fb d4bc d911 7ebd 58ab 923c
00000220: 48cb 3bbd dc8e ca3c a8cf 4dbd c733 2fbd
00000230: 3c78 3fbd c835 5dbc 5b82 11bd b849 5abd
00000240: 5282 123d 3305 443d 9c62 94bc fca2 02bd
00000250: c0bb 27bb 71a9 283d afd6 35bd 58df 443d
00000260: 6c4d de3c cc64 43bd 00e2 87bb 88ee c4bc
00000270: 1f88 3e3d 3322 b0bc de27 613d 0693 44bd
00000280: 148d 3abd 4059 f2ba da90 5bbd 7e80 003d
00000290: f614 193d 1e5a 6a3d 20c5 f73c cc92 23bd
000002a0: 2468 58bd bcc2 7d3c 6e6e 5b3d 278d 0dbc
000002b0: 904c 35bd 30b5 b9bb 5440 f3bc c063 ab3b
000002c0: aa08 063d d08c 703c 3e83 65bd fedd ad3c
000002d0: 0cc9 26bd 7368 32bc f2a0 263d f45a 033d
000002e0: 44e9 01bd 06f6 033d 9db0 44bc 7e45 953c
000002f0: 9d68 7cbd 4a17 56bd 6c3a 7a3d 5fa0 6fbd
00000300: cacd 34bd b61b 47bd 923c 493d 3a4b 15bd
00000310: 6e2c 403d ab1c c13c ad99 5e3d b475 523d
00000320: e67e ab3c fc84 d93c fe5c 1ebd 3863 ac3c
00000330: fab8 0cbd c47b 06bd e4b1 05bd 2e89 5cbd
00000340: a9bd c2bc 4bd9 6dbd 0817 6dbd 28cd 1d3d
00000350: acfd 1dba baed 3e3d 79a3 11bc 6cfc 5dbd
00000360: b062 733d a873 3cbd 9b89 1fbb f84a 623c
00000370: 606a 5dbc 38bb 4fbd fd6e 0cbd 78f3 31bc
00000380: 309e 99bb 5694 b73b bef8 c53c 5bfd e73c
00000390: 1b25 6c3c a0ca 253b 1661 673d a007 fa3c
000003a0: 9443 a23c 37b1 693b 5a82 78bd e0c6 35bb
000003b0: a08e 673d 80bb 2f3b ac63 d23c bcac 7c3d
000003c0: 28fd 863a bb79 aabc 482a 453c 522b e83c
000003d0: 8010 a93c 00a2 403c e7c9 babb d686 183d
000003e0: 196e 4f3d e453 34bd 9472 06bd aa44 2d3d
000003f0: 5a36 1c3a 8e37 3dbd d7c6 0c3d f868 fabc

V.weight f4 [1, 256]
-0.026340311 -0.025856826 -0.034777023 -0.021482341 -0.03221163 0.019302033 -0.055566937 -0.04989494
-0.052462406 -0.0009805273 -0.0038849786 0.00768817 0.046102695 0.018386059 0.001383312 -0.037126284
-0.023474261 0.042206213 0.016531922 0.02260048 -0.004285775 0.0516771 -0.015327871 0.03965713
0.040026993 0.04370206 -0.049233332 -0.017121999 0.03467328 0.01663512 -0.0040837303 0.043297365
0.052074965 0.002897665 0.024944052 0.060781427 -0.05270791 0.01445464 0.028937798 0.04895288
0.014219132 -0.02175845 0.022994295 -0.02564785 0.014000326 -0.03094294 0.055697933 0.017999902
0.062454857 -0.048594505 0.012438697 0.03524168 -0.024488939 0.021520248 -0.05442453 0.0134497285
-0.052745983 -0.010676172 -0.0010876879 0.0058240294 -0.016940108 0.028502092 -0.024323083 0.0045863464
0.007282734 0.025694638 0.010615302 0.024922453 0.03656143 0.0133288475 0.0037698746 -0.019806363
0.02962814 0.05567807 -0.045985013 -0.0023395307 -0.053281687 0.02837073 -0.02529586 -0.0047337264
-0.025381722 -0.029035581 -0.002135891 0.04867377 -0.043643266 0.0034776025 0.045357957 0.046975866
-0.027698042 0.04523136 -0.03723067 -0.0052169333 -0.019408826 -0.039562132 -0.0029526898 -0.05495704
-0.022938536 0.003699176 0.019113746 0.05752021 -0.01437442 0.028692536 0.053624183 -0.005204402
-0.012678961 -0.0040876134 -0.005999925 0.028949935 -0.020608585 -0.031183645 -0.029162616 0.040281776
0.039297104 -0.0229028 0.0005291328 -0.008380108 -0.022696622 -0.020311825 -0.016140394 0.03427028
-0.023169331 -0.021709248 0.009175174 -0.0069622053 0.027002214 0.040559664 0.011817801 0.023266347
7.585436e-05 0.012935134 -0.0015138164 0.05267948 0.0347263 -0.01904423 -0.0062949243 0.03559804
0.054606155 0.047716 0.038724102 0.040808097 0.012949564 -0.026528984 0.007074926 -0.008607298
-0.029137593 -0.019152023 -0.023321606 0.004866862 0.00505057 0.0056153326 -0.00049722166 -0.05598153
-0.011708289 0.0076471493 -0.02280967 -0.02932632 0.0069149025 -0.0140329 0.042922065 0.053965695
0.04571446 -0.04937192 0.009898203 -0.036935523 0.048893064 0.029440366 0.05335615 -0.0144386515
-0.009298309 -0.011580442 0.061121427 0.008019111 -0.023497403 -0.012843393 -0.02266521 0.0452056
0.0006785157 -0.045073375 0.023863927 0.024443118 0.007819345 -0.007758038 0.009901074 -0.015034106
0.060239293 0.008941133 0.040098928 0.02092351 0.011010939 -0.05932779 0.00029183924 -0.020047925
-0.056649357 -0.00837651 -0.043513887 0.0006533265 -0.04795102 0.006232474 0.047420673 0.05561407
0.03559294 -0.061078176 0.0007111434 -0.0037757223 -0.021593824 -0.035047036 -0.023712127 -0.012951401
-0.011542724 0.025296861 0.011359891 -0.00820356 -0.030402524 0.055432357 -6.5264234e-05 0.02610593
-0.061743572 -0.04134752 0.04401237 0.007129688 0.033897236 -0.029610606 -0.008083509 -0.030210912
0.029347762 -0.006066296 -0.0025456364 -0.04856761 -0.02823268 -0.019369341 0.053874433 0.054360367
0.031030215 0.02060903 0.02205515 0.042074636 -0.031891935 -0.053814836 -0.046960786 0.0431443
-0.018807441 0.029576326 0.054415546 0.010432086 0.021086806 0.03241162 -0.011087759 0.030428864
-0.0073069716 -0.0421198 -0.02215138 -0.043657072 0.028747804 0.033131763 -0.008389735 -0.039182
00000000: a3c7 d7bc b2d1 d3bc 5a72 0ebd bcfb afbc
00000010: 58f0 03bd 4c1f 9e3c 289a 63bd a35e 4cbd
00000020: d2e2 56bd 0985 80ba 209b 7ebb 0bed fb3b
00000030: 2ed6 3c3d 5c9e 963c 4050 b53a bb11 18bd
00000040: 184d c0bc 6ce0 2c3d f46d 873c a424 b93c
00000050: b06f 8cbb 5eab 533d c021 7bbc 846f 223d
00000060: 58f3 233d ee00 333d e4a8 49bd 6f43 8cbc
00000070: 9205 0e3d 6046 883c d0d0 85bb 9458 313d
00000080: 8f4c 553d c0e6 3d3b 7857 cc3c f2f5 783d
00000090: 40e4 57bd 28d3 6c3c f60e ed3c d182 483d
000000a0: 5df7 683c c73e b2bc 885e bc3c 711b d2bc
000000b0: a061 653c 0c7c fdbc 8423 643d 8874 933c
000000c0: aad0 7f3d 080b 47bd adcb 4b3c 9459 103d
000000d0: 079d c8bc 3b4b b03c 42ec 5ebd 405c 5c3c
000000e0: 2c0c 58bd 1ceb 2ebc c090 8eba 80d7 be3b
000000f0: fbc5 8abc 387d e93c 3441 c7bc 1049 963b
00000100: 00a4 ee3b 907d d23c ceeb 2d3c 2c2a cc3c
00000110: 70c1 153d 3d61 5a3c 0010 773b f440 a2bc
00000120: b7b6 f23c b00e 643d c85a 3cbd d052 19bb
00000130: e63d 5abd bc69 e83c 4339 cfbc 601d 9bbb
00000140: 54ed cfbc 07dc edbc 4efa 0bbb 265e 473d
00000150: 48c3 32bd 7de8 633b 44c9 393d c469 403d
00000160: 01e7 e2bc 8544 393d 307f 18bd cff2 aabb
00000170: 42ff 9ebc e70b 22bd ea81 41bb a21a 61bd
00000180: 99e9 bbbc e06d 723b 6e94 9c3c 509a 6b3d
00000190: b082 6bbc 9c0c eb3c 08a5 5b3d b089 aabb
000001a0: 6bbb 4fbc 63f1 85bb 059b c4bb 6a28 ed3c
000001b0: 56d3 a8bc d874 ffbc 70e6 eebc 81fe 243d
000001c0: 00f6 203d a79e bbbc 80b5 0a3a b84c 09bc
000001d0: 44ee b9bc fc64 a6bc dc38 84bc fe5e 0c3d
000001e0: 9ccd bdbc 98d7 b1bc 7853 163c 3623 e4bb
000001f0: bf33 dd3c e421 263d 739f 413c 1199 be3c
00000200: 0014 9f38 e2ed 533c 406b c6ba 70c6 573d
00000210: 2a3d 0e3d a502 9cbc a745 cebb 40cf 113d
00000220: b4aa 5f3d da71 433d 2a9d 1e3d 6426 273d
00000230: 682a 543c 5053 d9bc c8d4 e73b a005 0dbc
00000240: f6b1 eebc b4e4 9cbc f40c bfbc 337a 9f3b
00000250: 407f a53b d300 b83b fb57 02ba e44c 65bd
00000260: 20d4 3fbc f094 fa3b 58db babc c03d f0bc
00000270: 6896 e23b 40ea 65bc 0ccf 2f3d 220b 5d3d
00000280: 163f 3b3d 363a 4abd 132c 223c b449 17bd
00000290: 1844 483d ec2c f13c fa8b 5a3d 1890 6cbc
000002a0: ef57 18bc e5bb 3dbc 765a 7a3d 9762 033c
000002b0: a07d c0bc 186d 52bc 64ac b9bc 8229 393d
000002c0: 6bde 313a dc9e 38bd 487e c33c ef3c c83c
000002d0: b61c 003c 2437 febb 1d38 223c 9c51 76bc
000002e0: 7abd 763d d47d 123c c63e 243d c867 ab3c
000002f0: 3a67 343c b201 73bd 0002 9939 8c3b a4bc
00000300: 2809 68bd a13d 09bc 9e3b 32bd 0044 2b3a
00000310: 4a68 44bd c839 cc3b 2e3c 423d 94cb 633d
00000320: e7c9 113d 1c2d 7abd 076c 3a3a 1c72 77bb
00000330: 88e5 b0bc 7b8d 0fbd ef3f c2bc 1d32 54bc
00000340: b21d 3dbc 5d3b cf3c d61e 3a3c 3968 06bc
00000350: b70e f9bc 0a0d 633d 78de 88b8 1adc d53c
00000360: d4e6 7cbd 045c 29bd 5146 343d 28a0 e93b
00000370: d4d7 0a3d f191 f2bc b270 04bc e07c f7bc
00000380: b86a f03c c7c7 c6bb b1d4 26bb d5ee 46bd
00000390: 3948 e7bc 74ac 9ebc 70ab 5c3d faa8 5e3d
000003a0: 1433 fe3c 45d4 a83c 00ad b43c 7456 2c3d
000003b0: 1ea1 02bd f26c 5cbd f459 40bd 14b8 303d
000003c0: 1012 9abc 0d4a f23c d6e2 5e3d 57eb 2a3c
000003d0: 3dbe ac3c 0cc2 043d 6fa9 35bc f445 f93c
000003e0: 526f efbb d085 2cbd d076 b5bc c2d1 32bd
000003f0: 8480 eb3c 2cb5 073d 1975 09bc 4e7d 20bd

A.weight f4 [6, 256]
-0.092281066 -0.03598767 0.016155822 0.050183006 -0.028405182 0.056406617 -0.040672608 -0.029513698
-0.03011237 -0.017379874 -0.05411291 0.044496704 0.039617024 0.015030205 0.03241732 0.033760127
0.052601233 -0.014109001 -0.044374652 -0.05864343 0.00426679 -0.005236998 -0.047765754 -0.042383723
-0.033374622 0.0477347 0.018400125 -0.055094115 -0.025471598 -0.0033076273 -0.049401768 -0.03840334
0.00049111055 0.048977748 0.046328597 0.034192942 0.06202156 0.0003111651 0.059800513 0.02440972
0.034900352 7.4955555e-05 0.025039986 -0.06274275 0.0004891157 -0.028237944 -0.008369692 -0.031358913
0.03367514 -0.01116702 -0.0042278594 -0.011363636 -0.047830824 0.036424883 0.05742971 -0.061646968
0.024637304 -0.026715433 0.04620368 0.03520693 -0.052064214 0.055405334 0.00341136 0.0419377
-0.041390866 -0.04756266 0.013410011 -0.033156537 0.016875796 -0.0013092253 -0.0074897297 0.0618414
0.018595567 -0.041319184 0.057786226 0.048177507 0.047900707 0.0025157307 0.0238568 0.0076428354
-0.03655445 0.030596664 0.00992704 0.06254002 -0.0021103024 -0.042863548 0.037318178 0.0050342903
-0.059228558 -0.0405751 -0.04038872 -0.03857067 0.0030645581 0.021297758 0.004224532 0.013617992
0.016476145 -0.006539002 0.056927443 0.062481232 -0.02020546 0.024190381 0.015493788 0.051909447
-0.033595476 -0.02849795 0.016565954 0.04049229 -0.016944397 -0.02797579 0.01888097 0.009393371
-0.046588898 -0.0074406057 0.04010182 -0.0046674013 -0.005726658 0.059531853 0.008381681 0.07709417
0.060176887 0.04353901 0.04742732 -0.034321655 0.04433765 0.05257079 -0.029706635 0.054490756
0.01638905 0.024799513 0.027314566 -0.027773537 0.0051504374 -0.044364136 -0.026437744 0.03530743
-0.060261935 0.005021408 -0.023516923 0.03476637 0.031702228 -0.044564895 0.042179864 0.013955288
-0.0391901 -0.039826453 -0.014695331 -0.026066706 -0.008487426 -0.011750201 -0.042183768 -0.032228597
0.03446687 0.0121616945 -0.037739046 -0.06125094 0.004347009 -0.027120586 0.04558704 -0.04394888
-0.03628923 0.0003234297 0.024724899 -0.012495808 -0.023873694 -0.04187265 -0.031295657 0.013467565
0.022630196 0.029065851 0.04019566 0.044464838 0.0624248 -0.04524056 -0.00039990246 0.023716643
0.022684311 -0.051300526 0.050524846 -0.016169127 0.048806094 -0.028267372 0.061765984 0.008846824
-0.046415962 0.0075653736 0.044259407 -0.026219375 0.018376995 0.012618132 -0.043744266 -0.034078583
-0.044400327 -0.0022277497 -0.045784414 -0.031418294 0.048568066 0.01659345 -0.04100819 -0.00090623647
-0.01632401 -0.0053059086 -0.057778597 0.025764257 0.016049532 -0.04881547 -0.037218478 -0.00019019512
-0.038897827 -0.0271995 -0.050571814 -0.02233936 -0.036930453 -0.01067497 -0.03219801 0.046696834
-0.052336164 0.012253426 -0.010844774 -0.025619457 0.016128793 -0.015360776 -0.01864356 0.020483673
4.9859285e-05 -0.03071527 -0.023443906 -0.057424966 -0.00806287 0.023965105 -0.0528156 -0.03753253
0.0043279678 0.017581072 -0.0005676523 -0.008730665 0.057819508 0.039738305 -0.052224003 0.058400847
-0.042103063 0.038795073 -0.04680086 -0.020254914 0.0154505335 0.024435736 -0.039302822 0.04477928
-0.05670251 0.02713678 0.040634766 0.05912876 -0.032158636 0.0129066175 0.029345095 0.022664862
00000000: dbfd bcbd cf67 13bd 3759 843c b28c 4d3d
00000010: fcb1 e8bc a00a 673d 5298 26bd b6c6 f1bc
00000020: 38ae f6bc 3d60 8ebc 80a5 5dbd 2d42 363d
00000030: 7645 223d 4041 763c 06c8 043d 0f48 0a3d
00000040: 6474 573d 7029 67bc 32c2 35bd 1834 70bd
00000050: 6ed0 8b3b 209b abbb 06a6 43bd 8e9a 2dbd
00000060: d4b3 08bd 7685 433d dcbb 963c 5eaa 61bd
00000070: d0a9 d0bc c7c4 58bb 8259 4abd d24c 1dbd
00000080: dfbd 003a e49c 483d 0ec3 3d3d e60d 0c3d
00000090: 520a 7e3d df23 a339 62f1 743d e5f6 c73c
000000a0: acf3 0e3d 7531 9d38 a820 cd3c 457f 80bd
000000b0: 0038 003a 4353 e7bc 0821 09bc 3472 00bd
000000c0: f2ee 093d e0f5 36bc db89 8abb 8b2e 3abc
000000d0: 41ea 43bd 4232 153d 6a3b 6b3d 8881 7cbd
000000e0: 2cd4 c93c 53da dabc 1240 3d3d 2435 103d
000000f0: 4941 55bd b4f0 623d 2091 5f3b dec6 2b3d
00000100: 7889 29bd 10d1 42bd aab5 5b3c 26cf 07bd
00000110: 1c3f 8a3c 509a abba 686c f5bb 684d 7d3d
00000120: bb55 983c 4e3e 29bd 40b1 6c3d c755 453d
00000130: 8833 443d f5de 243b 566f c33c c070 fa3b
00000140: 1eba 15bd dba5 fa3c 06a5 223c fb14 803d
00000150: 004d 0abb b091 2fbd f2da 183d b0f6 a43b
00000160: a599 72bd 1332 26bd a46e 25bd 47fc 1dbd
00000170: c1d6 483b a378 ae3c f16d 8a3b 001e 5f3c
00000180: fbf8 863c 2045 d6bb c02c 693d 52ec 7f3d
00000190: ec85 a5bc e82a c63c a8d9 7d3c 009f 543d
000001a0: 699b 09bd 8874 e9bc 53b5 873c 3edb 253d
000001b0: face 8abc 7c2d e5bc 44ac 9a3c a7e6 193c
000001c0: 00d4 3ebd 53d0 f3bb ce41 243d 00f1 98bb
000001d0: b0a6 bbbb acd7 733d 5153 093c 8ce3 9d3d
000001e0: 0a7c 763d f655 323d 2643 423d dd94 0cbd
000001f0: 659b 353d 7854 573d 545b f3bc b331 5f3d
00000200: 5442 863c 5928 cb3c ccc2 df3c 5485 e3bc
00000210: 00c5 a83b 2bb7 35bd f893 d8bc 869e 103d
00000220: 38d5 76bd a08a a43b 90a6 c0bc 2e67 0e3d
00000230: 32da 013d ae89 36bd cbc4 2c3d b8a4 643c
00000240: cc85 20bd 1021 23bd b0c4 70bc d889 d5bc
00000250: d80e 0bbc ea83 40bc e3c8 2cbd 2202 04bd
00000260: 222d 0d3d d841 473c 4294 1abd 44e2 7abd
00000270: 5b71 8e3b fe2b debc 7ab9 3a3d be03 34bd
00000280: 04a4 14bd 0092 a939 df8b ca3c 38bb 4cbc
00000290: c492 c3bc a882 2bbd e02f 00bd 10a7 5c3c
000002a0: f662 b93c 821b ee3c 34a4 243d c320 363d
000002b0: 26b1 7f3d 2a4e 39bd 00aa d1b9 6849 c23c
000002c0: 73d4 b93c 8020 52bd 24f3 4e3d 1e75 84bc
000002d0: e6e8 473d fa90 e7bc 54fe 7c3d 45f2 103c
000002e0: aa1e 3ebd f4e6 f73b 5a49 353d 04ca d6bc
000002f0: 5a8b 963c 48bc 4e3c 302d 33bd fc95 0bbd
00000300: 1edd 35bd 70ff 11bb 7088 3bbd 78b0 00bd
00000310: 4fef 463d fdee 873c 34f8 27bd 8090 6dba
00000320: eeb9 85bc 30dd adbb 40a9 6cbd 900f d33c
00000330: 4f7a 833c bbf2 47bd 6772 18bd 1d6f 47b9
00000340: 5453 1fbd 7cd1 debc 6424 4fbd 0901 b7bc
00000350: 6344 17bd 12e6 2ebc 0fe2 03bd 2e45 3f3d
00000360: 725e 56bd 98c2 483c 47ae 31bc e5df d1bc
00000370: 8820 843c c4ab 7bbc 61ba 98bc 60cd a73c
00000380: 0020 5138 979e fbbc 6f0d c0bc 7136 6bbd
00000390: 211a 04bc 7852 c43c 2c55 58bd b6bb 19bd
000003a0: a0d1 8d3b 2e06 903c 80ce 14ba 100b 0fbc
000003b0: 26d4 6c3d a2c4 223d d6e8 55bd ba35 6f3d
000003c0: 4374 2cbd 95e7 1e3d 42b2 3fbd a2ed a5bc
000003d0: 3c24 7d3c 742d c83c fffb 20bd 7a6a 373d
000003e0: e440 68bd f44d de3c a470 263d 0031 723d
000003f0: c6b8 03bd 4776 533c 2065 f03c a9ab b93c

A.bias f4 [6]
0.04967074 0.06459643 0.02221545 -0.07177076 -0.02099308 -0.0022266773
00000000: 8c73 4b3d 224b 843d 2dfd b53c 8cfc 92bd
00000010: aef9 abbc 72ed 11bb
