cool/checkpoints/D3QN/Q_eval/D3QN_q_eval_1600.pth (torch, 278863 bytes, 7 tensors)

fc1.weight f4 [256, 5]
000000 58 80 dc be c4 c7 90 be 56 9d 5f be 58 c3 2d 3d
       -0.4306667 -0.2827741 -0.21837363 0.042422622
000010 82 86 b9 3e 52 67 21 be fc dc a9 3e 60 40 a9 3e
       0.36235434 -0.1576207 0.3317641 0.33056927
000020 18 44 33 be 90 85 96 3d b9 82 b6 be 84 48 7d 3e
       -0.17506444 0.07349694 -0.35646608 0.24734694
000030 28 89 40 be 7c 16 ae bd aa cc 91 3e 86 98 0f be
       -0.18802321 -0.08500382 0.2847646 -0.14023027
000040 e0 f5 ee bd d0 6c 46 3d 60 71 23 be 68 07 01 3d
       -0.11667991 0.048443615 -0.15961218 0.031501204
000050 04 e9 83 3e cf 10 aa be 38 15 4b 3e c1 e5 85 be
       0.25763714 -0.3321595 0.19832313 -0.2615185
000060 8c 19 85 3e 00 2c 19 bd 09 05 14 be 09 02 77 3e
       0.25996053 -0.037395477 -0.14455046 0.2412187
000070 23 30 fb 3d 36 95 74 3e 00 71 23 3e b0 56 9c 3e
       0.12265041 0.23885044 0.15961075 0.30534887
000080 00 e8 f5 3c 3c 29 dd bd 18 fd 8d be d0 da 9b 3e
       0.030017853 -0.107988805 -0.27732158 0.30440378
000090 be ca c7 3d d6 91 50 be e1 c6 93 3e da ef 01 3e
       0.09755467 -0.20368132 0.2886267 0.12689152
0000a0 90 8b 42 bd 14 ed 79 3e 44 60 c5 bd b2 8a 14 be
       -0.04749638 0.24406844 -0.09637502 -0.14506033
0000b0 00 54 9f bc b4 3b a6 bd fe 6d ab 3e a2 bc 8f 3e
       -0.019449234 -0.08116856 0.33482355 0.28073603
0000c0 f0 ea e8 bd c8 df 06 bd 4d ca e4 be 32 7f d4 be
       -0.11372936 -0.03292826 -0.44685593 -0.41503292
0000d0 a6 9b d0 3e cf 20 db be 61 ac bf be bc 1b c3 3e
       0.4074375 -0.42798468 -0.37436202 0.38107097
0000e0 07 c9 ed be 7a fc a6 3e 91 28 a0 3e 69 84 28 be
       -0.46442434 0.326145 0.3128095 -0.1645676
0000f0 ab 01 51 be 86 15 f0 be ff b1 43 3e ae d9 c9 3d
       -0.20410793 -0.4689142 0.19110869 0.09855972
000100 8b a7 62 bd 7e 46 01 be d6 ce a2 3e 34 97 a0 3e
       -0.055335563 -0.12624547 0.31798428 0.3136536
000110 7e ab 3f be de 9f 19 be 16 cf b4 3e 41 d1 2a 3e
       -0.18717763 -0.1500239 0.35314244 0.16681387
000120 5c 01 54 be 41 33 10 3e 8a 15 a7 be 90 5f ac 3c
       -0.20703644 0.14082052 -0.3263362 0.021041662
000130 33 b3 ca be 03 7b 9e 3e fe f5 2c bc a0 bb 07 3e
       -0.39589843 0.30953225 -0.010556696 0.13255167
000140 3a 7c 5d be 4c 2e d8 be 9e 09 c9 3e a0 60 5c bc
       -0.2162942 -0.42222822 0.3926515 -0.013450772
000150 e0 0d ae 3c bb ae cd be 67 9a 86 be 2d 2c 75 be
       0.02124685 -0.4017237 -0.26289675 -0.23942633
000160 bf 75 be 3e 6e 84 fd bc 39 57 97 be 30 2c 55 3e
       0.37199208 -0.030946936 -0.29558733 0.20817637
000170 94 14 cf 3b ac 06 c7 3e 3d fa 10 be a8 80 91 be
       0.006319592 0.38872278 -0.14157958 -0.2841847
000180 80 eb 4d be 3b 36 4b bd cc f2 35 3e 15 9f 87 bd
       -0.20109367 -0.049612265 0.17768401 -0.06622139
000190 3e 56 b3 3e 54 f9 00 3e 74 7b 19 3e ef d9 92 be
       0.35026735 0.12595111 0.149885 -0.28681895
0001a0 96 e1 92 be 24 57 6f be 06 eb ad 3e 60 20 6c 3e
       -0.28687733 -0.23373085 0.3396837 0.23059225
0001b0 3e fe 82 be 03 a4 ae be 04 8c cb 3e a8 f4 d7 bd
       -0.25584596 -0.34109506 0.3975526 -0.10544711
0001c0 b0 ac a1 3e e8 a6 79 bd e2 5e 97 3e 26 ab 34 be
       0.31577063 -0.06095019 0.29564577 -0.17643413
0001d0 24 55 c4 3e 00 e6 87 3b ed 9f b7 be fc 24 a7 be
       0.38346207 0.004147291 -0.358642 -0.32645404
0001e0 c9 d6 d1 be 89 bd 88 be 25 76 c6 be a5 a2 08 3e
       -0.4098418 -0.26707104 -0.38762012 0.13343294
0001f0 0f f1 cb 3e d4 e0 72 3e 80 e6 b5 3e 7b ce 26 3e
       0.3983235 0.23718578 0.3552742 0.16289704
000200 a5 b7 57 3d 0f fe e3 3d ca b4 3f be 40 2f fd 3c
       0.05266537 0.11132442 -0.1872131 0.03090632
000210 c8 3f 9b 3d 22 af 62 be 90 5a 98 3e cc e0 63 3e
       0.07580525 -0.2213712 0.29756594 0.22253722
000220 ab 2e be be e2 df 6a be bb bb 73 be e0 d1 ac 3d
       -0.3714498 -0.22936967 -0.23802082 0.08438468
000230 26 c7 bb be a0 d0 cd 3d d4 cb 1d be b2 fa 19 be
       -0.36675376 0.10049558 -0.15409786 -0.15037039
000240 18 8d dc 3d f8 86 00 3d ef 00 6b be 54 b0 bb 3e
       0.10769099 0.031378716 -0.22949575 0.36657965
000250 a8 38 74 be 38 1c fc bd 76 5e a2 3e 59 c9 3a 3e
       -0.23849738 -0.1231007 0.31712693 0.1824087
000260 c7 80 fd 3b 29 e9 bc 3e b9 d1 8f be 3c 78 a7 3e
       0.0077362987 0.36896637 -0.28089693 0.3270892
000270 bc e4 2b 3e 48 47 45 3d 8b 92 6b be 4a cd b1 3e
       0.16786474 0.048163682 -0.2300512 0.34726936
000280 02 68 dc 3e 0a 2b 2a 3e d1 7b c7 3e f5 86 ce 3e
       0.43048102 0.1661798 0.38961652 0.4033734
000290 50 73 eb be 29 a0 b1 bd f4 e6 f2 be 8d 9c 80 3e
       -0.45986414 -0.08673126 -0.47441828 0.2511944
0002a0 97 f8 d9 3e a7 1f a2 bb 90 cf 21 bd a4 13 d0 bd
       0.42572471 -0.004947621 -0.039504588 -0.10159996
0002b0 c4 d3 db 3e 00 68 59 bc fc dd c1 be 9a a7 e0 3e
       0.42935002 -0.013269424 -0.37864673 0.4387787
0002c0 2e e5 17 be b0 7b cf 3e 1a 77 39 be 94 5a d8 be
       -0.14833519 0.40524054 -0.1811184 -0.42256606
0002d0 d0 bb 78 3d 28 74 9c 3d 30 5b 2e be ba 37 90 be
       0.060725987 0.076393425 -0.17026973 -0.28167516
0002e0 74 4e 34 3e c6 6e aa 3e e0 51 f6 3d 88 78 91 be
       0.17608052 0.33287638 0.12027335 -0.2841227
0002f0 38 c3 9f be 5a d4 89 3e 07 a2 c3 be 71 22 57 be
       -0.31203628 0.26919824 -0.38209555 -0.21009232
000300 c3 b8 08 3e 33 d0 23 3e 5d ef 7c 3d d7 90 3d 3e
       0.13351731 0.1599739 0.061751712 0.18512283
000310 68 c0 86 3e cb d6 85 be 67 a6 cb 3e e0 c4 d5 be
       0.2631867 -0.26140437 0.39775392 -0.41751766
000320 ee 31 9d be 18 41 2d bd c0 42 cb bb c6 39 84 be
       -0.30702156 -0.042298406 -0.0062030256 -0.25825328
000330 c0 92 85 3c 04 d7 bf 3e 00 28 6a 3c 20 63 ec bd
       0.016305327 0.3746873 0.014291763 -0.11542344
000340 db fb af be a1 03 b1 be 28 81 38 3e d4 ba 87 be
       -0.34371838 -0.3457308 0.18018019 -0.26509726
000350 4d 36 c2 3e b0 97 9d 3d d2 1e 67 3e 0d c7 9c be
       0.37932053 0.07694948 0.22570351 -0.30620614
000360 c0 b2 9f 3d dc e7 9b 3e d9 4f e0 be c8 37 1d 3d
       0.07797766 0.30450332 -0.4381092 0.038383275
000370 34 e2 00 3e 34 01 8b be 68 37 c9 3e d4 c4 08 be
       0.1258629 -0.27149355 0.39300084 -0.13356334
000380 40 56 47 3e ea 01 cc 3e 09 12 5e bd f3 5f e2 bd
       0.19466496 0.3984521 -0.05421642 -0.11053457
000390 d3 a6 ca 3e 6d 23 94 be 50 c0 5f 3d 06 6a 3b be
       0.39580402 -0.28933278 0.054626763 -0.18302163
0003a0 08 c1 6f be 30 bf bb bd 48 43 a5 be 8c 00 3e be
       -0.2341348 -0.091673255 -0.32277894 -0.18554896
0003b0 5f 5f d3 be d8 dd 8c 3e 93 ce bd be fa 79 e1 be
       -0.412837 0.27513003 -0.37071666 -0.44038373
0003c0 f9 07 15 be 97 83 2d 3e 2e 4a ca 3e bd 83 4b 3e
       -0.14553823 0.16944729 0.3950972 0.19874473
0003d0 51 95 83 3e 9f 8b c7 3e 43 6f b3 be 3b cb 3a 3e
       0.25699857 0.3897371 -0.35045823 0.18241589
0003e0 0e 51 43 3e df a0 b2 3e 42 52 bd be 20 2e 39 be
       0.19073889 0.3488836 -0.3697682 -0.18084002
0003f0 30 e1 3f be d4 2f b8 bd e0 92 7d bc 00 d0 58 ba
       -0.18738246 -0.089934975 -0.015476912 -0.00082707405

fc1.bias f4 [256]
000000 ac 89 2e 3e c0 e3 74 3d d0 17 65 3e 00 87 a1 3a
       0.17044705 0.05978751 0.22372365 0.0012323558
000010 20 26 d7 bc 9c 69 55 3e 15 67 55 be e9 b9 90 be
       -0.026263297 0.20841068 -0.20840104 -0.28266838
000020 78 0e 48 be c0 06 dd 3d b8 75 c0 3e 40 bd 99 bd
       -0.1953677 0.10792303 0.37589812 -0.075068
000030 c8 38 b0 3e 8b cc c5 be e9 2d 99 be b0 6a 37 3e
       0.3441832 -0.38632616 -0.2991784 0.17911792
000040 a0 85 37 bd 8b c0 bd 3e 47 6c 13 3e e1 5b 1d 3d
       -0.04480517 0.3706096 0.14396773 0.0384177
000050 7c 08 07 3e 1c 62 9d be a8 20 a5 be 37 13 d8 be
       0.1318683 -0.30738914 -0.32251477 -0.4220216
000060 23 b4 e7 3c 79 26 ae be 40 fe cc bd d4 63 82 3e
       0.028284138 -0.34013727 -0.10009432 0.25466788
000070 03 4c d9 be 9c cc 9e 3e 9e 4f a2 3e 60 c7 87 3e
       -0.42440805 0.3101548 0.31701368 0.265193
000080 81 67 cc be 9f f8 97 be e8 2b 83 be e0 f1 c4 bd
       -0.39922717 -0.2968187 -0.25619435 -0.096164465
000090 1c 64 4e 3e 04 e7 db bd 36 66 6c be 7e 90 b8 3d
       0.20155376 -0.10737422 -0.23085865 0.09011935
0000a0 3e 7a e3 3e 3e 38 d1 3e 57 08 e1 3e 44 6e 79 3e
       0.444292 0.40863222 0.43951675 0.24358469
0000b0 d8 ed 06 3e 11 a0 8f bd da 49 0d be a2 01 98 be
       0.13176668 -0.07012952 -0.13797703 -0.29688746
0000c0 f5 83 d4 3e b0 84 b4 be f4 0d 97 be c4 b8 ec bd
       0.41506925 -0.35257483 -0.29502833 -0.11558679
0000d0 fe 5a 98 3e 28 15 95 3e b8 f9 96 be a0 51 03 3e
       0.29756922 0.29117703 -0.29487395 0.12824106
0000e0 6b e9 b4 3e 3c 79 97 3e be 64 c7 be 7c d0 e1 be
       0.35334334 0.29584682 -0.38944048 -0.44104373
0000f0 cd 57 34 be 16 a3 01 3e f0 23 e9 3d ec 98 19 be
       -0.17611618 0.12659869 0.11383808 -0.14999741
000100 0b b8 b4 be 14 d3 d0 bd 70 88 68 bd 15 29 95 3e
       -0.35296664 -0.1019651 -0.056770742 0.29132906
000110 7f 82 c2 be 85 f8 c0 3e 20 b8 c8 3e 24 10 d9 3e
       -0.37990186 0.37689605 0.39202976 0.42395127
000120 d3 8f c8 be 0c 17 10 be 93 0f 2d 3e 02 e4 ab 3e
       -0.3917223 -0.14071292 0.16900472 0.33572394
000130 3a 82 fc bd da 18 7d 3e d6 c9 8e be 77 ba 21 3e
       -0.12329526 0.24716511 -0.27888364 0.15793787
000140 73 a4 ba be 82 fc d4 3e 5e eb 60 3e 92 57 19 3e
       -0.3645359 0.41598898 0.21964785 0.14974812
000150 38 93 b4 be ba 18 84 3e 4c c1 ab bd 58 1b 65 3e
       -0.3526857 0.25800115 -0.08386478 0.22373712
000160 a8 df 8b be 58 74 53 be 8e b5 b3 3d 70 a1 c4 bc
       -0.27319074 -0.2064985 0.08774863 -0.02400276
000170 88 55 d3 3d 22 b6 89 be 54 a1 74 be e0 96 59 3e
       0.10319048 -0.2689677 -0.23889667 0.2124896
000180 d0 23 b3 3d 0d cb cd be 07 23 7e 3e 4c 1f 27 3e
       0.08747065 -0.40193978 0.2481805 0.16320533
000190 56 b2 18 be e0 96 b6 bc 72 b2 23 3e b0 00 96 bd
       -0.1491178 -0.02228874 0.1598604 -0.0732435
0001a0 d3 93 2c 3d bc 0d 48 3e 27 aa 9c 3e 44 65 1e 3e
       0.042133164 0.19536489 0.30598566 0.15468317
0001b0 98 7a 6e 3e ab 28 07 3e 7a 4b 17 be 0c f6 e5 bd
       0.23288953 0.13199107 -0.14774886 -0.1122857
0001c0 23 d7 0d 3d a0 eb c7 3e cc ee 1c 3e 88 ee 30 3e
       0.034629 0.39046955 0.15325469 0.17278492
0001d0 80 53 da 3d bc 72 d5 bd c5 73 86 be 26 ac 94 3e
       0.106604576 -0.104222745 -0.262602 0.2903759
0001e0 e6 46 be 3e b3 db da 3d 40 e8 84 3d b8 5e fa 3d
       0.37163466 0.106864356 0.06489611 0.122250974
0001f0 cc df bc be b8 bd d6 3d 25 90 d1 3e c0 8a 2f bc
       -0.36889493 0.10485405 0.40930286 -0.010714233
000200 af 2c e3 3c 96 07 72 be 70 c5 a7 bd 10 67 80 3e
       0.027731268 -0.23635706 -0.08191955 0.2507863
000210 6e 2f c7 3e 1c 00 82 3e 48 ff 70 be f2 4f a5 be
       0.38903373 0.25390708 -0.23534882 -0.32287556
000220 30 a3 7c 3e 30 7a 60 bd e2 fd c6 3e 36 fd ca 3e
       0.24671626 -0.054804027 0.38865572 0.3964631
000230 62 a8 c6 be 31 2c 4c be b2 b4 14 3e b5 5a 5b 3e
       -0.3880034 -0.19938733 0.14522055 0.2142132
000240 84 97 32 3e cc 64 9c bd 2e 99 c7 be b2 fc b7 be
       0.17440611 -0.07636413 -0.38984054 -0.3593498
000250 a8 0b 9c bd 3f 91 b9 3d e8 12 4a 3e a8 0b 28 bd
       -0.07619411 0.090609066 0.19733775 -0.04102674
000260 2c 4b 5c 3e e0 b1 0a 3c 79 2f 55 3e 75 ef cb be
       0.21513051 0.00846526 0.2081889 -0.3983113
000270 f7 2d bf 3e b9 d4 75 3c a4 d2 b0 3e 38 aa 52 3d
       0.37339756 0.01500433 0.34535706 0.051431865
000280 e4 d3 b2 3e c6 ee 10 3c f8 ec 36 3e 34 76 0b be
       0.34927285 0.0088459905 0.17863834 -0.1361931
000290 14 00 93 be 1a 62 b1 be df a2 a9 be a0 ed 1e 3e
       -0.28710997 -0.34645158 -0.33132073 0.15520334
0002a0 b0 68 81 bc e3 3d 5a be c8 21 96 3e 72 f0 aa be
       -0.01579699 -0.2131267 0.29322648 -0.3338657
0002b0 84 d0 0e 3e d6 0e 4f be 90 aa a2 3e df 90 9b bc
       0.1394673 -0.20220503 0.31770754 -0.018989978
0002c0 c6 b6 1c 3e ec fa a0 3e ef 97 a1 be 3b 94 a6 be
       0.15304098 0.31441438 -0.3156123 -0.32534966
0002d0 26 e4 c4 be a8 b9 cd 3d 0f cd 8e be 96 7d a9 3e
       -0.38455313 0.10045177 -0.27890822 0.33103627
0002e0 ac 4c 54 3e c0 8c dd 3c c0 99 af 3e 33 35 74 be
       0.20732373 0.027044654 0.3429699 -0.23848419
0002f0 18 4e 5f 3e 48 63 8a 3d fb 46 f7 3d b8 75 de 3d
       0.21807134 0.06757218 0.12074085 0.10862297
000300 f0 1c 86 3c f8 a7 c2 3d ac ce 6f 3e 88 af 09 3e
       0.01637122 0.09504694 0.23418683 0.13445866
000310 70 64 31 3e c1 6f 11 3e 2c 30 bb be 98 dd b5 bd
       0.1732347 0.14202787 -0.3656019 -0.08880156
000320 92 3e a3 be 84 1f 62 be 4c e5 7e 3e 62 3d c1 3e
       -0.31883675 -0.22082335 0.24892157 0.37742144
000330 20 b2 c3 bc 8a ff 68 be 84 65 0e 3e 28 39 90 3d
       -0.023888648 -0.2275373 0.13905913 0.07042152
000340 42 a3 2c 3e 68 b2 cb 3d ff 2c 1c 3e 25 f5 3e 3e
       0.16859153 0.09946138 0.1525154 0.18648203
000350 50 bc 5c 3d c8 6a 8b 3e 3d ff a1 be 34 6f d2 3e
       0.053890526 0.27229905 -0.31640044 0.41100466
000360 38 36 a5 3e d3 c4 39 be 20 59 d9 3e 88 29 68 3e
       0.32267928 -0.18141489 0.4245081 0.22672093
000370 68 29 9e 3e 40 a9 69 3d 12 f6 6e bd b4 57 42 be
       0.30890965 0.057046175 -0.05834014 -0.18978769
000380 db 0b c6 be dd bb 8f be 04 f7 ee bd d0 2b c2 be
       -0.3868092 -0.28073016 -0.11668208 -0.3792405
000390 19 26 5e 3e 70 5b cb 3c 56 51 ad be 90 c2 a9 bc
       0.2169422 0.024823874 -0.33851117 -0.020722657
0003a0 e8 5c 04 3e 7c ce af 3e 40 e3 85 bc 29 c7 db 3e
       0.12926066 0.34337223 -0.016343713 0.42925385
0003b0 96 be 29 be 94 42 de 3e 53 68 7a be 8f a9 2e 3e
       -0.16576609 0.4341017 -0.24453859 0.17056869
0003c0 72 64 13 be 80 ae d4 be ac 1a 57 be 06 d3 a9 3e
       -0.14393786 -0.41539383 -0.21006268 0.3316881
0003d0 2e 72 3b be 84 58 ab 3e 29 3c 79 be a8 2f e3 bd
       -0.18305275 0.3346597 -0.24339356 -0.11093074
0003e0 7e 1b 02 be 67 25 c6 3e 83 02 88 3e 40 dc d8 bb
       -0.127058 0.3870041 0.26564416 -0.0066180527
0003f0 64 78 a0 bd c5 7b 1e 3e 5d e7 c5 be 28 0d 83 3d
       -0.07835463 0.15476902 -0.3865308 0.06398994

fc2.weight f4 [256, 256]
000000 4f fd 9e 3b 48 88 7d 3d 78 65 3e bd f0 0c 2e bd
       0.004851974 0.061897546 -0.046483487 -0.042492807
000010 50 05 ea 3b 0d c4 5a bd 04 83 e8 bc fb 74 d0 3c
       0.0071417466 -0.053409625 -0.028382786 0.025446406
000020 3a 3c 18 bd 72 80 45 bd c0 32 3c 3b 48 39 31 bd
       -0.03716681 -0.048218198 0.0028716773 -0.04326752
000030 8c f6 71 3d 88 65 52 bd 1e 04 0d 3d 4f 9b 1d 3c
       0.059073016 -0.05136636 0.034427755 0.009619548
000040 a0 ee ee bb be 6d df bc bc 7a 06 3d 8d a0 68 bd
       -0.00729163 -0.027274009 0.032831892 -0.05679374
000050 60 2e 53 bb e2 f8 2f 3d a8 06 c8 bc fc d6 b6 bc
       -0.0032223687 0.042961963 -0.024417236 -0.02231931
000060 e0 b5 fd 3a 39 bd 68 bd 02 4d 68 bd f0 47 ec bb
       0.0019356571 -0.05682108 -0.056714065 -0.007210724
000070 50 09 83 bb 08 eb 9d bc b7 d8 84 bc e0 28 6a 3d
       -0.003998913 -0.01927711 -0.016216619 0.057167888
000080 c4 73 f1 bc 54 bb ca ba 20 87 d2 bc 12 78 57 3d
       -0.029474147 -0.0015467205 -0.025699198 0.052604742
000090 0c 44 6d 3d d8 21 88 bc 5c 73 cb 3c 6a f1 49 bc
       0.057926223 -0.0166177 0.024835281 -0.012325624
0000a0 ea cf 58 3d 78 48 1d bc 58 80 3f 3d f8 77 bc bc
       0.052932657 -0.009599797 0.046753258 -0.023006424
0000b0 08 9e 94 bc 56 c5 26 3c a4 de 51 3d 2a aa 5f bd
       -0.018141761 0.0101788845 0.051237717 -0.05460564
0000c0 bc 7b 75 bc 85 3f 66 3d 48 0e 61 bd 60 04 5c 3b
       -0.014983114 0.05621292 -0.05494526 0.0033571944
0000d0 bc fa 78 3d c0 a4 14 3c ba f6 4f 3d 8c 43 06 bd
       0.060785994 0.009072483 0.050772406 -0.03277926
0000e0 d9 d2 08 3d dc ac a9 bc b3 db 20 3d be fe 0a bd
       0.033404205 -0.020712309 0.03927202 -0.033934347
0000f0 15 2a 5f 3d f1 9c 82 3c 0a 1a 03 bd e0 1a e8 3b
       0.054483492 0.015943976 -0.032007255 0.007083282
000100 e2 34 50 bd 74 7e 6d bd d6 17 f9 3b 4e 6a 13 bc
       -0.050831683 -0.057981923 0.0076017184 -0.008997513
000110 61 3b 6d bb cf 19 3c bc a4 d7 b0 3c 7e 13 53 3d
       -0.0036198723 -0.011480763 0.0215872 0.05153226
000120 00 e3 90 3b d0 18 8a 3c be 45 54 3d 5c 68 ad bc
       0.0044215918 0.016857535 0.051824324 -0.021167926
000130 b5 50 69 bd a1 a4 f9 bc c0 b7 bd 3c 4e ed 60 bd
       -0.056961734 -0.030474009 0.023158908 -0.05491381
000140 e2 51 41 3d b0 0c 0c bc 00 a6 5f 3d c5 27 b2 bc
       0.04719723 -0.008547947 0.05460167 -0.02174748
000150 e6 79 49 bd f8 ee 84 3c d8 5e 07 bd a0 ea e7 3b
       -0.049188517 0.01622723 -0.033049434 0.00707753
000160 85 01 e1 3c 28 ac 50 3c 5f c4 7f bd 58 8d 0d 3c
       0.027466545 0.012736358 -0.062443133 0.008639656
000170 a0 3e 47 bc 9c ec d7 bc f5 b9 4e 3d ac e4 ad 3c
       -0.012160927 -0.026357941 0.05047031 0.021227203
000180 40 1e e6 ba 5e 68 2e 3d 51 5c 05 3d f4 2f 78 bd
       -0.0017556623 0.04258 0.032558743 -0.060592607
000190 f8 98 1d bc 50 37 63 bd 25 7b bc 3b 68 ef 56 3d
       -0.00961899 -0.055472672 0.0057519847 0.05247441
0001a0 8d f7 08 bc 20 f1 df 3c eb 77 85 3c 68 3a 19 3d
       -0.008359802 0.027336657 0.016292533 0.037409216
0001b0 59 f7 6a bd e1 aa 06 3d 66 6d 2c bd 2a 79 25 bd
       -0.057364795 0.032877807 -0.042096518 -0.040398754
0001c0 61 1b 1c 3d 10 72 65 bc 30 75 a5 bc 89 b3 3b 3d
       0.038112048 -0.014004245 -0.02019748 0.045825515
0001d0 58 37 4e 3c 32 6e 79 bd 68 54 42 3d 68 80 68 ba
       0.012586437 -0.060896106 0.047443777 -0.00088692317
0001e0 c0 aa c5 3b d6 7b f1 bc a4 35 c5 3c 54 c1 44 3d
       0.006032318 -0.029477995 0.02407343 0.048035935
0001f0 ff 95 50 3d 50 79 d7 3b ef b5 a3 3c 3c 0f 8f bc
       0.050924297 0.006575741 0.019984214 -0.017463319
000200 e5 8c 58 bd 34 03 f9 bc 02 3d 55 bd 42 48 62 bd
       -0.052868742 -0.030397035 -0.052060135 -0.05524469
000210 40 54 bf 3c 0c f9 d4 3c a8 b2 0d bd 94 28 30 3d
       0.023355603 0.025997661 -0.034594208 0.04300745
000220 0e 10 13 3d e8 d1 44 bd c6 da 10 3d 87 68 81 3c
       0.035903983 -0.048051745 0.03536489 0.015796913
000230 5e 14 41 3d 17 c0 a0 3c 22 5a 97 bb 28 e0 02 bd
       0.047138564 0.019622846 -0.004618899 -0.031952053
000240 68 44 c9 bc 6a ad 38 3d c9 6d 3f 3d 7c 82 15 bd
       -0.024568751 0.045087256 0.04673556 -0.036501393
000250 dc a2 a3 bc d1 f5 85 3c ba b2 30 3d d2 c5 0e bd
       -0.019975118 0.016352566 0.043139197 -0.034856625
000260 20 dd 91 3b c8 a0 57 3d 59 26 09 bd 18 d0 03 3d
       0.004451409 0.052643567 -0.033483837 0.032180876
000270 ac 2d 7b 3b 58 bb 83 bc e0 89 1c bb 40 5b 59 bb
       0.0038326783 -0.016080543 -0.002388589 -0.0033165962
000280 26 1e d6 3c 87 83 38 bd 64 7f 7c 3d ad 4e a0 bc
       0.026137423 -0.04504731 0.061644927 -0.019568766
000290 2d 6d be bc e2 42 54 bd d0 73 c6 3c e8 a6 2c bc
       -0.023245418 -0.051821597 0.024225146 -0.01053784
0002a0 58 48 04 bc eb 15 ac bc 2d ac 26 bc f8 83 17 bc
       -0.008073889 -0.021006545 -0.010172886 -0.009247772
0002b0 1f 11 a4 3c 32 75 ba bc 3c 5e b3 bc 99 55 4b 3d
       0.020027695 -0.022760961 -0.02189552 0.04964218
0002c0 05 94 0f 3d 30 22 5f 3c b6 6d 3a 3b e3 2b f8 bc
       0.03505327 0.013618991 0.002844674 -0.030294364
0002d0 18 3c 6a 3d a0 df e4 3c aa 5e 33 3d 90 0a 36 3d
       0.057186216 0.027938664 0.04379145 0.044443667
0002e0 3a 99 01 bd 44 9b 61 3d e8 39 1a 3c e4 26 37 3d
       -0.03164027 0.055079713 0.00941322 0.044714823
0002f0 da 09 0d 3d d8 73 7b 3c e1 33 0f 3d 80 5d 44 3a
       0.034433223 0.0153474435 0.034961585 0.0007490739
000300 3c f8 97 3c c4 6d 8c 3c 87 38 bd bc ae d7 4d bd
       0.018550985 0.017142184 -0.023098243 -0.050254516
000310 d8 c5 97 bc 27 83 86 3c 8d 21 23 bd 68 32 d8 3c
       -0.018526956 0.01641996 -0.03982692 0.026391223
000320 48 c0 fe bc 13 23 b1 3c 76 ef c1 3c 42 09 0b 3d
       -0.031097546 0.02162317 0.023673754 0.033944376
000330 4c 58 e1 bc 76 7f 5e bc d0 c1 a5 bc 44 7f 2d 3d
       -0.027507924 -0.013580194 -0.020234019 0.042357698
000340 4f 7c 79 bd d8 22 51 3d 36 ad 90 3c e9 28 ed 3c
       -0.060909566 0.05105862 0.017660718 0.028950172
000350 be 53 4f bd 84 06 a6 3c ae 6d 15 3d 49 06 2f 3d
       -0.050616972 0.020266779 0.03648155 0.042730603
000360 e7 c9 22 3d eb 3d 50 3d 1c 66 ad 3c 7c a0 c8 bc
       0.03974333 0.0508403 0.021166854 -0.024490587
000370 b0 8e 29 3d ec 44 60 bd 5d 34 28 3c d9 c3 15 bd
       0.041395843 -0.05475323 0.010266391 -0.036563728
000380 f0 60 4a bd 51 18 b8 3c 98 7d 3b 3d 48 c2 02 3d
       -0.049408853 0.022472532 0.045774072 0.031923562
000390 a5 97 06 bd 40 bf 01 3b 81 b3 57 3d 90 eb ba bb
       -0.032859463 0.0019797832 0.052661423 -0.005704351
0003a0 70 a1 94 bb dc 82 aa bc 5e 06 17 bd db af 0c bd
       -0.0045358464 -0.020814352 -0.036871307 -0.034347396
0003b0 17 cb 5d 3d c6 6e 03 3d 20 0b b4 3c 9e 4a 0b bd
       0.05414876 0.032088064 0.021977961 -0.034006707
0003c0 14 3c 44 3d f9 60 75 bd 4a 67 66 3c 8e 2a 0f bd
       0.047908857 -0.059906933 0.014062712 -0.034952693
0003d0 93 9e 1a bc 60 3d 1d bc aa 1f 08 bd 70 34 cb bc
       -0.009437221 -0.0095971525 -0.033233322 -0.024805278
0003e0 5c a3 4c 3d 03 02 2c bd eb 74 66 bd f0 c5 77 3c
       0.04996048 -0.041994106 -0.056263845 0.015122876
0003f0 9a b2 37 bd cf 84 c6 bc a1 2b 1a 3d 74 2e 22 bd
       -0.044848062 -0.02423325 0.037639264 -0.039595082

fc2.bias f4 [256]
000000 69 bd 27 bd d1 c1 4a 3d 4b 27 5d bd 0c fa 8c bc
       -0.04095212 0.049501244 -0.05399255 -0.017209075
000010 80 17 68 3b 06 d1 27 bd d0 3e 36 3c a7 b5 79 bc
       0.0035414398 -0.040970825 0.011123374 -0.015241063
000020 30 fd 13 bd e5 32 27 bd 5c ca c6 3c 70 19 84 bb
       -0.03613013 -0.04082002 0.024266414 -0.0040313527
000030 ea 91 64 bd 94 7c f9 3c 6d c1 7e bd b3 ca e7 bc
       -0.055803217 0.030454911 -0.062196184 -0.028294897
000040 76 cd 6e 3d 60 17 60 bc 50 49 57 bc cc 85 52 bd
       0.05830141 -0.013677448 -0.013140038 -0.05139713
000050 67 b0 06 bd 04 98 19 bd 4e 84 7f bd 20 01 5c 3d
       -0.032883074 -0.03749849 -0.062382035 0.05371201
000060 80 bf 30 3c d6 10 1e 3d 10 e7 72 bc 9a 47 66 3c
       0.010787845 0.038590275 -0.014825597 0.014055157
000070 70 0b fc bc 19 61 45 3d e6 5e 57 bd e0 2f 41 bc
       -0.030767173 0.048188303 -0.052580737 -0.011791199
000080 b9 b2 7a bd 44 b8 ba bc 38 20 2e 3d f0 0e 76 bc
       -0.0612056 -0.022792943 0.042511195 -0.01501821
000090 84 2e 66 bd 74 55 2d 3d 6b fe 71 bd 15 ee 29 bd
       -0.056196705 0.042317823 -0.059080523 -0.04148682
0000a0 53 f7 4d bd a4 59 1e ba fa 8a 5f bd 95 29 61 3d
       -0.050284695 -0.0006040579 -0.054575898 0.054971296
0000b0 cc d9 44 bd b0 5b 63 3d 20 5d 4b 3c a4 5b 17 3d
       -0.04805927 0.055507362 0.012412339 0.03695263
0000c0 f0 5f e1 bb c4 19 d9 bc 8e c0 e1 3c b9 6c e7 bc
       -0.0068778917 -0.026501544 0.027557638 -0.028250085
0000d0 38 30 57 bd 18 26 c2 3c f0 47 79 bc c0 d6 b0 3b
       -0.05253622 0.023699805 -0.015214905 0.005396694
0000e0 d6 86 7b bd 4d d4 eb bb 7c cc 60 3d 00 12 b9 3c
       -0.061407886 -0.007196939 0.05488251 0.02259159
0000f0 a2 38 48 bd a6 9e 23 bd 34 36 64 3d 78 1a 60 bc
       -0.048882134 -0.03994622 0.055715755 -0.013678186
000100 4c c0 3c 3d 02 cd 5d 3d cd 25 1c bd fc cf 1a 3d
       0.046081826 0.05415059 -0.038121987 0.037796006
000110 c0 7f 26 bb b6 76 3e 3d 89 17 4f 3d f6 c1 4a 3d
       -0.0025405735 0.04649993 0.050559554 0.04950138
000120 91 5e 6c 3d 2c f2 fc 3c 50 11 ba bc 9d bf 55 bd
       0.057707373 0.030877195 -0.022713333 -0.05218469
000130 86 dc 7d bd 84 c8 5c 3d c2 82 d9 3c 84 02 ea 3c
       -0.061977886 0.053902164 0.026551608 0.028565653
000140 2c 75 c1 bc e3 a1 6a bd cf 26 41 3c c6 d7 45 3d
       -0.023615442 -0.057283293 0.011789038 0.04830148
000150 f8 a9 79 3d b1 05 d7 bc 98 3c 6d bc 52 68 5c 3d
       0.06095311 -0.026247831 -0.014479779 0.053810425
000160 77 ab e1 3c c8 67 10 3d 8e 1f 63 3d e1 ac 41 3d
       0.027547581 0.035255224 0.055450015 0.04728401
000170 a6 88 df 3c c5 69 97 3c ba 76 50 bd 84 40 a2 bc
       0.027286839 0.018483052 -0.050894476 -0.019806154
000180 cf db e3 3c 00 18 a1 b9 42 df 3c 3b da a2 30 bd
       0.027814774 -0.00030726194 0.0028819595 -0.043124057
000190 88 4c 83 3c 74 e9 6d bd f0 3e ec bc 88 fc 34 3c
       0.016027704 -0.058083966 -0.028838605 0.011046536
0001a0 da 68 b7 bb 64 cd 55 3d 61 58 84 bc 40 c6 47 3b
       -0.005597216 0.05219783 -0.016155424 0.0030483156
0001b0 fe 5b 53 3d b0 f5 5e 3d 04 fd 3b bd 50 c2 5b 3d
       0.051601402 0.054433525 -0.04589559 0.053652108
0001c0 f2 a5 6c bd 7b 03 2e 3d 20 3c d3 bb c8 30 3b bc
       -0.057775445 0.042483788 -0.0064463764 -0.011425205
0001d0 78 51 c9 3c 04 c5 64 3d 2e cf 03 bd 93 fa 27 3d
       0.02457498 0.05585195 -0.032180004 0.04101045
0001e0 98 8c b0 bc 12 81 5c bd f0 50 6e bc 5f f4 d1 3c
       -0.021551415 -0.05383403 -0.014545664 0.02562922
0001f0 fb 34 2a bd 62 8a 7c 3d f6 cc 5a bc 02 3f 59 bd
       -0.041554432 0.06165541 -0.013354531 -0.053038605
000200 16 5a 1e 3d 99 01 83 bd c8 73 2a 3d e8 79 15 3c
       0.03866013 -0.06396789 0.041614324 0.009123303
000210 9a a7 3d bd 47 fb d4 bc 56 72 74 bd 58 ab 92 3c
       -0.046302415 -0.025998725 -0.05967935 0.017903969
000220 48 cb 3b bd dc 8e ca 3c a8 cf 4d bd 69 d0 0c bd
       -0.04584816 0.024726324 -0.050246865 -0.034378443
000230 3c 78 3f bd c8 35 5d bc 5e 76 0a bd b8 49 5a bd
       -0.046745524 -0.013501592 -0.03380429 -0.05329296
000240 f9 11 03 3d 06 3f 16 3d 9c 62 94 bc 06 7d fa bc
       0.031999562 0.036681198 -0.018113427 -0.030577194
000250 c0 bb 27 bb 71 a9 28 3d ff 85 44 bd 58 df 44 3d
       -0.0025594085 0.041177217 -0.04797935 0.04806456
000260 6c 4d de 3c cc 64 43 bd 79 fb 3a bc 34 a6 c3 bc
       0.027136527 -0.04770355 -0.011412495 -0.023882963
000270 f3 8d 43 3d 98 a6 f9 bc de 27 61 3d 06 93 44 bd
       0.047742795 -0.030474946 0.05496966 -0.047991775
000280 14 8d 3a bd 40 59 f2 ba 98 f2 36 bd 7e 80 00 3d
       -0.0455447 -0.0018489733 -0.04466495 0.03137254
000290 f6 14 19 3d 1e 5a 6a 3d 20 c5 f7 3c cc 92 23 bd
       0.037373506 0.05721485 0.030245364 -0.03993492
0002a0 7b 5b 50 bd a3 42 22 3c 6e 6e 5b 3d 27 8d 0d bc
       -0.050868493 0.009903583 0.05357211 -0.00863961
0002b0 90 4c 35 bd 30 b5 b9 bb 54 40 f3 bc c0 63 ab 3b
       -0.04426247 -0.005667351 -0.02969376 0.005230397
0002c0 0b c9 02 3d d0 8c 70 3c 3e 83 65 bd f3 90 f4 3c
       0.03193001 0.01468201 -0.056033365 0.029854273
0002d0 79 f5 24 bd 6d c3 15 bc 70 03 25 3d 63 f4 02 3d
       -0.040273163 -0.009140831 0.04028648 0.031971347
0002e0 44 e9 01 bd 41 d5 0b 3d 4f 38 39 bc 02 c3 e4 3c
       -0.0317166 0.03413892 -0.011304929 0.027925018
0002f0 0f 80 70 bd 4a 17 56 bd 6c 3a 7a 3d 6d 65 6b bd
       -0.058715876 -0.052268304 0.06109087 -0.057469774
000300 ca cd 34 bd b6 1b 47 bd 92 3c 49 3d 3a 4b 15 bd
       -0.04414157 -0.04861041 0.04913003 -0.036448695
000310 49 a2 35 3d ab 1c c1 3c 37 66 71 3d b4 75 52 3d
       0.04434422 0.02357324 0.05893537 0.05138178
000320 e6 7e ab 3c fc 84 d9 3c 84 ad 1f bd 29 b7 94 3c
       0.020934533 0.02655267 -0.038983837 0.018153744
000330 98 22 0d bd b0 ab 1f bd 91 4a 05 bd 2e 89 5c bd
       -0.03445682 -0.038982093 -0.032541815 -0.053841762
000340 99 fa cf bc b6 06 4f bd 3b f1 57 bd 28 cd 1d 3d
       -0.025388049 -0.05054351 -0.05272029 0.03852573
000350 f8 a5 7d 3b ba ed 3e 3d 79 a3 11 bc 6a 50 47 bd
       0.0038703661 0.046613432 -0.008889073 -0.048660673
000360 b0 62 73 3d a8 73 3c bd 9b 89 1f bb 07 a4 80 3c
       0.059420288 -0.046008736 -0.0024343494 0.015703214
000370 60 6a 5d bc 1d 51 58 bd cc b3 22 bd 78 f3 31 bc
       -0.013514131 -0.05281173 -0.03972225 -0.01086127
000380 30 9e 99 bb 56 94 b7 3b d0 03 dc 3c 93 51 c8 3c
       -0.004688047 0.0056024 0.026857287 0.02445296
000390 1b 25 6c 3c a0 ca 25 3b 16 61 67 3d a0 07 fa 3c
       0.0144131435 0.0025297776 0.056489073 0.030521214
0003a0 94 43 a2 3c bd b4 c6 3b 5a 82 78 bd e0 c6 35 bb
       0.019807614 0.006064026 -0.060671188 -0.0027736947
0003b0 a0 8e 67 3d 80 bb 2f 3b ac 63 d2 3c bc ac 7c 3d
       0.056532502 0.002681464 0.025682293 0.06168817
0003c0 24 eb 3c 3a 61 38 42 bc 48 2a 45 3c 52 2b e8 3c
       0.00072066695 -0.011854262 0.012034006 0.02834097
0003d0 63 fb c7 3c 00 a2 40 3c 6b a6 82 bc d6 86 18 3d
       0.024411863 0.011757374 -0.015948495 0.037237965
0003e0 cc da 62 3d e4 53 34 bd 94 72 06 bd aa 44 2d 3d
       0.055384442 -0.044025317 -0.032824114 0.04230181
0003f0 02 8b 8c 3c 8e 37 3d bd 56 52 07 3d 4e 08 0a bd
       0.017156128 -0.04619556 0.033037506 -0.033699326

V.weight f4 [1, 256]
000000 3a 66 37 bd b2 d1 d3 bc a6 de 41 bd bc fb af bc
       -0.044775225 -0.025856826 -0.047331475 -0.021482341
000010 58 f0 03 bd fa 21 9e 3c 28 9a 63 bd a3 5e 4c bd
       -0.03221163 0.01930331 -0.055566937 -0.04989494
000020 d2 e2 56 bd 09 85 80 ba 20 9b 7e bb 0b e7 fb 3b
       -0.052462406 -0.0009805273 -0.0038849786 0.0076874546
000030 2e d6 3c 3d 5c 9e 96 3c b4 1c a2 3a bb 11 18 bd
       0.046102695 0.018386059 0.0012368173 -0.037126284
000040 18 4d c0 bc 6c e0 2c 3d f4 6d 87 3c a4 24 b9 3c
       -0.023474261 0.042206213 0.016531922 0.02260048
000050 40 9e 18 3b 5e ab 53 3d c0 21 7b bc 84 6f 22 3d
       0.0023287684 0.0516771 -0.015327871 0.03965713
000060 58 f3 23 3d ee 00 33 3d e4 a8 49 bd 4c 80 b8 bc
       0.040026993 0.04370206 -0.049233332 -0.022522114
000070 92 05 0e 3d 30 97 fc 3c d0 d0 85 bb 94 58 31 3d
       0.03467328 0.03083381 -0.0040837303 0.043297365
000080 fc 29 70 3d c0 e6 3d 3b c1 e8 f7 3c f2 f5 78 3d
       0.05863379 0.002897665 0.030262353 0.060781427
000090 40 e4 57 bd 41 98 3f 3c 74 70 0d 3d d1 82 48 3d
       -0.05270791 0.011694015 0.03453107 0.04895288
0000a0 c2 81 ec 3c fa 5b 0a bd 88 5e bc 3c 37 45 04 bd
       0.028870467 -0.033779122 0.022994295 -0.03229257
0000b0 a0 61 65 3c c6 76 2a bd 84 23 64 3d 88 74 93 3c
       0.014000326 -0.041617177 0.055697933 0.017999902
0000c0 aa d0 7f 3d 08 0b 47 bd cf c8 0d 3d ff 6e 22 3d
       0.062454857 -0.048594505 0.034615334 0.039656635
0000d0 f5 e3 40 bd 3f 14 ff 3c 42 ec 5e bd 40 5c 5c 3c
       -0.047092397 0.031137584 -0.05442453 0.0134497285
0000e0 2c 0c 58 bd 1c eb 2e bc c0 90 8e ba 80 d7 be 3b
       -0.052745983 -0.010676172 -0.0010876879 0.0058240294
0000f0 66 c5 be bc 38 7d e9 3c 34 41 c7 bc 10 49 96 3b
       -0.023287486 0.028502092 -0.024323083 0.0045863464
000100 00 a4 ee 3b 90 7d d2 3c 1c 2c f8 3c 2c 2a cc 3c
       0.007282734 0.025694638 0.03029447 0.024922453
000110 70 c1 15 3d 9a c9 e1 3c da c8 59 3c f4 40 a2 bc
       0.03656143 0.027561951 0.013292516 -0.019806363
000120 2f 98 4e 3d b0 0e 64 3d c8 5a 3c bd 7e 29 ae 3b
       0.050438102 0.05567807 -0.045985013 0.005315005
000130 e6 3d 5a bd 44 88 09 3d 8b 4e 08 bd 60 1d 9b bb
       -0.053281687 0.03357722 -0.03327803 -0.0047337264
000140 54 ed cf bc f4 f6 49 bd f3 49 f9 bb 26 5e 47 3d
       -0.025381722 -0.04930778 -0.0076076924 0.04867377
000150 48 c3 32 bd 10 56 21 3b 44 c9 39 3d c4 69 40 3d
       -0.043643266 0.0024617948 0.045357957 0.046975866
000160 c2 69 1d bd 85 44 39 3d 30 7f 18 bd 03 95 c3 bc
       -0.038430937 0.04523136 -0.03723067 -0.023874765
000170 0a e5 d4 bc 9d 4f 39 bd 1c 0c 12 bc a2 1a 61 bd
       -0.02598812 -0.04524194 -0.00891402 -0.05495704
000180 7d 18 44 bd e0 6d 72 3b 6e 94 9c 3c 50 9a 6b 3d
       -0.047874916 0.003699176 0.019113746 0.05752021
000190 b0 82 6b bc 9c 0c eb 3c 08 a5 5b 3d b0 89 aa bb
       -0.01437442 0.028692536 0.053624183 -0.005204402
0001a0 cc a7 cf bc d9 18 54 bb 36 ad 0c bd d9 23 33 3d
       -0.025348566 -0.0032363443 -0.034344874 0.04373536
0001b0 2d 1b 27 bd d8 74 ff bc 70 e6 ee bc 81 fe 24 3d
       -0.0407974 -0.031183645 -0.029162616 0.040281776
0001c0 00 f6 20 3d 1d e1 dc bc 80 b5 0a 3a b8 4c 09 bc
       0.039297104 -0.026962811 0.0005291328 -0.008380108
0001d0 44 ee b9 bc fc 64 a6 bc a6 94 99 bc 63 87 67 3d
       -0.022696622 -0.020311825 -0.018747639 0.0565256
0001e0 9c cd bd bc 98 d7 b1 bc 78 53 16 3c 79 91 13 bc
       -0.023169331 -0.021709248 0.009175174 -0.009006851
0001f0 c4 bc 08 3d e4 21 26 3d 11 f9 a6 3c a7 b7 26 3d
       0.033383146 0.040559664 0.020382436 0.04070249
000200 00 14 9f 38 4f 3a 75 3c 40 6b c6 ba 70 c6 57 3d
       7.585436e-05 0.014967515 -0.0015138164 0.05267948
000210 2a 3d 0e 3d a5 02 9c bc 15 77 aa bb 40 cf 11 3d
       0.0347263 -0.01904423 -0.005202184 0.03559804
000220 b4 aa 5f 3d da 71 43 3d 2a 9d 1e 3d e0 58 42 3d
       0.054606155 0.047716 0.038724102 0.04744804
000230 68 2a 54 3c 50 53 d9 bc 35 20 57 3a a0 05 0d bc
       0.012949564 -0.026528984 0.00082063983 -0.008607298
000240 39 49 40 bd 79 98 92 bc f4 0c bf bc 2e a3 06 3c
       -0.04694483 -0.01789497 -0.023321606 0.008217616
000250 40 7f a5 3b d3 00 b8 3b 15 ab c1 bb e4 4c 65 bd
       0.00505057 0.0056153326 -0.005910287 -0.05598153
000260 20 d4 3f bc f0 94 fa 3b 71 62 de bc 21 57 20 bd
       -0.011708289 0.0076471493 -0.02714655 -0.039145593
000270 9e 1f 99 3c 3d 8d 2b bc 0c cf 2f 3d 22 0b 5d 3d
       0.018691834 -0.010470686 0.042922065 0.053965695
000280 16 3f 3b 3d 36 3a 4a bd 2e ee bd 3b b4 49 17 bd
       0.04571446 -0.04937192 0.0057962155 -0.036935523
000290 18 44 48 3d ec 2c f1 3c fa 8b 5a 3d 18 90 6c bc
       0.048893064 0.029440366 0.05335615 -0.0144386515
0002a0 c4 21 cf bc e5 c7 aa bc 76 5a 7a 3d 97 62 03 3c
       -0.025284655 -0.02084727 0.061121427 0.008019111
0002b0 a0 7d c0 bc 18 6d 52 bc 64 ac b9 bc 82 29 39 3d
       -0.023497403 -0.012843393 -0.02266521 0.0452056
0002c0 05 08 dc b9 dc 9e 38 bd 48 7e c3 3c 89 3f f5 3c
       -0.00041967645 -0.045073375 0.023863927 0.029937522
0002d0 d0 3e fe 3b 3f 62 c9 bc de 88 8c 3c bc 3a eb bc
       0.0077589527 -0.02458298 0.017155107 -0.02871453
0002e0 7a bd 76 3d 71 54 6c 3c 7c 17 65 3d 39 d7 c9 3c
       0.060239293 0.014424429 0.0559306 0.024638759
0002f0 b6 17 e0 3c b2 01 73 bd 00 02 99 39 97 8a bf bc
       0.027355056 -0.05932779 0.00029183924 -0.023381514
000300 28 09 68 bd a1 3d 09 bc 9e 3b 32 bd 00 44 2b 3a
       -0.056649357 -0.00837651 -0.043513887 0.0006533265
000310 62 39 5b bd c8 39 cc 3b 11 b8 66 3d 94 cb 63 3d
       -0.05352152 0.006232474 0.056327883 0.05561407
000320 e7 c9 11 3d 1c 2d 7a bd 3c 6c 01 bc d4 a9 d3 bc
       0.03559294 -0.061078176 -0.00789934 -0.025837816
000330 fd e5 df bc c8 fb 2e bd 35 f4 31 bd 1d 32 54 bc
       -0.027331347 -0.042720586 -0.043445785 -0.012951401
000340 80 14 a8 bc 42 35 09 3d 4e bc 28 3c 39 68 06 bc
       -0.020517588 0.033498056 0.010298802 -0.00820356
000350 e0 df 23 bd 0a 0d 63 3d 78 de 88 b8 b3 42 2b 3d
       -0.040008426 0.055432357 -6.5264234e-05 0.041811656
000360 d4 e6 7c bd 04 5c 29 bd 51 46 34 3d f2 ee b5 3c
       -0.061743572 -0.04134752 0.04401237 0.022208665
000370 d4 d7 0a 3d ee 37 44 bd 30 a0 5e bc e0 7c f7 bc
       0.033897236 -0.0479049 -0.013587996 -0.030210912
000380 b8 6a f0 3c c7 c7 c6 bb 8a 28 f2 bb cb 0e 6f bd
       0.029347762 -0.006066296 -0.0073900865 -0.058363717
000390 39 48 e7 bc 74 ac 9e bc 70 ab 5c 3d fa a8 5e 3d
       -0.02823268 -0.019369341 0.053874433 0.054360367
0003a0 14 33 fe 3c 91 4d 14 3d 00 ad b4 3c 74 56 2c 3d
       0.031030215 0.036206786 0.02205515 0.042074636
0003b0 1e a1 02 bd f2 6c 5c bd f4 59 40 bd 14 b8 30 3d
       -0.031891935 -0.053814836 -0.046960786 0.0431443
0003c0 b2 d5 d0 bc 1f bc 48 3d d6 e2 5e 3d 57 eb 2a 3c
       -0.025492523 0.04900753 0.054415546 0.010432086
0003d0 72 f0 24 3d 0c c2 04 3d 6b ef f8 ba f4 45 f9 3c
       0.04026837 0.03241162 -0.001899225 0.030428864
0003e0 ae a3 8c bc d0 85 2c bd d0 76 b5 bc c2 d1 32 bd
       -0.017167892 -0.0421198 -0.02215138 -0.043657072
0003f0 b9 0e 31 3d 2c b5 07 3d 02 8f 8d bc 51 ef 35 bd
       0.04322693 0.033131763 -0.017280106 -0.044417683

A.weight f4 [6, 256]
000000 95 a6 90 bd cf 67 13 bd 1c 35 e3 3c b2 8c 4d 3d
       -0.07063023 -0.03598767 0.027735285 0.050183006
000010 fc b1 e8 bc ab 08 67 3d 52 98 26 bd b6 c6 f1 bc
       -0.028405182 0.05640475 -0.040672608 -0.029513698
000020 38 ae f6 bc 3d 60 8e bc 80 a5 5d bd a2 44 36 3d
       -0.03011237 -0.017379874 -0.05411291 0.044499047
000030 76 45 22 3d 40 41 76 3c c1 b5 05 3d 0f 48 0a 3d
       0.039617024 0.015030205 0.032644037 0.033760127
000040 64 74 57 3d 70 29 67 bc 32 c2 35 bd 18 34 70 bd
       0.052601233 -0.014109001 -0.044374652 -0.05864343
000050 34 6e 6e ba 20 9b ab bb 06 a6 43 bd 8e 9a 2d bd
       -0.0009095401 -0.005236998 -0.047765754 -0.042383723
000060 d4 b3 08 bd 76 85 43 3d dc bb 96 3c b0 39 45 bd
       -0.033374622 0.0477347 0.018400125 -0.04815072
000070 d0 a9 d0 bc c1 0b aa bc 82 59 4a bd d2 4c 1d bd
       -0.025471598 -0.020757558 -0.049401768 -0.03840334
000080 09 95 9c bb e4 9c 48 3d 3e e1 31 3d e6 0d 0c 3d
       -0.0047785086 0.048977748 0.0434277 0.034192942
000090 52 0a 7e 3d fb 09 d1 3a 83 d8 63 3d e5 f6 c7 3c
       0.06202156 0.0015948409 0.055626404 0.02440972
0000a0 6d 7e d7 3c 56 47 4d 3c a8 20 cd 3c ca 98 67 bd
       0.026305402 0.012529215 0.025039986 -0.056542195
0000b0 00 38 00 3a 91 ac 9b bc 08 21 09 bc 34 72 00 bd
       0.0004891157 -0.019003185 -0.008369692 -0.031358913
0000c0 f2 ee 09 3d e0 f5 36 bc 42 5e e1 bc 60 39 66 bc
       0.03367514 -0.01116702 -0.027510766 -0.014051765
0000d0 65 d7 ee bc 94 8e dd 3c 6a 3b 6b 3d 88 81 7c bd
       -0.029155442 0.027045526 0.05742971 -0.061646968
0000e0 2c d4 c9 3c 53 da da bc 12 40 3d 3d 24 35 10 3d
       0.024637304 -0.026715433 0.04620368 0.03520693
0000f0 15 db 79 bd b4 f0 62 3d 20 91 5f 3b de c6 2b 3d
       -0.06099995 0.055405334 0.00341136 0.0419377
000100 78 89 29 bd 10 d1 42 bd f3 5d 1a 3b 26 cf 07 bd
       -0.041390866 -0.04756266 0.0023554533 -0.033156537
000110 1c 3f 8a 3c e0 88 8d bc 6d 6c 17 bc 68 4d 7d 3d
       0.016875796 -0.017277181 -0.009242159 0.0618414
000120 c5 69 a1 bb 4e 3e 29 bd 40 b1 6c 3d 93 d9 33 3d
       -0.004925939 -0.041319184 0.057786226 0.043908667
000130 88 33 44 3d 07 ee f0 ba b0 f8 11 3d c0 70 fa 3b
       0.047900707 -0.0018381485 0.035637558 0.0076428354
000140 1e ba 15 bd c3 e7 5b 3d 6a 49 88 3c fb 14 80 3d
       -0.03655445 0.053687822 0.016636569 0.06254002
000150 00 4d 0a bb fa 1a 38 bd f2 da 18 3d b0 f6 a4 3b
       -0.0021103024 -0.0449476 0.037318178 0.0050342903
000160 b3 93 59 bd 13 32 26 bd a4 6e 25 bd e3 77 a8 bc
       -0.053119373 -0.0405751 -0.04038872 -0.020564979
000170 85 3b 32 3c e5 71 e1 3c b9 08 26 3c 00 1e 5f 3c
       0.010878448 0.02752013 0.010133916 0.013617992
000180 d4 93 2c 3d 20 45 d6 bb c0 2c 69 3d 52 ec 7f 3d
       0.042133167 -0.006539002 0.056927443 0.062481232
000190 ec 85 a5 bc e8 2a c6 3c a8 d9 7d 3c 00 9f 54 3d
       -0.02020546 0.024190381 0.015493788 0.051909447
0001a0 fe 9d b9 bc 37 d1 05 bd b0 5c 55 3d ff 87 fe 3c
       -0.022658344 -0.032670226 0.052090347 0.031070707
0001b0 9e 9b dc 3a 7c 2d e5 bc 44 ac 9a 3c a7 e6 19 3c
       0.0016831046 -0.02797579 0.01888097 0.009393371
0001c0 00 d4 3e bd b8 29 0a bb ce 41 24 3d 00 f1 98 bb
       -0.046588898 -0.0021081995 0.04010182 -0.0046674013
0001d0 b0 a6 bb bb ac d7 73 3d 16 b9 2b 3c a3 b6 52 3d
       -0.005726658 0.059531853 0.01048114 0.051443707
0001e0 0a 7c 76 3d f6 55 32 3d 26 43 42 3d ec 74 0b bd
       0.060176887 0.04353901 0.04742732 -0.034047052
0001f0 19 b5 1e 3d 78 54 57 3d 36 a3 24 bd 26 84 1e 3d
       0.038746927 0.05257079 -0.040194713 0.038700245
000200 54 42 86 3c af 50 b8 3c cc c2 df 3c 54 85 e3 bc
       0.01638905 0.02249941 0.027314566 -0.027773537
000210 00 c5 a8 3b 2b b7 35 bd 05 cb 16 bd 86 9e 10 3d
       0.0051504374 -0.044364136 -0.03681471 0.03530743
000220 38 d5 76 bd a0 8a a4 3b 90 a6 c0 bc 6a 5d f5 3c
       -0.060261935 0.005021408 -0.023516923 0.02995177
000230 32 da 01 3d ae 89 36 bd a7 2e 49 3d b8 a4 64 3c
       0.031702228 -0.044564895 0.049116757 0.013955288
000240 7f 26 d7 bc a3 1a 43 bd b0 c4 70 bc bf 63 ee bc
       -0.026263474 -0.047632825 -0.014695331 -0.029100297
000250 d8 0e 0b bc ea 83 40 bc 95 75 40 bd 22 02 04 bd
       -0.008487426 -0.011750201 -0.046987135 -0.032228597
000260 22 2d 0d 3d d8 41 47 3c 1b dd fb bc e7 03 5c bd
       0.03446687 0.0121616945 -0.03074508 -0.05371466
000270 37 9c bf bb fe ed e1 bc 7a b9 3a 3d be 03 34 bd
       -0.0058474797 -0.027579304 0.04558704 -0.04394888
000280 04 a4 14 bd 00 92 a9 39 ea 7c f5 3c 38 bb 4c bc
       -0.03628923 0.0003234297 0.02996679 -0.012495808
000290 c4 92 c3 bc a8 82 2b bd e0 2f 00 bd 10 a7 5c 3c
       -0.023873694 -0.04187265 -0.031295657 0.013467565
0002a0 4a 35 2a 3d ee d5 2c 3d 34 a4 24 3d c3 20 36 3d
       0.041554727 0.042196207 0.04019566 0.044464838
0002b0 26 b1 7f 3d 2a 4e 39 bd 00 aa d1 b9 68 49 c2 3c
       0.0624248 -0.04524056 -0.00039990246 0.023716643
0002c0 01 d4 c6 3c 80 20 52 bd 24 f3 4e 3d d0 ab a2 bc
       0.024271013 -0.051300526 0.050524846 -0.019857317
0002d0 68 fb 48 3d 9e 3c 63 bc 0d b1 6c 3d 45 cf b4 3c
       0.049067885 -0.013869433 0.057786036 0.02207149
0002e0 aa 1e 3e bd 2c c0 34 3b ef e1 04 3d 2d 66 f7 bc
       -0.046415962 0.0027580364 0.03244203 -0.030200088
0002f0 e0 a1 6e 3b 48 bc 4e 3c 30 2d 33 bd bd 52 18 bd
       0.0036412403 0.012618132 -0.043744266 -0.03718828
000300 1e dd 35 bd 70 ff 11 bb 70 88 3b bd 78 b0 00 bd
       -0.044400327 -0.0022277497 -0.045784414 -0.031418294
000310 a7 fc 63 3d fd ee 87 3c 05 19 43 bd 80 90 6d ba
       0.05566087 0.01659345 -0.047631282 -0.00090623647
000320 ee b9 85 bc 30 dd ad bb 66 42 75 bd 39 79 4b 3d
       -0.01632401 -0.0053059086 -0.059877776 0.049676154
000330 8a 99 c7 3c 83 de 21 bd 18 8e 93 bc 1d 6f 47 b9
       0.024365205 -0.039518844 -0.018012092 -0.00019019512
000340 68 bd 18 bd ce 47 11 bd 01 95 5a bd 09 01 b7 bc
       -0.037290007 -0.03546887 -0.053364757 -0.02233936
000350 dd 76 cc bc 12 e6 2e bc 0f e2 03 bd a5 e3 fd 3c
       -0.024959022 -0.01067497 -0.03219801 0.030992338
000360 72 5e 56 bd 98 c2 48 3c 47 ae 31 bc 88 7b 26 bd
       -0.052336164 0.012253426 -0.010844774 -0.040645152
000370 88 20 84 3c aa 1e 02 3b 6d 98 7c bc 60 cd a7 3c
       0.016128793 0.0019854703 -0.0154172005 0.020483673
000380 00 20 51 38 97 9e fb bc af fd b0 bc c0 d6 3c bd
       4.9859285e-05 -0.03071527 -0.02160534 -0.04610324
000390 21 1a 04 bc 78 52 c4 3c 2c 55 58 bd b6 bb 19 bd
       -0.00806287 0.023965105 -0.0528156 -0.03753253
0003a0 a0 d1 8d 3b a7 be 4f 3b 80 ce 14 ba 10 0b 0f bc
       0.0043279678 0.003169933 -0.0005676523 -0.008730665
0003b0 26 d4 6c 3d a2 c4 22 3d d6 e8 55 bd ba 35 6f 3d
       0.057819508 0.039738305 -0.052224003 0.058400847
0003c0 e9 25 13 bd ec 10 d8 3c 42 b2 3f bd a2 ed a5 bc
       -0.035924826 0.026375256 -0.04680086 -0.020254914
0003d0 6c b5 c3 bb 74 2d c8 3c 7b 63 58 bd 7a 6a 37 3d
       -0.005972555 0.024435736 -0.052829247 0.04477928
0003e0 2f cf 3a bd f4 4d de 3c a4 70 26 3d 00 31 72 3d
       -0.045607742 0.02713678 0.040634766 0.05912876
0003f0 83 74 2e bd 47 76 53 3c f4 79 29 3d dd 44 f4 3c
       -0.042591583 0.0129066175 0.04137607 0.029817993

A.bias f4 [6]
000000 ad 20 3e 3d cf 2f 6b 3d 8e 4d 2a 3d a2 a0 5f bd
       0.04641788 0.05741864 0.04157787 -0.05459655
000010 14 18 d5 bc 48 5a e7 bb
       -0.026012458 -0.007060323
