cool/checkpoints/D3QN/Q_eval/D3QN_q_eval_4750.pth (torch, 278863 bytes, 7 tensors)

fc1.weight f4 [256, 5]
000000 4a 60 e4 be 8d 8c fc be 40 a9 71 be 25 d6 15 3d
       -0.44604713 -0.49325982 -0.2359972 0.036581177
000010 6e e6 1f 3f 52 67 21 be fc dc a9 3e 60 40 a9 3e
       0.6246098 -0.1576207 0.3317641 0.33056927
000020 18 44 33 be 90 85 96 3d b9 82 b6 be 84 48 7d 3e
       -0.17506444 0.07349694 -0.35646608 0.24734694
000030 28 89 40 be 7c 16 ae bd aa cc 91 3e 86 98 0f be
       -0.18802321 -0.08500382 0.2847646 -0.14023027
000040 e0 f5 ee bd d0 6c 46 3d 60 71 23 be 68 07 01 3d
       -0.11667991 0.048443615 -0.15961218 0.031501204
000050 04 e9 83 3e cf 10 aa be 38 15 4b 3e c1 e5 85 be
       0.25763714 -0.3321595 0.19832313 -0.2615185
000060 8c 19 85 3e d6 0f 6b bd 74 60 dc bd 55 90 7a 3e
       0.25996053 -0.05738815 -0.107605845 0.24469121
000070 02 f1 e9 3d 77 fc 6c 3e 00 71 23 3e b0 56 9c 3e
       0.11422922 0.23143183 0.15961075 0.30534887
000080 00 e8 f5 3c 3c 29 dd bd 18 fd 8d be e0 b8 a9 3e
       0.030017853 -0.107988805 -0.27732158 0.3314886
000090 6a b9 57 bd 94 ca 5a be 80 2a 8f 3e ea 4a 27 3e
       -0.05266706 -0.2136634 0.27962112 0.16337171
0000a0 90 8b 42 bd 14 ed 79 3e 44 60 c5 bd b2 8a 14 be
       -0.04749638 0.24406844 -0.09637502 -0.14506033
0000b0 00 54 9f bc b4 3b a6 bd fe 6d ab 3e a2 bc 8f 3e
       -0.019449234 -0.08116856 0.33482355 0.28073603
0000c0 f0 ea e8 bd c8 df 06 bd 4d ca e4 be 32 7f d4 be
       -0.11372936 -0.03292826 -0.44685593 -0.41503292
0000d0 a6 9b d0 3e cf 20 db be 61 ac bf be 5f e8 d3 3e
       0.4074375 -0.42798468 -0.37436202 0.41388223
0000e0 e3 56 5c bf 15 bf 9b 3e f7 d1 98 3e 33 69 98 3d
       -0.8607008 0.30419222 0.2984769 0.0744194
0000f0 da ae 39 be c0 4a 1a bf 2b 99 43 3e cb 08 c2 3d
       -0.18133107 -0.6027031 0.19101398 0.094743334
000100 72 ab 99 bb 7e 46 01 be d6 ce a2 3e 34 97 a0 3e
       -0.0046896273 -0.12624547 0.31798428 0.3136536
000110 7e ab 3f be de 9f 19 be 1f 97 ad 3e 34 66 64 3d
       -0.18717763 -0.1500239 0.3390436 0.05576153
000120 13 a7 53 be 44 9c 0b 3e 13 ac 42 be 90 5f ac 3c
       -0.20669203 0.1363383 -0.19010954 0.021041662
000130 33 b3 ca be 03 7b 9e 3e fe f5 2c bc a0 bb 07 3e
       -0.39589843 0.30953225 -0.010556696 0.13255167
000140 3a 7c 5d be 4c 2e d8 be 9e 09 c9 3e a0 60 5c bc
       -0.2162942 -0.42222822 0.3926515 -0.013450772
000150 e0 0d ae 3c 05 cf f1 be 8b 76 0e bd 93 2f 77 be
       0.02124685 -0.47228256 -0.03478102 -0.24139242
000160 85 92 b5 3e 56 78 10 be 78 cb 8f be ff e8 96 3d
       0.35463348 -0.14108405 -0.28084922 0.07368659
000170 9e 87 b9 3b b6 c6 c3 3e ae 32 a4 bd 3a d6 a1 be
       0.005661919 0.38237542 -0.08017479 -0.31608754
000180 16 ac 10 be 77 2c 3b bd 65 c2 29 3e dd 71 db bd
       -0.14128146 -0.0456967 0.16578062 -0.10715077
000190 3e 56 b3 3e 54 f9 00 3e 74 7b 19 3e ef d9 92 be
       0.35026735 0.12595111 0.149885 -0.28681895
0001a0 96 e1 92 be 24 57 6f be 06 eb ad 3e 60 20 6c 3e
       -0.28687733 -0.23373085 0.3396837 0.23059225
0001b0 3e fe 82 be 03 a4 ae be 04 8c cb 3e a8 f4 d7 bd
       -0.25584596 -0.34109506 0.3975526 -0.10544711
0001c0 b0 ac a1 3e e8 a6 79 bd e2 5e 97 3e 26 ab 34 be
       0.31577063 -0.06095019 0.29564577 -0.17643413
0001d0 24 55 c4 3e 00 e6 87 3b ed 9f b7 be fc 24 a7 be
       0.38346207 0.004147291 -0.358642 -0.32645404
0001e0 2b 7a e9 be 85 f6 df be af f7 cb be c3 a4 db 3d
       -0.4560102 -0.43742767 -0.39837405 0.10724785
0001f0 86 69 02 3f 0c 0c 2e 3e 58 d9 16 3f bb f7 18 3e
       0.50942266 0.16996783 0.5892539 0.14938252
000200 4b 56 f9 3c dc 7c 22 bc ca b4 3f be 40 2f fd 3c
       0.030436656 -0.009917464 -0.1872131 0.03090632
000210 c8 3f 9b 3d 22 af 62 be 90 5a 98 3e cc e0 63 3e
       0.07580525 -0.2213712 0.29756594 0.22253722
000220 ab 2e be be e2 df 6a be bb bb 73 be e0 d1 ac 3d
       -0.3714498 -0.22936967 -0.23802082 0.08438468
000230 26 c7 bb be a0 d0 cd 3d d4 cb 1d be b2 fa 19 be
       -0.36675376 0.10049558 -0.15409786 -0.15037039
000240 18 8d dc 3d f8 86 00 3d ef 00 6b be 54 b0 bb 3e
       0.10769099 0.031378716 -0.22949575 0.36657965
000250 a8 38 74 be 38 1c fc bd de c7 de 3e d6 2e a1 be
       -0.23849738 -0.1231007 0.43511862 -0.31481045
000260 30 e4 0d bc fb ef b3 3e 6e 20 4b be 3c 78 a7 3e
       -0.008660361 0.35144028 -0.1983659 0.3270892
000270 bc e4 2b 3e 48 47 45 3d 8b 92 6b be 4a cd b1 3e
       0.16786474 0.048163682 -0.2300512 0.34726936
000280 69 96 ad 3e e9 68 ce 3e e1 b1 b9 3e 2e b1 c3 3e
       0.33903816 0.40314415 0.36268523 0.38221115
000290 3a dc 06 bf 49 5e 12 bd 17 79 49 bf ff b6 3a 3e
       -0.5267979 -0.03573445 -0.78700393 0.1823387
0002a0 7a 30 c7 3e 64 40 d3 3a 90 cf 21 bd a4 13 d0 bd
       0.38904172 0.0016117212 -0.039504588 -0.10159996
0002b0 c4 d3 db 3e 00 68 59 bc fc dd c1 be 9a a7 e0 3e
       0.42935002 -0.013269424 -0.37864673 0.4387787
0002c0 2e e5 17 be b0 7b cf 3e 1a 77 39 be 94 5a d8 be
       -0.14833519 0.40524054 -0.1811184 -0.42256606
0002d0 d0 bb 78 3d 28 74 9c 3d 30 5b 2e be ba 37 90 be
       0.060725987 0.076393425 -0.17026973 -0.28167516
0002e0 74 4e 34 3e c6 6e aa 3e e0 51 f6 3d 88 78 91 be
       0.17608052 0.33287638 0.12027335 -0.2841227
0002f0 38 c3 9f be 5a d4 89 3e 85 5c cc be d6 e6 f8 bd
       -0.31203628 0.26919824 -0.39914337 -0.121534035
000300 b0 ba f5 3d 8b 9a 1e 3e b3 aa 73 3a 6a 93 2f 3e
       0.119984984 0.15488641 0.00092951505 0.17146078
000310 c7 8f f2 3e aa ee 94 be 39 a8 c1 3e 79 0f 22 bf
       0.47375318 -0.29088336 0.37823656 -0.6330486
000320 ee 31 9d be 18 41 2d bd c0 42 cb bb c6 39 84 be
       -0.30702156 -0.042298406 -0.0062030256 -0.25825328
000330 c0 92 85 3c 04 d7 bf 3e 00 28 6a 3c 20 63 ec bd
       0.016305327 0.3746873 0.014291763 -0.11542344
000340 db fb af be a1 03 b1 be 7b 16 3c 3e e4 17 92 be
       -0.34371838 -0.3457308 0.1836795 -0.28533852
000350 d4 20 bf 3e 24 14 94 3d 1c 35 51 3e 0d c7 9c be
       0.37329733 0.07230404 0.20430416 -0.30620614
000360 c0 b2 9f 3d dc e7 9b 3e d9 4f e0 be c8 37 1d 3d
       0.07797766 0.30450332 -0.4381092 0.038383275
000370 34 e2 00 3e 34 01 8b be 68 37 c9 3e d4 c4 08 be
       0.1258629 -0.27149355 0.39300084 -0.13356334
000380 40 56 47 3e e8 f8 ae 3e f7 23 23 3c ca a4 00 be
       0.19466496 0.34174275 0.009957305 -0.12562862
000390 8a 15 c6 3e ba 7e 70 be 50 c0 5f 3d 06 6a 3b be
       0.38688308 -0.23485842 0.054626763 -0.18302163
0003a0 08 c1 6f be 30 bf bb bd 48 43 a5 be 8c 00 3e be
       -0.2341348 -0.091673255 -0.32277894 -0.18554896
0003b0 5f 5f d3 be d8 dd 8c 3e 93 ce bd be fa 79 e1 be
       -0.412837 0.27513003 -0.37071666 -0.44038373
0003c0 8e 94 8f bd 78 ad 20 3d d5 bd bb 3e 0a 72 3a 3e
       -0.070107564 0.039227933 0.36668268 0.18207565
0003d0 e3 e5 c5 3d 34 a2 ac 3e 86 1c 98 be 4e 5f 2e 3e
       0.09662988 0.337175 -0.29709262 0.17028543
0003e0 43 08 35 3e 3a 54 c0 3e 42 52 bd be 20 2e 39 be
       0.17678933 0.3756426 -0.3697682 -0.18084002
0003f0 30 e1 3f be d4 2f b8 bd e0 92 7d bc 00 d0 58 ba
       -0.18738246 -0.089934975 -0.015476912 -0.00082707405

fc1.bias f4 [256]
000000 03 37 31 3e c0 e3 74 3d d0 17 65 3e 00 87 a1 3a
       0.17306142 0.05978751 0.22372365 0.0012323558
000010 20 26 d7 bc c1 11 51 3e 15 67 55 be 5a 41 95 be
       -0.026263297 0.20416929 -0.20840104 -0.29151422
000020 78 0e 48 be c0 06 dd 3d b8 75 c0 3e c4 0c b1 bd
       -0.1953677 0.10792303 0.37589812 -0.08645013
000030 a6 a8 ae 3e 8b cc c5 be 1f 4a 98 be b0 6a 37 3e
       0.34113044 -0.38632616 -0.2974405 0.17911792
000040 a0 85 37 bd 56 3c b5 3e 28 23 0f 3e 51 00 c7 3c
       -0.04480517 0.35397595 0.13978255 0.024292143
000050 7c 08 07 3e 1c 62 9d be a8 20 a5 be 37 13 d8 be
       0.1318683 -0.30738914 -0.32251477 -0.4220216
000060 77 7e 7a 3b 0b 4d b7 be 40 fe cc bd d4 63 82 3e
       0.0038222352 -0.35800967 -0.10009432 0.25466788
000070 03 4c d9 be 9c cc 9e 3e 65 51 94 3e 60 c7 87 3e
       -0.42440805 0.3101548 0.2896835 0.265193
000080 0c 7a d3 be a3 54 ae be e8 2b 83 be e0 f1 c4 bd
       -0.41304052 -0.34048948 -0.25619435 -0.096164465
000090 1c 64 4e 3e 04 e7 db bd c8 fd 73 be ce 0b 88 3d
       0.20155376 -0.10737422 -0.23827279 0.066428766
0000a0 3e 7a e3 3e 3e 38 d1 3e 11 8f dc 3e 44 6e 79 3e
       0.444292 0.40863222 0.430779 0.24358469
0000b0 d8 ed 06 3e 5c bf 8e bd da 49 0d be a2 01 98 be
       0.13176668 -0.06970093 -0.13797703 -0.29688746
0000c0 eb 3a c5 3e 05 40 b8 be f4 0d 97 be c4 b8 ec bd
       0.38521513 -0.35986343 -0.29502833 -0.11558679
0000d0 fe 5a 98 3e 28 15 95 3e fd 2e a2 be a0 51 03 3e
       0.29756922 0.29117703 -0.31676474 0.12824106
0000e0 5b 93 a1 3e 3c 79 97 3e 11 4c d0 be 7c d0 e1 be
       0.31557736 0.29584682 -0.40683034 -0.44104373
0000f0 8b 7e 39 be 35 71 d6 3d f0 23 e9 3d ec 98 19 be
       -0.18114679 0.10470811 0.11383808 -0.14999741
000100 0b b8 b4 be 14 d3 d0 bd 19 b9 85 bd e7 ae 98 3e
       -0.35296664 -0.1019651 -0.06529445 0.2982094
000110 15 35 c8 be a1 d4 b4 3e 20 b8 c8 3e 24 10 d9 3e
       -0.39102998 0.35318473 0.39202976 0.42395127
000120 d3 8f c8 be 0c 17 10 be 17 0e 22 3e 0d 9c a3 3e
       -0.3917223 -0.14071292 0.15825687 0.31954995
000130 ee 60 09 be 10 3a 73 3e d6 c9 8e be 41 0e fb 3d
       -0.13415882 0.23752618 -0.27888364 0.12258578
000140 59 b6 bf be 82 fc d4 3e 64 77 55 3e dd dc 01 3e
       -0.37443808 0.41598898 0.20846325 0.12681909
000150 b9 e4 bc be ba 18 84 3e dc 59 c4 bd 58 1b 65 3e
       -0.36893252 0.25800115 -0.09587452 0.22373712
000160 28 d8 94 be d8 c6 51 be 0e 34 88 3d 70 a1 c4 bc
       -0.29071164 -0.20486009 0.06650554 -0.02400276
000170 88 55 d3 3d 22 b6 89 be c6 ca 8e be e0 96 59 3e
       0.10319048 -0.2689677 -0.2788908 0.2124896
000180 d0 23 b3 3d 28 ec d6 be e7 a1 6f 3e 4c 1f 27 3e
       0.08747065 -0.41977048 0.23401605 0.16320533
000190 56 b2 18 be e0 96 b6 bc 32 09 17 3e b0 00 96 bd
       -0.1491178 -0.02228874 0.14749601 -0.0732435
0001a0 c9 fb ff 3c bc 0d 48 3e f4 67 96 3e 44 65 1e 3e
       0.03124799 0.19536489 0.29376185 0.15468317
0001b0 82 dc 3a 3e 5f fd 01 3e 7a 4b 17 be 0c f6 e5 bd
       0.1824818 0.1269431 -0.14774886 -0.1122857
0001c0 2d df 8f 39 a0 eb c7 3e cc ee 1c 3e 67 4c 30 3e
       0.00027441364 0.39046955 0.15325469 0.17216645
0001d0 43 85 cf 3d bc 72 d5 bd fe c3 83 be 8d 10 94 3e
       0.101328395 -0.104222745 -0.25735468 0.28918877
0001e0 e6 46 be 3e 6f c6 6f 3d 40 e8 84 3d b8 5e fa 3d
       0.37163466 0.05853885 0.06489611 0.122250974
0001f0 12 ae c8 be b8 bd d6 3d 21 a6 c6 3e c0 8a 2f bc
       -0.39195305 0.10485405 0.3879862 -0.010714233
000200 7d 1c 49 bc 96 07 72 be 70 c5 a7 bd 10 67 80 3e
       -0.012274859 -0.23635706 -0.08191955 0.2507863
000210 6e 2f c7 3e 1c 00 82 3e 48 ff 70 be 53 3a ad be
       0.38903373 0.25390708 -0.23534882 -0.3383356
000220 30 a3 7c 3e 8d 54 92 bd e2 fd c6 3e 56 57 c9 3e
       0.24671626 -0.07145033 0.38865572 0.39324445
000230 62 a8 c6 be 27 44 56 be 3d 88 14 3e c7 a8 58 3e
       -0.3880034 -0.20924436 0.14505096 0.21158133
000240 84 97 32 3e cc 64 9c bd cc 9e cd be b2 fc b7 be
       0.17440611 -0.07636413 -0.40160215 -0.3593498
000250 a8 0b 9c bd a2 78 a9 3d e8 12 4a 3e a8 0b 28 bd
       -0.07619411 0.08274962 0.19733775 -0.04102674
000260 2c 4b 5c 3e e0 b1 0a 3c f3 de 36 3e e7 12 cf be
       0.21513051 0.00846526 0.17858486 -0.4044411
000270 04 53 aa 3e fd bc e5 3b a4 d2 b0 3e 38 aa 52 3d
       0.3326646 0.0070110545 0.34535706 0.051431865
000280 a1 14 aa 3e ac fc b5 bc f8 ec 36 3e 22 37 19 be
       0.33218864 -0.02221521 0.17863834 -0.14962438
000290 b8 e7 94 be 1a 62 b1 be df a2 a9 be a0 ed 1e 3e
       -0.29083037 -0.34645158 -0.33132073 0.15520334
0002a0 b0 68 81 bc b6 62 61 be 15 30 90 3e 72 f0 aa be
       -0.01579699 -0.22010311 0.28161684 -0.3338657
0002b0 43 3e 01 3e 5b 72 59 be 48 5c a8 3e a7 a3 50 bd
       0.12621407 -0.2123503 0.32882905 -0.05093732
0002c0 b3 f9 0b 3e ec fa a0 3e fb 5d a9 be c9 20 ae be
       0.13669471 0.31441438 -0.33079514 -0.34009388
0002d0 a2 60 c3 be a8 b9 cd 3d c5 5d 8e be 96 7d a9 3e
       -0.38159662 0.10045177 -0.27805915 0.33103627
0002e0 ac 4c 54 3e c0 8c dd 3c c0 99 af 3e 85 ac 75 be
       0.20732373 0.027044654 0.3429699 -0.23991592
0002f0 18 4e 5f 3e 48 63 8a 3d b6 6d f0 3d b8 75 de 3d
       0.21807134 0.06757218 0.11739676 0.10862297
000300 f0 1c 86 3c f8 a7 c2 3d 83 fb 65 3e 88 af 09 3e
       0.01637122 0.09504694 0.22459225 0.13445866
000310 70 64 31 3e 32 2b 07 3e 18 ae c6 be 98 dd b5 bd
       0.1732347 0.13200071 -0.38804698 -0.08880156
000320 2f c4 a7 be 67 a3 5f be e6 92 69 3e 62 3d c1 3e
       -0.32766864 -0.21839677 0.22809944 0.37742144
000330 20 b2 c3 bc 97 ec 75 be 84 65 0e 3e 28 39 90 3d
       -0.023888648 -0.24016033 0.13905913 0.07042152
000340 0a 03 1d 3e ef ca c7 3d 7a bd 02 3e 9f e9 30 3e
       0.1533319 0.097555034 0.12767592 0.1727662
000350 50 bc 5c 3d c8 6a 8b 3e 48 9e a0 be 25 1d cb 3e
       0.053890526 0.27229905 -0.3137076 0.39670673
000360 6a b6 a1 3e 96 fe 3d be 20 59 d9 3e 88 29 68 3e
       0.31584483 -0.18554148 0.4245081 0.22672093
000370 68 29 9e 3e 40 a9 69 3d 68 c3 88 bd 00 f6 42 be
       0.30890965 0.057046175 -0.06677896 -0.19039154
000380 db 0b c6 be 18 30 95 be 04 f7 ee bd d0 2b c2 be
       -0.3868092 -0.29138255 -0.11668208 -0.3792405
000390 ba e6 4d 3e 70 5b cb 3c 7e 78 ad be 90 c2 a9 bc
       0.20107546 0.024823874 -0.3388099 -0.020722657
0003a0 e8 5c 04 3e 7c ce af 3e 40 e3 85 bc 26 ca d5 3e
       0.12926066 0.34337223 -0.016343713 0.4175579
0003b0 bf e8 27 be 94 42 de 3e 53 68 7a be 20 32 27 3e
       -0.1639738 0.4341017 -0.24453859 0.16327715
0003c0 72 64 13 be 08 2f d9 be d0 6d 6d be 06 d3 a9 3e
       -0.14393786 -0.42418694 -0.23186421 0.3316881
0003d0 62 3d 49 be 84 58 ab 3e 29 3c 79 be a8 2f e3 bd
       -0.19652322 0.3346597 -0.24339356 -0.11093074
0003e0 7e 1b 02 be 2b af c3 3e 7b 33 7d 3e 40 dc d8 bb
       -0.127058 0.3821958 0.2472667 -0.0066180527
0003f0 64 78 a0 bd 1f d8 15 3e 7c 45 c9 be 28 0d 83 3d
       -0.07835463 0.14633225 -0.39310825 0.06398994

fc2.weight f4 [256, 256]
000000 91 39 e7 b9 48 88 7d 3d 78 65 3e bd f0 0c 2e bd
       -0.00044102644 0.061897546 -0.046483487 -0.042492807
000010 50 05 ea 3b 29 4f 78 bd 04 83 e8 bc 57 8a 93 3c
       0.0071417466 -0.060622368 -0.028382786 0.018010302
000020 3a 3c 18 bd 72 80 45 bd c0 32 3c 3b 16 e3 4f bd
       -0.03716681 -0.048218198 0.0028716773 -0.050753675
000030 26 61 53 3d 88 65 52 bd 79 2c d9 3c 4f 9b 1d 3c
       0.05160632 -0.05136636 0.026510464 0.009619548
000040 a0 ee ee bb 0b f5 0d bd 41 71 ce 3c 1b 6c 83 bd
       -0.00729163 -0.03465752 0.025200488 -0.06417104
000050 60 2e 53 bb e2 f8 2f 3d a8 06 c8 bc fc d6 b6 bc
       -0.0032223687 0.042961963 -0.024417236 -0.02231931
000060 eb c9 8b bb a7 4d 81 bd 02 4d 68 bd f0 47 ec bb
       -0.004266014 -0.06313639 -0.056714065 -0.007210724
000070 50 09 83 bb 08 eb 9d bc a1 12 c3 bc e0 28 6a 3d
       -0.003998913 -0.01927711 -0.023812594 0.057167888
000080 e0 15 18 bd aa a2 10 bc 20 87 d2 bc 12 78 57 3d
       -0.037130237 -0.008827845 -0.025699198 0.052604742
000090 0c 44 6d 3d d8 21 88 bc bb 46 8f 3c c0 3f a3 bc
       0.057926223 -0.0166177 0.017489782 -0.01992786
0000a0 ea cf 58 3d 78 48 1d bc 8d 80 23 3d f8 77 bc bc
       0.052932657 -0.009599797 0.039917517 -0.023006424
0000b0 08 9e 94 bc 0a 9b 27 3b a4 de 51 3d 2a aa 5f bd
       -0.018141761 0.0025574588 0.051237717 -0.05460564
0000c0 1d 2f b6 bc cd 50 49 3d 48 0e 61 bd 60 04 5c 3b
       -0.022239262 0.049149323 -0.05494526 0.0033571944
0000d0 bc fa 78 3d c0 a4 14 3c 8f f4 32 3d 8c 43 06 bd
       0.060785994 0.009072483 0.04369026 -0.03277926
0000e0 2d 81 d4 3c dc ac a9 bc 5d 33 11 3d be fe 0a bd
       0.025940502 -0.020712309 0.035449374 -0.033934347
0000f0 07 16 43 3d 60 97 17 3c 0a 1a 03 bd e0 1a e8 3b
       0.04762843 0.009252399 -0.032007255 0.007083282
000100 e2 34 50 bd 74 7e 6d bd d9 bc 58 b7 e4 47 83 bc
       -0.050831683 -0.057981923 -1.2918573e-05 -0.016025491
000110 f1 c5 36 bc bb 58 98 bc a4 d7 b0 3c 7e 13 53 3d
       -0.011155591 -0.018596997 0.0215872 0.05153226
000120 00 e3 90 3b d0 18 8a 3c 95 f1 34 3d c0 68 ec bc
       0.0044215918 0.016857535 0.044175703 -0.028858542
000130 8a 43 84 bd 93 dd 19 bd c0 b7 bd 3c 2e 0d 7f bd
       -0.064581946 -0.037564825 0.023158908 -0.06226843
000140 2f 40 22 3d b0 0c 0c bc 1b f0 42 3d 47 c8 ee bc
       0.03961199 -0.008547947 0.047592264 -0.029148234
000150 84 15 65 bd f8 ee 84 3c 6b fc 26 bd a0 ea e7 3b
       -0.055928722 0.01622723 -0.04076807 0.00707753
000160 c1 ce a2 3c a8 2e a9 3b 15 91 8f bd 58 8d 0d 3c
       0.019873979 0.0051630326 -0.07010094 0.008639656
000170 a0 3e 47 bc 9c ec d7 bc 5c f3 35 3d ac e4 ad 3c
       -0.012160927 -0.026357941 0.04442154 0.021227203
000180 40 1e e6 ba 6c 8b 0f 3d 64 68 c7 3c f4 2f 78 bd
       -0.0017556623 0.035045072 0.02434177 -0.060592607
000190 f8 98 1d bc 50 37 63 bd a3 91 c4 ba 68 ef 56 3d
       -0.00961899 -0.055472672 -0.0014997016 0.05247441
0001a0 63 e3 81 bc 20 f1 df 3c 27 ce 0c 3c 68 3a 19 3d
       -0.015855497 0.027336657 0.008594072 0.037409216
0001b0 d6 d4 84 bd ca c1 d4 3c 66 6d 2c bd 2a 79 25 bd
       -0.06485908 0.025971312 -0.042096518 -0.040398754
0001c0 b3 c8 f8 3c 10 72 65 bc 30 75 a5 bc 19 2e 1e 3d
       0.030369138 -0.014004245 -0.02019748 0.03861818
0001d0 d4 ec 11 3c 32 6e 79 bd 26 da 23 3d 91 f2 08 bc
       0.008906562 -0.060896106 0.040002964 -0.008358614
0001e0 c0 aa c5 3b 49 c9 16 bd a4 35 c5 3c 54 c1 44 3d
       0.006032318 -0.036813054 0.02407343 0.048035935
0001f0 95 cb 14 3d 50 79 d7 3b 60 51 4e 3c 3c 0f 8f bc
       0.036326963 0.006575741 0.0125926435 -0.017463319
000200 0a 3e 76 bd 34 03 f9 bc 02 3d 55 bd 42 48 62 bd
       -0.06011776 -0.030397035 -0.052060135 -0.05524469
000210 40 54 bf 3c 0c f9 d4 3c a8 b2 0d bd 6d ed 12 3d
       0.023355603 0.025997661 -0.034594208 0.035870958
000220 0e 10 13 3d c2 7b 62 bd c6 da 10 3d 51 a0 03 3c
       0.035903983 -0.055293806 0.03536489 0.008033828
000230 5e 14 41 3d c9 b6 47 3c 14 99 48 bc 38 79 20 bd
       0.047138564 0.0121895755 -0.012243528 -0.039178103
000240 68 44 c9 bc 6a ad 38 3d 29 64 22 3d 7c 82 15 bd
       -0.024568751 0.045087256 0.0396463 -0.036501393
000250 dc a2 a3 bc e1 c8 1f 3c ba b2 30 3d d2 c5 0e bd
       -0.019975118 0.009752483 0.043139197 -0.034856625
000260 20 dd 91 3b c8 a0 57 3d 61 81 28 bd e4 0f ca 3c
       0.004451409 0.052643567 -0.04113901 0.02466578
000270 30 e1 6a bb ec ff c0 bc e0 89 1c bb 40 5b 59 bb
       -0.0035839789 -0.023559533 -0.002388589 -0.0033165962
000280 73 79 9e 3c 29 24 58 bd 64 7f 7c 3d e2 fc e0 bc
       0.01934502 -0.05276886 0.061644927 -0.027464334
000290 61 d4 f9 bc e2 42 54 bd d0 73 c6 3c e8 a6 2c bc
       -0.030496778 -0.051821597 0.024225146 -0.01053784
0002a0 58 48 04 bc 04 e8 ea bc 50 b7 8f bc f8 83 17 bc
       -0.008073889 -0.028675087 -0.017543465 -0.009247772
0002b0 15 dd 4d 3c 1d 4c f5 bc 2e 7d f3 bc 3b ca 2e 3d
       0.012564917 -0.02994352 -0.029722776 0.04267333
0002c0 9d 99 ee 3c 30 22 5f 3c 63 92 97 bb 06 a1 1b bd
       0.029125983 0.013618991 -0.004625605 -0.03799536
0002d0 47 6f 4a 3d a0 df e4 3c ec 77 13 3d 90 0a 36 3d
       0.04942253 0.027938664 0.03600304 0.044443667
0002e0 3a 99 01 bd 44 9b 61 3d e8 39 1a 3c c1 26 15 3d
       -0.03164027 0.055079713 0.00941322 0.03641391
0002f0 da 09 0d 3d d8 73 7b 3c 06 7a e6 3c 80 5d 44 3a
       0.034433223 0.0153474435 0.028134357 0.0007490739
000300 3c f8 97 3c c4 6d 8c 3c b7 63 f9 bc ae d7 4d bd
       0.018550985 0.017142184 -0.030443056 -0.050254516
000310 d8 c5 97 bc 97 d5 10 3c d5 05 41 bd 68 32 d8 3c
       -0.018526956 0.008839986 -0.047124702 0.026391223
000320 c4 a7 1f bd b4 40 6c 3c e1 07 86 3c 42 09 0b 3d
       -0.038978353 0.014419723 0.016361179 0.033944376
000330 4c 58 e1 bc ab 01 c2 bc d0 c1 a5 bc 44 7f 2d 3d
       -0.027507924 -0.023682436 -0.020234019 0.042357698
000340 9d c1 8b bd 6a fc 33 3d 63 a5 24 3c d6 b4 b2 3c
       -0.06824038 0.043941893 0.010049197 0.021814745
000350 be 53 4f bd 84 06 a6 3c 61 8b f3 3c f5 07 10 3d
       -0.050616972 0.020266779 0.029729547 0.03516384
000360 af 1c 04 3d 12 dc 40 3d 1c 66 ad 3c 7c a0 c8 bc
       0.032253917 0.047084875 0.021166854 -0.024490587
000370 b0 8e 29 3d ec 44 60 bd fd bb 1d 3b 31 c2 32 bd
       0.041395843 -0.05475323 0.0024068349 -0.043642227
000380 f0 60 4a bd b1 7e 73 3c 98 7d 3b 3d 48 c2 02 3d
       -0.049408853 0.014861749 0.045774072 0.031923562
000390 d2 16 24 bd 40 bf 01 3b cf 56 39 3d 90 eb ba bb
       -0.040060826 0.0019797832 0.045248803 -0.005704351
0003a0 70 a1 94 bb dc 82 aa bc 5e 06 17 bd 98 1d 2e bd
       -0.0045358464 -0.020814352 -0.036871307 -0.04250869
0003b0 79 e0 42 3d c6 6e 03 3d 20 0b b4 3c fa 57 28 bd
       0.047577355 0.032088064 0.021977961 -0.041099526
0003c0 14 3c 44 3d 4a ce 8a bd 77 5b 0d 3c 8e 2a 0f bd
       0.047908857 -0.06777628 0.008627764 -0.034952693
0003d0 2b 5f 73 bc 60 3d 1d bc aa 1f 08 bd 70 34 cb bc
       -0.014854233 -0.0095971525 -0.033233322 -0.024805278
0003e0 5c a3 4c 3d d9 f4 4a bd be 25 83 bd f0 c5 77 3c
       0.04996048 -0.04954991 -0.06403683 0.015122876
0003f0 9a b2 37 bd 00 b7 08 bd 45 4f fa 3c 74 2e 22 bd
       -0.044848062 -0.033377647 0.030555377 -0.039595082

fc2.bias f4 [256]
000000 22 c0 43 bd d1 c1 4a 3d e9 35 4c bd 0c fa 8c bc
       -0.047790654 0.049501244 -0.0498561 -0.017209075
000010 80 17 68 3b 36 e4 4d bd d0 3e 36 3c a7 b5 79 bc
       0.0035414398 -0.050266467 0.011123374 -0.015241063
000020 30 fd 13 bd e5 32 27 bd 5c ca c6 3c 38 45 90 bb
       -0.03613013 -0.04082002 0.024266414 -0.004402783
000030 ea 91 64 bd 94 7c f9 3c 8e 4d 7f bd b3 ca e7 bc
       -0.055803217 0.030454911 -0.06232982 -0.028294897
000040 76 cd 6e 3d 60 17 60 bc 50 49 57 bc cc 85 52 bd
       0.05830141 -0.013677448 -0.013140038 -0.05139713
000050 91 d3 58 bc 04 98 19 bd 36 fb 92 bd 20 01 5c 3d
       -0.013234035 -0.03749849 -0.07176821 0.05371201
000060 80 bf 30 3c d6 10 1e 3d 10 e7 72 bc 03 42 68 3c
       0.010787845 0.038590275 -0.014825597 0.014175895
000070 70 0b fc bc 6d 0f 28 3d e6 5e 57 bd e0 2f 41 bc
       -0.030767173 0.041030336 -0.052580737 -0.011791199
000080 60 df 8b bd 44 b8 ba bc 75 fc 25 3d f0 0e 76 bc
       -0.06829715 -0.022792943 0.040523965 -0.01501821
000090 84 2e 66 bd 62 24 25 3d 24 dc 7b bd 15 ee 29 bd
       -0.056196705 0.0403179 -0.06148924 -0.04148682
0000a0 db 57 65 bd cb 25 70 bb fa 8a 5f bd 8d 27 72 3d
       -0.05599199 -0.003664362 -0.054575898 0.05911975
0000b0 cc d9 44 bd 15 e2 67 3d 20 5d 4b 3c a4 5b 17 3d
       -0.04805927 0.056612093 0.012412339 0.03695263
0000c0 f0 5f e1 bb c4 19 d9 bc 02 32 b1 3c e5 42 19 bd
       -0.0068778917 -0.026501544 0.02163029 -0.03741731
0000d0 62 25 52 bd 2c f6 b1 3c f0 47 79 bc c0 d6 b0 3b
       -0.051305182 0.02172383 -0.015214905 0.005396694
0000e0 d6 86 7b bd 4d d4 eb bb 7c cc 60 3d 00 12 b9 3c
       -0.061407886 -0.007196939 0.05488251 0.02259159
0000f0 58 66 28 bd a6 9e 23 bd 34 36 64 3d 78 1a 60 bc
       -0.041113228 -0.03994622 0.055715755 -0.013678186
000100 4c c0 3c 3d 02 cd 5d 3d 51 a8 2a bd fc cf 1a 3d
       0.046081826 0.05415059 -0.041664425 0.037796006
000110 c0 7f 26 bb 3a 39 2f 3d f1 2b 2e 3d f6 c1 4a 3d
       -0.0025405735 0.042779185 0.042522375 0.04950138
000120 64 ee 3b 3d 2c f2 fc 3c 50 11 ba bc 5e d9 4f bd
       0.045881644 0.030877195 -0.022713333 -0.050744407
000130 86 dc 7d bd a4 35 2a 3d f2 fe 14 3d 84 02 ea 3c
       -0.061977886 0.041555062 0.036375947 0.028565653
000140 2c 75 c1 bc 92 b3 61 bd 94 9c 9d 3c c6 d7 45 3d
       -0.023615442 -0.055102892 0.019239701 0.04830148
000150 f8 a9 79 3d 5d a0 df bc 98 3c 6d bc 52 68 5c 3d
       0.06095311 -0.027298147 -0.014479779 0.053810425
000160 27 df ed 3c c8 67 10 3d 8e 1f 63 3d 5d 01 41 3d
       0.029037071 0.035255224 0.055450015 0.04712044
000170 44 2f f7 3c 15 a8 a2 3c 15 a9 5f bd 84 40 a2 bc
       0.030173905 0.019855538 -0.05460461 -0.019806154
000180 45 3c ef 3c 00 18 a1 b9 42 df 3c 3b da a2 30 bd
       0.029203543 -0.00030726194 0.0028819595 -0.043124057
000190 88 4c 83 3c 74 e9 6d bd f0 3e ec bc 88 fc 34 3c
       0.016027704 -0.058083966 -0.028838605 0.011046536
0001a0 5c fa 06 bb 40 1c 26 3d c1 ca 4b bc 91 65 2b bc
       -0.0020596003 0.040554285 -0.012438477 -0.010461227
0001b0 17 72 50 3d b0 f5 5e 3d 04 fd 3b bd 50 c2 5b 3d
       0.050890055 0.054433525 -0.04589559 0.053652108
0001c0 f2 a5 6c bd 95 66 38 3d 20 3c d3 bb c8 30 3b bc
       -0.057775445 0.045019705 -0.0064463764 -0.011425205
0001d0 78 51 c9 3c 04 c5 64 3d c5 c7 ed bc 8d 3e 15 3d
       0.02457498 0.05585195 -0.029025922 0.036436606
0001e0 98 8c b0 bc 12 81 5c bd f0 50 6e bc 73 80 db 3c
       -0.021551415 -0.05383403 -0.014545664 0.026794648
0001f0 7f 25 43 bd 62 8a 7c 3d 98 f4 88 bc 92 ad 67 bd
       -0.04764318 0.06165541 -0.016718194 -0.056562014
000200 16 5a 1e 3d e8 34 84 bd c8 73 2a 3d e8 79 15 3c
       0.03866013 -0.064554036 0.041614324 0.009123303
000210 9a a7 3d bd 47 fb d4 bc d9 11 7e bd 58 ab 92 3c
       -0.046302415 -0.025998725 -0.06202874 0.017903969
000220 48 cb 3b bd dc 8e ca 3c a8 cf 4d bd 50 bb 34 bd
       -0.04584816 0.024726324 -0.050246865 -0.044123948
000230 3c 78 3f bd c8 35 5d bc 5b 82 11 bd b8 49 5a bd
       -0.046745524 -0.013501592 -0.035524707 -0.05329296
000240 56 78 15 3d 33 05 44 3d 9c 62 94 bc fc a2 02 bd
       0.036491714 0.04785652 -0.018113427 -0.031893715
000250 c0 bb 27 bb 71 a9 28 3d af d6 35 bd 58 df 44 3d
       -0.0025594085 0.041177217 -0.04439419 0.04806456
000260 6c 4d de 3c cc 64 43 bd 00 e2 87 bb 88 ee c4 bc
       0.027136527 -0.04770355 -0.0041468143 -0.024039522
000270 1f 88 3e 3d 33 22 b0 bc de 27 61 3d 06 93 44 bd
       0.046516534 -0.021500682 0.05496966 -0.047991775
000280 14 8d 3a bd 40 59 f2 ba da 90 5b bd 7e 80 00 3d
       -0.0455447 -0.0018489733 -0.053604938 0.03137254
000290 f6 14 19 3d 1e 5a 6a 3d 20 c5 f7 3c cc 92 23 bd
       0.037373506 0.05721485 0.030245364 -0.03993492
0002a0 24 68 58 bd bc c2 7d 3c 6e 6e 5b 3d 27 8d 0d bc
       -0.05283369 0.015488323 0.05357211 -0.00863961
0002b0 90 4c 35 bd 30 b5 b9 bb 54 40 f3 bc c0 63 ab 3b
       -0.04426247 -0.005667351 -0.02969376 0.005230397
0002c0 aa 08 06 3d d0 8c 70 3c 3e 83 65 bd aa 01 a2 3c
       0.032723106 0.01468201 -0.056033365 0.019776184
0002d0 0c c9 26 bd 73 68 32 bc f2 a0 26 3d f4 5a 03 3d
       -0.040719077 -0.01088916 0.040680833 0.03206916
0002e0 44 e9 01 bd 06 f6 03 3d dc 19 44 bc 7e 45 95 3c
       -0.0317166 0.032217048 -0.011969056 0.018221613
0002f0 9d 68 7c bd 4a 17 56 bd 6c 3a 7a 3d 5f a0 6f bd
       -0.061623204 -0.052268304 0.06109087 -0.05850255
000300 ca cd 34 bd b6 1b 47 bd 92 3c 49 3d 3a 4b 15 bd
       -0.04414157 -0.04861041 0.04913003 -0.036448695
000310 4b fa 41 3d ab 1c c1 3c 9c 89 5b 3d b4 75 52 3d
       0.04735784 0.02357324 0.05359803 0.05138178
000320 e6 7e ab 3c fc 84 d9 3c a9 5d 1f bd 38 63 ac 3c
       0.020934533 0.02655267 -0.03890768 0.021043405
000330 fa b8 0c bd 2a b0 01 bd eb bc 05 bd 2e 89 5c bd
       -0.034356095 -0.031662144 -0.03265087 -0.053841762
000340 a9 bd c2 bc fe 51 73 bd 08 17 6d bd 28 cd 1d 3d
       -0.023772078 -0.059404366 -0.057883292 0.03852573
000350 80 9d ce ba ba ed 3e 3d 79 a3 11 bc ae 65 62 bd
       -0.0015763491 0.046613432 -0.008889073 -0.05527275
000360 b0 62 73 3d a8 73 3c bd 9b 89 1f bb f8 4a 62 3c
       0.059420288 -0.046008736 -0.0024343494 0.013811819
000370 60 6a 5d bc 38 bb 4f bd fd 6e 0c bd 78 f3 31 bc
       -0.013514131 -0.050715655 -0.034285534 -0.01086127
000380 30 9e 99 bb 56 94 b7 3b be f8 c5 3c 80 0d ee 3c
       -0.004688047 0.0056024 0.024166461 0.029059172
000390 1b 25 6c 3c a0 ca 25 3b 16 61 67 3d a0 07 fa 3c
       0.0144131435 0.0025297776 0.056489073 0.030521214
0003a0 94 43 a2 3c 37 b1 69 3b 5a 82 78 bd e0 c6 35 bb
       0.019807614 0.0035658607 -0.060671188 -0.0027736947
0003b0 a0 8e 67 3d 80 bb 2f 3b ac 63 d2 3c bc ac 7c 3d
       0.056532502 0.002681464 0.025682293 0.06168817
0003c0 28 fd 86 3a bb 79 aa bc 48 2a 45 3c 52 2b e8 3c
       0.0010298835 -0.020809999 0.012034006 0.02834097
0003d0 80 10 a9 3c 00 a2 40 3c 49 f5 ab bb d6 86 18 3d
       0.02063775 0.011757374 -0.005247746 0.037237965
0003e0 19 6e 4f 3d e4 53 34 bd 94 72 06 bd aa 44 2d 3d
       0.050642107 -0.044025317 -0.032824114 0.04230181
0003f0 d9 b5 03 bb 8e 37 3d bd d7 c6 0c 3d 57 dd f5 bc
       -0.0020097403 -0.04619556 0.034369316 -0.03001277

V.weight f4 [1, 256]
000000 0d d8 c2 bc b2 d1 d3 bc f2 ee 03 bd bc fb af bc
       -0.023784662 -0.025856826 -0.032210298 -0.021482341
000010 58 f0 03 bd 66 7e 20 3c 28 9a 63 bd a3 5e 4c bd
       -0.03221163 0.009795761 -0.055566937 -0.04989494
000020 d2 e2 56 bd 09 85 80 ba 20 9b 7e bb 0b ed fb 3b
       -0.052462406 -0.0009805273 -0.0038849786 0.00768817
000030 2e d6 3c 3d 5c 9e 96 3c 40 50 b5 3a bb 11 18 bd
       0.046102695 0.018386059 0.001383312 -0.037126284
000040 18 4d c0 bc 6c e0 2c 3d f4 6d 87 3c a4 24 b9 3c
       -0.023474261 0.042206213 0.016531922 0.02260048
000050 5f cc 88 bb 5e ab 53 3d 7a 2c f4 bb 84 6f 22 3d
       -0.0041747536 0.0516771 -0.007451591 0.03965713
000060 58 f3 23 3d ee 00 33 3d e4 a8 49 bd 6f 43 8c bc
       0.040026993 0.04370206 -0.049233332 -0.017121999
000070 92 05 0e 3d 60 46 88 3c d0 d0 85 bb 94 58 31 3d
       0.03467328 0.01663512 -0.0040837303 0.043297365
000080 c2 df 50 3d c0 e6 3d 3b d8 16 c5 3c f2 f5 78 3d
       0.050994642 0.002897665 0.024058744 0.060781427
000090 40 e4 57 bd 28 d3 6c 3c f6 0e ed 3c d1 82 48 3d
       -0.05270791 0.01445464 0.028937798 0.04895288
0000a0 2f 3b 64 3c 79 b2 97 bc 88 5e bc 3c aa fd c8 bc
       0.013930126 -0.01851772 0.022994295 -0.024535019
0000b0 a0 61 65 3c 17 58 ec bc 84 23 64 3d 88 74 93 3c
       0.014000326 -0.028850598 0.055697933 0.017999902
0000c0 aa d0 7f 3d 08 0b 47 bd e3 c0 23 3c 9c 45 0d 3d
       0.062454857 -0.048594505 0.009994718 0.034490213
0000d0 07 9d c8 bc d9 26 ae 3c 42 ec 5e bd 40 5c 5c 3c
       -0.024488939 0.021258758 -0.05442453 0.0134497285
0000e0 2c 0c 58 bd 1c eb 2e bc c0 90 8e ba 80 d7 be 3b
       -0.052745983 -0.010676172 -0.0010876879 0.0058240294
0000f0 fb c5 8a bc 38 7d e9 3c 34 41 c7 bc 10 49 96 3b
       -0.016940108 0.028502092 -0.024323083 0.0045863464
000100 00 a4 ee 3b 90 7d d2 3c ce eb 2d 3c 2c 2a cc 3c
       0.007282734 0.025694638 0.010615302 0.024922453
000110 70 c1 15 3d 56 04 4b 3c f8 3e 82 3b f4 40 a2 bc
       0.03656143 0.0123911705 0.0039747916 -0.019806363
000120 56 31 c7 3c b0 0e 64 3d c8 5a 3c bd 78 dc 5b bb
       0.024315517 0.05567807 -0.045985013 -0.0033548158
000130 e6 3d 5a bd 49 b8 e0 3c db a5 c1 bc 60 1d 9b bb
       -0.053281687 0.027431624 -0.023638656 -0.0047337264
000140 54 ed cf bc 9b 6f be bc cd 1d a4 ba 26 5e 47 3d
       -0.025381722 -0.023246577 -0.0012521088 0.04867377
000150 48 c3 32 bd 7d e8 63 3b 44 c9 39 3d c4 69 40 3d
       -0.043643266 0.0034776025 0.045357957 0.046975866
000160 01 e7 e2 bc 85 44 39 3d 30 7f 18 bd cf f2 aa bb
       -0.027698042 0.04523136 -0.03723067 -0.0052169333
000170 8c 05 95 bc d6 35 1e bd ea 81 41 bb a2 1a 61 bd
       -0.018191122 -0.03862556 -0.0029526898 -0.05495704
000180 17 ed bb bc e0 6d 72 3b 6e 94 9c 3c 50 9a 6b 3d
       -0.022940202 0.003699176 0.019113746 0.05752021
000190 b0 82 6b bc 9c 0c eb 3c 08 a5 5b 3d b0 89 aa bb
       -0.01437442 0.028692536 0.053624183 -0.005204402
0001a0 6b bb 4f bc 63 f1 85 bb 05 9b c4 bb 6a 28 ed 3c
       -0.012678961 -0.0040876134 -0.005999925 0.028949935
0001b0 56 d3 a8 bc d8 74 ff bc 70 e6 ee bc 81 fe 24 3d
       -0.020608585 -0.031183645 -0.029162616 0.040281776
0001c0 00 f6 20 3d a7 9e bb bc 80 b5 0a 3a b8 4c 09 bc
       0.039297104 -0.0229028 0.0005291328 -0.008380108
0001d0 44 ee b9 bc fc 64 a6 bc dc 38 84 bc ab 73 07 3d
       -0.022696622 -0.020311825 -0.016140394 0.033069294
0001e0 9c cd bd bc 98 d7 b1 bc 78 53 16 3c 36 23 e4 bb
       -0.023169331 -0.021709248 0.009175174 -0.0069622053
0001f0 cb e2 d5 3c e4 21 26 3d 73 9f 41 3c 11 99 be 3c
       0.02610912 0.040559664 0.011817801 0.023266347
000200 00 14 9f 38 e2 ed 53 3c 40 6b c6 ba 70 c6 57 3d
       7.585436e-05 0.012935134 -0.0015138164 0.05267948
000210 2a 3d 0e 3d a5 02 9c bc a7 45 ce bb 40 cf 11 3d
       0.0347263 -0.01904423 -0.0062949243 0.03559804
000220 b4 aa 5f 3d da 71 43 3d 2a 9d 1e 3d 2b 6a 22 3d
       0.054606155 0.047716 0.038724102 0.03965203
000230 68 2a 54 3c 50 53 d9 bc c8 d4 e7 3b a0 05 0d bc
       0.012949564 -0.026528984 0.007074926 -0.008607298
000240 7d 7d ce bc b4 e4 9c bc f4 0c bf bc 33 7a 9f 3b
       -0.025206322 -0.019152023 -0.023321606 0.004866862
000250 40 7f a5 3b d3 00 b8 3b fb 57 02 ba e4 4c 65 bd
       0.00505057 0.0056153326 -0.00049722166 -0.05598153
000260 20 d4 3f bc f0 94 fa 3b 58 db ba bc c0 3d f0 bc
       -0.011708289 0.0076471493 -0.02280967 -0.02932632
000270 68 96 e2 3b 40 ea 65 bc 0c cf 2f 3d 22 0b 5d 3d
       0.0069149025 -0.0140329 0.042922065 0.053965695
000280 16 3f 3b 3d 36 3a 4a bd 13 2c 22 3c b4 49 17 bd
       0.04571446 -0.04937192 0.009898203 -0.036935523
000290 18 44 48 3d ec 2c f1 3c fa 8b 5a 3d 18 90 6c bc
       0.048893064 0.029440366 0.05335615 -0.0144386515
0002a0 ef 57 18 bc e5 bb 3d bc 76 5a 7a 3d 97 62 03 3c
       -0.009298309 -0.011580442 0.061121427 0.008019111
0002b0 a0 7d c0 bc 18 6d 52 bc 64 ac b9 bc 82 29 39 3d
       -0.023497403 -0.012843393 -0.02266521 0.0452056
0002c0 6b de 31 3a dc 9e 38 bd 48 7e c3 3c 25 29 c0 3c
       0.0006785157 -0.045073375 0.023863927 0.02345712
0002d0 b6 1c 00 3c 24 37 fe bb 1d 38 22 3c 9c 51 76 bc
       0.007819345 -0.007758038 0.009901074 -0.015034106
0002e0 7a bd 76 3d d4 7d 12 3c 3d 4c 19 3d c8 67 ab 3c
       0.060239293 0.008941133 0.037426222 0.02092351
0002f0 3a 67 34 3c b2 01 73 bd 00 02 99 39 8c 3b a4 bc
       0.011010939 -0.05932779 0.00029183924 -0.020047925
000300 28 09 68 bd a1 3d 09 bc 9e 3b 32 bd 00 44 2b 3a
       -0.056649357 -0.00837651 -0.043513887 0.0006533265
000310 d5 c2 40 bd c8 39 cc 3b 4c 53 3c 3d 94 cb 63 3d
       -0.047060806 0.006232474 0.045977876 0.05561407
000320 e7 c9 11 3d 1c 2d 7a bd 8c 93 66 3a 1c 72 77 bb
       0.03559294 -0.061078176 0.000879579 -0.0037757223
000330 88 e5 b0 bc 5f c7 0a bd 38 40 c2 bc 1d 32 54 bc
       -0.021593824 -0.03388154 -0.023712263 -0.012951401
000340 b2 1d 3d bc f9 e1 c2 3c d6 1e 3a 3c 39 68 06 bc
       -0.011542724 0.023789393 0.011359891 -0.00820356
000350 6e 93 e8 bc 0a 0d 63 3d 78 de 88 b8 4b 16 b5 3c
       -0.028390612 0.055432357 -6.5264234e-05 0.022105357
000360 d4 e6 7c bd 04 5c 29 bd 51 46 34 3d 28 a0 e9 3b
       -0.061743572 -0.04134752 0.04401237 0.007129688
000370 d4 d7 0a 3d f1 91 f2 bc b2 70 04 bc e0 7c f7 bc
       0.033897236 -0.029610606 -0.008083509 -0.030210912
000380 b8 6a f0 3c c7 c7 c6 bb b1 d4 26 bb de 64 40 bd
       0.029347762 -0.006066296 -0.0025456364 -0.046971194
000390 39 48 e7 bc 74 ac 9e bc 70 ab 5c 3d fa a8 5e 3d
       -0.02823268 -0.019369341 0.053874433 0.054360367
0003a0 14 33 fe 3c 45 d4 a8 3c 00 ad b4 3c 74 56 2c 3d
       0.031030215 0.02060903 0.02205515 0.042074636
0003b0 1e a1 02 bd f2 6c 5c bd f4 59 40 bd 14 b8 30 3d
       -0.031891935 -0.053814836 -0.046960786 0.0431443
0003c0 10 12 9a bc 0d 4a f2 3c d6 e2 5e 3d 57 eb 2a 3c
       -0.018807441 0.029576326 0.054415546 0.010432086
0003d0 3d be ac 3c 0c c2 04 3d f6 7d 35 bc f4 45 f9 3c
       0.021086806 0.03241162 -0.011077395 0.030428864
0003e0 52 6f ef bb d0 85 2c bd d0 76 b5 bc c2 d1 32 bd
       -0.0073069716 -0.0421198 -0.02215138 -0.043657072
0003f0 f9 b0 c2 3c 2c b5 07 3d 19 75 09 bc 18 13 1d bd
       0.023766028 0.033131763 -0.008389735 -0.038348287

A.weight f4 [6, 256]
000000 1a 1a c2 bd cf 67 13 bd dc cd 69 3c b2 8c 4d 3d
       -0.09477635 -0.03598767 0.014270272 0.050183006
000010 fc b1 e8 bc 7a f9 86 3d 52 98 26 bd b6 c6 f1 bc
       -0.028405182 0.06590553 -0.040672608 -0.029513698
000020 38 ae f6 bc 3d 60 8e bc 80 a5 5d bd 2d 42 36 3d
       -0.03011237 -0.017379874 -0.05411291 0.044496704
000030 76 45 22 3d 40 41 76 3c 06 c8 04 3d 0f 48 0a 3d
       0.039617024 0.015030205 0.03241732 0.033760127
000040 64 74 57 3d 70 29 67 bc 32 c2 35 bd 18 34 70 bd
       0.052601233 -0.014109001 -0.044374652 -0.05864343
000050 a9 88 96 3b 20 9b ab bb 64 ec 54 bd 8e 9a 2d bd
       0.004593928 -0.005236998 -0.051983252 -0.042383723
000060 d4 b3 08 bd 76 85 43 3d dc bb 96 3c 5e aa 61 bd
       -0.033374622 0.0477347 0.018400125 -0.055094115
000070 d0 a9 d0 bc c7 c4 58 bb 82 59 4a bd d2 4c 1d bd
       -0.025471598 -0.0033076273 -0.049401768 -0.03840334
000080 f7 91 b6 3a e4 9c 48 3d 6b ef 3f 3d e6 0d 0c 3d
       0.0013928999 0.048977748 0.046859186 0.034192942
000090 52 0a 7e 3d df 23 a3 39 62 f1 74 3d e5 f6 c7 3c
       0.06202156 0.0003111651 0.059800513 0.02440972
0000a0 c4 83 0e 3d ae 48 3d bb a8 20 cd 3c 0b 2a 82 bd
       0.03479363 -0.0028882432 0.025039986 -0.06355675
0000b0 00 38 00 3a 20 52 f2 bc 08 21 09 bc 34 72 00 bd
       0.0004891157 -0.029580176 -0.008369692 -0.031358913
0000c0 f2 ee 09 3d e0 f5 36 bc 54 4c bc 38 82 c4 33 bc
       0.03367514 -0.01116702 8.978756e-05 -0.010972144
0000d0 41 ea 43 bd 7b 3f 1a 3d 6a 3b 6b 3d 88 81 7c bd
       -0.047830824 0.037658196 0.05742971 -0.061646968
0000e0 2c d4 c9 3c 53 da da bc 12 40 3d 3d 24 35 10 3d
       0.024637304 -0.026715433 0.04620368 0.03520693
0000f0 49 41 55 bd b4 f0 62 3d 20 91 5f 3b de c6 2b 3d
       -0.052064214 0.055405334 0.00341136 0.0419377
000100 78 89 29 bd 10 d1 42 bd aa b5 5b 3c 26 cf 07 bd
       -0.041390866 -0.04756266 0.013410011 -0.033156537
000110 1c 3f 8a 3c 9c 0b 05 3b a4 45 06 bc 68 4d 7d 3d
       0.016875796 0.002030111 -0.008195315 0.0618414
000120 4a fb d1 3c 4e 3e 29 bd 40 b1 6c 3d 1d 21 43 3d
       0.02563252 -0.041319184 0.057786226 0.047639
000130 88 33 44 3d b2 fa 5d 3b dd cb aa 3c c0 70 fa 3b
       0.047900707 0.003387135 0.020849163 0.0076428354
000140 1e ba 15 bd 91 79 c5 3c a4 e7 15 3c fb 14 80 3d
       -0.03655445 0.024105819 0.009149466 0.06254002
000150 00 4d 0a bb b0 91 2f bd f2 da 18 3d b0 f6 a4 3b
       -0.0021103024 -0.042863548 0.037318178 0.0050342903
000160 a5 99 72 bd 13 32 26 bd a4 6e 25 bd 47 fc 1d bd
       -0.059228558 -0.0405751 -0.04038872 -0.03857067
000170 2f 32 e3 3a 67 05 a7 3c f1 6d 8a 3b 00 1e 5f 3c
       0.0017333681 0.020388318 0.004224532 0.013617992
000180 44 fd 86 3c 20 45 d6 bb c0 2c 69 3d 52 ec 7f 3d
       0.016478188 -0.006539002 0.056927443 0.062481232
000190 ec 85 a5 bc e8 2a c6 3c a8 d9 7d 3c 00 9f 54 3d
       -0.02020546 0.024190381 0.015493788 0.051909447
0001a0 69 9b 09 bd 88 74 e9 bc 53 b5 87 3c 3e db 25 3d
       -0.033595476 -0.02849795 0.016565954 0.04049229
0001b0 fa ce 8a bc 7c 2d e5 bc 44 ac 9a 3c a7 e6 19 3c
       -0.016944397 -0.02797579 0.01888097 0.009393371
0001c0 00 d4 3e bd 53 d0 f3 bb ce 41 24 3d 00 f1 98 bb
       -0.046588898 -0.0074406057 0.04010182 -0.0046674013
0001d0 b0 a6 bb bb ac d7 73 3d 51 53 09 3c 2e 29 a5 3d
       -0.005726658 0.059531853 0.008381681 0.08064495
0001e0 0a 7c 76 3d f6 55 32 3d 26 43 42 3d dd 94 0c bd
       0.060176887 0.04353901 0.04742732 -0.034321655
0001f0 8e be 39 3d 78 54 57 3d 54 5b f3 bc b3 31 5f 3d
       0.045347743 0.05257079 -0.029706635 0.054490756
000200 54 42 86 3c 59 28 cb 3c cc c2 df 3c 54 85 e3 bc
       0.01638905 0.024799513 0.027314566 -0.027773537
000210 00 c5 a8 3b 2b b7 35 bd f8 93 d8 bc 86 9e 10 3d
       0.0051504374 -0.044364136 -0.026437744 0.03530743
000220 38 d5 76 bd a0 8a a4 3b 90 a6 c0 bc 92 01 12 3d
       -0.060261935 0.005021408 -0.023516923 0.03564603
000230 32 da 01 3d ae 89 36 bd cb c4 2c 3d b8 a4 64 3c
       0.031702228 -0.044564895 0.042179864 0.013955288
000240 ef 9e 28 bd 10 21 23 bd b0 c4 70 bc d8 89 d5 bc
       -0.041167196 -0.039826453 -0.014695331 -0.026066706
000250 d8 0e 0b bc ea 83 40 bc e3 c8 2c bd 22 02 04 bd
       -0.008487426 -0.011750201 -0.042183768 -0.032228597
000260 22 2d 0d 3d d8 41 47 3c 42 94 1a bd 44 e2 7a bd
       0.03446687 0.0121616945 -0.037739046 -0.06125094
000270 5b 71 8e 3b fe 2b de bc 7a b9 3a 3d be 03 34 bd
       0.004347009 -0.027120586 0.04558704 -0.04394888
000280 04 a4 14 bd 00 92 a9 39 df 8b ca 3c 38 bb 4c bc
       -0.03628923 0.0003234297 0.024724899 -0.012495808
000290 c4 92 c3 bc a8 82 2b bd e0 2f 00 bd 10 a7 5c 3c
       -0.023873694 -0.04187265 -0.031295657 0.013467565
0002a0 f6 62 b9 3c 82 1b ee 3c 34 a4 24 3d c3 20 36 3d
       0.022630196 0.029065851 0.04019566 0.044464838
0002b0 26 b1 7f 3d 2a 4e 39 bd 00 aa d1 b9 68 49 c2 3c
       0.0624248 -0.04524056 -0.00039990246 0.023716643
0002c0 73 d4 b9 3c 80 20 52 bd 24 f3 4e 3d 73 de 7c bc
       0.022684311 -0.051300526 0.050524846 -0.015433895
0002d0 e6 e8 47 3d fa 90 e7 bc 54 fe 7c 3d 45 f2 10 3c
       0.048806094 -0.028267372 0.061765984 0.008846824
0002e0 aa 1e 3e bd f4 e6 f7 3b 83 c2 3c 3d 04 ca d6 bc
       -0.046415962 0.0075653736 0.04608394 -0.026219375
0002f0 5a 8b 96 3c 48 bc 4e 3c 30 2d 33 bd fc 95 0b bd
       0.018376995 0.012618132 -0.043744266 -0.034078583
000300 1e dd 35 bd 70 ff 11 bb 70 88 3b bd 78 b0 00 bd
       -0.044400327 -0.0022277497 -0.045784414 -0.031418294
000310 fd 7a 42 3d fd ee 87 3c 3f aa 23 bd 80 90 6d ba
       0.047480572 0.01659345 -0.03995728 -0.00090623647
000320 ee b9 85 bc 30 dd ad bb 81 39 6c bd 90 0f d3 3c
       -0.01632401 -0.0053059086 -0.057672027 0.025764257
000330 4f 7a 83 3c 7f fb 4d bd 3e 72 18 bd 1d 6f 47 b9
       0.016049532 -0.050288673 -0.037218325 -0.00019019512
000340 54 53 1f bd a8 85 d1 bc 64 24 4f bd 09 01 b7 bc
       -0.038897827 -0.025576428 -0.050571814 -0.02233936
000350 f2 d9 21 bd 12 e6 2e bc 0f e2 03 bd 4a f8 50 3d
       -0.03951449 -0.01067497 -0.03219801 0.051018037
000360 72 5e 56 bd 98 c2 48 3c 47 ae 31 bc e5 df d1 bc
       -0.052336164 0.012253426 -0.010844774 -0.025619457
000370 88 20 84 3c c4 ab 7b bc 61 ba 98 bc 60 cd a7 3c
       0.016128793 -0.015360776 -0.01864356 0.020483673
000380 00 20 51 38 97 9e fb bc 6f 0d c0 bc 78 e3 72 bd
       4.9859285e-05 -0.03071527 -0.023443906 -0.059298962
000390 21 1a 04 bc 78 52 c4 3c 2c 55 58 bd b6 bb 19 bd
       -0.00806287 0.023965105 -0.0528156 -0.03753253
0003a0 a0 d1 8d 3b 2e 06 90 3c 80 ce 14 ba 10 0b 0f bc
       0.0043279678 0.017581072 -0.0005676523 -0.008730665
0003b0 26 d4 6c 3d a2 c4 22 3d d6 e8 55 bd ba 35 6f 3d
       0.057819508 0.039738305 -0.052224003 0.058400847
0003c0 43 74 2c bd 95 e7 1e 3d 42 b2 3f bd a2 ed a5 bc
       -0.042103063 0.038795073 -0.04680086 -0.020254914
0003d0 3c 24 7d 3c 74 2d c8 3c c7 a6 1a bd 7a 6a 37 3d
       0.0154505335 0.024435736 -0.037756708 0.04477928
0003e0 e4 40 68 bd f4 4d de 3c a4 70 26 3d 00 31 72 3d
       -0.05670251 0.02713678 0.040634766 0.05912876
0003f0 9c b4 ed bc 47 76 53 3c 20 65 f0 3c f5 b2 af 3c
       -0.029016785 0.0129066175 0.029345095 0.021447638

A.bias f4 [6]
000000 ad 9f 4d 3d 1a 42 87 3d 38 77 9c 3c f8 41 99 bd
       0.050201107 0.06604405 0.019099817 -0.07483286
000010 be 49 a5 bc a8 63 bf ba
       -0.020176765 -0.0014601843
