cool/checkpoints/D3QN/Q_eval/D3QN_q_eval_700.pth (torch, 278863 bytes, 7 tensors)

fc1.weight f4 [256, 5]
-0.43710175 -0.2662602 -0.21660602 0.04354732 0.36070755 -0.1576207 0.3317641 0.33056927
-0.17506444 0.07349694 -0.35646608 0.24734694 -0.18802321 -0.08500382 0.2847646 -0.14023027
-0.11667991 0.048443615 -0.15961218 0.031501204 0.25763714 -0.3321595 0.19832313 -0.2615185
0.25996053 -0.044389553 -0.13817471 0.24088806 0.12471154 0.2506631 0.15961075 0.30534887
0.030017853 -0.107988805 -0.27732158 0.2603967 0.110283546 -0.20496254 0.2916045 0.20346403
-0.04749638 0.24406844 -0.09637502 -0.14506033 -0.019449234 -0.08116856 0.33482355 0.28073603
-0.11372936 -0.03292826 -0.44685593 -0.41503292 0.4074375 -0.42798468 -0.37436202 0.3648688
-0.43246403 0.32589433 0.31466183 -0.15421034 -0.2275395 -0.45939088 0.18825549 0.099734366
-0.018712511 -0.12624547 0.31798428 0.3136536 -0.18717763 -0.1500239 0.33962747 0.18311995
-0.21005455 0.14174426 -0.31295073 0.021041662 -0.39589843 0.30953225 -0.010556696 0.13255167
-0.2162942 -0.42222822 0.3926515 -0.013450772 0.02124685 -0.35807475 -0.2871603 -0.2313542
0.3760566 -0.06933946 -0.31248924 0.2209811 0.0036936672 0.38989863 -0.11928972 -0.26227143
-0.22578007 -0.05032814 0.18071972 -0.076646216 0.35026735 0.12595111 0.149885 -0.28681895
-0.28687733 -0.23373085 0.3396837 0.23059225 -0.25584596 -0.34109506 0.3975526 -0.10544711
0.31577063 -0.06095019 0.29564577 -0.17643413 0.38346207 0.004147291 -0.358642 -0.32645404
-0.34895638 -0.2271883 -0.38043585 0.1374514 0.27978334 0.27269238 0.30578968 0.17098473
0.057191517 0.08981386 -0.1872131 0.03090632 0.07580525 -0.2213712 0.29756594 0.22253722
-0.3714498 -0.22936967 -0.23802082 0.08438468 -0.36675376 0.10049558 -0.15409786 -0.15037039
0.10769099 0.031378716 -0.22949575 0.36657965 -0.23849738 -0.1231007 0.28812984 0.22161461
0.0050757765 0.37185904 -0.24758415 0.3270892 0.16786474 0.048163682 -0.2300512 0.34726936
0.4462986 0.14585303 0.396399 0.4065081 -0.46100044 -0.05770946 -0.46126795 0.26384556
0.43288696 -0.039703403 -0.039504588 -0.10159996 0.42935002 -0.013269424 -0.37864673 0.4387787
-0.14833519 0.40524054 -0.1811184 -0.42256606 0.060725987 0.076393425 -0.17026973 -0.28167516
0.17608052 0.33287638 0.12027335 -0.2841227 -0.31203628 0.26919824 -0.3572705 -0.2181656
0.13773613 0.16157788 0.0342622 0.20357041 0.25140762 -0.25374493 0.40110502 -0.4282042
-0.30702156 -0.042298406 -0.0062030256 -0.25825328 0.016305327 0.3746873 0.014291763 -0.11542344
-0.34371838 -0.3457308 0.19901188 -0.2636306 0.3809058 0.07810536 0.19949755 -0.30620614
0.07797766 0.30450332 -0.4381092 0.038383275 0.1258629 -0.27149355 0.39300084 -0.13356334
0.19466496 0.40693757 -0.05619658 -0.10785811 0.39821985 -0.2991258 0.054626763 -0.18302163
-0.2341348 -0.091673255 -0.32277894 -0.18554896 -0.412837 0.27513003 -0.37071666 -0.44038373
-0.14815214 0.16193554 0.40014058 0.20137516 0.28229547 0.37129217 -0.368147 0.1817895
0.19325684 0.39659613 -0.3697682 -0.18084002 -0.18738246 -0.089934975 -0.015476912 -0.00082707405
00000000: cdcb dfbe 4253 88be f8cd 5dbe ad5e 323d
00000010: a9ae b83e 5267 21be fcdc a93e 6040 a93e
00000020: 1844 33be 9085 963d b982 b6be 8448 7d3e
00000030: 2889 40be 7c16 aebd aacc 913e 8698 0fbe
00000040: e0f5 eebd d06c 463d 6071 23be 6807 013d
00000050: 04e9 833e cf10 aabe 3815 4b3e c1e5 85be
00000060: 8c19 853e d2d1 35bd ac7d 0dbe 5cab 763e
00000070: c468 ff3d ea56 803e 0071 233e b056 9c3e
00000080: 00e8 f53c 3c29 ddbd 18fd 8dbe b752 853e
00000090: 57dc e13d b3e1 51be 2f4d 953e e058 503e
000000a0: 908b 42bd 14ed 793e 4460 c5bd b28a 14be
000000b0: 0054 9fbc b43b a6bd fe6d ab3e a2bc 8f3e
000000c0: f0ea e8bd c8df 06bd 4dca e4be 327f d4be
000000d0: a69b d03e cf20 dbbe 61ac bfbe 15d0 ba3e
000000e0: ed6b ddbe 9fdb a63e 5b1b a13e 51e9 1dbe
000000f0: 1d00 69be 4835 ebbe 0cc6 403e 8841 cc3d
00000100: fb4a 99bc 7e46 01be d6ce a23e 3497 a03e
00000110: 7eab 3fbe de9f 19be a7e3 ad3e cc83 3b3e
00000120: 8a18 57be 6825 113e 143b a0be 905f ac3c
00000130: 33b3 cabe 037b 9e3e fef5 2cbc a0bb 073e
00000140: 3a7c 5dbe 4c2e d8be 9e09 c93e a060 5cbc
00000150: e00d ae3c 9355 b7be ad06 93be 1ee8 6cbe
00000160: 7e8a c03e d901 8ebd 97fe 9fbe df48 623e
00000170: 7411 723b cba0 c73e 2b4e f4bd 7148 86be
00000180: e432 67be e124 4ebd 970e 393e b1f8 9cbd
00000190: 3e56 b33e 54f9 003e 747b 193e efd9 92be
000001a0: 96e1 92be 2457 6fbe 06eb ad3e 6020 6c3e
000001b0: 3efe 82be 03a4 aebe 048c cb3e a8f4 d7bd
000001c0: b0ac a13e e8a6 79bd e25e 973e 26ab 34be
000001d0: 2455 c43e 00e6 873b ed9f b7be fc24 a7be
000001e0: 69aa b2be 0da4 68be 7dc8 c2be 0fc0 0c3e
000001f0: c33f 8f3e 569e 8b3e 7790 9c3e 9f16 2f3e
00000200: a741 6a3d 54f0 b73d cab4 3fbe 402f fd3c
00000210: c83f 9b3d 22af 62be 905a 983e cce0 633e
00000220: ab2e bebe e2df 6abe bbbb 73be e0d1 ac3d
00000230: 26c7 bbbe a0d0 cd3d d4cb 1dbe b2fa 19be
00000240: 188d dc3d f886 003d ef00 6bbe 54b0 bb3e
00000250: a838 74be 381c fcbd c185 933e f1ee 623e
00000260: b352 a63b 4f64 be3e b386 7dbe 3c78 a73e
00000270: bce4 2b3e 4847 453d 8b92 6bbe 4acd b13e
00000280: 4081 e43e 7f5a 153e cff4 ca3e d421 d03e
00000290: 4008 ecbe c160 6cbd 502b ecbe c416 873e
000002a0: 5ca3 dd3e 09a0 22bd 90cf 21bd a413 d0bd
000002b0: c4d3 db3e 0068 59bc fcdd c1be 9aa7 e03e
000002c0: 2ee5 17be b07b cf3e 1a77 39be 945a d8be
000002d0: d0bb 783d 2874 9c3d 305b 2ebe ba37 90be
000002e0: 744e 343e c66e aa3e e051 f63d 8878 91be
000002f0: 38c3 9fbe 5ad4 893e 29ec b6be ce66 5fbe
00000300: b30a 0d3e ac74 253e 8556 0c3d c374 503e
00000310: 80b8 803e dbea 81be a35d cd3e 953d dbbe
00000320: ee31 9dbe 1841 2dbd c042 cbbb c639 84be
00000330: c092 853c 04d7 bf3e 0028 6a3c 2063 ecbd
00000340: dbfb afbe a103 b1be c5c9 4b3e 97fa 86be
00000350: 1606 c33e b4f5 9f3d 1649 4c3e 0dc7 9cbe
00000360: c0b2 9f3d dce7 9b3e d94f e0be c837 1d3d
00000370: 34e2 003e 3401 8bbe 6837 c93e d4c4 08be
00000380: 4056 473e 1f5a d03e 632e 66bd b6e4 dcbd
00000390: 79e3 cb3e 0427 99be 50c0 5f3d 066a 3bbe
000003a0: 08c1 6fbe 30bf bbbd 4843 a5be 8c00 3ebe
000003b0: 5f5f d3be d8dd 8c3e 93ce bdbe fa79 e1be
000003c0: 32b5 17be 6ed2 253e 3adf cc3e 4a35 4e3e
000003d0: 0889 903e 021a be3e c37d bcbe 0727 3a3e
000003e0: 1fe5 453e a60e cb3e 4252 bdbe 202e 39be
000003f0: 30e1 3fbe d42f b8bd e092 7dbc 00d0 58ba

fc1.bias f4 [256]
0.17051665 0.05978751 0.22372365 0.0012323558 -0.026263297 0.20993564 -0.20840104 -0.27744973
-0.1953677 0.10792303 0.37589812 -0.073104545 0.3459253 -0.38632616 -0.2983022 0.17911792
-0.04480517 0.37360516 0.14531712 0.041302588 0.1318683 -0.30738914 -0.32251477 -0.4220216
0.029258205 -0.33846232 -0.10009432 0.25466788 -0.42440805 0.3101548 0.321325 0.265193
-0.39605057 -0.29094398 -0.25619435 -0.096164465 0.20155376 -0.10737422 -0.22931461 0.09345744
0.444292 0.40863222 0.44089487 0.24358469 0.13176668 -0.06922727 -0.13797703 -0.29688746
0.41939884 -0.35000634 -0.29502833 -0.11558679 0.29756922 0.29117703 -0.28733402 0.12824106
0.36705893 0.29584682 -0.38669068 -0.44104373 -0.174384 0.1334203 0.11383808 -0.14999741
-0.35296664 -0.1019651 -0.05583175 0.2916851 -0.3775384 0.38307324 0.39202976 0.42395127
-0.3917223 -0.14071292 0.1717676 0.3381926 -0.12208351 0.25290585 -0.27888364 0.16588409
-0.3627577 0.41598898 0.22087783 0.15822645 -0.34933743 0.25800115 -0.0770215 0.22373712
-0.2701522 -0.20468168 0.09122848 -0.02400276 0.10319048 -0.2689677 -0.23229422 0.2124896
0.08747065 -0.39201835 0.2531744 0.16320533 -0.1491178 -0.02228874 0.16302486 -0.0732435
0.04450011 0.19536489 0.30964398 0.15468317 0.24713343 0.1337962 -0.14774886 -0.1122857
0.053025555 0.39046955 0.15325469 0.174073 0.10812455 -0.104222745 -0.26271132 0.29218554
0.37163466 0.116518326 0.06489611 0.122250974 -0.35824963 0.10485405 0.4116739 -0.010714233
0.034372818 -0.23635706 -0.08191955 0.2507863 0.38903373 0.25390708 -0.23534882 -0.31562465
0.24671626 -0.053518094 0.38865572 0.39870176 -0.3880034 -0.19678777 0.15088725 0.21636936
0.17440611 -0.07636413 -0.38810197 -0.3593498 -0.07619411 0.09203315 0.19733775 -0.04102674
0.21513051 0.00846526 0.2178891 -0.3971583 0.3776387 0.019356448 0.34535706 0.051431865
0.35353377 0.020030454 0.17863834 -0.13107343 -0.28662035 -0.34645158 -0.33132073 0.15520334
-0.01579699 -0.21248563 0.29523823 -0.3338657 0.14291026 -0.19699699 0.3184467 -0.014711024
0.15586561 0.31441438 -0.3051081 -0.32292128 -0.38420737 0.10045177 -0.27753046 0.33103627
0.20732373 0.027044654 0.3429699 -0.2362554 0.21807134 0.06757218 0.12040225 0.10862297
0.01637122 0.09504694 0.23564847 0.13445866 0.1732347 0.14462413 -0.35358027 -0.08880156
-0.31411234 -0.22015795 0.25212243 0.37742144 -0.023888648 -0.22339723 0.13905913 0.07042152
0.17392997 0.10013396 0.15705249 0.19411601 0.053890526 0.27229905 -0.3142267 0.4156427
0.3235559 -0.17930633 0.4245081 0.22672093 0.30890965 0.057046175 -0.05376383 -0.18928903
-0.3868092 -0.27786896 -0.11668208 -0.3792405 0.22004122 0.024823874 -0.3368638 -0.020722657
0.12926066 0.34337223 -0.016343713 0.43561506 -0.16455041 0.4341017 -0.24453859 0.17220883
-0.14393786 -0.41317582 -0.20447555 0.3316881 -0.1749487 0.3346597 -0.24339356 -0.11093074
-0.127058 0.38928363 0.26998028 -0.0066180527 -0.07835463 0.15576987 -0.3856218 0.06398994
00000000: eb9b 2e3e c0e3 743d d017 653e 0087 a13a
00000010: 2026 d7bc 5ef9 563e 1567 55be e40d 8ebe
00000020: 780e 48be c006 dd3d b875 c03e d6b7 95bd
00000030: 1f1d b13e 8bcc c5be 11bb 98be b06a 373e
00000040: a085 37bd 2d49 bf3e 03ce 143e e72c 293d
00000050: 7c08 073e 1c62 9dbe a820 a5be 3713 d8be
00000060: e7ae ef3c ef4a adbe 40fe ccbd d463 823e
00000070: 034c d9be 9ccc 9e3e b684 a43e 60c7 873e
00000080: 24c7 cabe 9cf6 94be e82b 83be e0f1 c4bd
00000090: 1c64 4e3e 04e7 dbbd 73d1 6abe 9d66 bf3d
000000a0: 3e7a e33e 3e38 d13e f9bc e13e 446e 793e
000000b0: d8ed 063e 07c7 8dbd da49 0dbe a201 98be
000000c0: 72bb d63e 0834 b3be f40d 97be c4b8 ecbd
000000d0: fe5a 983e 2815 953e 721d 93be a051 033e
000000e0: 26ef bb3e 3c79 973e 52fc c5be 7cd0 e1be
000000f0: b891 32be 559f 083e f023 e93d ec98 19be
00000100: 0bb8 b4be 14d3 d0bd d5af 64bd c057 953e
00000110: b74c c1be 2d22 c43e 20b8 c83e 2410 d93e
00000120: d38f c8be 0c17 10be d9e3 2f3e 9527 ad3e
00000130: eb06 fabd e07c 813e d6c9 8ebe 85dd 293e
00000140: 61bb b9be 82fc d43e cc2d 623e 1d06 223e
00000150: 5bdc b2be ba18 843e 73bd 9dbd 581b 653e
00000160: 6451 8abe 1398 51be ffd5 ba3d 70a1 c4bc
00000170: 8855 d33d 22b6 89be 89de 6dbe e096 593e
00000180: d023 b33d a1b6 c8be 13a0 813e 4c1f 273e
00000190: 56b2 18be e096 b6bc fdef 263e b000 96bd
000001a0: bf45 363d bc0d 483e a889 9e3e 4465 1e3e
000001b0: 8c10 7d3e df01 093e 7a4b 17be 0cf6 e5bd
000001c0: 5331 593d a0eb c73e ccee 1c3e 3140 323e
000001d0: 6770 dd3d bc72 d5bd 1982 86be 5899 953e
000001e0: e646 be3e 29a1 ee3d 40e8 843d b85e fa3d
000001f0: 7f6c b7be b8bd d63d ecc6 d23e c08a 2fbc
00000200: 83ca 0c3d 9607 72be 70c5 a7bd 1067 803e
00000210: 6e2f c73e 1c00 823e 48ff 70be 8e99 a1be
00000220: 30a3 7c3e ca35 5bbd e2fd c63e a322 cc3e
00000230: 62a8 c6be bc82 49be 3082 1a3e ee8f 5d3e
00000240: 8497 323e cc64 9cbd 4db5 c6be b2fc b7be
00000250: a80b 9cbd e07b bc3d e812 4a3e a80b 28bd
00000260: 2c4b 5c3e e0b1 0a3c 521e 5f3e 5558 cbbe
00000270: dc59 c13e 6a91 9e3c a4d2 b03e 38aa 523d
00000280: 6102 b53e e816 a43c f8ec 363e 1d38 06be
00000290: e7bf 92be 1a62 b1be dfa2 a9be a0ed 1e3e
000002a0: b068 81bc d595 59be 7729 973e 72f0 aabe
000002b0: 1157 123e 94b9 49be 720b a33e 8206 71bc
000002c0: 3c9b 1f3e ecfa a03e 2137 9cbe f055 a5be
000002d0: d4b6 c4be a8b9 cd3d 7918 8ebe 967d a93e
000002e0: ac4c 543e c08c dd3c c099 af3e f0ec 71be
000002f0: 184e 5f3e 4863 8a3d 7495 f63d b875 de3d
00000300: f01c 863c f8a7 c23d d54d 713e 88af 093e
00000310: 7064 313e 5918 143e 7908 b5be 98dd b5bd
00000320: 55d3 a0be 1671 61be 3116 813e 623d c13e
00000330: 20b2 c3bc 3ec2 64be 8465 0e3e 2839 903d
00000340: b31a 323e 0913 cd3d 5ed2 203e 59c6 463e
00000350: 50bc 5c3d c86a 8b3e 52e2 a0be 1fcf d43e
00000360: 1ea9 a53e 149c 37be 2059 d93e 8829 683e
00000370: 6829 9e3e 40a9 693d 7637 5cbd fcd4 41be
00000380: db0b c6be d744 8ebe 04f7 eebd d02b c2be
00000390: 7c52 613e 705b cb3c 6979 acbe 90c2 a9bc
000003a0: e85c 043e 7cce af3e 40e3 85bc f008 df3e
000003b0: e77f 28be 9442 de3e 5368 7abe 8357 303e
000003c0: 7264 13be c88b d3be 0a62 51be 06d3 a93e
000003d0: c125 33be 8458 ab3e 293c 79be a82f e3bd
000003e0: 7e1b 02be 2f50 c73e db3a 8a3e 40dc d8bb
000003f0: 6478 a0bd 2382 1f3e 3870 c5be 280d 833d

fc2.weight f4 [256, 256]
0.006042884 0.061897546 -0.046483487 -0.042492807 0.0071417466 -0.052996144 -0.028382786 0.025867486
-0.03716681 -0.048218198 0.0028716773 -0.043012746 0.059356786 -0.05136636 0.03472321 0.009619548
-0.00729163 -0.026933441 0.0331901 -0.056492828 -0.0032223687 0.042961963 -0.024417236 -0.02231931
0.002465667 -0.056571852 -0.056714065 -0.007210724 -0.003998913 -0.01927711 -0.01590045 0.057167888
-0.029254736 -0.001262708 -0.025699198 0.052604742 0.057926223 -0.0166177 0.025128203 -0.012032563
0.052932657 -0.009599797 0.04691476 -0.023006424 -0.018141761 0.010485571 0.051237717 -0.05460564
-0.014637968 0.056610376 -0.05494526 0.0033571944 0.060785994 0.009072483 0.051147792 -0.03277926
0.033682484 -0.020712309 0.03981157 -0.033934347 0.055028412 0.016226694 -0.032007255 0.007083282
-0.050831683 -0.057981923 0.007872133 -0.008740972 -0.0034470267 -0.011093406 0.0215872 0.05153226
0.0044215918 0.016857535 0.05205092 -0.020951884 -0.056713276 -0.030037805 0.023158908 -0.054496713
0.04736415 -0.008547947 0.05476782 -0.021433681 -0.048815925 0.01622723 -0.03272049 0.00707753
0.027719058 0.012974713 -0.06213665 0.008639656 -0.012160927 -0.026357941 0.050864324 0.021227203
-0.0017556623 0.042872697 0.032088697 -0.060592607 -0.00961899 -0.055472672 0.0061527696 0.05247441
-0.008075749 0.027336657 0.016545326 0.037409216 -0.05703685 0.0333234 -0.042096518 -0.040398754
0.038302228 -0.014004245 -0.02019748 0.046346903 0.013546412 -0.060896106 0.047801726 -0.00053617416
0.006032318 -0.029136073 0.02407343 0.048035935 0.05053114 0.006575741 0.020336356 -0.017463319
-0.052630246 -0.030397035 -0.052060135 -0.05524469 0.023355603 0.025997661 -0.034594208 0.043111414
0.035903983 -0.047642197 0.03536489 0.016103689 0.047138564 0.01991325 -0.0042224876 -0.031413432
-0.024568751 0.045087256 0.04712143 -0.036501393 -0.019975118 0.016840976 0.043139197 -0.034856625
0.004451409 0.052643567 -0.033304498 0.032386284 0.004162903 -0.01569715 -0.002388589 -0.0033165962
0.026771061 -0.044886008 0.061644927 -0.01934425 -0.0228839 -0.051821597 0.024225146 -0.01053784
-0.008073889 -0.020789418 -0.00969981 -0.009247772 0.020388374 -0.022476904 -0.021660471 0.049974494
0.035603378 0.013618991 0.0032147476 -0.030048512 0.057486057 0.027938664 0.04407339 0.044443667
-0.03164027 0.055079713 0.00941322 0.04483985 0.034433223 0.0153474435 0.03540614 0.0007490739
0.018550985 0.017142184 -0.022778587 -0.050254516 -0.018526956 0.01648725 -0.03948128 0.026391223
-0.030974701 0.022152843 0.024065707 0.033944376 -0.027507924 -0.013884021 -0.020234019 0.042357698
-0.060544975 0.05149371 0.01793169 0.029229961 -0.050616972 0.020266779 0.03707775 0.043009955
0.040028915 0.052281365 0.021166854 -0.024490587 0.041395843 -0.05475323 0.010440412 -0.036122866
-0.049408853 0.022775883 0.045774072 0.031923562 -0.032301594 0.0019797832 0.053051595 -0.005704351
-0.0045358464 -0.020814352 -0.036871307 -0.034190163 0.05492442 0.032088064 0.021977961 -0.033648003
0.047908857 -0.059687756 0.014501227 -0.034952693 -0.008676266 -0.0095971525 -0.033233322 -0.024805278
0.04996048 -0.041571528 -0.055925276 0.015122876 -0.044848062 -0.02453074 0.038086392 -0.039595082
00000000: 6303 c63b 4888 7d3d 7865 3ebd f00c 2ebd
00000010: 5005 ea3b 7c12 59bd 0483 e8bc 0de8 d33c
00000020: 3a3c 18bd 7280 45bd c032 3c3b 222e 30bd
00000030: 1a20 733d 8865 52bd ed39 0e3d 4f9b 1d3c
00000040: a0ee eebb 85a3 dcbc 58f2 073d 0665 67bd
00000050: 602e 53bb e2f8 2f3d a806 c8bc fcd6 b6bc
00000060: 0797 213b e3b7 67bd 024d 68bd f047 ecbb
00000070: 5009 83bb 08eb 9dbc a941 82bc e028 6a3d
00000080: a1a7 efbc 7381 a5ba 2087 d2bc 1278 573d
00000090: 0c44 6d3d d821 88bc a9d9 cd3c 3a24 45bc
000000a0: eacf 583d 7848 1dbc b129 403d f877 bcbc
000000b0: 089e 94bc accb 2b3c a4de 513d 2aaa 5fbd
000000c0: 16d4 6fbc 48e0 673d 480e 61bd 6004 5c3b
000000d0: bcfa 783d c0a4 143c 5980 513d 8c43 06bd
000000e0: a5f6 093d dcac a9bc 7511 233d befe 0abd
000000f0: 7965 613d d8ed 843c 0a1a 03bd e01a e83b
00000100: e234 50bd 747e 6dbd 1efa 003c 4b36 0fbc
00000110: 83e7 61bb 1ec1 35bc a4d7 b03c 7e13 533d
00000120: 00e3 903b d018 8a3c 5833 553d 49a3 abbc
00000130: 2e4c 68bd d811 f6bc c0b7 bd3c f237 5fbd
00000140: e900 423d b00c 0cbc 3954 603d b095 afbc
00000150: 35f3 47bd f8ee 843c ec05 06bd a0ea e73b
00000160: 1413 e33c e493 543c 0083 7ebd 588d 0d3c
00000170: a03e 47bc 9cec d7bc 1c57 503d ace4 ad3c
00000180: 401e e6ba 489b 2f3d 706f 033d f42f 78bd
00000190: f898 1dbc 5037 63bd 2c9d c93b 68ef 563d
000001a0: 2550 04bc 20f1 df3c 108a 873c 683a 193d
000001b0: 799f 69bd 1e7e 083d 666d 2cbd 2a79 25bd
000001c0: cce2 1c3d 1072 65bc 3075 a5bc 40d6 3d3d
000001d0: c5f1 5d3c 326e 79bd becb 433d 0a8e 0cba
000001e0: c0aa c53b c6ae eebc a435 c53c 54c1 443d
000001f0: bef9 4e3d 5079 d73b 6e98 a63c 3c0f 8fbc
00000200: d092 57bd 3403 f9bc 023d 55bd 4248 62bd
00000210: 4054 bf3c 0cf9 d43c a8b2 0dbd 9895 303d
00000220: 0e10 133d 7724 43bd c6da 103d e2eb 833c
00000230: 5e14 413d 1d21 a33c cb5c 8abb 5fab 00bd
00000240: 6844 c9bc 6aad 383d 6702 413d 7c82 15bd
00000250: dca2 a3bc 16f6 893c bab2 303d d2c5 0ebd
00000260: 20dd 913b c8a0 573d 4c6a 08bd 7ba7 043d
00000270: f668 883b 4f97 80bc e089 1cbb 405b 59bb
00000280: fc4e db3c 64da 37bd 647f 7c3d d577 9ebc
00000290: 0477 bbbc e242 54bd d073 c63c e8a6 2cbc
000002a0: 5848 04bc 924e aabc f4eb 1ebc f883 17bc
000002b0: 8505 a73c 7c21 b8bc 4d71 b1bc 0eb2 4c3d
000002c0: d9d4 113d 3022 5f3c 84ae 523b 4c28 f6bc
000002d0: 8076 6b3d a0df e43c 4d86 343d 900a 363d
000002e0: 3a99 01bd 449b 613d e839 1a3c fea9 373d
000002f0: da09 0d3d d873 7b3c 0706 113d 805d 443a
00000300: 3cf8 973c c46d 8c3c 299a babc aed7 4dbd
00000310: d8c5 97bc 4510 873c 1fb7 21bd 6832 d83c
00000320: a8be fdbc e179 b53c 7225 c53c 4209 0b3d
00000330: 4c58 e1bc ce79 63bc d0c1 a5bc 447f 2d3d
00000340: 02fe 77bd 12eb 523d 7be5 923c ac73 ef3c
00000350: be53 4fbd 8406 a63c d7de 173d 352b 303d
00000360: 5cf5 233d fc24 563d 1c66 ad3c 7ca0 c8bc
00000370: b08e 293d ec44 60bd 430e 2b3c 92f5 13bd
00000380: f060 4abd 7d94 ba3c 987d 3b3d 48c2 023d
00000390: ad4e 04bd 40bf 013b a14c 593d 90eb babb
000003a0: 70a1 94bb dc82 aabc 5e06 17bd fc0a 0cbd
000003b0: 6ef8 603d c66e 033d 200b b43c 7dd2 09bd
000003c0: 143c 443d 267b 74bd 8e96 6d3c 8e2a 0fbd
000003d0: e626 0ebc 603d 1dbc aa1f 08bd 7034 cbbc
000003e0: 5ca3 4c3d e846 2abd e711 65bd f0c5 773c
000003f0: 9ab2 37bd b1f4 c8bc 7a00 1c3d 742e 22bd

fc2.bias f4 [256]
-0.04015259 0.058125645 -0.054021094 -0.017209075 0.0035414398 -0.039634526 0.011123374 -0.015241063
-0.03613013 -0.038870025 0.024266414 -0.0025703874 -0.055803217 0.030454911 -0.060766432 -0.028294897
0.05830141 -0.013677448 -0.013140038 -0.05139713 -0.036846686 -0.03749849 -0.062382035 0.05371201
0.010787845 0.038590275 -0.014825597 0.013464102 -0.030767173 0.049177155 -0.052580737 -0.011791199
-0.06051519 -0.022792943 0.042204965 -0.01501821 -0.056196705 0.04741039 -0.057336736 -0.04148682
-0.049865417 0.00068950985 -0.054575898 0.05490931 -0.04805927 0.0559542 0.012412339 0.03695263
-0.0068778917 -0.026501544 0.027866138 -0.02710177 -0.052304763 0.023850275 -0.015214905 0.005396694
-0.061407886 -0.011557066 0.05488251 0.02259159 -0.050307777 -0.03994622 0.055715755 -0.013678186
0.046081826 0.05415059 -0.037794944 0.037796006 -0.0025405735 0.04657139 0.05194286 0.04950138
0.058965866 0.030877195 -0.022713333 -0.053466816 -0.061977886 0.055677902 0.025536645 0.028565653
-0.023615442 -0.056796625 0.010791487 0.057799302 0.06095311 -0.022829818 -0.014479779 0.053810425
0.026844556 0.035255224 0.055450015 0.048087545 0.027605636 0.01905698 -0.049126115 -0.019806154
0.027990418 -0.00030726194 0.0028819595 -0.043124057 0.016027704 -0.058083966 -0.028838605 0.011046536
-0.0060160784 0.058742564 -0.015896231 0.0054799695 0.05279216 0.054433525 -0.04589559 0.053652108
-0.057775445 0.04041034 -0.0064463764 -0.011425205 0.02457498 0.05585195 -0.033713162 0.041242868
-0.021551415 -0.05383403 -0.014545664 0.024429332 -0.04072412 0.06165541 -0.011859471 -0.052826524
0.03866013 -0.06323315 0.041614324 0.009123303 -0.046302415 -0.025998725 -0.059242576 0.017903969
-0.04584816 0.024726324 -0.050246865 -0.03322566 -0.046745524 -0.013501592 -0.031134872 -0.05329296
0.031939507 0.033740997 -0.018113427 -0.028375115 -0.0025594085 0.041972637 -0.048015423 0.04806456
0.027136527 -0.04770355 -0.01305585 -0.02352996 0.048031192 -0.033450015 0.05496966 -0.047991775
-0.0455447 -0.0018489733 -0.03892957 0.03137254 0.037373506 0.05721485 0.030245364 -0.03993492
-0.049672004 0.0076998873 0.05357211 -0.00863961 -0.04426247 -0.005667351 -0.02969376 0.005230397
0.030165989 0.01468201 -0.056033365 0.031167112 -0.037603255 -0.007784309 0.038975373 0.032489628
-0.0317166 0.03570987 -0.011831504 0.031079998 -0.05897548 -0.052268304 0.06109087 -0.05669427
-0.04414157 -0.04861041 0.04913003 -0.036448695 0.04455068 0.024104914 0.05928805 0.05138178
0.020934533 0.02655267 -0.03812643 0.018229099 -0.034448422 -0.039536465 -0.031826444 -0.05004786
-0.026126059 -0.04957299 -0.047197025 0.03852573 0.0056194584 0.046613432 -0.011822246 -0.048274457
0.059420288 -0.046008736 -0.0024343494 0.015811194 -0.013514131 -0.053204786 -0.042861864 -0.01086127
-0.004688047 0.0056024 0.029332386 0.02426673 0.0144131435 0.0025297776 0.056489073 0.030521214
0.019807614 0.0067319525 -0.060671188 -0.0027736947 0.056532502 0.002681464 0.025682293 0.06168817
1.708133e-05 -0.01007077 0.012034006 0.02834097 0.02586129 0.011757374 -0.019218547 0.037237965
0.05765132 -0.044025317 -0.032824114 0.04230181 0.020270377 -0.04619556 0.033170428 -0.03361374
00000000: 0b77 24bd 2815 6e3d 3945 5dbd 0cfa 8cbc
00000010: 8017 683b d057 22bd d03e 363c a7b5 79bc
00000020: 30fd 13bd 2d36 1fbd 5cca c63c f273 28bb
00000030: ea91 64bd 947c f93c 39e6 78bd b3ca e7bc
00000040: 76cd 6e3d 6017 60bc 5049 57bc cc85 52bd
00000050: 8dec 16bd 0498 19bd 4e84 7fbd 2001 5c3d
00000060: 80bf 303c d610 1e3d 10e7 72bc 8998 5c3c
00000070: 700b fcbc fc6d 493d e65e 57bd e02f 41bc
00000080: c7de 77bd 44b8 babc 1ddf 2c3d f00e 76bc
00000090: 842e 66bd 6631 423d edd9 6abd 15ee 29bd
000000a0: ae3f 4cbd 39c0 343a fa8a 5fbd 96e8 603d
000000b0: ccd9 44bd 3b30 653d 205d 4b3c a45b 173d
000000c0: f05f e1bb c419 d9bc 8747 e43c 8804 debc
000000d0: 853d 56bd a761 c33c f047 79bc c0d6 b03b
000000e0: d686 7bbd d959 3dbc 7ccc 603d 0012 b93c
000000f0: 870f 4ebd a69e 23bd 3436 643d 781a 60bc
00000100: 4cc0 3c3d 02cd 5d3d dfce 1abd fccf 1a3d
00000110: c07f 26bb a4c1 3e3d 09c2 543d f6c1 4a3d
00000120: 3186 713d 2cf2 fc3c 5011 babc 0500 5bbd
00000130: 86dc 7dbd 830e 643d 3a32 d13c 8402 ea3c
00000140: 2c75 c1bc 94a3 68bd c7ce 303c f6be 6c3d
00000150: f8a9 793d 9905 bbbc 983c 6dbc 5268 5c3d
00000160: 1de9 db3c c867 103d 8e1f 633d 72f7 443d
00000170: 3725 e23c 621d 9c3c 7738 49bd 8440 a2bc
00000180: 294c e53c 0018 a1b9 42df 3c3b daa2 30bd
00000190: 884c 833c 74e9 6dbd f03e ecbc 88fc 343c
000001a0: 8622 c5bb 0b9c 703d d038 82bc 5191 b33b
000001b0: 983c 583d b0f5 5e3d 04fd 3bbd 50c2 5b3d
000001c0: f2a5 6cbd 5085 253d 203c d3bb c830 3bbc
000001d0: 7851 c93c 04c5 643d d016 0abd 48ee 283d
000001e0: 988c b0bc 1281 5cbd f050 6ebc 0620 c83c
000001f0: 56ce 26bd 628a 7c3d 3a4e 42bc a060 58bd
00000200: 165a 1e3d 6280 81bd c873 2a3d e879 153c
00000210: 9aa7 3dbd 47fb d4bc 58a8 72bd 58ab 923c
00000220: 48cb 3bbd dc8e ca3c a8cf 4dbd a117 08bd
00000230: 3c78 3fbd c835 5dbc 8f0e ffbc b849 5abd
00000240: 00d3 023d 0034 0a3d 9c62 94bc ee72 e8bc
00000250: c0bb 27bb 80eb 2b3d d2ab 44bd 58df 443d
00000260: 6c4d de3c cc64 43bd 34e8 55bc e7c1 c0bc
00000270: 5bbc 443d e202 09bd de27 613d 0693 44bd
00000280: 148d 3abd 4059 f2ba 9d74 1fbd 7e80 003d
00000290: f614 193d 1e5a 6a3d 20c5 f73c cc92 23bd
000002a0: df74 4bbd 564f fc3b 6e6e 5b3d 278d 0dbc
000002b0: 904c 35bd 30b5 b9bb 5440 f3bc c063 ab3b
000002c0: aa1e f73c d08c 703c 3e83 65bd 2c52 ff3c
000002d0: df05 1abd 8413 ffbb a4a4 1f3d d813 053d
000002e0: 44e9 01bd 8344 123d edd8 41bc 7b9b fe3c
000002f0: 4690 71bd 4a17 56bd 6c3a 7a3d 4038 68bd
00000300: cacd 34bd b61b 47bd 923c 493d 3a4b 15bd
00000310: c67a 363d ab77 c53c 07d8 723d b475 523d
00000320: e67e ab3c fc84 d93c 762a 1cbd 3155 953c
00000330: ca19 0dbd fdf0 21bd 725c 02bd fcfe 4cbd
00000340: 5106 d6bc 0c0d 4bbd ab51 41bd 28cd 1d3d
00000350: 6f23 b83b baed 3e3d 18b2 41bc 70bb 45bd
00000360: b062 733d a873 3cbd 9b89 1fbb 7a86 813c
00000370: 606a 5dbc 43ed 59bd ec8f 2fbd 78f3 31bc
00000380: 309e 99bb 5694 b73b 794a f03c 05cb c63c
00000390: 1b25 6c3c a0ca 253b 1661 673d a007 fa3c
000003a0: 9443 a23c b697 dc3b 5a82 78bd e0c6 35bb
000003b0: a08e 673d 80bb 2f3b ac63 d23c bcac 7c3d
000003c0: e049 8f37 dfff 24bc 482a 453c 522b e83c
000003d0: 0edb d33c 00a2 403c 3770 9dbc d686 183d
000003e0: ca23 6c3d e453 34bd 9472 06bd aa44 2d3d
000003f0: 100e a63c 8e37 3dbd b7dd 073d 90ae 09bd

V.weight f4 [1, 256]
-0.051132455 -0.034634702 -0.049105294 -0.021482341 -0.03221163 0.01795795 -0.055566937 -0.04989494
-0.052462406 -0.0049397987 -0.0038849786 0.0061785234 0.046102695 0.018386059 -0.0024895517 -0.037126284
-0.023474261 0.042206213 0.016531922 0.02260048 0.0047959997 0.0516771 -0.015327871 0.03965713
0.040026993 0.04370206 -0.049233332 -0.035014085 0.03467328 0.0334429 -0.0040837303 0.043297365
0.06005045 0.002897665 0.031259704 0.060781427 -0.05270791 0.0072135767 0.03798189 0.04895288
0.030712746 -0.035334498 0.022994295 -0.033345252 0.014000326 -0.043169104 0.055697933 0.017999902
0.062454857 -0.048594505 0.037732344 0.040592298 -0.052048128 0.032648932 -0.05442453 0.0134497285
-0.052745983 -0.007899543 -0.0010876879 0.0058240294 -0.023255717 0.028502092 -0.024323083 0.0045863464
0.007282734 0.025694638 0.033019315 0.024922453 0.03656143 0.029747313 0.014360752 -0.019806363
0.05323129 0.05567807 -0.045985013 0.0066703954 -0.053281687 0.034580976 -0.034230787 -0.0047337264
-0.025381722 -0.052132636 -0.008474655 0.057981156 -0.043643266 -0.002354076 0.045357957 0.046975866
-0.04303274 0.04523136 -0.03723067 -0.028219873 -0.027033692 -0.046268232 -0.012138589 -0.05495704
-0.055718716 0.003699176 0.019113746 0.05752021 -0.01437442 0.028692536 0.053624183 -0.005204402
-0.028550072 -0.003567293 -0.03830405 0.04503756 -0.04766687 -0.031183645 -0.029162616 0.040281776
0.039297104 -0.0294722 0.0005291328 -0.008380108 -0.022696622 -0.020311825 -0.019176317 0.060151886
-0.023169331 -0.021709248 0.009175174 -0.010932846 0.034600567 0.040559664 0.024257267 0.044340234
7.585436e-05 0.020681093 -0.0015138164 0.05267948 0.0347263 -0.01904423 -0.0043690754 0.03559804
0.054606155 0.047716 0.038724102 0.048594538 0.012949564 -0.026528984 -0.0054547437 -0.008607298
-0.049124766 -0.016252384 -0.023321606 0.01425083 0.00505057 0.007481376 -0.0072004343 -0.05598153
-0.011708289 0.0076471493 -0.02758861 -0.043737244 0.027511524 -0.009087676 0.042922065 0.053965695
0.04571446 -0.04937192 0.004236977 -0.036935523 0.048893064 0.029440366 0.05335615 -0.0144386515
-0.027362192 -0.023354324 0.061121427 0.008019111 -0.023497403 -0.012843393 -0.02266521 0.0452056
-0.0015295431 -0.045073375 0.023863927 0.030949865 0.0065626074 -0.028348256 0.02155028 -0.03314997
0.060239293 0.019318143 0.058586743 0.025469989 0.029951723 -0.05932779 0.00029183924 -0.025393367
-0.056649357 -0.00837651 -0.043513887 0.0006533265 -0.054529395 0.0063736406 0.057968207 0.05561407
0.03559294 -0.061078176 -0.009701032 -0.030512542 -0.035908643 -0.04403058 -0.048360065 -0.01632478
-0.024938768 0.035221152 0.00718576 -0.00820356 -0.041731548 0.055432357 0.0016261388 0.044195943
-0.061743572 -0.04134752 0.04401237 0.028372794 0.033897236 -0.053101752 -0.015139122 -0.030210912
0.029347762 -0.006066296 -0.012139487 -0.060259286 -0.02823268 -0.019369341 0.053874433 0.054360367
0.031030215 0.041149482 0.02205515 0.042074636 -0.031891935 -0.053814836 -0.046960786 0.0431443
-0.038844712 0.05133414 0.054415546 0.010432086 0.048168585 0.03241162 0.0009190028 0.030428864
-0.01987844 -0.0421198 -0.02215138 -0.043657072 0.04464496 0.033131763 -0.018965438 -0.04533385
00000000: 4470 51bd 1edd 0dbd a222 49bd bcfb afbc
00000010: 58f0 03bd 8d1c 933c 289a 63bd a35e 4cbd
00000020: d2e2 56bd 09de a1bb 209b 7ebb 3675 ca3b
00000030: 2ed6 3c3d 5c9e 963c bf27 23bb bb11 18bd
00000040: 184d c0bc 6ce0 2c3d f46d 873c a424 b93c
00000050: c327 9d3b 5eab 533d c021 7bbc 846f 223d
00000060: 58f3 233d ee00 333d e4a8 49bd ee6a 0fbd
00000070: 9205 0e3d 6cfb 083d d0d0 85bb 9458 313d
00000080: 76f7 753d c0e6 3d3b 2d0a 003d f2f5 783d
00000090: 40e4 57bd de5f ec3b e692 1b3d d182 483d
000000a0: 4c99 fb3c e8ba 10bd 885e bc3c 0895 08bd
000000b0: a061 653c 16d2 30bd 8423 643d 8874 933c
000000c0: aad0 7f3d 080b 47bd 3b8d 1a3d 1c44 263d
000000d0: 6b30 55bd e3ba 053d 42ec 5ebd 405c 5c3c
000000e0: 2c0c 58bd 166d 01bc c090 8eba 80d7 be3b
000000f0: c682 bebc 387d e93c 3441 c7bc 1049 963b
00000100: 00a4 ee3b 907d d23c 433f 073d 2c2a cc3c
00000110: 70c1 153d a3b0 f33c 5c49 6b3c f440 a2bc
00000120: 0e09 5a3d b00e 643d c85a 3cbd 5593 da3b
00000130: e63d 5abd c8a4 0d3d 9535 0cbd 601d 9bbb
00000140: 54ed cfbc 0889 55bd 48d9 0abc a67d 6d3d
00000150: 48c3 32bd d746 1abb 44c9 393d c469 403d
00000160: 1943 30bd 8544 393d 307f 18bd 5d2d e7bc
00000170: c375 ddbc c283 3dbd efe0 46bc a21a 61bd
00000180: 4f39 64bd e06d 723b 6e94 9c3c 509a 6b3d
00000190: b082 6bbc 9c0c eb3c 08a5 5b3d b089 aabb
000001a0: d7e1 e9bc 3fc9 69bb b5e4 1cbd 4e79 383d
000001b0: 563e 43bd d874 ffbc 70e6 eebc 81fe 243d
000001c0: 00f6 203d af6f f1bc 80b5 0a3a b84c 09bc
000001d0: 44ee b9bc fc64 a6bc a717 9dbc d361 763d
000001e0: 9ccd bdbc 98d7 b1bc 7853 163c ae1f 33bc
000001f0: 53b9 0d3d e421 263d 2db7 c63c 1b9e 353d
00000200: 0014 9f38 656b a93c 406b c6ba 70c6 573d
00000210: 2a3d 0e3d a502 9cbc 762a 8fbb 40cf 113d
00000220: b4aa 5f3d da71 433d 2a9d 1e3d 110b 473d
00000230: 682a 543c 5053 d9bc b5bd b2bb a005 0dbc
00000240: 0d37 49bd b823 85bc f40c bfbc 507c 693c
00000250: 407f a53b 5526 f53b 9ff1 ebbb e44c 65bd
00000260: 20d4 3fbc f094 fa3b 8201 e2bc d325 33bd
00000270: d95f e13c 7ae4 14bc 0ccf 2f3d 220b 5d3d
00000280: 163f 3b3d 363a 4abd 57d6 8a3b b449 17bd
00000290: 1844 483d ec2c f13c fa8b 5a3d 1890 6cbc
000002a0: ad26 e0bc 9151 bfbc 765a 7a3d 9762 033c
000002b0: a07d c0bc 186d 52bc 64ac b9bc 8229 393d
000002c0: f37a c8ba dc9e 38bd 487e c33c 928a fd3c
000002d0: 240b d73b 9a3a e8bc 368a b03c 43c8 07bd
000002e0: 7abd 763d 1541 9e3c a7f8 6f3d 70a6 d03c
000002f0: 515d f53c b201 73bd 0002 9939 c005 d0bc
00000300: 2809 68bd a13d 09bc 9e3b 32bd 0044 2b3a
00000310: 375a 5fbd f9d9 d03b 1270 6d3d 94cb 633d
00000320: e7c9 113d 1c2d 7abd 14f1 1ebc 70f5 f9bc
00000330: f114 13bd 6959 34bd 3415 46bd 8cbb 85bc
00000340: 634c ccbc 0e44 103d 8676 eb3b 3968 06bc
00000350: b3ee 2abd 0a0d 633d 2a24 d53a ce06 353d
00000360: d4e6 7cbd 045c 29bd 5146 343d 106e e83c
00000370: d4d7 0a3d 3981 59bd 140a 78bc e07c f7bc
00000380: b86a f03c c7c7 c6bb b3e4 46bc 71d2 76bd
00000390: 3948 e7bc 74ac 9ebc 70ab 5c3d faa8 5e3d
000003a0: 1433 fe3c 5c8c 283d 00ad b43c 7456 2c3d
000003b0: 1ea1 02bd f26c 5cbd f459 40bd 14b8 303d
000003c0: a21b 1fbd bf43 523d d6e2 5e3d 57eb 2a3c
000003d0: 6c4c 453d 0cc2 043d 3ce9 703a f445 f93c
000003e0: 1cd8 a2bc d085 2cbd d076 b5bc c2d1 32bd
000003f0: a2dd 363d 2cb5 073d 685d 9bbc fdaf 39bd

A.weight f4 [6, 256]
-0.059768718 -0.026821941 0.029831577 0.050183006 -0.028405182 0.06027737 -0.040672608 -0.029513698
-0.03011237 -0.010056149 -0.05411291 0.0493669 0.039617024 0.015030205 0.040633414 0.033760127
0.052601233 -0.014109001 -0.044374652 -0.05864343 -0.003961661 -0.005236998 -0.047765754 -0.042383723
-0.033374622 0.0477347 0.018400125 -0.030073432 -0.025471598 -0.024300303 -0.049401768 -0.03840334
-0.006400555 0.048977748 0.0427146 0.034192942 0.06202156 0.007335467 0.05194478 0.02440972
0.024256317 0.014812546 0.025039986 -0.05517681 0.0004891157 -0.01727032 -0.008369692 -0.031358913
0.03367514 -0.01116702 -0.031409096 -0.0148680555 -0.023049418 0.025074678 0.05742971 -0.061646968
0.024637304 -0.029555824 0.04620368 0.03520693 -0.0612512 0.055405334 0.00341136 0.0419377
-0.041390866 -0.04756266 0.00010843185 -0.033156537 0.016875796 -0.019938767 -0.009638428 0.0618414
-0.0088408245 -0.041319184 0.057786226 0.04234096 0.047900707 -0.0028634944 0.03739898 0.0076428354
-0.03655445 0.058109578 0.018179636 0.054182082 -0.0021103024 -0.03747107 0.037318178 0.0050342903
-0.04859572 -0.0405751 -0.04038872 -0.0142433075 0.012631183 0.029064791 0.014586561 0.013617992
0.053606056 -0.006539002 0.056927443 0.062481232 -0.02020546 0.024190381 0.015493788 0.051909447
-0.018302722 -0.0320567 0.05824573 0.030148594 0.009958154 -0.02797579 0.01888097 0.009393371
-0.046588898 0.0031057354 0.04010182 -0.0046674013 -0.005726658 0.059531853 0.011475519 0.046026807
0.060176887 0.04353901 0.04742732 -0.032556262 0.037320808 0.05257079 -0.04562441 0.033631735
0.01638905 0.013294791 0.027314566 -0.027773537 0.0051504374 -0.044364136 -0.038575806 0.03530743
-0.060261935 0.005021408 -0.023516923 0.028946215 0.031702228 -0.044564895 0.059118453 0.013955288
-0.024486927 -0.04983317 -0.014695331 -0.03522206 -0.008487426 -0.018007522 -0.045026466 -0.032228597
0.03446687 0.0121616945 -0.02957262 -0.045866683 -0.017803036 -0.028952003 0.04558704 -0.04394888
-0.03628923 0.0003234297 0.032619286 -0.012495808 -0.023873694 -0.04187265 -0.031295657 0.013467565
0.04486508 0.046340354 0.04019566 0.044464838 0.0624248 -0.04524056 -0.00039990246 0.023716643
0.025747448 -0.051300526 0.050524846 -0.02060946 0.052148502 -0.009283951 0.053269226 0.027731532
-0.046415962 -0.00348666 0.029833056 -0.031077778 0.0002211842 0.012618132 -0.043744266 -0.03721022
-0.044400327 -0.0022277497 -0.045784414 -0.031418294 0.05731159 0.016138155 -0.049073294 -0.00090623647
-0.01632401 -0.0053059086 -0.05751574 0.056043614 0.03950561 -0.037252378 -0.011462264 -0.0004989058
-0.033951156 -0.037767746 -0.05017211 -0.02233936 -0.02195732 -0.01067497 -0.040322453 0.02794889
-0.052336164 0.012253426 -0.010844774 -0.049223874 0.016128793 0.008424363 -0.014049664 0.020483673
4.9859285e-05 -0.03071527 -0.014902895 -0.043183055 -0.00806287 0.023965105 -0.0528156 -0.03753253
0.0043279678 -0.0027172912 -0.0005676523 -0.008730665 0.057819508 0.039738305 -0.052224003 0.058400847
-0.017183037 0.024823368 -0.04680086 -0.020254914 -0.018062312 0.024435736 -0.05674233 0.04477928
-0.040928304 0.02713678 0.040634766 0.05912876 -0.043550916 0.0129066175 0.044174336 0.03137173
00000000: 0bd0 74bd b0b9 dbbc 5a61 f43c b28c 4d3d
00000010: fcb1 e8bc 67e5 763d 5298 26bd b6c6 f1bc
00000020: 38ae f6bc 8cc2 24bc 80a5 5dbd f234 4a3d
00000030: 7645 223d 4041 763c 396f 263d 0f48 0a3d
00000040: 6474 573d 7029 67bc 32c2 35bd 1834 70bd
00000050: d2d0 81bb 209b abbb 06a6 43bd 8e9a 2dbd
00000060: d4b3 08bd 7685 433d dcbb 963c 8f5c f6bc
00000070: d0a9 d0bc 6e11 c7bc 8259 4abd d24c 1dbd
00000080: bfbb d1bb e49c 483d 81f5 2e3d e60d 0c3d
00000090: 520a 7e3d 5b5e f03b 0dc4 543d e5f6 c73c
000000a0: 2fb5 c63c 52b0 723c a820 cd3c 1401 62bd
000000b0: 0038 003a 7c7a 8dbc 0821 09bc 3472 00bd
000000c0: f2ee 093d e0f5 36bc d3a6 00bd 2599 73bc
000000d0: 22d2 bcbc 6969 cd3c 6a3b 6b3d 8881 7cbd
000000e0: 2cd4 c93c 0e1f f2bc 1240 3d3d 2435 103d
000000f0: 8ae2 7abd b4f0 623d 2091 5f3b dec6 2b3d
00000100: 7889 29bd 10d1 42bd e865 e338 26cf 07bd
00000110: 1c3f 8a3c a056 a3bc 7fea 1dbc 684d 7d3d
00000120: 1bd9 10bc 4e3e 29bd 40b1 6c3d b76d 2d3d
00000130: 8833 443d 77a9 3bbb ac2f 193d c070 fa3b
00000140: 1eba 15bd 4f04 6e3d 76ed 943c 08ee 5d3d
00000150: 004d 0abb 447b 19bd f2da 183d b0f6 a43b
00000160: 4e0c 47bd 1332 26bd a46e 25bd c35c 69bc
00000170: 05f3 4e3c 4919 ee3c 79fc 6e3c 001e 5f3c
00000180: 0692 5b3d 2045 d6bb c02c 693d 52ec 7f3d
00000190: ec85 a5bc e82a c63c a8d9 7d3c 009f 543d
000001a0: 97ef 95bc e34d 03bd 1393 6e3d 2ffa f63c
000001b0: 8627 233c 7c2d e5bc 44ac 9a3c a7e6 193c
000001c0: 00d4 3ebd 9889 4b3b ce41 243d 00f1 98bb
000001d0: b0a6 bbbb acd7 733d d103 3c3c 9b86 3c3d
000001e0: 0a7c 763d f655 323d 2643 423d b759 05bd
000001f0: b4dd 183d 7854 573d a9e0 3abd 6ec1 093d
00000200: 5442 863c 65d2 593c ccc2 df3c 5485 e3bc
00000210: 00c5 a83b 2bb7 35bd aa01 1ebd 869e 103d
00000220: 38d5 76bd a08a a43b 90a6 c0bc 9d20 ed3c
00000230: 32da 013d ae89 36bd 3126 723d b8a4 643c
00000240: cf98 c8bc de1d 4cbd b0c4 70bc 0245 10bd
00000250: d80e 0bbc 8384 93bc ac6d 38bd 2202 04bd
00000260: 222d 0d3d d841 473c 4742 f2bc b4de 3bbd
00000270: acd7 91bc c02c edbc 7ab9 3a3d be03 34bd
00000280: 04a4 14bd 0092 a939 cd9b 053d 38bb 4cbc
00000290: c492 c3bc a882 2bbd e02f 00bd 10a7 5c3c
000002a0: 72c4 373d 62cf 3d3d 34a4 243d c320 363d
000002b0: 26b1 7f3d 2a4e 39bd 00aa d1b9 6849 c23c
000002c0: 50ec d23c 8020 52bd 24f3 4e3d 2cd5 a8bc
000002d0: ab99 553d b61b 18bc d530 5a3d 3d2d e33c
000002e0: aa1e 3ebd 7380 64bb 7464 f43c d396 febc
000002f0: aeed 6739 48bc 4e3c 302d 33bd be69 18bd
00000300: 1edd 35bd 70ff 11bb 7088 3bbd 78b0 00bd
00000310: 8fbf 6a3d 2a34 843c 1401 49bd 8090 6dba
00000320: eeb9 85bc 30dd adbb a095 6bbd fd8d 653d
00000330: a2d0 213d f395 18bd 38cc 3bbc 00c9 02ba
00000340: 5e10 0bbd 5ab2 1abd 4581 4dbd 0901 b7bc
00000350: d6df b3bc 12e6 2ebc 2829 25bd 12f5 e43c
00000360: 725e 56bd 98c2 483c 47ae 31bc f99e 49bd
00000370: 8820 843c 5706 0a3c 9030 66bc 60cd a73c
00000380: 0020 5138 979e fbbc 462b 74bc b7e0 30bd
00000390: 211a 04bc 7852 c43c 2c55 58bd b6bb 19bd
000003a0: a0d1 8d3b 9514 32bb 80ce 14ba 100b 0fbc
000003b0: 26d4 6c3d a2c4 223d d6e8 55bd ba35 6f3d
000003c0: 71c3 8cbc 605a cb3c 42b2 3fbd a2ed a5bc
000003d0: 6af7 93bc 742d c83c a56a 68bd 7a6a 373d
000003e0: 70a4 27bd f44d de3c a470 263d 0031 723d
000003f0: 7262 32bd 4776 533c 26f0 343d a57f 003d

A.bias f4 [6]
0.046641827 0.056342762 0.048768267 -0.050149962 -0.028877044 -0.00965247
00000000: 800b 3f3d abc7 663d 3cc1 473d 0c6a 4dbd
00000010: 8d8f ecbc 6525 1ebc
