cool/checkpoints/D3QN/Q_eval/D3QN_q_eval_2250.pth (torch, 278863 bytes, 7 tensors)

fc1.weight f4 [256, 5]
00000000: 3dbf ddbe fd94 97be 3e02 64be b7ae 293d
00000010: e33e c23e 5267 21be fcdc a93e 6040 a93e
00000020: 1844 33be 9085 963d b982 b6be 8448 7d3e
00000030: 2889 40be 7c16 aebd aacc 913e 8698 0fbe
00000040: e0f5 eebd d06c 463d 6071 23be 6807 013d
00000050: 04e9 833e cf10 aabe 3815 4b3e c1e5 85be
00000060: 8c19 853e 257f 26bd b719 15be a966 753e
00000070: 0f88 f63d 300d 763e 0071 233e b056 9c3e
00000080: 00e8 f53c 3c29 ddbd 18fd 8dbe b678 9d3e
00000090: fe14 a93d c19f 4dbe 07a1 923e a794 fd3d
000000a0: 908b 42bd 14ed 793e 4460 c5bd b28a 14be
000000b0: 0054 9fbc b43b a6bd fe6d ab3e a2bc 8f3e
000000c0: f0ea e8bd c8df 06bd 4dca e4be 327f d4be
000000d0: a69b d03e cf20 dbbe 61ac bfbe 0277 c43e
000000e0: 8d3d febe 5ed1 a53e bc0c 9f3e 3918 1abe
000000f0: 153c 50be 5c8b f5be 8c35 473e c6fb c73d
00000100: 23ba 4fbd 7e46 01be d6ce a23e 3497 a03e
00000110: 7eab 3fbe de9f 19be b77e b43e be5b 213e
00000120: fbac 52be 9551 0f3e fd02 a3be 905f ac3c
00000130: 33b3 cabe 037b 9e3e fef5 2cbc a0bb 073e
00000140: 3a7c 5dbe 4c2e d8be 9e09 c93e a060 5cbc
00000150: e00d ae3c c382 d1be 896d 79be 8329 7ebe
00000160: 53f9 bc3e 495a 35bd 30bc 96be 2aab 463e
00000170: 3064 033c 4a60 c63e c8ed 0abe 94c1 94be
00000180: 5b52 39be 2b8f 39bd f27f 323e 0764 abbd
00000190: 3e56 b33e 54f9 003e 747b 193e efd9 92be
000001a0: 96e1 92be 2457 6fbe 06eb ad3e 6020 6c3e
000001b0: 3efe 82be 03a4 aebe 048c cb3e a8f4 d7bd
000001c0: b0ac a13e e8a6 79bd e25e 973e 26ab 34be
000001d0: 2455 c43e 00e6 873b ed9f b7be fc24 a7be
000001e0: f736 d6be 24a9 90be 7052 cdbe 2b2e 043e
000001f0: f0a0 d23e 3496 5c3e 3454 ca3e ed87 253e
00000200: e3a1 453d 168b de3d cab4 3fbe 402f fd3c
00000210: c83f 9b3d 22af 62be 905a 983e cce0 633e
00000220: ab2e bebe e2df 6abe bbbb 73be e0d1 ac3d
00000230: 26c7 bbbe a0d0 cd3d d4cb 1dbe b2fa 19be
00000240: 188d dc3d f886 003d ef00 6bbe 54b0 bb3e
00000250: a838 74be 381c fcbd 18ee a73e 08a3 0a3e
00000260: e875 793c bf8e bb3e 690c 8ebe 3c78 a73e
00000270: bce4 2b3e 4847 453d 8b92 6bbe 4acd b13e
00000280: dc7c d73e 26ef 3b3e 720e c53e 2c9b cc3e
00000290: a386 f0be d04e bebd 79d0 febe 5a4b 793e
000002a0: 091e d73e a4b7 a03a 90cf 21bd a413 d0bd
000002b0: c4d3 db3e 0068 59bc fcdd c1be 9aa7 e03e
000002c0: 2ee5 17be b07b cf3e 1a77 39be 945a d8be
000002d0: d0bb 783d 2874 9c3d 305b 2ebe ba37 90be
000002e0: 744e 343e c66e aa3e e051 f63d 8878 91be
000002f0: 38c3 9fbe 5ad4 893e 42b7 c4be 7085 52be
00000300: f49e 023e c58d 223e 74f5 643d 56c8 3b3e
00000310: 86d7 863e 2a03 86be f1dd c93e 158e dcbe
00000320: ee31 9dbe 1841 2dbd c042 cbbb c639 84be
00000330: c092 853c 04d7 bf3e 0028 6a3c 2063 ecbd
00000340: dbfb afbe a103 b1be 5008 393e 7362 89be
00000350: 4b91 c13e f14d 9b3d 07c7 613e 0dc7 9cbe
00000360: c0b2 9f3d dce7 9b3e d94f e0be c837 1d3d
00000370: 34e2 003e 3401 8bbe 6837 c93e d4c4 08be
00000380: 4056 473e 96f8 c63e 5e6f 32bd f9ea f5bd
00000390: 218d c93e b617 90be 50c0 5f3d 066a 3bbe
000003a0: 08c1 6fbe 30bf bbbd 4843 a5be 8c00 3ebe
000003b0: 5f5f d3be d8dd 8c3e 93ce bdbe fa79 e1be
000003c0: d150 10be a821 2a3e 005f cc3e 1a06 493e
000003d0: 495a 6e3e 9eab c43e 9436 afbe ff3c 3c3e
000003e0: bf2a 413e f0f1 b13e 4252 bdbe 202e 39be
000003f0: 30e1 3fbe d42f b8bd e092 7dbc 00d0 58ba
-0.43309966 -0.29605857 -0.2226648 0.041426387 0.37938604 -0.1576207 0.3317641 0.33056927
-0.17506444 0.07349694 -0.35646608 0.24734694 -0.18802321 -0.08500382 0.2847646 -0.14023027
-0.11667991 0.048443615 -0.15961218 0.031501204 0.25763714 -0.3321595 0.19832313 -0.2615185
0.25996053 -0.0406486 -0.1456059 0.23964943 0.1203767 0.24028468 0.15961075 0.30534887
0.030017853 -0.107988805 -0.27732158 0.30756158 0.08255957 -0.20080473 0.2863848 0.12381869
-0.04749638 0.24406844 -0.09637502 -0.14506033 -0.019449234 -0.08116856 0.33482355 0.28073603
-0.11372936 -0.03292826 -0.44685593 -0.41503292 0.4074375 -0.42798468 -0.37436202 0.38372046
-0.49656335 0.32386297 0.31064403 -0.15048303 -0.2033542 -0.47957885 0.1945402 0.09764819
-0.050714623 -0.12624547 0.31798428 0.3136536 -0.18717763 -0.1500239 0.35252926 0.15757653
-0.205738 0.13995965 -0.31838217 0.021041662 -0.39589843 0.30953225 -0.010556696 0.13255167
-0.2162942 -0.42222822 0.3926515 -0.013450772 0.02124685 -0.40920076 -0.2435819 -0.24820523
0.3690897 -0.044275556 -0.2944045 0.19401231 0.008019492 0.38745338 -0.13567269 -0.29053938
-0.18097822 -0.04530255 0.1743162 -0.08368688 0.35026735 0.12595111 0.149885 -0.28681895
-0.28687733 -0.23373085 0.3396837 0.23059225 -0.25584596 -0.34109506 0.3975526 -0.10544711
0.31577063 -0.06095019 0.29564577 -0.17643413 0.38346207 0.004147291 -0.358642 -0.32645404
-0.4183881 -0.28254044 -0.40101957 0.12908237 0.4113841 0.21541673 0.39517367 0.16165133
0.04825009 0.10866372 -0.1872131 0.03090632 0.07580525 -0.2213712 0.29756594 0.22253722
-0.3714498 -0.22936967 -0.23802082 0.08438468 -0.36675376 0.10049558 -0.15409786 -0.15037039
0.10769099 0.031378716 -0.22949575 0.36657965 -0.23849738 -0.1231007 0.3279884 0.13538754
0.015225865 0.36632344 -0.27743843 0.3270892 0.16786474 0.048163682 -0.2300512 0.34726936
0.42087448 0.18352947 0.38487583 0.39962137 -0.4697772 -0.09292376 -0.49768427 0.2434515
0.42015103 0.001226176 -0.039504588 -0.10159996 0.42935002 -0.013269424 -0.37864673 0.4387787
-0.14833519 0.40524054 -0.1811184 -0.42256606 0.060725987 0.076393425 -0.17026973 -0.28167516
0.17608052 0.33287638 0.12027335 -0.2841227 -0.31203628 0.26919824 -0.38421065 -0.20558715
0.12755948 0.15874393 0.055898145 0.18338141 0.26336306 -0.2617429 0.3942714 -0.4307715
-0.30702156 -0.042298406 -0.0062030256 -0.25825328 0.016305327 0.3746873 0.014291763 -0.11542344
-0.34371838 -0.3457308 0.18069577 -0.26832923 0.37806162 0.075832255 0.22048579 -0.30620614
0.07797766 0.30450332 -0.4381092 0.038383275 0.1258629 -0.27149355 0.39300084 -0.13356334
0.19466496 0.3886153 -0.04356324 -0.12007708 0.39365485 -0.2814309 0.054626763 -0.18302163
-0.2341348 -0.091673255 -0.32277894 -0.18554896 -0.412837 0.27513003 -0.37071666 -0.44038373
-0.14093329 0.16614401 0.3991623 0.19631234 0.23276629 0.38412184 -0.34221327 0.18382643
0.18863963 0.34754896 -0.3697682 -0.18084002 -0.18738246 -0.089934975 -0.015476912 -0.00082707405

fc1.bias f4 [256]
00000000: c601 2f3e c0e3 743d d017 653e 0087 a13a
00000010: 2026 d7bc 0ae2 533e 1567 55be 1620 92be
00000020: 780e 48be c006 dd3d b875 c03e b223 9dbd
00000030: 48e8 af3e 8bcc c5be 1234 99be b06a 373e
00000040: a085 37bd 681d bc3e 919a 123e 1337 0d3d
00000050: 7c08 073e 1c62 9dbe a820 a5be 3713 d8be
00000060: 7c4a cf3c 2272 afbe 40fe ccbd d463 823e
00000070: 034c d9be 9ccc 9e3e f756 a03e 60c7 873e
00000080: 6f68 cebe bfc5 9abe e82b 83be e0f1 c4bd
00000090: 1c64 4e3e 04e7 dbbd 3d31 6ebe 59e3 ae3d
000000a0: 3e7a e33e 3e38 d13e a409 e03e 446e 793e
000000b0: d8ed 063e 823e 90bd da49 0dbe a201 98be
000000c0: da12 d23e 2538 b5be f40d 97be c4b8 ecbd
000000d0: fe5a 983e 2815 953e 9dbf 9abe a051 033e
000000e0: 3d58 af3e 3c79 973e 0e10 c9be 7cd0 e1be
000000f0: 9c75 36be aba0 f53d f023 e93d ec98 19be
00000100: 0bb8 b4be 14d3 d0bd 7292 6ebd acdb 943e
00000110: c5c0 c3be bf3a bd3e 20b8 c83e 2410 d93e
00000120: d38f c8be 0c17 10be 7dc8 2a3e e758 aa3e
00000130: 4863 febd c8c9 773e d6c9 8ebe 640c 183e
00000140: 92b9 bbbe 82fc d43e 0506 5f3e d4ca 123e
00000150: 4295 b6be ba18 843e 3fe4 b2bd 581b 653e
00000160: 729c 8dbe c9f2 55be 8d14 ab3d 70a1 c4bc
00000170: 8855 d33d 22b6 89be 2048 7cbe e096 593e
00000180: d023 b33d 4ee9 d0be 7bff 793e 4c1f 273e
00000190: 56b2 18be e096 b6bc d19d 213e b000 96bd
000001a0: 9b70 223d bc0d 483e 1f4c 9b3e 4465 1e3e
000001b0: d3ba 613e db53 043e 7a4b 17be 0cf6 e5bd
000001c0: 57ee bd3c a0eb c73e ccee 1c3e cba2 303e
000001d0: 0fea d73d bc72 d5bd 360c 86be d388 933e
000001e0: e646 be3e 5e3a c63d 40e8 843d b85e fa3d
000001f0: 43ea c0be b8bd d63d 20ef cf3e c08a 2fbc
00000200: a46c 9f3c 9607 72be 70c5 a7bd 1067 803e
00000210: 6e2f c73e 1c00 823e 48ff 70be 119d a7be
00000220: 30a3 7c3e e828 69bd e2fd c63e d43b ca3e
00000230: 62a8 c6be c90d 4fbe 459b 123e 6c09 5a3e
00000240: 8497 323e cc64 9cbd c7b9 c8be b2fc b7be
00000250: a80b 9cbd 82c7 b53d e812 4a3e a80b 28bd
00000260: 2c4b 5c3e e0b1 0a3c eb1a 4f3e 186f cdbe
00000270: 5905 bd3e 1cf7 403c a4d2 b03e 38aa 523d
00000280: 225f b13e c1ac d4bb f8ec 363e a8ae 0fbe
00000290: 6383 93be 1a62 b1be dfa2 a9be a0ed 1e3e
000002a0: b068 81bc 2a87 5bbe 0859 953e 72f0 aabe
000002b0: 091b 0c3e 1812 53be 4fe9 a23e 43f1 ccbc
000002c0: a496 193e ecfa a03e 1e18 a5be 3113 a8be
000002d0: fea8 c4be a8b9 cd3d d8f2 8ebe 967d a93e
000002e0: ac4c 543e c08c dd3c c099 af3e ed3d 75be
000002f0: 184e 5f3e 4863 8a3d 6475 f63d b875 de3d
00000300: f01c 863c f8a7 c23d 7423 6e3e 88af 093e
00000310: 7064 313e bc27 0e3e 745d bfbe 98dd b5bd
00000320: 6b9c a6be 5700 62be 5f4d 7a3e 623d c13e
00000330: 20b2 c3bc d58e 6cbe 8465 0e3e 2839 903d
00000340: 4a18 283e 8aa1 cb3d 8528 183e 3f99 393e
00000350: 50bc 5c3d c86a 8b3e c71c a3be 89ce cf3e
00000360: 448f a43e b7c6 3abe 2059 d93e 8829 683e
00000370: 6829 9e3e 40a9 693d b67c 78bd 1d29 42be
00000380: db0b c6be fac5 90be 04f7 eebd d02b c2be
00000390: 9640 5b3e 705b cb3c 8ea3 adbe 90c2 a9bc
000003a0: e85c 043e 7cce af3e 40e3 85bc 10bc d93e
000003b0: 8c58 2abe 9442 de3e 5368 7abe 78c3 2c3e
000003c0: 7264 13be ccf3 d5be 8299 5dbe 06d3 a93e
000003d0: f24a 41be 8458 ab3e 293c 79be a82f e3bd
000003e0: 7e1b 02be 434f c53e 9f1e 863e 40dc d8bb
000003f0: 6478 a0bd 08cc 1c3e ac63 c6be 280d 833d
0.1709052 0.05978751 0.22372365 0.0012323558 -0.026263297 0.20691696 -0.20840104 -0.28540105
-0.1953677 0.10792303 0.37589812 -0.07672824 0.34356904 -0.38632616 -0.2992254 0.17911792
-0.04480517 0.36741185 0.14316775 0.03447635 0.1318683 -0.30738914 -0.32251477 -0.4220216
0.025304072 -0.34266764 -0.10009432 0.25466788 -0.42440805 0.3101548 0.3131635 0.265193
-0.40314052 -0.30228993 -0.25619435 -0.096164465 0.20155376 -0.10737422 -0.2326097 0.08539457
0.444292 0.40863222 0.43757355 0.24358469 0.13176668 -0.070431724 -0.13797703 -0.29688746
0.41030008 -0.35394397 -0.29502833 -0.11558679 0.29756922 0.29117703 -0.30224314 0.12824106
0.34247008 0.29584682 -0.3927006 -0.44104373 -0.17818302 0.119935356 0.11383808 -0.14999741
-0.35296664 -0.1019651 -0.05824513 0.29073846 -0.3823301 0.36958882 0.39202976 0.42395127
-0.3917223 -0.14071292 0.16678043 0.33270952 -0.1242128 0.24198067 -0.27888364 0.14848477
-0.36665016 0.41598898 0.2177964 0.14335185 -0.3566075 0.25800115 -0.08734941 0.22373712
-0.2765842 -0.20893396 0.08353529 -0.02400276 0.10319048 -0.2689677 -0.24636889 0.2124896
0.08747065 -0.40802997 0.24413864 0.16320533 -0.1491178 -0.02228874 0.15782858 -0.0732435
0.03965817 0.19536489 0.30331513 0.15468317 0.22043924 0.12922613 -0.14774886 -0.1122857
0.023184938 0.39046955 0.15325469 0.172496 0.1054269 -0.104222745 -0.2618119 0.28815326
0.37163466 0.096791014 0.06489611 0.122250974 -0.37678728 0.10485405 0.40612125 -0.010714233
0.019460984 -0.23635706 -0.08191955 0.2507863 0.38903373 0.25390708 -0.23534882 -0.3273702
0.24671626 -0.056923777 0.38865572 0.3949877 -0.3880034 -0.20220102 0.14317043 0.21292657
0.17440611 -0.07636413 -0.39204237 -0.3593498 -0.07619411 0.08875944 0.19733775 -0.04102674
0.21513051 0.00846526 0.20225112 -0.4012382 0.36918142 0.0117776655 0.34535706 0.051431865
0.34642893 -0.0064903204 0.17863834 -0.1403147 -0.28811178 -0.34645158 -0.33132073 0.15520334
-0.01579699 -0.2143828 0.29169488 -0.3338657 0.13682188 -0.20612371 0.31818625 -0.025017386
0.14998871 0.31441438 -0.32244962 -0.32827142 -0.3841018 0.10045177 -0.2791965 0.33103627
0.20732373 0.027044654 0.3429699 -0.23949404 0.21807134 0.06757218 0.12034109 0.10862297
0.01637122 0.09504694 0.23255712 0.13445866 0.1732347 0.13882345 -0.37375987 -0.08880156
-0.32541212 -0.22070442 0.24443577 0.37742144 -0.023888648 -0.23101361 0.13905913 0.07042152
0.16415516 0.099429205 0.14859207 0.18124865 0.053890526 0.27229905 -0.31857893 0.4058726
0.32140553 -0.18239866 0.4245081 0.22672093 0.30890965 0.057046175 -0.06066581 -0.18960996
-0.3868092 -0.28276044 -0.11668208 -0.3792405 0.21411356 0.024823874 -0.33913845 -0.020722657
0.12926066 0.34337223 -0.016343713 0.42526293 -0.1663534 0.4341017 -0.24453859 0.1687144
-0.14393786 -0.41787565 -0.2164059 0.3316881 -0.18876246 0.3346597 -0.24339356 -0.11093074
-0.127058 0.38537034 0.26195237 -0.0066180527 -0.07835463 0.15312207 -0.3874792 0.06398994

fc2.weight f4 [256, 256]
00000000: f075 9c3b 4888 7d3d 7865 3ebd f00c 2ebd
00000010: 5005 ea3b 5811 5cbd 0483 e8bc 563e cd3c
00000020: 3a3c 18bd 7280 45bd c032 3c3b bed1 32bd
00000030: 0967 703d 8865 52bd 86c4 0a3d 4f9b 1d3c
00000040: a0ee eebb 376b e2bc a6bb 043d 3a14 6abd
00000050: 602e 53bb e2f8 2f3d a806 c8bc fcd6 b6bc
00000060: 3712 e33a 06eb 69bd 024d 68bd f047 ecbb
00000070: 5009 83bb 08eb 9dbc 9066 88bc e028 6a3d
00000080: e4e4 f4bc 79b2 f8ba 2087 d2bc 1278 573d
00000090: 0c44 6d3d d821 88bc c4e3 c83c 2df3 50bc
000000a0: eacf 583d 7848 1dbc 7f0a 3f3d f877 bcbc
000000b0: 089e 94bc 48c7 1f3c a4de 513d 2aaa 5fbd
000000c0: 758f 7abc 2e0a 653d 480e 61bd 6004 5c3b
000000d0: bcfa 783d c0a4 143c ced3 4e3d 8c43 06bd
000000e0: bb22 073d dcac a9bc ab05 223d befe 0abd
000000f0: f83a 5e3d 6a2c 813c 0a1a 03bd e01a e83b
00000100: e234 50bd 747e 6dbd ef90 eb3b 6de0 16bc
00000110: b3ac 84bb 2128 41bc a4d7 b03c 7e13 533d
00000120: 00e3 903b d018 8a3c d44a 523d 6fd4 b0bc
00000130: f82c 6bbd 497c fcbc c0b7 bd3c 4179 62bd
00000140: c7e4 3f3d b00c 0cbc 88cd 5e3d 7b22 b5bc
00000150: e4c8 4abd f8ee 843c 1b31 09bd a0ea e73b
00000160: 77c0 dd3c 4c7e 4a3c 9ac8 80bd 588d 0d3c
00000170: a03e 47bc 9cec d7bc 2f62 4d3d ace4 ad3c
00000180: 401e e6ba e0dc 2c3d ac27 033d f42f 78bd
00000190: f898 1dbc 5037 63bd e153 b13b 68ef 563d
000001a0: 3a0e 0fbc 20f1 df3c d8d7 813c 683a 193d
000001b0: 31ce 6cbd 3d6a 053d 666d 2cbd 2a79 25bd
000001c0: 103d 1a3d 1072 65bc 3075 a5bc 9657 3a3d
000001d0: e74d 4f3c 326e 79bd 63d8 403d f608 a9ba
000001e0: c0aa c53b 1ab8 f4bc a435 c53c 54c1 443d
000001f0: 0a68 483d 5079 d73b 038c a03c 3c0f 8fbc
00000200: 6624 5abd 3403 f9bc 023d 55bd 4248 62bd
00000210: 4054 bf3c 0cf9 d43c a8b2 0dbd 0126 2f3d
00000220: 0e10 133d d726 46bd c6da 103d 3231 7b3c
00000230: 5e14 413d 2747 9d3c 8365 a5bb 103a 04bd
00000240: 6844 c9bc 6aad 383d 1a5f 3e3d 7c82 15bd
00000250: dca2 a3bc 7a99 843c bab2 303d d2c5 0ebd
00000260: 20dd 913b c8a0 573d 3122 0bbd 8641 023d
00000270: ef7c 5f3b 8df7 86bc e089 1cbb 405b 59bb
00000280: 6aa3 d33c 0954 3abd 647f 7c3d d260 a4bc
00000290: 6de9 c0bc e242 54bd d073 c63c e8a6 2cbc
000002a0: 5848 04bc ac71 afbc aa0a 2dbc f883 17bc
000002b0: 09d9 a03c ed0b bdbc 9841 b7bc 2020 4a3d
000002c0: 833a 0f3d 3022 5f3c 66dd 203b f091 fbbc
000002d0: bd60 683d a0df e43c 7481 313d 900a 363d
000002e0: 3a99 01bd 449b 613d e839 1a3c e4ba 343d
000002f0: da09 0d3d d873 7b3c f55c 0e3d 805d 443a
00000300: 3cf8 973c c46d 8c3c adb3 bfbc aed7 4dbd
00000310: d8c5 97bc e3e2 833c 6b7f 24bd 6832 d83c
00000320: 1c4e 01bd cea1 ae3c 08c6 be3c 4209 0b3d
00000330: 4c58 e1bc 8441 70bc d0c1 a5bc 447f 2d3d
00000340: eebf 7abd 78cf 4f3d f00e 8d3c 7a13 ea3c
00000350: be53 4fbd 8406 a63c ab33 143d d437 2d3d
00000360: 0f5b 213d 5b62 4e3d 1c66 ad3c 7ca0 c8bc
00000370: b08e 293d ec44 60bd 0d50 203c 3642 17bd
00000380: f060 4abd 5498 b43c 987d 3b3d 48c2 023d
00000390: 2e2e 08bd 40bf 013b 8e38 563d 90eb babb
000003a0: 70a1 94bb dc82 aabc 5e06 17bd 2afc 0ebd
000003b0: 76af 5c3d c66e 033d 200b b43c 7a4c 0cbd
000003c0: 143c 443d a659 77bd 0f46 643c 8e2a 0fbd
000003d0: 024a 1ebc 603d 1dbc aa1f 08bd 7034 cbbc
000003e0: 5ca3 4c3d 44c2 2dbd aa65 68bd f0c5 773c
000003f0: 9ab2 37bd 4fe7 ccbc d7cc 183d 742e 22bd
0.0047748014 0.061897546 -0.046483487 -0.042492807 0.0071417466 -0.053727478 -0.028382786 0.025054138
-0.03716681 -0.048218198 0.0028716773 -0.043657057 0.058692012 -0.05136636 0.033878826 0.009619548
-0.00729163 -0.027639015 0.032405518 -0.057148196 -0.0032223687 0.042961963 -0.024417236 -0.02231931
0.0017324154 -0.0571089 -0.056714065 -0.007210724 -0.003998913 -0.01927711 -0.016650468 0.057167888
-0.0298943 -0.0018974087 -0.025699198 0.052604742 0.057926223 -0.0166177 0.02452267 -0.01275329
0.052932657 -0.009599797 0.04664087 -0.023006424 -0.018141761 0.009752102 0.051237717 -0.05460564
-0.015292992 0.05591791 -0.05494526 0.0033571944 0.060785994 0.009072483 0.05049496 -0.03277926
0.032992106 -0.020712309 0.039556187 -0.033934347 0.054255456 0.015768249 -0.032007255 0.007083282
-0.050831683 -0.057981923 0.0071889083 -0.009208781 -0.0040489077 -0.011789353 0.0215872 0.05153226
0.0044215918 0.016857535 0.051340893 -0.021585671 -0.057415932 -0.030820983 0.023158908 -0.055291418
0.04684904 -0.008547947 0.05439523 -0.022111168 -0.04950799 0.01622723 -0.033494096 0.00707753
0.027069313 0.012359213 -0.06288262 0.008639656 -0.012160927 -0.026357941 0.050142463 0.021227203
-0.0017556623 0.04220283 0.032020256 -0.060592607 -0.00961899 -0.055472672 0.0054116105 0.05247441
-0.008731419 0.027336657 0.015849993 0.037409216 -0.057813827 0.03257202 -0.042096518 -0.040398754
0.03765589 -0.014004245 -0.02019748 0.045493685 0.012652851 -0.060896106 0.047081362 -0.0012896347
0.006032318 -0.029872943 0.02407343 0.048035935 0.048927344 0.006575741 0.019598013 -0.017463319
-0.05325737 -0.030397035 -0.052060135 -0.05524469 0.023355603 0.025997661 -0.034594208 0.042760853
0.035903983 -0.048376884 0.03536489 0.015331553 0.047138564 0.019198967 -0.0050475015 -0.032281935
-0.024568751 0.045087256 0.046477415 -0.036501393 -0.019975118 0.016186465 0.043139197 -0.034856625
0.004451409 0.052643567 -0.033968154 0.03180077 0.0034101566 -0.016475463 -0.002388589 -0.0033165962
0.025834758 -0.0454903 0.061644927 -0.020065699 -0.023548806 -0.051821597 0.024225146 -0.01053784
-0.008073889 -0.021416508 -0.010561625 -0.009247772 0.01963474 -0.023076976 -0.022370145 0.049347043
0.03496791 0.013618991 0.0024546026 -0.030709237 0.05673288 0.027938664 0.043336347 0.044443667
-0.03164027 0.055079713 0.00941322 0.044123545 0.034433223 0.0153474435 0.03475662 0.0007490739
0.018550985 0.017142184 -0.023401106 -0.050254516 -0.018526956 0.016099399 -0.040160578 0.026391223
-0.03156863 0.021317389 0.023287788 0.033944376 -0.027507924 -0.014664058 -0.020234019 0.042357698
-0.061218195 0.050734967 0.017219037 0.02857374 -0.050616972 0.020266779 0.036182087 0.04228957
0.03939348 0.050386768 0.021166854 -0.024490587 0.041395843 -0.05475323 0.009784711 -0.036928378
-0.049408853 0.022045292 0.045774072 0.031923562 -0.033247165 0.0019797832 0.05230003 -0.005704351
-0.0045358464 -0.020814352 -0.036871307 -0.03490845 0.05387827 0.032088064 0.021977961 -0.03425262
0.047908857 -0.06038823 0.013932719 -0.034952693 -0.0096611995 -0.0095971525 -0.033233322 -0.024805278
0.04996048 -0.042421594 -0.05673758 0.015122876 -0.044848062 -0.02501264 0.037304725 -0.039595082

fc2.bias f4 [256]
00000000: 0e19 28bd d1c1 4a3d 677d 5abd 0cfa 8cbc
00000010: 8017 683b f4f6 27bd d03e 363c a7b5 79bc
00000020: 30fd 13bd e532 27bd 5cca c63c 7019 84bb
00000030: ea91 64bd 947c f93c 8e4d 7fbd b3ca e7bc
00000040: 76cd 6e3d 6017 60bc 5049 57bc cc85 52bd
00000050: 23c4 fabc 0498 19bd 4e84 7fbd 2001 5c3d
00000060: 80bf 303c d610 1e3d 10e7 72bc 0342 683c
00000070: 700b fcbc 78c2 3d3d e65e 57bd e02f 41bc
00000080: cef0 7fbd 44b8 babc 22c6 2b3d f00e 76bc
00000090: 842e 66bd 6224 253d 24dc 7bbd 15ee 29bd
000000a0: 1da2 52bd a41b 7fba fa8a 5fbd 34cb 633d
000000b0: ccd9 44bd d369 643d 205d 4b3c a45b 173d
000000c0: f05f e1bb c419 d9bc 978b da3c e7fe f4bc
000000d0: d627 56bd 6629 bd3c f047 79bc c0d6 b03b
000000e0: d686 7bbd 4dd4 ebbb 7ccc 603d 0012 b93c
000000f0: 0249 3dbd a69e 23bd 3436 643d 781a 60bc
00000100: 4cc0 3c3d 02cd 5d3d 03ab 1fbd fccf 1a3d
00000110: c07f 26bb 94aa 3b3d 49f4 463d f6c1 4a3d
00000120: 5179 653d 2cf2 fc3c 5011 babc 4cde 56bd
00000130: 86dc 7dbd 6f15 543d f3c6 e43c 8402 ea3c
00000140: 2c75 c1bc 6774 69bd 665c 543c c6d7 453d
00000150: f8a9 793d 5da0 dfbc 983c 6dbc 5268 5c3d
00000160: 2194 eb3c c867 103d 8e1f 633d 2a5c 413d
00000170: d5e9 e23c 5a2d 993c 30cf 55bd 8440 a2bc
00000180: c794 e83c 0018 a1b9 42df 3c3b daa2 30bd
00000190: 884c 833c 74e9 6dbd f03e ecbc 88fc 343c
000001a0: ec37 95bb c970 433d 18a2 80bc 9a24 70b9
000001b0: 6e4c 523d b0f5 5e3d 04fd 3bbd 50c2 5b3d
000001c0: f2a5 6cbd 99fb 373d 203c d3bb c830 3bbc
000001d0: 7851 c93c 04c5 643d dbf2 f9bc c660 243d
000001e0: 988c b0bc 1281 5cbd f050 6ebc 7380 db3c
000001f0: 6d20 2ebd 628a 7c3d 90f5 78bc 783e 5dbd
00000200: 165a 1e3d e834 84bd c873 2a3d e879 153c
00000210: 9aa7 3dbd 47fb d4bc 387d 79bd 58ab 923c
00000220: 48cb 3bbd dc8e ca3c a8cf 4dbd a08f 13bd
00000230: 3c78 3fbd c835 5dbc 5b82 11bd b849 5abd
00000240: 49de 053d 5742 1f3d 9c62 94bc fca2 02bd
00000250: c0bb 27bb 71a9 283d 4f5a 41bd 58df 443d
00000260: 6c4d de3c cc64 43bd cde6 21bc f77e c2bc
00000270: c495 3f3d 3e08 edbc de27 613d 0693 44bd
00000280: 148d 3abd 4059 f2ba 7285 47bd 7e80 003d
00000290: f614 193d 1e5a 6a3d 20c5 f73c cc92 23bd
000002a0: a3e6 51bd 1e42 4e3c 6e6e 5b3d 278d 0dbc
000002b0: 904c 35bd 30b5 b9bb 5440 f3bc c063 ab3b
000002c0: aa08 063d d08c 703c 3e83 65bd 0c28 e73c
000002d0: 0cc9 26bd d27f 1cbc 5730 273d 844e 033d
000002e0: 44e9 01bd 06f6 033d 248c 3dbc 2083 c73c
000002f0: 0a3a 73bd 4a17 56bd 6c3a 7a3d 5fa0 6fbd
00000300: cacd 34bd b61b 47bd 923c 493d 3a4b 15bd
00000310: bd6d 373d ab1c c13c 9bd1 6d3d b475 523d
00000320: e67e ab3c fc84 d93c 3983 1fbd 7db0 983c
00000330: fab8 0cbd c2e2 1abd bcf2 04bd 2e89 5cbd
00000340: 26eb c8bc a214 55bd d11c 68bd 28cd 1d3d
00000350: 51d1 503b baed 3e3d 79a3 11bc 1bcc 4bbd
00000360: b062 733d a873 3cbd 9b89 1fbb 8646 723c
00000370: 606a 5dbc 866c 54bd 5bc1 16bd 78f3 31bc
00000380: 309e 99bb 5694 b73b 4649 d03c aeea cd3c
00000390: 1b25 6c3c a0ca 253b 1661 673d a007 fa3c
000003a0: 9443 a23c 0891 9c3b 5a82 78bd e0c6 35bb
000003b0: a08e 673d 80bb 2f3b ac63 d23c bcac 7c3d
000003c0: 28fd 863a 4401 67bc 482a 453c 522b e83c
000003d0: f81e b63c 00a2 403c a535 71bc d686 183d
000003e0: 0eb0 5c3d e453 34bd 9472 06bd aa44 2d3d
000003f0: 2f3b 653c 8e37 3dbd 1549 083d 8bf6 07bd
-0.04103952 0.049501244 -0.05334225 -0.017209075 0.0035414398 -0.041006997 0.011123374 -0.015241063
-0.03613013 -0.04082002 0.024266414 -0.0040313527 -0.055803217 0.030454911 -0.06232982 -0.028294897
0.05830141 -0.013677448 -0.013140038 -0.05139713 -0.030611103 -0.03749849 -0.062382035 0.05371201
0.010787845 0.038590275 -0.014825597 0.014175895 -0.030767173 0.046328038 -0.052580737 -0.011791199
-0.06248551 -0.022792943 0.041937 -0.01501821 -0.056196705 0.0403179 -0.06148924 -0.04148682
-0.051424135 -0.0009731597 -0.054575898 0.05561371 -0.04805927 0.055764984 0.012412339 0.03695263
-0.0068778917 -0.026501544 0.02667789 -0.029906703 -0.052284084 0.02309103 -0.015214905 0.005396694
-0.061407886 -0.007196939 0.05488251 0.02259159 -0.046212204 -0.03994622 0.055715755 -0.013678186
0.046081826 0.05415059 -0.03898145 0.037796006 -0.0025405735 0.045816973 0.048572812 0.04950138
0.0560239 0.030877195 -0.022713333 -0.052458093 -0.061977886 0.051778253 0.027926898 0.028565653
-0.023615442 -0.056995776 0.012961483 0.04830148 0.06095311 -0.027298147 -0.014479779 0.053810425
0.028757157 0.035255224 0.055450015 0.047207035 0.02769939 0.018698383 -0.052199543 -0.019806154
0.028391255 -0.00030726194 0.0028819595 -0.043124057 0.016027704 -0.058083966 -0.028838605 0.011046536
-0.0045537855 0.047714982 -0.015702292 -0.00022901819 0.05134242 0.054433525 -0.04589559 0.053652108
-0.057775445 0.044917677 -0.0064463764 -0.011425205 0.02457498 0.05585195 -0.03051131 0.040131353
-0.021551415 -0.05383403 -0.014545664 0.026794648 -0.042511392 0.06165541 -0.015195265 -0.054014653
0.03866013 -0.064554036 0.041614324 0.009123303 -0.046302415 -0.025998725 -0.060910434 0.017903969
-0.04584816 0.024726324 -0.050246865 -0.036025643 -0.046745524 -0.013501592 -0.035524707 -0.05329296
0.03268269 0.038881626 -0.018113427 -0.031893715 -0.0025594085 0.041177217 -0.047205266 0.04806456
0.027136527 -0.04770355 -0.009881687 -0.023742182 0.046773687 -0.028934594 0.05496966 -0.047991775
-0.0455447 -0.0018489733 -0.048711248 0.03137254 0.037373506 0.05721485 0.030245364 -0.03993492
-0.051245343 0.012589006 0.05357211 -0.00863961 -0.04426247 -0.005667351 -0.02969376 0.005230397
0.032723106 0.01468201 -0.056033365 0.028217338 -0.040719077 -0.009551959 0.040817585 0.0320573
-0.0317166 0.032217048 -0.011569057 0.024354517 -0.059381522 -0.052268304 0.06109087 -0.05850255
-0.04414157 -0.04861041 0.04913003 -0.036448695 0.04478239 0.02357324 0.058061223 0.05138178
0.020934533 0.02655267 -0.038943503 0.018638844 -0.034356095 -0.03781391 -0.032458052 -0.053841762
-0.02452619 -0.05202163 -0.056668106 0.03852573 0.0031863044 0.046613432 -0.008889073 -0.049755197
0.059420288 -0.046008736 -0.0024343494 0.014787322 -0.013514131 -0.05186131 -0.036805492 -0.01086127
-0.004688047 0.0056024 0.025425564 0.025136318 0.0144131435 0.0025297776 0.056489073 0.030521214
0.019807614 0.0047780313 -0.060671188 -0.0027736947 0.056532502 0.002681464 0.025682293 0.06168817
0.0010298835 -0.014099423 0.012034006 0.02834097 0.022231564 0.011757374 -0.0147222625 0.037237965
0.053878836 -0.044025317 -0.032824114 0.04230181 0.013991161 -0.04619556 0.03327282 -0.033194106

V.weight f4 [1, 256]
00000000: 59ba 17bd b2d1 d3bc dd24 39bd bcfb afbc
00000010: 58f0 03bd 7a1f 9e3c 289a 63bd a35e 4cbd
00000020: d2e2 56bd 0985 80ba 209b 7ebb 0be7 fb3b
00000030: 2ed6 3c3d 5c9e 963c 4050 b53a bb11 18bd
00000040: 184d c0bc 6ce0 2c3d f46d 873c a424 b93c
00000050: 17e5 c338 5eab 533d c021 7bbc 846f 223d
00000060: 58f3 233d ee00 333d e4a8 49bd 6f43 8cbc
00000070: 9205 0e3d c28f e03c d0d0 85bb 9458 313d
00000080: 7581 6a3d c0e6 3d3b 38d1 ee3c f2f5 783d
00000090: 40e4 57bd 28d3 6c3c f60e ed3c d182 483d
000000a0: b4f2 da3c 62fb 02bd 885e bc3c 7d1f febc
000000b0: a061 653c 2396 22bd 8423 643d 8874 933c
000000c0: aad0 7f3d 080b 47bd 3be6 ff3c e587 1e3d
000000d0: 9521 24bd 0a80 f03c 42ec 5ebd 405c 5c3c
000000e0: 2c0c 58bd 1ceb 2ebc c090 8eba 80d7 be3b
000000f0: 0db7 b9bc 387d e93c 3441 c7bc 1049 963b
00000100: 00a4 ee3b 907d d23c 18d8 da3c 2c2a cc3c
00000110: 70c1 153d 0663 cc3c f2f4 433c f440 a2bc
00000120: d2e4 413d b00e 643d c85a 3cbd 6314 853b
00000130: e63d 5abd b72c 053d aeed 02bd 601d 9bbb
00000140: 54ed cfbc 6970 3dbd 23ba dbbb 265e 473d
00000150: 48c3 32bd 7de8 633b 44c9 393d c469 403d
00000160: 86d0 ffbc 8544 393d 307f 18bd e7a2 9ebc
00000170: a918 cbbc e0df 34bd fe5d 9cbb a21a 61bd
00000180: b9de 1ebd e06d 723b 6e94 9c3c 509a 6b3d
00000190: b082 6bbc 9c0c eb3c 08a5 5b3d b089 aabb
000001a0: db65 adbc 501d 5cbb d6b9 f7bc abc4 2a3d
000001b0: cdb0 fcbc d874 ffbc 70e6 eebc 81fe 243d
000001c0: 00f6 203d 2ae8 bebc 80b5 0a3a b84c 09bc
000001d0: 44ee b9bc fc64 a6bc 9c9d 8ebc 8810 573d
000001e0: 9ccd bdbc 98d7 b1bc 7853 163c 3623 e4bb
000001f0: daab 033d e421 263d cf50 713c 5d23 133d
00000200: 0014 9f38 e2ed 533c 406b c6ba 70c6 573d
00000210: 2a3d 0e3d a502 9cbc 6569 c0bb 40cf 113d
00000220: b4aa 5f3d da71 433d 2a9d 1e3d f3ec 3c3d
00000230: 682a 543c 5053 d9bc c8d4 e73b a005 0dbc
00000240: 3f46 34bd a1bd 9fbc f40c bfbc 337a 9f3b
00000250: 407f a53b d300 b83b 3129 91bb e44c 65bd
00000260: 20d4 3fbc f094 fa3b c5aa d7bc 20ed 06bd
00000270: 01fe e93b b3b4 41bc 0ccf 2f3d 220b 5d3d
00000280: 163f 3b3d 363a 4abd d77f f93b b449 17bd
00000290: 1844 483d ec2c f13c fa8b 5a3d 1890 6cbc
000002a0: d756 bcbc 4c54 8abc 765a 7a3d 9762 033c
000002b0: a07d c0bc 186d 52bc 64ac b9bc 8229 393d
000002c0: 6bde 313a dc9e 38bd 487e c33c b033 ec3c
000002d0: b61c 003c bf9f a2bc 29b0 323c cb2a b6bc
000002e0: 7abd 763d d47d 123c 6be7 583d 23e8 be3c
000002f0: edff c73c b201 73bd 0002 9939 8c3b a4bc
00000300: 2809 68bd a13d 09bc 9e3b 32bd 0044 2b3a
00000310: efc4 56bd c839 cc3b 0163 5f3d 94cb 633d
00000320: e7c9 113d 1c2d 7abd ff80 c3bb cbf5 a6bc
00000330: 88e5 b0bc 7fb8 28bd eaf3 17bd 1d32 54bc
00000340: 5bd9 73bc 9678 023d 7c19 3f3c 3968 06bc
00000350: b8da 1cbd 0a0d 633d 78de 88b8 8dd1 203d
00000360: d4e6 7cbd 045c 29bd 5146 343d bad0 673c
00000370: d4d7 0a3d bdaa 1fbd 9a1d 30bc e07c f7bc
00000380: b86a f03c c7c7 c6bb a47f 4cbb 90f0 66bd
00000390: 3948 e7bc 74ac 9ebc 70ab 5c3d faa8 5e3d
000003a0: 1433 fe3c a2b8 eb3c 00ad b43c 7456 2c3d
000003b0: 1ea1 02bd f26c 5cbd f459 40bd 14b8 303d
000003c0: 1012 9abc a881 3a3d d6e2 5e3d 57eb 2a3c
000003d0: 666e e83c 0cc2 043d 8f07 96bb f445 f93c
000003e0: 4019 69bc d085 2cbd d076 b5bc c2d1 32bd
000003f0: a841 293d 2cb5 073d 5df3 78bc 54c3 31bd
-0.03704295 -0.025856826 -0.04520117 -0.021482341 -0.03221163 0.019302119 -0.055566937 -0.04989494
-0.052462406 -0.0009805273 -0.0038849786 0.0076874546 0.046102695 0.018386059 0.001383312 -0.037126284
-0.023474261 0.042206213 0.016531922 0.02260048 9.340996e-05 0.0516771 -0.015327871 0.03965713
0.040026993 0.04370206 -0.049233332 -0.017121999 0.03467328 0.027412299 -0.0040837303 0.043297365
0.057252366 0.002897665 0.029152498 0.060781427 -0.05270791 0.01445464 0.028937798 0.04895288
0.026727058 -0.03197802 0.022994295 -0.031020874 0.014000326 -0.039693963 0.055697933 0.017999902
0.062454857 -0.048594505 0.031237712 0.038703818 -0.04007109 0.029357929 -0.05442453 0.0134497285
-0.052745983 -0.010676172 -0.0010876879 0.0058240294 -0.022670293 0.028502092 -0.024323083 0.0045863464
0.007282734 0.025694638 0.02671437 0.024922453 0.03656143 0.024949562 0.011960255 -0.019806363
0.04733736 0.05567807 -0.045985013 0.004061268 -0.053281687 0.032513347 -0.03196495 -0.0047337264
-0.025381722 -0.04624978 -0.006705539 0.04867377 -0.043643266 0.0034776025 0.045357957 0.046975866
-0.031227361 0.04523136 -0.03723067 -0.019364787 -0.024792032 -0.044158816 -0.004771947 -0.05495704
-0.038786624 0.003699176 0.019113746 0.05752021 -0.01437442 0.028692536 0.053624183 -0.005204402
-0.021166733 -0.0033586808 -0.03023998 0.041691463 -0.030846024 -0.031183645 -0.029162616 0.040281776
0.039297104 -0.023304064 0.0005291328 -0.008380108 -0.022696622 -0.020311825 -0.017409138 0.052506
-0.023169331 -0.021709248 0.009175174 -0.0069622053 0.032146312 0.040559664 0.014728739 0.035922397
7.585436e-05 0.012935134 -0.0015138164 0.05267948 0.0347263 -0.01904423 -0.005871939 0.03559804
0.054606155 0.047716 0.038724102 0.04612441 0.012949564 -0.026528984 0.007074926 -0.008607298
-0.044012304 -0.019499602 -0.023321606 0.004866862 0.00505057 0.0056153326 -0.004429959 -0.05598153
-0.011708289 0.0076471493 -0.026326546 -0.032940984 0.0071408753 -0.011822867 0.042922065 0.053965695
0.04571446 -0.04937192 0.0076141167 -0.036935523 0.048893064 0.029440366 0.05335615 -0.0144386515
-0.022990627 -0.016885899 0.061121427 0.008019111 -0.023497403 -0.012843393 -0.02266521 0.0452056
0.0006785157 -0.045073375 0.023863927 0.02883324 0.007819345 -0.019851563 0.010906258 -0.022237202
0.060239293 0.008941133 0.052955072 0.02330405 0.024414027 -0.05932779 0.00029183924 -0.020047925
-0.056649357 -0.00837651 -0.043513887 0.0006533265 -0.052433904 0.006232474 0.054537777 0.05561407
0.03559294 -0.061078176 -0.0059663053 -0.020380875 -0.021593824 -0.041191574 -0.03709785 -0.012951401
-0.014883365 0.03185328 0.011663791 -0.00820356 -0.038294524 0.055432357 -6.5264234e-05 0.039262343
-0.061743572 -0.04134752 0.04401237 0.014148885 0.033897236 -0.038981188 -0.010749245 -0.030210912
0.029347762 -0.006066296 -0.003120401 -0.056381762 -0.02823268 -0.019369341 0.053874433 0.054360367
0.031030215 0.028774563 0.02205515 0.042074636 -0.031891935 -0.053814836 -0.046960786 0.0431443
-0.018807441 0.045533806 0.054415546 0.010432086 0.028372955 0.03241162 -0.004578538 0.030428864
-0.0142272115 -0.0421198 -0.02215138 -0.043657072 0.04132238 0.033131763 -0.015194741 -0.04339917

A.weight f4 [6, 256]
00000000: dec8 a3bd cf67 13bd e168 d13c b28c 4d3d
00000010: fcb1 e8bc 700a 673d 5298 26bd b6c6 f1bc
00000020: 38ae f6bc 3d60 8ebc 80a5 5dbd a244 363d
00000030: 7645 223d 4041 763c 06c8 043d 0f48 0a3d
00000040: 6474 573d 7029 67bc 32c2 35bd 1834 70bd
00000050: 81c0 853a 209b abbb 06a6 43bd 8e9a 2dbd
00000060: d4b3 08bd 7685 433d dcbb 963c 5eaa 61bd
00000070: d0a9 d0bc 46bd 89bc 8259 4abd d24c 1dbd
00000080: 3d86 79bb e49c 483d 1449 343d e60d 0c3d
00000090: 520a 7e3d df23 a339 62f1 743d e5f6 c73c
000000a0: 67f0 e43c 757c 2b3c a820 cd3c c81e 6dbd
000000b0: 0038 003a c87d abbc 0821 09bc 3472 00bd
000000c0: f2ee 093d e0f5 36bc dc51 c9bc b1ca 5cbc
000000d0: cf36 13bd fa45 ec3c 6a3b 6b3d 8881 7cbd
000000e0: 2cd4 c93c 53da dabc 1240 3d3d 2435 103d
000000f0: 66fe 79bd b4f0 623d 2091 5f3b dec6 2b3d
00000100: 7889 29bd 10d1 42bd 96c2 a53b 26cf 07bd
00000110: 1c3f 8a3c c090 72bc 4c0c 11bc 684d 7d3d
00000120: 2d35 daba 4e3e 29bd 40b1 6c3d beba 373d
00000130: 8833 443d 5854 83ba f490 093d c070 fa3b
00000140: 1eba 15bd 1c7c 4b3d 5ad5 7c3c fb14 803d
00000150: 004d 0abb b091 2fbd f2da 183d b0f6 a43b
00000160: cd49 6bbd 1332 26bd a46e 25bd 4246 d3bc
00000170: 04dc 173c 2af5 d63c c4f2 c13b 001e 5f3c
00000180: f0f0 063d 2045 d6bb c02c 693d 52ec 7f3d
00000190: ec85 a5bc e82a c63c a8d9 7d3c 009f 543d
000001a0: b7dd dbbc ea3e 04bd d629 413d 8674 043d
000001b0: 6da4 f9bb 7c2d e5bc 44ac 9a3c a7e6 193c
000001c0: 00d4 3ebd ef76 dfbb ce41 243d 00f1 98bb
000001d0: b0a6 bbbb acd7 733d 5e9c 153c 4f6f 643d
000001e0: 0a7c 763d f655 323d 2643 423d dd94 0cbd
000001f0: 3e4e 223d 7854 573d 3dbc 07bd c30e 333d
00000200: 5442 863c 5928 cb3c ccc2 df3c 5485 e3bc
00000210: 00c5 a83b 2bb7 35bd 45b5 0fbd 869e 103d
00000220: 38d5 76bd a08a a43b 90a6 c0bc 8f6e fc3c
00000230: 32da 013d ae89 36bd cbc4 2c3d b8a4 643c
00000240: 0d0e ebbc 1640 3bbd b0c4 70bc d889 d5bc
00000250: d80e 0bbc ea83 40bc 3fba 47bd 2202 04bd
00000260: 222d 0d3d d841 473c e768 03bd 5c86 76bd
00000270: 6dff 8f3b dd8c dabc 7ab9 3a3d be03 34bd
00000280: 04a4 14bd 0092 a939 5e2b e23c 38bb 4cbc
00000290: c492 c3bc a882 2bbd e02f 00bd 10a7 5c3c
000002a0: 7b79 1e3d 0d85 173d 34a4 243d c320 363d
000002b0: 26b1 7f3d 2a4e 39bd 00aa d1b9 6849 c23c
000002c0: 73d4 b93c 8020 52bd 24f3 4e3d e173 9dbc
000002d0: e6e8 473d 2b7b 96bc 4da6 7b3d faf9 823c
000002e0: aa1e 3ebd f4e6 f73b 34c6 0d3d e6e1 edbc
000002f0: eb19 d53b 48bc 4e3c 302d 33bd fc95 0bbd
00000300: 1edd 35bd 70ff 11bb 7088 3bbd 78b0 00bd
00000310: 0d78 5d3d fdee 873c c42a 3ebd 8090 6dba
00000320: eeb9 85bc 30dd adbb f0c7 7dbd f743 323d
00000330: 4f7a 833c 75e7 29bd 084b c9bc 1d6f 47b9
00000340: 4f95 24bd 0679 0bbd 8eb1 53bd 0901 b7bc
00000350: 072b dfbc 12e6 2ebc 0fe2 03bd c8d9 093d
00000360: 725e 56bd 98c2 483c 47ae 31bc 48ac 05bd
00000370: 8820 843c e767 fbbb 0db6 8dbc 60cd a73c
00000380: 0020 5138 979e fbbc 7235 d4bc 6378 46bd
00000390: 211a 04bc 7852 c43c 2c55 58bd b6bb 19bd
000003a0: a0d1 8d3b af65 273c 80ce 14ba 100b 0fbc
000003b0: 26d4 6c3d a2c4 223d d6e8 55bd ba35 6f3d
000003c0: 4374 2cbd 0861 e93c 42b2 3fbd a2ed a5bc
000003d0: 3f3e f53b 742d c83c 0936 4dbd 7a6a 373d
000003e0: 0fb2 49bd f44d de3c a470 263d 0031 723d
000003f0: 3033 2abd 4776 533c e0e0 1e3d 2212 e83c
-0.07997297 -0.03598767 0.025562705 0.050183006 -0.028405182 0.05640644 -0.040672608 -0.029513698
-0.03011237 -0.017379874 -0.05411291 0.044499047 0.039617024 0.015030205 0.03241732 0.033760127
0.052601233 -0.014109001 -0.044374652 -0.05864343 0.0010204465 -0.005236998 -0.047765754 -0.042383723
-0.033374622 0.0477347 0.018400125 -0.055094115 -0.025471598 -0.016813885 -0.049401768 -0.03840334
-0.0038074397 0.048977748 0.044015005 0.034192942 0.06202156 0.0003111651 0.059800513 0.02440972
0.027946664 0.010466685 0.025039986 -0.057890683 0.0004891157 -0.020934 -0.008369692 -0.031358913
0.03367514 -0.01116702 -0.024575166 -0.01347606 -0.03594094 0.028841961 0.05742971 -0.061646968
0.024637304 -0.026715433 0.04620368 0.03520693 -0.06103363 0.055405334 0.00341136 0.0419377
-0.041390866 -0.04756266 0.005058597 -0.033156537 0.016875796 -0.014805019 -0.008853029 0.0618414
-0.0016647928 -0.041319184 0.057786226 0.044855826 0.047900707 -0.0010019643 0.033585504 0.0076428354
-0.03655445 0.049678907 0.015431726 0.06254002 -0.0021103024 -0.042863548 0.037318178 0.0050342903
-0.05744343 -0.0405751 -0.04038872 -0.025790337 0.009268764 0.02623995 0.0059188325 0.013617992
0.03294462 -0.006539002 0.056927443 0.062481232 -0.02020546 0.024190381 0.015493788 0.051909447
-0.02683912 -0.032286562 0.04715904 0.032337688 -0.007618478 -0.02797579 0.01888097 0.009393371
-0.046588898 -0.006819598 0.04010182 -0.0046674013 -0.005726658 0.059531853 0.009131519 0.055770215
0.060176887 0.04353901 0.04742732 -0.034321655 0.0396254 0.05257079 -0.033138502 0.04371525
0.01638905 0.024799513 0.027314566 -0.027773537 0.0051504374 -0.044364136 -0.03508498 0.03530743
-0.060261935 0.005021408 -0.023516923 0.030814437 0.031702228 -0.044564895 0.042179864 0.013955288
-0.028693223 -0.045715414 -0.014695331 -0.026066706 -0.008487426 -0.011750201 -0.048761602 -0.032228597
0.03446687 0.0121616945 -0.032082465 -0.06018673 0.004394463 -0.026678497 0.04558704 -0.04394888
-0.03628923 0.0003234297 0.02760857 -0.012495808 -0.023873694 -0.04187265 -0.031295657 0.013467565
0.03869007 0.03699212 0.04019566 0.044464838 0.0624248 -0.04524056 -0.00039990246 0.023716643
0.022684311 -0.051300526 0.050524846 -0.019220294 0.048806094 -0.018369278 0.061437894 0.015988339
-0.046415962 0.0075653736 0.03461285 -0.02903838 0.006503334 0.012618132 -0.043744266 -0.034078583
-0.044400327 -0.0022277497 -0.045784414 -0.031418294 0.054069567 0.01659345 -0.046427503 -0.00090623647
-0.01632401 -0.0053059086 -0.061958253 0.043521848 0.016049532 -0.0414805 -0.02457191 -0.00019019512
-0.040181454 -0.034050964 -0.051683 -0.02233936 -0.027242197 -0.01067497 -0.03219801 0.033654958
-0.052336164 0.012253426 -0.010844774 -0.032635003 0.016128793 -0.0076722982 -0.017298723 0.020483673
4.9859285e-05 -0.03071527 -0.025904391 -0.048454653 -0.00806287 0.023965105 -0.0528156 -0.03753253
0.0043279678 0.010217114 -0.0005676523 -0.008730665 0.057819508 0.039738305 -0.052224003 0.058400847
-0.042103063 0.02848865 -0.04680086 -0.020254914 0.007484227 0.024435736 -0.05010036 0.04477928
-0.049242076 0.02713678 0.040634766 0.05912876 -0.041552722 0.0129066175 0.038788676 0.028328959

A.bias f4 [6]
00000000: 156d 3f3d 4f3a 723d c89f 1c3d 3f3b 6dbd
00000010: b436 cebc d69a c9bb
0.046734888 0.05913764 0.038238317 -0.05791783 -0.025172569 -0.006152491
