cool/checkpoints/D3QN/Q_eval/D3QN_q_eval_4200.pth (torch, 278863 bytes, 7 tensors)

fc1.weight f4 [256, 5]
00000000: fbf5 e0be e62e d6be 84f1 6dbe 1900 1b3d
00000010: 3b83 043f 5267 21be fcdc a93e 6040 a93e
00000020: 1844 33be 9085 963d b982 b6be 8448 7d3e
00000030: 2889 40be 7c16 aebd aacc 913e 8698 0fbe
00000040: e0f5 eebd d06c 463d 6071 23be 6807 013d
00000050: 04e9 833e cf10 aabe 3815 4b3e c1e5 85be
00000060: 8c19 853e 69b2 56bd 4529 eabd 99be 753e
00000070: bc89 eb3d a6db 683e 0071 233e b056 9c3e
00000080: 00e8 f53c 3c29 ddbd 18fd 8dbe 379b a33e
00000090: 75f7 b9bb 7eaa 54be 1ac4 8f3e f2fc 1a3e
000000a0: 908b 42bd 14ed 793e 4460 c5bd b28a 14be
000000b0: 0054 9fbc b43b a6bd fe6d ab3e a2bc 8f3e
000000c0: f0ea e8bd c8df 06bd 4dca e4be 327f d4be
000000d0: a69b d03e cf20 dbbe 61ac bfbe d21b d03e
000000e0: 2ebb 3fbf 4a87 9e3e 1a21 9a3e e837 1fbc
000000f0: f6a4 45be dfec 0cbf af83 443e 6807 c33d
00000100: 0636 b2bc 7e46 01be d6ce a23e 3497 a03e
00000110: 7eab 3fbe de9f 19be 4f18 b03e 1154 bd3d
00000120: d827 55be e6cb 0c3e dbf3 71be 905f ac3c
00000130: 33b3 cabe 037b 9e3e fef5 2cbc a0bb 073e
00000140: 3a7c 5dbe 4c2e d8be 9e09 c93e a060 5cbc
00000150: e00d ae3c f810 e5be ca3e f4bd 9553 7fbe
00000160: e0e6 b63e 18f7 e7bd fc86 95be 4539 ef3d
00000170: 4474 a53b 8762 c43e 88f0 b5bd 9160 9dbe
00000180: b862 13be 7138 3dbd c4a4 2b3e 5ec8 e3bd
00000190: 3e56 b33e 54f9 003e 747b 193e efd9 92be
000001a0: 96e1 92be 2457 6fbe 06eb ad3e 6020 6c3e
000001b0: 3efe 82be 03a4 aebe 048c cb3e a8f4 d7bd
000001c0: b0ac a13e e8a6 79bd e25e 973e 26ab 34be
000001d0: 2455 c43e 00e6 873b ed9f b7be fc24 a7be
000001e0: 1f90 e2be 6aab cebe 8578 d7be bae4 e43d
000001f0: c108 f53e aeee 2d3e ecab fa3e 74aa 223e
00000200: 6a57 103d 65d3 a13d cab4 3fbe 402f fd3c
00000210: c83f 9b3d 22af 62be 905a 983e cce0 633e
00000220: ab2e bebe e2df 6abe bbbb 73be e0d1 ac3d
00000230: 26c7 bbbe a0d0 cd3d d4cb 1dbe b2fa 19be
00000240: 188d dc3d f886 003d ef00 6bbe 54b0 bb3e
00000250: a838 74be 381c fcbd 6e9e ca3e 3ce2 31be
00000260: 54ea 043c 6fe0 b53e ac52 5fbe 3c78 a73e
00000270: bce4 2b3e 4847 453d 8b92 6bbe 4acd b13e
00000280: dee2 b63e 7992 a03e f10e c03e 47ed c53e
00000290: b0ed f7be f499 8ebd ff2b 1fbf 8e9a 5b3e
000002a0: b59b cb3e 8ea1 09bd 90cf 21bd a413 d0bd
000002b0: c4d3 db3e 0068 59bc fcdd c1be 9aa7 e03e
000002c0: 2ee5 17be b07b cf3e 1a77 39be 945a d8be
000002d0: d0bb 783d 2874 9c3d 305b 2ebe ba37 90be
000002e0: 744e 343e c66e aa3e e051 f63d 8878 91be
000002f0: 38c3 9fbe 5ad4 893e 906a c8be 0df3 1abe
00000300: 1c83 ff3d 9968 1f3e 2942 683c 092e 2c3e
00000310: db3f d63e cef9 8dbe 75f3 c23e b4b2 15bf
00000320: ee31 9dbe 1841 2dbd c042 cbbb c639 84be
00000330: c092 853c 04d7 bf3e 0028 6a3c 2063 ecbd
00000340: dbfb afbe a103 b1be 1427 3d3e 4132 94be
00000350: 7db0 c03e c271 953d fab6 583e 0dc7 9cbe
00000360: c0b2 9f3d dce7 9b3e d94f e0be c837 1d3d
00000370: 34e2 003e 3401 8bbe 6837 c93e d4c4 08be
00000380: 4056 473e fc7d b63e 41fd d73b 3028 03be
00000390: 4dbd c63e cbad 86be 50c0 5f3d 066a 3bbe
000003a0: 08c1 6fbe 30bf bbbd 4843 a5be 8c00 3ebe
000003b0: 5f5f d3be d8dd 8c3e 93ce bdbe fa79 e1be
000003c0: 02a9 d3bd 9052 283e f22f c43e b1c7 3e3e
000003d0: d19b 923d c242 b23e 827e 8fbe 460c 323e
000003e0: f1c7 373e 80cf af3e 4252 bdbe 202e 39be
000003f0: 30e1 3fbe d42f b8bd e092 7dbc 00d0 58ba
-0.43937668 -0.41832656 -0.23236662 0.03784189 0.5176274 -0.1576207 0.3317641 0.33056927
-0.17506444 0.07349694 -0.35646608 0.24734694 -0.18802321 -0.08500382 0.2847646 -0.14023027
-0.11667991 0.048443615 -0.15961218 0.031501204 0.25763714 -0.3321595 0.19832313 -0.2615185
0.25996053 -0.05241624 -0.11433653 0.23998488 0.1150088 0.22740039 0.15961075 0.30534887
0.030017853 -0.107988805 -0.27732158 0.31954357 -0.005675251 -0.20768163 0.280793 0.15135553
-0.04749638 0.24406844 -0.09637502 -0.14506033 -0.019449234 -0.08116856 0.33482355 0.28073603
-0.11372936 -0.03292826 -0.44685593 -0.41503292 0.4074375 -0.42798468 -0.37436202 0.40646225
-0.7489499 0.30962592 0.3010338 -0.009717919 -0.19301209 -0.55048937 0.19190858 0.09522897
-0.021754276 -0.12624547 0.31798428 0.3136536 -0.18717763 -0.1500239 0.34393546 0.0924455
-0.2081598 0.13749656 -0.2362818 0.021041662 -0.39589843 0.30953225 -0.010556696 0.13255167
-0.2162942 -0.42222822 0.3926515 -0.013450772 0.02124685 -0.4473951 -0.119260386 -0.24934228
0.3572302 -0.11326426 -0.29204547 0.11680845 0.0050492603 0.3835642 -0.08883768 -0.30737737
-0.14393127 -0.046196405 0.16762072 -0.111222014 0.35026735 0.12595111 0.149885 -0.28681895
-0.28687733 -0.23373085 0.3396837 0.23059225 -0.25584596 -0.34109506 0.3975526 -0.10544711
0.31577063 -0.06095019 0.29564577 -0.17643413 0.38346207 0.004147291 -0.358642 -0.32645404
-0.4425058 -0.40365154 -0.42084137 0.11176439 0.4785824 0.1698558 0.4895929 0.15885335
0.035239615 0.079016484 -0.1872131 0.03090632 0.07580525 -0.2213712 0.29756594 0.22253722
-0.3714498 -0.22936967 -0.23802082 0.08438468 -0.36675376 0.10049558 -0.15409786 -0.15037039
0.10769099 0.031378716 -0.22949575 0.36657965 -0.23849738 -0.1231007 0.39573997 -0.17371458
0.008112509 0.35522792 -0.2180888 0.3270892 0.16786474 0.048163682 -0.2300512 0.34726936
0.3571996 0.3136175 0.375114 0.3865759 -0.4842353 -0.06962958 -0.6217651 0.21445677
0.39767233 -0.033601336 -0.039504588 -0.10159996 0.42935002 -0.013269424 -0.37864673 0.4387787
-0.14833519 0.40524054 -0.1811184 -0.42256606 0.060725987 0.076393425 -0.17026973 -0.28167516
0.17608052 0.33287638 0.12027335 -0.2841227 -0.31203628 0.26919824 -0.391438 -0.15131779
0.12476179 0.15567245 0.01417593 0.16814436 0.41845593 -0.27729648 0.38076368 -0.58475804
-0.30702156 -0.042298406 -0.0062030256 -0.25825328 0.016305327 0.3746873 0.014291763 -0.11542344
-0.34371838 -0.3457308 0.18471938 -0.2894459 0.3763465 0.07297088 0.2116355 -0.30620614
0.07797766 0.30450332 -0.4381092 0.038383275 0.1258629 -0.27149355 0.39300084 -0.13356334
0.19466496 0.35642993 0.0065914695 -0.12808299 0.388163 -0.2630447 0.054626763 -0.18302163
-0.2341348 -0.091673255 -0.32277894 -0.18554896 -0.412837 0.27513003 -0.37071666 -0.44038373
-0.1033497 0.16437745 0.3831783 0.18630864 0.07158626 0.34816557 -0.28026205 0.17387494
0.17947365 0.34337997 -0.3697682 -0.18084002 -0.18738246 -0.089934975 -0.015476912 -0.00082707405

fc1.bias f4 [256]
00000000: b092 303e c0e3 743d d017 653e 0087 a13a
00000010: 2026 d7bc 62c5 503e 1567 55be feaf 94be
00000020: 780e 48be c006 dd3d b875 c03e a89a adbd
00000030: 6ff7 ae3e 8bcc c5be 7f4a 98be b06a 373e
00000040: a085 37bd 5244 b63e e9a3 103e 7460 d83c
00000050: 7c08 073e 1c62 9dbe a820 a5be 3713 d8be
00000060: 49e4 113c 48d1 b4be 40fe ccbd d463 823e
00000070: 034c d9be 9ccc 9e3e 5fd8 973e 60c7 873e
00000080: f4eb d1be 1be3 a8be e82b 83be e0f1 c4bd
00000090: 1c64 4e3e 04e7 dbbd cfd6 72be 3f3c 8c3d
000000a0: 3e7a e33e 3e38 d13e 4e69 dd3e 446e 793e
000000b0: d8ed 063e 02fd 8fbd da49 0dbe a201 98be
000000c0: 0e20 c83e 1ace b7be f40d 97be c4b8 ecbd
000000d0: fe5a 983e 2815 953e 82ec a0be a051 033e
000000e0: 6679 a43e 3c79 973e a1b2 cebe 7cd0 e1be
000000f0: c486 3abe 7731 dd3d f023 e93d ec98 19be
00000100: 0bb8 b4be 14d3 d0bd 0f28 81bd f5d9 973e
00000110: 6915 c7be 39f5 b53e 20b8 c83e 2410 d93e
00000120: d38f c8be 0c17 10be 5930 243e c0f4 a43e
00000130: be07 08be c32b 713e d6c9 8ebe 7b25 ff3d
00000140: 42f7 bebe 82fc d43e 6501 583e 14a4 053e
00000150: bcff bbbe ba18 843e 73a5 c0bd 581b 653e
00000160: 2b8f 93be d358 55be cb4c 8e3d 70a1 c4bc
00000170: 8855 d33d 22b6 89be 86b6 8bbe e096 593e
00000180: d023 b33d 83f3 d5be 40dd 713e 4c1f 273e
00000190: 56b2 18be e096 b6bc e1aa 1a3e b000 96bd
000001a0: 35fc 073d bc0d 483e 5bb0 973e 4465 1e3e
000001b0: 83a9 433e dbd6 003e 7a4b 17be 0cf6 e5bd
000001c0: 5a1d 8f3b a0eb c73e ccee 1c3e f52e 303e
000001d0: d6e0 d03d bc72 d5bd c28b 84be 9dd4 933e
000001e0: e646 be3e efa0 8a3d 40e8 843d b85e fa3d
000001f0: 2ebb c7be b8bd d63d c9b1 c83e c08a 2fbc
00000200: 4d60 e6bb 9607 72be 70c5 a7bd 1067 803e
00000210: 6e2f c73e 1c00 823e 48ff 70be be26 acbe
00000220: 30a3 7c3e 9fc0 8abd e2fd c63e 45f2 c83e
00000230: 62a8 c6be c64a 55be e44d 133e 8c63 583e
00000240: 8497 323e cc64 9cbd 4b8f ccbe b2fc b7be
00000250: a80b 9cbd 45d5 ab3d e812 4a3e a80b 28bd
00000260: 2c4b 5c3e e0b1 0a3c b363 3a3e 8638 cfbe
00000270: e3c5 ad3e 60c7 f03b a4d2 b03e 38aa 523d
00000280: d48d ab3e 9c7d a5bc f8ec 363e d136 17be
00000290: 3d53 94be 1a62 b1be dfa2 a9be a0ed 1e3e
000002a0: b068 81bc e725 60be 7f52 923e 72f0 aabe
000002b0: 4532 043e e2b1 58be 2e18 a73e b058 3bbd
000002c0: d12d 0f3e ecfa a03e 897f a9be f8b5 acbe
000002d0: b5c0 c3be a8b9 cd3d ddbf 8ebe 967d a93e
000002e0: ac4c 543e c08c dd3c c099 af3e 2e08 76be
000002f0: 184e 5f3e 4863 8a3d 33e6 f13d b875 de3d
00000300: f01c 863c f8a7 c23d 1e61 683e 88af 093e
00000310: 7064 313e b2dd 073e b08a c5be 98dd b5bd
00000320: b791 a7be fc6a 60be 9599 6a3e 623d c13e
00000330: 20b2 c3bc de05 74be 8465 0e3e 2839 903d
00000340: ad5e 1f3e d708 c83d 73ba 083e 8730 323e
00000350: 50bc 5c3d c86a 8b3e 4df6 a1be 54de cb3e
00000360: 9553 a23e 7a96 3cbe 2059 d93e 8829 683e
00000370: 6829 9e3e 40a9 693d 24b0 87bd 8cb5 42be
00000380: db0b c6be 7d86 93be 04f7 eebd d02b c2be
00000390: c62b 503e 705b cb3c deb7 adbe 90c2 a9bc
000003a0: e85c 043e 7cce af3e 40e3 85bc a192 d63e
000003b0: 2068 29be 9442 de3e 5368 7abe 0923 283e
000003c0: 7264 13be d49e d8be 5d38 6cbe 06d3 a93e
000003d0: 6c19 49be 8458 ab3e 293c 79be a82f e3bd
000003e0: 7e1b 02be 53c1 c33e 726f 7e3e 40dc d8bb
000003f0: 6478 a0bd 5f7f 173e 93e8 c8be 280d 833d
0.17243457 0.05978751 0.22372365 0.0012323558 -0.026263297 0.20387796 -0.20840104 -0.2904052
-0.1953677 0.10792303 0.37589812 -0.08476764 0.34173152 -0.38632616 -0.29744336 0.17911792
-0.04480517 0.35599 0.14125027 0.02641318 0.1318683 -0.30738914 -0.32251477 -0.4220216
0.008904525 -0.3531592 -0.10009432 0.25466788 -0.42440805 0.3101548 0.29657266 0.265193
-0.4100033 -0.32985768 -0.25619435 -0.096164465 0.20155376 -0.10737422 -0.23714755 0.068474285
0.444292 0.40863222 0.43244404 0.24358469 0.13176668 -0.07030679 -0.13797703 -0.29688746
0.39086956 -0.3589943 -0.29502833 -0.11558679 0.29756922 0.29117703 -0.3143044 0.12824106
0.3212387 0.29584682 -0.40370658 -0.44104373 -0.18215472 0.1080045 0.11383808 -0.14999741
-0.35296664 -0.1019651 -0.06306469 0.29658476 -0.38883522 0.35538653 0.39202976 0.42395127
-0.3917223 -0.14071292 0.16034068 0.3221798 -0.13284203 0.2355185 -0.27888364 0.12458321
-0.37298018 0.41598898 0.21094282 0.13050872 -0.36718547 0.25800115 -0.09406557 0.22373712
-0.28820166 -0.20834665 0.06948241 -0.02400276 0.10319048 -0.2689677 -0.27287692 0.2124896
0.08747065 -0.41787347 0.23619556 0.16320533 -0.1491178 -0.02228874 0.15104248 -0.0732435
0.033199508 0.19536489 0.29626736 0.15468317 0.19107632 0.12581961 -0.14774886 -0.1122857
0.0043675127 0.39046955 0.15325469 0.17205413 0.10199134 -0.104222745 -0.25887877 0.2887315
0.37163466 0.06768977 0.06489611 0.122250974 -0.39009994 0.10485405 0.3919814 -0.010714233
-0.007030523 -0.23635706 -0.08191955 0.2507863 0.38903373 0.25390708 -0.23534882 -0.33623308
0.24671626 -0.06775021 0.38865572 0.39247337 -0.3880034 -0.20829305 0.14385182 0.21131724
0.17440611 -0.07636413 -0.39953074 -0.3593498 -0.07619411 0.08390287 0.19733775 -0.04102674
0.21513051 0.00846526 0.18202095 -0.4047281 0.33940038 0.007347986 0.34535706 0.051431865
0.33506644 -0.020201497 0.17863834 -0.14767005 -0.28969756 -0.34645158 -0.33132073 0.15520334
-0.01579699 -0.21889459 0.28578565 -0.3338657 0.12909801 -0.21161607 0.32635635 -0.045738876
0.13982321 0.31441438 -0.33105114 -0.3373258 -0.3823296 0.10045177 -0.27880755 0.33103627
0.20732373 0.027044654 0.3429699 -0.24026558 0.21807134 0.06757218 0.11811485 0.10862297
0.01637122 0.09504694 0.22693297 0.13445866 0.1732347 0.13268164 -0.38582373 -0.08880156
-0.3272836 -0.21915811 0.2291015 0.37742144 -0.023888648 -0.23830363 0.13905913 0.07042152
0.1556346 0.09767311 0.13352375 0.17401324 0.053890526 0.27229905 -0.31633225 0.3981806
0.31704393 -0.18416777 0.4245081 0.22672093 0.30890965 0.057046175 -0.06625393 -0.19014567
-0.3868092 -0.28813544 -0.11668208 -0.3792405 0.20329198 0.024823874 -0.33929342 -0.020722657
0.12926066 0.34337223 -0.016343713 0.41908744 -0.16543627 0.4341017 -0.24453859 0.16419615
-0.14393786 -0.42308676 -0.23068376 0.3316881 -0.19638604 0.3346597 -0.24339356 -0.11093074
-0.127058 0.38233432 0.248472 -0.0066180527 -0.07835463 0.14794682 -0.3923994 0.06398994

fc2.weight f4 [256, 256]
00000000: 24c9 b13b 4888 7d3d 7865 3ebd f00c 2ebd
00000010: 5005 ea3b 194c 5ebd 0483 e8bc f6cb c73c
00000020: 3a3c 18bd 7280 45bd c032 3c3b 12c8 35bd
00000030: dea7 6d3d 8865 52bd 0abe 063d 4f9b 1d3c
00000040: a0ee eebb f1f5 e7bc eb89 013d 59ea 6cbd
00000050: 602e 53bb e2f8 2f3d a806 c8bc fcd6 b6bc
00000060: 5feb cf3a febe 6cbd 024d 68bd f047 ecbb
00000070: 5009 83bb 08eb 9dbc 4800 8fbc e028 6a3d
00000080: 78f1 fbbc d5e5 27bb 2087 d2bc 1278 573d
00000090: 0c44 6d3d d821 88bc 4db9 c33c 767c 5ebc
000000a0: eacf 583d 7848 1dbc 40b3 3d3d f877 bcbc
000000b0: 089e 94bc d8fa 123c a4de 513d 2aaa 5fbd
000000c0: cea1 82bc d21b 633d 480e 61bd 6004 5c3b
000000d0: bcfa 783d c0a4 143c 1bf3 4c3d 8c43 06bd
000000e0: 11eb 033d dcac a9bc 0292 253d befe 0abd
000000f0: 680b 5d3d fdae 7a3c 0a1a 03bd e01a e83b
00000100: e234 50bd 747e 6dbd 71c9 d13b 9aaa 1fbc
00000110: 9efe 9ebb d69c 49bc a4d7 b03c 7e13 533d
00000120: 00e3 903b d018 8a3c bfc0 4e3d 47c8 b7bc
00000130: a0e3 6ebd 06ee 00bd c0b7 bd3c 402d 65bd
00000140: 08a5 3c3d b00c 0cbc 37ea 5c3d 977d babc
00000150: 3e95 4cbd f8ee 843c ebc1 0cbd a0ea e73b
00000160: 622e d73c 6b00 3e3c 8486 82bd 588d 0d3c
00000170: a03e 47bc 9cec d7bc 5554 4c3d ace4 ad3c
00000180: 401e e6ba 30e3 293d 3a7d f93c f42f 78bd
00000190: f898 1dbc 5037 63bd c50b 9f3b 68ef 563d
000001a0: 8c94 1abc 20f1 df3c c8bc 753c 683a 193d
000001b0: 7a5e 70bd 698d 033d 666d 2cbd 2a79 25bd
000001c0: b625 163d 1072 65bc 3075 a5bc 9d64 383d
000001d0: ba18 5c3c 326e 79bd 593b 3e3d 9ded 02bb
000001e0: c0aa c53b 93ab fabc a435 c53c 54c1 443d
000001f0: e3c2 2a3d 5079 d73b cbc6 9a3c 3c0f 8fbc
00000200: 6e83 5dbd 3403 f9bc 023d 55bd 4248 62bd
00000210: 4054 bf3c 0cf9 d43c a8b2 0dbd 2af2 2c3d
00000220: 0e10 133d 6764 48bd c6da 103d 40b1 6c3c
00000230: 5e14 413d 30e2 953c 9b4d bfbb 1571 06bd
00000240: 6844 c9bc 6aad 383d 1da2 3c3d 7c82 15bd
00000250: dca2 a3bc 6d6f 833c bab2 303d d2c5 0ebd
00000260: 20dd 913b c8a0 573d 3b33 0fbd b67b fd3c
00000270: 2543 2e3b 3cad 8cbc e089 1cbb 405b 59bb
00000280: c8e2 d03c 5b5d 3ebd 647f 7c3d a1f4 acbc
00000290: d179 c5bc e242 54bd d073 c63c e8a6 2cbc
000002a0: 5848 04bc ca1a b6bc 7759 37bc f883 17bc
000002b0: 691e 9b3c 4cfa c1bc 6c0f bfbc a428 483d
000002c0: b99a 0f3d 3022 5f3c 3b5d e23a 5a37 01bd
000002d0: 38da 643d a0df e43c 72e3 2d3d 900a 363d
000002e0: 3a99 01bd 449b 613d e839 1a3c 048c 2f3d
000002f0: da09 0d3d d873 7b3c 9555 0d3d 805d 443a
00000300: 3cf8 973c c46d 8c3c 7aa9 c4bc aed7 4dbd
00000310: d8c5 97bc 1178 793c 33eb 26bd 6832 d83c
00000320: 5db6 05bd 9491 aa3c 7af2 b83c 4209 0b3d
00000330: 4c58 e1bc 0713 8fbc d0c1 a5bc 447f 2d3d
00000340: 5c3a 7dbd 8c2e 4d3d a42a 863c 0422 e53c
00000350: be53 4fbd 8406 a63c 8821 123d 8ac1 293d
00000360: ee88 1e3d 4a18 4f3d 1c66 ad3c 7ca0 c8bc
00000370: b08e 293d ec44 60bd b401 103c 4a0c 19bd
00000380: f060 4abd 0c05 ae3c 987d 3b3d 48c2 023d
00000390: 03ff 0abd 40bf 013b bb9f 533d 90eb babb
000003a0: 70a1 94bb dc82 aabc 5e06 17bd 3d03 14bd
000003b0: 0274 5c3d c66e 033d 200b b43c 781d 0ebd
000003c0: 143c 443d 6867 7bbd c22a 653c 8e2a 0fbd
000003d0: bf7d 1bbc 603d 1dbc aa1f 08bd 7034 cbbc
000003e0: 5ca3 4c3d 2bce 30bd 3122 6cbd f0c5 773c
000003f0: 9ab2 37bd 505e ddbc 4dca 163d 742e 22bd
0.005425589 0.061897546 -0.046483487 -0.042492807 0.0071417466 -0.05427179 -0.028382786 0.024389248
-0.03716681 -0.048218198 0.0028716773 -0.044380255 0.05802142 -0.05136636 0.03289608 0.009619548
-0.00729163 -0.028315516 0.03162567 -0.05784068 -0.0032223687 0.042961963 -0.024417236 -0.02231931
0.0015862993 -0.05779933 -0.056714065 -0.007210724 -0.003998913 -0.01927711 -0.017456189 0.057167888
-0.03075479 -0.0025619168 -0.025699198 0.052604742 0.057926223 -0.0166177 0.02389207 -0.0135794785
0.052932657 -0.009599797 0.046313524 -0.023006424 -0.018141761 0.008970939 0.051237717 -0.05460564
-0.015946295 0.055446453 -0.05494526 0.0033571944 0.060785994 0.009072483 0.05003653 -0.03277926
0.0322066 -0.020712309 0.040422447 -0.033934347 0.053965956 0.0153005095 -0.032007255 0.007083282
-0.050831683 -0.057981923 0.0064021875 -0.009745264 -0.00485213 -0.012305459 0.0215872 0.05153226
0.0044215918 0.016857535 0.050476786 -0.022434367 -0.05832255 -0.031476997 0.023158908 -0.055951357
0.046055824 -0.008547947 0.053934302 -0.022764964 -0.049947016 0.01622723 -0.034364622 0.00707753
0.026267234 0.011596779 -0.06373313 0.008639656 -0.012160927 -0.026357941 0.049885113 0.021227203
-0.0017556623 0.04147643 0.03045522 -0.060592607 -0.00961899 -0.055472672 0.004853698 0.05247441
-0.00943483 0.027336657 0.014998622 0.037409216 -0.05868385 0.03211728 -0.042096518 -0.040398754
0.036657058 -0.014004245 -0.02019748 0.045017827 0.01343363 -0.060896106 0.046443317 -0.0019978054
0.006032318 -0.030599391 0.02407343 0.048035935 0.041689765 0.006575741 0.01889362 -0.017463319
-0.05408042 -0.030397035 -0.052060135 -0.05524469 0.023355603 0.025997661 -0.034594208 0.042223133
0.035903983 -0.048923876 0.03536489 0.014446557 0.047138564 0.018296331 -0.0058381087 -0.032822687
-0.024568751 0.045087256 0.04605304 -0.036501393 -0.019975118 0.016044343 0.043139197 -0.034856625
0.004451409 0.052643567 -0.034960967 0.030942779 0.0026590314 -0.017172448 -0.002388589 -0.0033165962
0.025498763 -0.04647575 0.061644927 -0.021112742 -0.024105938 -0.051821597 0.024225146 -0.01053784
-0.008073889 -0.02222957 -0.011190764 -0.009247772 0.0189354 -0.023678921 -0.023322783 0.048866883
0.035059664 0.013618991 0.0017270216 -0.031546928 0.055872172 0.027938664 0.042453237 0.044443667
-0.03164027 0.055079713 0.00941322 0.04285814 0.034433223 0.0153474435 0.034505446 0.0007490739
0.018550985 0.017142184 -0.024006594 -0.050254516 -0.018526956 0.01522638 -0.040751647 0.026391223
-0.03264462 0.02082137 0.02257656 0.033944376 -0.027507924 -0.017465128 -0.020234019 0.042357698
-0.061823234 0.05009322 0.016377755 0.027970321 -0.050616972 0.020266779 0.03567651 0.04144434
0.038704805 0.050560273 0.021166854 -0.024490587 0.041395843 -0.05475323 0.008789469 -0.037365235
-0.049408853 0.02124264 0.045774072 0.031923562 -0.033934604 0.0019797832 0.051666003 -0.005704351
-0.0045358464 -0.020814352 -0.036871307 -0.0361359 0.05382157 0.032088064 0.021977961 -0.034696072
0.047908857 -0.061377913 0.013987245 -0.034952693 -0.009490429 -0.0095971525 -0.033233322 -0.024805278
0.04996048 -0.043165367 -0.057649795 0.015122876 -0.044848062 -0.02702251 0.036814023 -0.039595082

fc2.bias f4 [256]
00000000: b297 29bd d1c1 4a3d 28d7 4fbd 0cfa 8cbc
00000010: 8017 683b d484 28bd d03e 363c a7b5 79bc
00000020: 30fd 13bd e532 27bd 5cca c63c 3845 90bb
00000030: ea91 64bd 947c f93c 8e4d 7fbd b3ca e7bc
00000040: 76cd 6e3d 6017 60bc 5049 57bc cc85 52bd
00000050: 0af2 97bc 0498 19bd 4e84 7fbd 2001 5c3d
00000060: 80bf 303c d610 1e3d 10e7 72bc 0342 683c
00000070: 700b fcbc 6d0f 283d e65e 57bd e02f 41bc
00000080: b4f3 88bd 44b8 babc ce54 273d f00e 76bc
00000090: 842e 66bd 6224 253d 24dc 7bbd 15ee 29bd
000000a0: 1bc2 61bd b537 31bb fa8a 5fbd 7552 6c3d
000000b0: ccd9 44bd b2a9 663d 205d 4b3c a45b 173d
000000c0: f05f e1bb c419 d9bc ee41 bc3c 5d93 11bd
000000d0: 6225 52bd e9c5 b13c f047 79bc c0d6 b03b
000000e0: d686 7bbd 4dd4 ebbb 7ccc 603d 0012 b93c
000000f0: 5866 28bd a69e 23bd 3436 643d 781a 60bc
00000100: 4cc0 3c3d 02cd 5d3d 51a8 2abd fccf 1a3d
00000110: c07f 26bb f969 313d 46e0 2f3d f6c1 4a3d
00000120: f751 483d 2cf2 fc3c 5011 babc 95ac 52bd
00000130: 86dc 7dbd f26f 343d 987c 0b3d 8402 ea3c
00000140: 2c75 c1bc 0485 63bd 85d1 8f3c c6d7 453d
00000150: f8a9 793d 5da0 dfbc 983c 6dbc 5268 5c3d
00000160: 27df ed3c c867 103d 8e1f 633d 5d01 413d
00000170: a323 ef3c 9d39 a03c 15a9 5fbd 8440 a2bc
00000180: b79e ef3c 0018 a1b9 42df 3c3b daa2 30bd
00000190: 884c 833c 74e9 6dbd f03e ecbc 88fc 343c
000001a0: 5cfa 06bb 401c 263d ff0a 54bc 9165 2bbc
000001b0: 1772 503d b0f5 5e3d 04fd 3bbd 50c2 5b3d
000001c0: f2a5 6cbd 9566 383d 203c d3bb c830 3bbc
000001d0: 7851 c93c 04c5 643d c5c7 edbc 5452 183d
000001e0: 988c b0bc 1281 5cbd f050 6ebc 7380 db3c
000001f0: a5ff 3cbd 628a 7c3d 98f4 88bc 92ad 67bd
00000200: 165a 1e3d e834 84bd c873 2a3d e879 153c
00000210: 9aa7 3dbd 47fb d4bc d911 7ebd 58ab 923c
00000220: 48cb 3bbd dc8e ca3c a8cf 4dbd 7432 2cbd
00000230: 3c78 3fbd c835 5dbc 5b82 11bd b849 5abd
00000240: 3cef 103d 3305 443d 9c62 94bc fca2 02bd
00000250: c0bb 27bb 71a9 283d b3e0 35bd 58df 443d
00000260: 6c4d de3c cc64 43bd 00e2 87bb 88ee c4bc
00000270: 1f88 3e3d 3322 b0bc de27 613d 0693 44bd
00000280: 148d 3abd 4059 f2ba da90 5bbd 7e80 003d
00000290: f614 193d 1e5a 6a3d 20c5 f73c cc92 23bd
000002a0: 5695 57bd bcc2 7d3c 6e6e 5b3d 278d 0dbc
000002b0: 904c 35bd 30b5 b9bb 5440 f3bc c063 ab3b
000002c0: aa08 063d d08c 703c 3e83 65bd a33b b43c
000002d0: 0cc9 26bd 7368 32bc f2a0 263d f45a 033d
000002e0: 44e9 01bd 06f6 033d 9bc9 45bc 7e45 953c
000002f0: 777d 7abd 4a17 56bd 6c3a 7a3d 5fa0 6fbd
00000300: cacd 34bd b61b 47bd 923c 493d 3a4b 15bd
00000310: fa8e 3f3d ab1c c13c a5bd 5f3d b475 523d
00000320: e67e ab3c fc84 d93c aaac 20bd 3863 ac3c
00000330: fab8 0cbd 0bce 09bd d18f 05bd 2e89 5cbd
00000340: a9bd c2bc 64bf 6bbd 0817 6dbd 28cd 1d3d
00000350: d440 afb8 baed 3e3d 79a3 11bc c331 5cbd
00000360: b062 733d a873 3cbd 9b89 1fbb f84a 623c
00000370: 606a 5dbc 38bb 4fbd fd6e 0cbd 78f3 31bc
00000380: 309e 99bb 5694 b73b bef8 c53c 8b74 e43c
00000390: 1b25 6c3c a0ca 253b 1661 673d a007 fa3c
000003a0: 9443 a23c 37b1 693b 5a82 78bd e0c6 35bb
000003b0: a08e 673d 80bb 2f3b ac63 d23c bcac 7c3d
000003c0: 28fd 863a bb79 aabc 482a 453c 522b e83c
000003d0: 8010 a93c 00a2 403c bea2 f0bb d686 183d
000003e0: 196e 4f3d e453 34bd 9472 06bd aa44 2d3d
000003f0: cb8f 0a3b 8e37 3dbd d7c6 0c3d 93eb fcbc
-0.041404434 0.049501244 -0.0507423 -0.017209075 0.0035414398 -0.0411423 0.011123374 -0.015241063
-0.03613013 -0.04082002 0.024266414 -0.004402783 -0.055803217 0.030454911 -0.06232982 -0.028294897
0.05830141 -0.013677448 -0.013140038 -0.05139713 -0.01854803 -0.03749849 -0.062382035 0.05371201
0.010787845 0.038590275 -0.014825597 0.014175895 -0.030767173 0.041030336 -0.052580737 -0.011791199
-0.06687108 -0.022792943 0.04085236 -0.01501821 -0.056196705 0.0403179 -0.06148924 -0.04148682
-0.055116754 -0.002704126 -0.054575898 0.057695825 -0.04805927 0.056314178 0.012412339 0.03695263
-0.0068778917 -0.026501544 0.022980656 -0.035540927 -0.051305182 0.021700816 -0.015214905 0.005396694
-0.061407886 -0.007196939 0.05488251 0.02259159 -0.041113228 -0.03994622 0.055715755 -0.013678186
0.046081826 0.05415059 -0.041664425 0.037796006 -0.0025405735 0.043313954 0.042938493 0.04950138
0.048906293 0.030877195 -0.022713333 -0.05143412 -0.061977886 0.044052072 0.03405437 0.028565653
-0.023615442 -0.055546775 0.017555961 0.04830148 0.06095311 -0.027298147 -0.014479779 0.053810425
0.029037071 0.035255224 0.055450015 0.04712044 0.029191798 0.019558722 -0.05460461 -0.019806154
0.029250486 -0.00030726194 0.0028819595 -0.043124057 0.016027704 -0.058083966 -0.028838605 0.011046536
-0.0020596003 0.040554285 -0.012942075 -0.010461227 0.050890055 0.054433525 -0.04589559 0.053652108
-0.057775445 0.045019705 -0.0064463764 -0.011425205 0.02457498 0.05585195 -0.029025922 0.03718789
-0.021551415 -0.05383403 -0.014545664 0.026794648 -0.04614224 0.06165541 -0.016718194 -0.056562014
0.03866013 -0.064554036 0.041614324 0.009123303 -0.046302415 -0.025998725 -0.06202874 0.017903969
-0.04584816 0.024726324 -0.050246865 -0.042040303 -0.046745524 -0.013501592 -0.035524707 -0.05329296
0.0353844 0.04785652 -0.018113427 -0.031893715 -0.0025594085 0.041177217 -0.044403743 0.04806456
0.027136527 -0.04770355 -0.0041468143 -0.024039522 0.046516534 -0.021500682 0.05496966 -0.047991775
-0.0455447 -0.0018489733 -0.053604938 0.03137254 0.037373506 0.05721485 0.030245364 -0.03993492
-0.052632652 0.015488323 0.05357211 -0.00863961 -0.04426247 -0.005667351 -0.02969376 0.005230397
0.032723106 0.01468201 -0.056033365 0.022001093 -0.040719077 -0.01088916 0.040680833 0.03206916
-0.0317166 0.032217048 -0.012071992 0.018221613 -0.06115481 -0.052268304 0.06109087 -0.05850255
-0.04414157 -0.04861041 0.04913003 -0.036448695 0.046767212 0.02357324 0.05462422 0.05138178
0.020934533 0.02655267 -0.039227165 0.021043405 -0.034356095 -0.033643764 -0.032607857 -0.053841762
-0.023772078 -0.05755557 -0.057883292 0.03852573 -8.3567254e-05 0.046613432 -0.008889073 -0.053758394
0.059420288 -0.046008736 -0.0024343494 0.013811819 -0.013514131 -0.050715655 -0.034285534 -0.01086127
-0.004688047 0.0056024 0.024166461 0.027887603 0.0144131435 0.0025297776 0.056489073 0.030521214
0.019807614 0.0035658607 -0.060671188 -0.0027736947 0.056532502 0.002681464 0.025682293 0.06168817
0.0010298835 -0.020809999 0.012034006 0.02834097 0.02063775 0.011757374 -0.007343619 0.037237965
0.050642107 -0.044025317 -0.032824114 0.04230181 0.0021142836 -0.04619556 0.034369316 -0.03087405

V.weight f4 [1, 256]
00000000: a3c7 d7bc b2d1 d3bc cf91 12bd bcfb afbc
00000010: 58f0 03bd 4c1f 9e3c 289a 63bd a35e 4cbd
00000020: d2e2 56bd 0985 80ba 209b 7ebb 0bed fb3b
00000030: 2ed6 3c3d 5c9e 963c 4050 b53a bb11 18bd
00000040: 184d c0bc 6ce0 2c3d f46d 873c a424 b93c
00000050: 961f 8bbb 5eab 533d c021 7bbc 846f 223d
00000060: 58f3 233d ee00 333d e4a8 49bd 6f43 8cbc
00000070: 9205 0e3d 6046 883c d0d0 85bb 9458 313d
00000080: 1505 573d c0e6 3d3b 485d cf3c f2f5 783d
00000090: 40e4 57bd 28d3 6c3c f60e ed3c d182 483d
000000a0: 6e85 773c 5349 bbbc 885e bc3c 55db d5bc
000000b0: a061 653c cb09 02bd 8423 643d 8874 933c
000000c0: aad0 7f3d 080b 47bd ea83 633c 3ca5 113d
000000d0: 079d c8bc e4d5 b13c 42ec 5ebd 405c 5c3c
000000e0: 2c0c 58bd 1ceb 2ebc c090 8eba 80d7 be3b
000000f0: fbc5 8abc 387d e93c 3441 c7bc 1049 963b
00000100: 00a4 ee3b 907d d23c ceeb 2d3c 2c2a cc3c
00000110: 70c1 153d 797a 613c 0120 953b f440 a2bc
00000120: 329b 013d b00e 643d c85a 3cbd 0494 d4ba
00000130: e63d 5abd cb81 eb3c fd47 d4bc 601d 9bbb
00000140: 54ed cfbc ded0 febc fe1f 22bb 265e 473d
00000150: 48c3 32bd 7de8 633b 44c9 393d c469 403d
00000160: 01e7 e2bc 8544 393d 307f 18bd cff2 aabb
00000170: 5ec0 a2bc 6892 23bd ea81 41bb a21a 61bd
00000180: 3ee1 bbbc e06d 723b 6e94 9c3c 509a 6b3d
00000190: b082 6bbc 9c0c eb3c 08a5 5b3d b089 aabb
000001a0: 6bbb 4fbc 63f1 85bb a635 03bc 6a28 ed3c
000001b0: 56d3 a8bc d874 ffbc 70e6 eebc 81fe 243d
000001c0: 00f6 203d a79e bbbc 80b5 0a3a b84c 09bc
000001d0: 44ee b9bc fc64 a6bc dc38 84bc 4f12 0f3d
000001e0: 9ccd bdbc 98d7 b1bc 7853 163c 3623 e4bb
000001f0: 30be e03c e421 263d 739f 413c 1199 be3c
00000200: 0014 9f38 e2ed 533c 406b c6ba 70c6 573d
00000210: 2a3d 0e3d a502 9cbc a745 cebb 40cf 113d
00000220: b4aa 5f3d da71 433d 2a9d 1e3d b112 293d
00000230: 682a 543c 5053 d9bc c8d4 e73b a005 0dbc
00000240: 9a48 fbbc b4e4 9cbc f40c bfbc 337a 9f3b
00000250: 407f a53b d300 b83b d14c f1b9 e44c 65bd
00000260: 20d4 3fbc f094 fa3b 58db babc c03d f0bc
00000270: 6896 e23b 40ea 65bc 0ccf 2f3d 220b 5d3d
00000280: 163f 3b3d 363a 4abd 132c 223c b449 17bd
00000290: 1844 483d ec2c f13c fa8b 5a3d 1890 6cbc
000002a0: ff7e 1dbc e5bb 3dbc 765a 7a3d 9762 033c
000002b0: a07d c0bc 186d 52bc 64ac b9bc 8229 393d
000002c0: 6bde 313a dc9e 38bd 487e c33c 1faa cb3c
000002d0: b61c 003c 2437 febb 1d38 223c 9c51 76bc
000002e0: 7abd 763d d47d 123c deca 283d c867 ab3c
000002f0: bfdc 393c b201 73bd 0002 9939 8c3b a4bc
00000300: 2809 68bd a13d 09bc 9e3b 32bd 0044 2b3a
00000310: 5ee9 45bd c839 cc3b 3bbf 443d 94cb 633d
00000320: e7c9 113d 1c2d 7abd 812d 123a 1c72 77bb
00000330: 88e5 b0bc f54f 11bd a23e c2bc 1d32 54bc
00000340: b21d 3dbc 6fd1 d33c d61e 3a3c 3968 06bc
00000350: a4ef febc 0a0d 633d 78de 88b8 dbb4 e13c
00000360: d4e6 7cbd 045c 29bd 5146 343d 28a0 e93b
00000370: d4d7 0a3d f191 f2bc b270 04bc e07c f7bc
00000380: b86a f03c c7c7 c6bb b1d4 26bb ad78 49bd
00000390: 3948 e7bc 74ac 9ebc 70ab 5c3d faa8 5e3d
000003a0: 1433 fe3c 45d4 a83c 00ad b43c 7456 2c3d
000003b0: 1ea1 02bd f26c 5cbd f459 40bd 14b8 303d
000003c0: 1012 9abc 0d4a f23c d6e2 5e3d 57eb 2a3c
000003d0: 3dbe ac3c 0cc2 043d 40e8 30bc f445 f93c
000003e0: 526f efbb d085 2cbd d076 b5bc c2d1 32bd
000003f0: c1fe f83c 2cb5 073d 1975 09bc e9db 21bd
-0.026340311 -0.025856826 -0.035783585 -0.021482341 -0.03221163 0.019302033 -0.055566937 -0.04989494
-0.052462406 -0.0009805273 -0.0038849786 0.00768817 0.046102695 0.018386059 0.001383312 -0.037126284
-0.023474261 0.042206213 0.016531922 0.02260048 -0.0042457087 0.0516771 -0.015327871 0.03965713
0.040026993 0.04370206 -0.049233332 -0.017121999 0.03467328 0.01663512 -0.0040837303 0.043297365
0.05249508 0.002897665 0.025313035 0.060781427 -0.05270791 0.01445464 0.028937798 0.04895288
0.015107496 -0.022862112 0.022994295 -0.026105562 0.014000326 -0.03174762 0.055697933 0.017999902
0.062454857 -0.048594505 0.013886431 0.03555797 -0.024488939 0.021708436 -0.05442453 0.0134497285
-0.052745983 -0.010676172 -0.0010876879 0.0058240294 -0.016940108 0.028502092 -0.024323083 0.0045863464
0.007282734 0.025694638 0.010615302 0.024922453 0.03656143 0.01376211 0.0045509343 -0.019806363
0.031642146 0.05567807 -0.045985013 -0.0016218428 -0.053281687 0.028748414 -0.025913233 -0.0047337264
-0.025381722 -0.031105455 -0.0024738307 0.04867377 -0.043643266 0.0034776025 0.045357957 0.046975866
-0.027698042 0.04523136 -0.03723067 -0.0052169333 -0.019867118 -0.039934546 -0.0029526898 -0.05495704
-0.022934552 0.003699176 0.019113746 0.05752021 -0.01437442 0.028692536 0.053624183 -0.005204402
-0.012678961 -0.0040876134 -0.008008396 0.028949935 -0.020608585 -0.031183645 -0.029162616 0.040281776
0.039297104 -0.0229028 0.0005291328 -0.008380108 -0.022696622 -0.020311825 -0.016140394 0.03492957
-0.023169331 -0.021709248 0.009175174 -0.0069622053 0.027434438 0.040559664 0.011817801 0.023266347
7.585436e-05 0.012935134 -0.0015138164 0.05267948 0.0347263 -0.01904423 -0.0062949243 0.03559804
0.054606155 0.047716 0.038724102 0.04127759 0.012949564 -0.026528984 0.007074926 -0.008607298
-0.030674268 -0.019152023 -0.023321606 0.004866862 0.00505057 0.0056153326 -0.00046024335 -0.05598153
-0.011708289 0.0076471493 -0.02280967 -0.02932632 0.0069149025 -0.0140329 0.042922065 0.053965695
0.04571446 -0.04937192 0.009898203 -0.036935523 0.048893064 0.029440366 0.05335615 -0.0144386515
-0.009612798 -0.011580442 0.061121427 0.008019111 -0.023497403 -0.012843393 -0.02266521 0.0452056
0.0006785157 -0.045073375 0.023863927 0.024861393 0.007819345 -0.007758038 0.009901074 -0.015034106
0.060239293 0.008941133 0.041209094 0.02092351 0.011344134 -0.05932779 0.00029183924 -0.020047925
-0.056649357 -0.00837651 -0.043513887 0.0006533265 -0.04831826 0.006232474 0.048033934 0.05561407
0.03559294 -0.061078176 0.00055762386 -0.0037757223 -0.021593824 -0.035476644 -0.023711506 -0.012951401
-0.011542724 0.025856702 0.011359891 -0.00820356 -0.031120129 0.055432357 -6.5264234e-05 0.027552059
-0.061743572 -0.04134752 0.04401237 0.007129688 0.033897236 -0.029610606 -0.008083509 -0.030210912
0.029347762 -0.006066296 -0.0025456364 -0.04918735 -0.02823268 -0.019369341 0.053874433 0.054360367
0.031030215 0.02060903 0.02205515 0.042074636 -0.031891935 -0.053814836 -0.046960786 0.0431443
-0.018807441 0.029576326 0.054415546 0.010432086 0.021086806 0.03241162 -0.01079756 0.030428864
-0.0073069716 -0.0421198 -0.02215138 -0.043657072 0.030394914 0.033131763 -0.008389735 -0.039516363

A.weight f4 [6, 256]
00000000: dbfd bcbd cf67 13bd 798d 883c b28c 4d3d
00000010: fcb1 e8bc a00a 673d 5298 26bd b6c6 f1bc
00000020: 38ae f6bc 3d60 8ebc 80a5 5dbd 2d42 363d
00000030: 7645 223d 4041 763c 06c8 043d 0f48 0a3d
00000040: 6474 573d 7029 67bc 32c2 35bd 1834 70bd
00000050: e574 8c3b 209b abbb 06a6 43bd 8e9a 2dbd
00000060: d4b3 08bd 7685 433d dcbb 963c 5eaa 61bd
00000070: d0a9 d0bc c7c4 58bb 8259 4abd d24c 1dbd
00000080: cfc0 5a38 e49c 483d 8dce 3c3d e60d 0c3d
00000090: 520a 7e3d df23 a339 62f1 743d e5f6 c73c
000000a0: edf2 103d 4e09 803a a820 cd3c f617 80bd
000000b0: 0038 003a cee2 e3bc 0821 09bc 3472 00bd
000000c0: f2ee 093d e0f5 36bc ea3e d7bb 7887 3dbc
000000d0: 41ea 43bd b33b 0d3d 6a3b 6b3d 8881 7cbd
000000e0: 2cd4 c93c 53da dabc 1240 3d3d 2435 103d
000000f0: 4941 55bd b4f0 623d 2091 5f3b dec6 2b3d
00000100: 7889 29bd 10d1 42bd aab5 5b3c 26cf 07bd
00000110: 1c3f 8a3c 6636 47bb 7d4b c3bb 684d 7d3d
00000120: a8bd 783c 4e3e 29bd 40b1 6c3d 394a 443d
00000130: 8833 443d 5d8c 033b cbcc ce3c c070 fa3b
00000140: 1eba 15bd b6c2 073d 3fb8 253c fb14 803d
00000150: 004d 0abb b091 2fbd f2da 183d b0f6 a43b
00000160: a599 72bd 1332 26bd a46e 25bd 47fc 1dbd
00000170: 3ca8 6d3b eb72 b03c f16d 8a3b 001e 5f3c
00000180: c9ee 863c 2045 d6bb c02c 693d 52ec 7f3d
00000190: ec85 a5bc e82a c63c a8d9 7d3c 009f 543d
000001a0: 699b 09bd 8874 e9bc 3c4e a73c 3edb 253d
000001b0: face 8abc 7c2d e5bc 44ac 9a3c a7e6 193c
000001c0: 00d4 3ebd 53d0 f3bb ce41 243d 00f1 98bb
000001d0: b0a6 bbbb acd7 733d 5153 093c f43a 973d
000001e0: 0a7c 763d f655 323d 2643 423d dd94 0cbd
000001f0: 49f6 323d 7854 573d 545b f3bc b331 5f3d
00000200: 5442 863c 5928 cb3c ccc2 df3c 5485 e3bc
00000210: 00c5 a83b 2bb7 35bd f893 d8bc 869e 103d
00000220: 38d5 76bd a08a a43b 90a6 c0bc 91cc 0c3d
00000230: 32da 013d ae89 36bd cbc4 2c3d b8a4 643c
00000240: 3bd5 1fbd 1021 23bd b0c4 70bc d889 d5bc
00000250: d80e 0bbc ea83 40bc 4025 32bd 2202 04bd
00000260: 222d 0d3d d841 473c 4294 1abd 44e2 7abd
00000270: 5b71 8e3b fe2b debc 7ab9 3a3d be03 34bd
00000280: 04a4 14bd 0092 a939 df8b ca3c 38bb 4cbc
00000290: c492 c3bc a882 2bbd e02f 00bd 10a7 5c3c
000002a0: 7941 be3c 821b ee3c 34a4 243d c320 363d
000002b0: 26b1 7f3d 2a4e 39bd 00aa d1b9 6849 c23c
000002c0: 73d4 b93c 8020 52bd 24f3 4e3d fcc7 86bc
000002d0: e6e8 473d fa90 e7bc 54fe 7c3d 45f2 103c
000002e0: aa1e 3ebd f4e6 f73b 3ee4 323d 04ca d6bc
000002f0: 01c1 913c 48bc 4e3c 302d 33bd fc95 0bbd
00000300: 1edd 35bd 70ff 11bb 7088 3bbd 78b0 00bd
00000310: 52ca 483d fdee 873c 5ba3 29bd 8090 6dba
00000320: eeb9 85bc 30dd adbb b452 78bd 900f d33c
00000330: 4f7a 833c 54ee 44bd 2c73 18bd 1d6f 47b9
00000340: 5453 1fbd bb90 e4bc 6424 4fbd 0901 b7bc
00000350: d3f4 12bd 12e6 2ebc 0fe2 03bd 6170 363d
00000360: 725e 56bd 98c2 483c 47ae 31bc e5df d1bc
00000370: 8820 843c c4ab 7bbc 61ba 98bc 60cd a73c
00000380: 0020 5138 979e fbbc 6f0d c0bc d009 68bd
00000390: 211a 04bc 7852 c43c 2c55 58bd b6bb 19bd
000003a0: a0d1 8d3b 2e06 903c 80ce 14ba 100b 0fbc
000003b0: 26d4 6c3d a2c4 223d d6e8 55bd ba35 6f3d
000003c0: 4374 2cbd 95e7 1e3d 42b2 3fbd a2ed a5bc
000003d0: 3c24 7d3c 742d c83c 9649 26bd 7a6a 373d
000003e0: e440 68bd f44d de3c a470 263d 0031 723d
000003f0: 081a 06bd 4776 533c 2065 f03c 41a7 bd3c
-0.092281066 -0.03598767 0.016669022 0.050183006 -0.028405182 0.056406617 -0.040672608 -0.029513698
-0.03011237 -0.017379874 -0.05411291 0.044496704 0.039617024 0.015030205 0.03241732 0.033760127
0.052601233 -0.014109001 -0.044374652 -0.05864343 0.004286396 -0.005236998 -0.047765754 -0.042383723
-0.033374622 0.0477347 0.018400125 -0.055094115 -0.025471598 -0.0033076273 -0.049401768 -0.03840334
5.2154817e-05 0.048977748 0.04609542 0.034192942 0.06202156 0.0003111651 0.059800513 0.02440972
0.035387922 0.0009768398 0.025039986 -0.0625457 0.0004891157 -0.02781811 -0.008369692 -0.031358913
0.03367514 -0.01116702 -0.0065687792 -0.011567943 -0.047830824 0.03448076 0.05742971 -0.061646968
0.024637304 -0.026715433 0.04620368 0.03520693 -0.052064214 0.055405334 0.00341136 0.0419377
-0.041390866 -0.04756266 0.013410011 -0.033156537 0.016875796 -0.0030397414 -0.0059599266 0.0618414
0.015181936 -0.041319184 0.057786226 0.047922347 0.047900707 0.0020072677 0.025244137 0.0076428354
-0.03655445 0.033144675 0.0101147285 0.06254002 -0.0021103024 -0.042863548 0.037318178 0.0050342903
-0.059228558 -0.0405751 -0.04038872 -0.03857067 0.0036263606 0.021539172 0.004224532 0.013617992
0.016471284 -0.006539002 0.056927443 0.062481232 -0.02020546 0.024190381 0.015493788 0.051909447
-0.033595476 -0.02849795 0.020423047 0.04049229 -0.016944397 -0.02797579 0.01888097 0.009393371
-0.046588898 -0.0074406057 0.04010182 -0.0046674013 -0.005726658 0.059531853 0.008381681 0.07384291
0.060176887 0.04353901 0.04742732 -0.034321655 0.043691907 0.05257079 -0.029706635 0.054490756
0.01638905 0.024799513 0.027314566 -0.027773537 0.0051504374 -0.044364136 -0.026437744 0.03530743
-0.060261935 0.005021408 -0.023516923 0.034374777 0.031702228 -0.044564895 0.042179864 0.013955288
-0.03902171 -0.039826453 -0.014695331 -0.026066706 -0.008487426 -0.011750201 -0.043492556 -0.032228597
0.03446687 0.0121616945 -0.037739046 -0.06125094 0.004347009 -0.027120586 0.04558704 -0.04394888
-0.03628923 0.0003234297 0.024724899 -0.012495808 -0.023873694 -0.04187265 -0.031295657 0.013467565
0.02322458 0.029065851 0.04019566 0.044464838 0.0624248 -0.04524056 -0.00039990246 0.023716643
0.022684311 -0.051300526 0.050524846 -0.016452782 0.048806094 -0.028267372 0.061765984 0.008846824
-0.046415962 0.0075653736 0.0436747 -0.026219375 0.017792227 0.012618132 -0.043744266 -0.034078583
-0.044400327 -0.0022277497 -0.045784414 -0.031418294 0.049021073 0.01659345 -0.041415554 -0.00090623647
-0.01632401 -0.0053059086 -0.060625747 0.025764257 0.016049532 -0.04807885 -0.03721921 -0.00019019512
-0.038897827 -0.027901044 -0.050571814 -0.02233936 -0.035878014 -0.01067497 -0.03219801 0.044540767
-0.052336164 0.012253426 -0.010844774 -0.025619457 0.016128793 -0.015360776 -0.01864356 0.020483673
4.9859285e-05 -0.03071527 -0.023443906 -0.056649983 -0.00806287 0.023965105 -0.0528156 -0.03753253
0.0043279678 0.017581072 -0.0005676523 -0.008730665 0.057819508 0.039738305 -0.052224003 0.058400847
-0.042103063 0.038795073 -0.04680086 -0.020254914 0.0154505335 0.024435736 -0.04059752 0.04477928
-0.05670251 0.02713678 0.040634766 0.05912876 -0.03273967 0.0129066175 0.029345095 0.023151042

A.bias f4 [6]
00000000: f352 4b3d 7e55 833d 965b c33c 0a1a 8fbd
00000010: a07d b2bc 60f4 2ebb
0.049639653 0.06412791 0.023847383 -0.069873884 -0.021788418 -0.0026695952
