cool/checkpoints/D3QN/Q_eval/D3QN_q_eval_1200.pth (torch, 278863 bytes, 7 tensors)

fc1.weight f4 [256, 5]
000000 56 7a db be e6 7c 8c be a9 6b 5d be 4a 9b 30 3d
       -0.42866772 -0.2743904 -0.216231 0.043116845
000010 d5 3f b4 3e 52 67 21 be fc dc a9 3e 60 40 a9 3e
       0.3520495 -0.1576207 0.3317641 0.33056927
000020 18 44 33 be 90 85 96 3d b9 82 b6 be 84 48 7d 3e
       -0.17506444 0.07349694 -0.35646608 0.24734694
000030 28 89 40 be 7c 16 ae bd aa cc 91 3e 86 98 0f be
       -0.18802321 -0.08500382 0.2847646 -0.14023027
000040 e0 f5 ee bd d0 6c 46 3d 60 71 23 be 68 07 01 3d
       -0.11667991 0.048443615 -0.15961218 0.031501204
000050 04 e9 83 3e cf 10 aa be 38 15 4b 3e c1 e5 85 be
       0.25763714 -0.3321595 0.19832313 -0.2615185
000060 8c 19 85 3e 58 39 0d bd 92 7e 10 be 62 8f 77 3e
       0.25996053 -0.034478515 -0.14110783 0.2417579
000070 a2 ba fd 3d 10 68 6f 3e 00 71 23 3e b0 56 9c 3e
       0.12389113 0.2337954 0.15961075 0.30534887
000080 00 e8 f5 3c 3c 29 dd bd 18 fd 8d be 20 49 99 3e
       0.030017853 -0.107988805 -0.27732158 0.29938602
000090 2e 54 d9 3d 7f a1 50 be 99 93 94 3e 30 1f 0a 3e
       0.10611759 -0.20374106 0.29018858 0.1348846
0000a0 90 8b 42 bd 14 ed 79 3e 44 60 c5 bd b2 8a 14 be
       -0.04749638 0.24406844 -0.09637502 -0.14506033
0000b0 00 54 9f bc b4 3b a6 bd fe 6d ab 3e a2 bc 8f 3e
       -0.019449234 -0.08116856 0.33482355 0.28073603
0000c0 f0 ea e8 bd c8 df 06 bd 4d ca e4 be 32 7f d4 be
       -0.11372936 -0.03292826 -0.44685593 -0.41503292
0000d0 a6 9b d0 3e cf 20 db be 61 ac bf be 07 40 c2 3e
       0.4074375 -0.42798468 -0.37436202 0.37939474
0000e0 f3 39 e5 be 5e 9b a7 3e d5 b8 a0 3e 56 5f 2f be
       -0.44770774 0.32735723 0.31391016 -0.17126212
0000f0 bb 65 53 be e5 21 ed be 23 76 43 3e 17 3a cb 3d
       -0.20644276 -0.46314922 0.19088034 0.09923189
000100 ec b7 5c bd 7e 46 01 be d6 ce a2 3e 34 97 a0 3e
       -0.05388634 -0.12624547 0.31798428 0.3136536
000110 7e ab 3f be de 9f 19 be d0 a2 b4 3e 7d d4 32 3e
       -0.18717763 -0.1500239 0.35280466 0.1746387
000120 64 c1 54 be a0 c8 10 3e 3c 51 a9 be 90 5f ac 3c
       -0.20776898 0.14139032 -0.3306979 0.021041662
000130 33 b3 ca be 03 7b 9e 3e fe f5 2c bc a0 bb 07 3e
       -0.39589843 0.30953225 -0.010556696 0.13255167
000140 3a 7c 5d be 4c 2e d8 be 9e 09 c9 3e a0 60 5c bc
       -0.2162942 -0.42222822 0.3926515 -0.013450772
000150 e0 0d ae 3c 86 14 c8 be 03 d4 8d be 6e 25 74 be
       0.02124685 -0.39078158 -0.27700815 -0.23842403
000160 68 a1 bf 3e 8b a8 fd bc 2a e0 97 be 7d 9b 5c 3e
       0.3742783 -0.030964157 -0.2966321 0.21543689
000170 ea 89 bc 3b 37 5f c7 3e c1 1f 13 be 70 2a 8f be
       0.0057537453 0.3893983 -0.14367582 -0.27962065
000180 a9 6d 5a be 7c 46 50 bd f7 cc 37 3e 35 1e 6d bd
       -0.21330895 -0.05084847 0.17949282 -0.057890136
000190 3e 56 b3 3e 54 f9 00 3e 74 7b 19 3e ef d9 92 be
       0.35026735 0.12595111 0.149885 -0.28681895
0001a0 96 e1 92 be 24 57 6f be 06 eb ad 3e 60 20 6c 3e
       -0.28687733 -0.23373085 0.3396837 0.23059225
0001b0 3e fe 82 be 03 a4 ae be 04 8c cb 3e a8 f4 d7 bd
       -0.25584596 -0.34109506 0.3975526 -0.10544711
0001c0 b0 ac a1 3e e8 a6 79 bd e2 5e 97 3e 26 ab 34 be
       0.31577063 -0.06095019 0.29564577 -0.17643413
0001d0 24 55 c4 3e 00 e6 87 3b ed 9f b7 be fc 24 a7 be
       0.38346207 0.004147291 -0.358642 -0.32645404
0001e0 58 dd cc be 9b e0 83 be 19 e6 c4 be 65 c9 0a 3e
       -0.40012622 -0.25757298 -0.384568 0.13553388
0001f0 0f 9d c3 3e 1d fc 7d 3e 1e cc a9 3e 3e da 2b 3e
       0.38205764 0.24803205 0.33163542 0.16782472
000200 3a 88 62 3d 9f 91 ec 3d ca b4 3f be 40 2f fd 3c
       0.055305697 0.115512125 -0.1872131 0.03090632
000210 c8 3f 9b 3d 22 af 62 be 90 5a 98 3e cc e0 63 3e
       0.07580525 -0.2213712 0.29756594 0.22253722
000220 ab 2e be be e2 df 6a be bb bb 73 be e0 d1 ac 3d
       -0.3714498 -0.22936967 -0.23802082 0.08438468
000230 26 c7 bb be a0 d0 cd 3d d4 cb 1d be b2 fa 19 be
       -0.36675376 0.10049558 -0.15409786 -0.15037039
000240 18 8d dc 3d f8 86 00 3d ef 00 6b be 54 b0 bb 3e
       0.10769099 0.031378716 -0.22949575 0.36657965
000250 a8 38 74 be 38 1c fc bd 6a 26 9f 3e a3 df 50 3e
       -0.23849738 -0.1231007 0.31083995 0.2039781
000260 5d a0 0d 3c 86 cc bd 3e 9c fe 8e be 3c 78 a7 3e
       0.008644191 0.37070101 -0.27928627 0.3270892
000270 bc e4 2b 3e 48 47 45 3d 8b 92 6b be 4a cd b1 3e
       0.16786474 0.048163682 -0.2300512 0.34726936
000280 7c 88 dd 3e 16 31 21 3e 6e 90 c9 3e d3 83 cf 3e
       0.43268192 0.15741381 0.39368004 0.4053026
000290 d0 5f e6 be 95 21 aa bd 04 ac ee be 02 fc 84 3e
       -0.44994974 -0.083071865 -0.46615613 0.25973517
0002a0 ad e2 db 3e e8 92 9c bb 90 cf 21 bd a4 13 d0 bd
       0.42946377 -0.004778255 -0.039504588 -0.10159996
0002b0 c4 d3 db 3e 00 68 59 bc fc dd c1 be 9a a7 e0 3e
       0.42935002 -0.013269424 -0.37864673 0.4387787
0002c0 2e e5 17 be b0 7b cf 3e 1a 77 39 be 94 5a d8 be
       -0.14833519 0.40524054 -0.1811184 -0.42256606
0002d0 d0 bb 78 3d 28 74 9c 3d 30 5b 2e be ba 37 90 be
       0.060725987 0.076393425 -0.17026973 -0.28167516
0002e0 74 4e 34 3e c6 6e aa 3e e0 51 f6 3d 88 78 91 be
       0.17608052 0.33287638 0.12027335 -0.2841227
0002f0 38 c3 9f be 5a d4 89 3e d7 bc c1 be de 54 5b be
       -0.31203628 0.26919824 -0.37839386 -0.21419093
000300 4a 54 0a 3e 46 bc 24 3e cc a6 80 3d 0d 51 3f 3e
       0.13508716 0.16087446 0.06281814 0.18683262
000310 c8 cb 84 3e e4 cb 83 be 3a a1 cc 3e fb ff d1 be
       0.25936723 -0.25741494 0.39966756 -0.4101561
000320 ee 31 9d be 18 41 2d bd c0 42 cb bb c6 39 84 be
       -0.30702156 -0.042298406 -0.0062030256 -0.25825328
000330 c0 92 85 3c 04 d7 bf 3e 00 28 6a 3c 20 63 ec bd
       0.016305327 0.3746873 0.014291763 -0.11542344
000340 db fb af be a1 03 b1 be bd fd 39 3e 60 65 87 be
       -0.34371838 -0.3457308 0.181632 -0.2644453
000350 1e 5b c2 3e da fd 9e 3d 72 2e 68 3e 0d c7 9c be
       0.37960142 0.07763262 0.22673967 -0.30620614
000360 c0 b2 9f 3d dc e7 9b 3e d9 4f e0 be c8 37 1d 3d
       0.07797766 0.30450332 -0.4381092 0.038383275
000370 34 e2 00 3e 34 01 8b be 68 37 c9 3e d4 c4 08 be
       0.1258629 -0.27149355 0.39300084 -0.13356334
000380 40 56 47 3e 02 64 d0 3e 88 6f 6c bd 7a 21 e1 bd
       0.19466496 0.407013 -0.057723552 -0.10992713
000390 15 61 cb 3e 86 7c 99 be 50 c0 5f 3d 06 6a 3b be
       0.39722505 -0.29977816 0.054626763 -0.18302163
0003a0 08 c1 6f be 30 bf bb bd 48 43 a5 be 8c 00 3e be
       -0.2341348 -0.091673255 -0.32277894 -0.18554896
0003b0 5f 5f d3 be d8 dd 8c 3e 93 ce bd be fa 79 e1 be
       -0.412837 0.27513003 -0.37071666 -0.44038373
0003c0 b3 0e 19 be 58 22 2c 3e f8 90 cb 3e 19 2d 4d 3e
       -0.14947014 0.16809976 0.3975904 0.20036735
0003d0 b3 89 8c 3e 2c 96 c8 3e dc ec b5 be d1 94 3a 3e
       0.27448806 0.39177072 -0.35532272 0.18220831
0003e0 f4 ae 44 3e 70 44 b4 3e 42 52 bd be 20 2e 39 be
       0.19207364 0.35208464 -0.3697682 -0.18084002
0003f0 30 e1 3f be d4 2f b8 bd e0 92 7d bc 00 d0 58 ba
       -0.18738246 -0.089934975 -0.015476912 -0.00082707405

fc1.bias f4 [256]
000000 7a 69 2e 3e c0 e3 74 3d d0 17 65 3e 00 87 a1 3a
       0.17032424 0.05978751 0.22372365 0.0012323558
000010 20 26 d7 bc 47 1e 56 3e 15 67 55 be 58 b8 8f be
       -0.026263297 0.20909987 -0.20840104 -0.2807033
000020 78 0e 48 be c0 06 dd 3d b8 75 c0 3e 8d 03 98 bd
       -0.1953677 0.10792303 0.37589812 -0.07422552
000030 1d 83 b0 3e 8b cc c5 be b0 0e 99 be b0 6a 37 3e
       0.34475031 -0.38632616 -0.29894018 0.17911792
000040 a0 85 37 bd dd e3 be 3e 71 df 13 3e c8 ac 25 3d
       -0.04480517 0.3728322 0.14440705 0.04044798
000050 7c 08 07 3e 1c 62 9d be a8 20 a5 be 37 13 d8 be
       0.1318683 -0.30738914 -0.32251477 -0.4220216
000060 1e ed f3 3c ac 66 ad be 40 fe cc bd d4 63 82 3e
       0.029776152 -0.33867395 -0.10009432 0.25466788
000070 03 4c d9 be 9c cc 9e 3e 2d 65 a3 3e 60 c7 87 3e
       -0.42440805 0.3101548 0.31913128 0.265193
000080 8c 45 cb be 5f 2c 96 be e8 2b 83 be e0 f1 c4 bd
       -0.39701498 -0.29330727 -0.25619435 -0.096164465
000090 1c 64 4e 3e 04 e7 db bd 75 29 6b be 0f 28 bd 3d
       0.20155376 -0.10737422 -0.22965033 0.09236156
0000a0 3e 7a e3 3e 3e 38 d1 3e 57 9c e1 3e 44 6e 79 3e
       0.444292 0.40863222 0.4406459 0.24358469
0000b0 d8 ed 06 3e ec b5 8e bd da 49 0d be a2 01 98 be
       0.13176668 -0.069682926 -0.13797703 -0.29688746
0000c0 4b ea d5 3e 9d 09 b4 be f4 0d 97 be c4 b8 ec bd
       0.41780314 -0.35163584 -0.29502833 -0.11558679
0000d0 fe 5a 98 3e 28 15 95 3e 03 99 94 be a0 51 03 3e
       0.29756922 0.29117703 -0.2902299 0.12824106
0000e0 9c ef b8 3e 3c 79 97 3e 3c 65 c6 be 7c d0 e1 be
       0.36120307 0.29584682 -0.3874911 -0.44104373
0000f0 c0 fb 32 be 74 f3 05 3e f0 23 e9 3d ec 98 19 be
       -0.17478848 0.13081151 0.11383808 -0.14999741
000100 0b b8 b4 be 14 d3 d0 bd 32 cb 64 bd 54 72 95 3e
       -0.35296664 -0.1019651 -0.055857845 0.29188788
000110 8b a2 c1 be 42 ff c2 3e 20 b8 c8 3e 24 10 d9 3e
       -0.37819323 0.3808537 0.39202976 0.42395127
000120 d3 8f c8 be 0c 17 10 be f0 5c 2e 3e 9a c3 ac 3e
       -0.3917223 -0.14071292 0.1702764 0.33742982
000130 80 a4 fb bd 60 55 80 3e d6 c9 8e be 50 6c 25 3e
       -0.12287235 0.25065136 -0.27888364 0.16154599
000140 b5 f0 b9 be 82 fc d4 3e 47 f9 61 3e 26 63 1e 3e
       -0.36316457 0.41598898 0.22067748 0.1546751
000150 de 72 b3 be ba 18 84 3e d2 4f a6 bd 58 1b 65 3e
       -0.35048574 0.25800115 -0.08120693 0.22373712
000160 fc c9 8a be e2 f8 51 be bf 98 b8 3d 70 a1 c4 bc
       -0.27107227 -0.20505098 0.09013509 -0.02400276
000170 88 55 d3 3d 22 b6 89 be 23 4c 71 be e0 96 59 3e
       0.10319048 -0.2689677 -0.235642 0.2124896
000180 d0 23 b3 3d 65 12 cb be a4 86 80 3e 4c 1f 27 3e
       0.08747065 -0.3966247 0.25102723 0.16320533
000190 56 b2 18 be e0 96 b6 bc 11 c1 25 3e b0 00 96 bd
       -0.1491178 -0.02228874 0.1618693 -0.0732435
0001a0 56 f0 32 3d bc 0d 48 3e 04 8c 9d 3e 44 65 1e 3e
       0.043686233 0.19536489 0.30770886 0.15468317
0001b0 68 64 76 3e 4d e7 08 3e 7a 4b 17 be 0c f6 e5 bd
       0.2406174 0.13369484 -0.14774886 -0.1122857
0001c0 2c be 3a 3d a0 eb c7 3e cc ee 1c 3e 4d 4d 31 3e
       0.04559152 0.39046955 0.15325469 0.17314644
0001d0 7f a7 db 3d bc 72 d5 bd 6c 8a 86 be 11 3f 95 3e
       0.10725307 -0.104222745 -0.26277483 0.29149678
0001e0 e6 46 be 3e 09 35 e6 3d 40 e8 84 3d b8 5e fa 3d
       0.37163466 0.112405844 0.06489611 0.122250974
0001f0 ba b1 ba be b8 bd d6 3d 7a 6d d2 3e c0 8a 2f bc
       -0.3646372 0.10485405 0.4109915 -0.010714233
000200 a9 c8 03 3d 96 07 72 be 70 c5 a7 bd 10 67 80 3e
       0.032173786 -0.23635706 -0.08191955 0.2507863
000210 6e 2f c7 3e 1c 00 82 3e 48 ff 70 be 7a 7c a3 be
       0.38903373 0.25390708 -0.23534882 -0.31930906
000220 30 a3 7c 3e e2 f2 5b bd e2 fd c6 3e d9 5f cb 3e
       0.24671626 -0.053698428 0.38865572 0.39721563
000230 62 a8 c6 be ba 40 4a be 42 91 18 3e ab 82 5c 3e
       -0.3880034 -0.19751254 0.14899161 0.21534221
000240 84 97 32 3e cc 64 9c bd af fe c6 be b2 fc b7 be
       0.17440611 -0.07636413 -0.38866183 -0.3593498
000250 a8 0b 9c bd 59 2e bc 3d e8 12 4a 3e a8 0b 28 bd
       -0.07619411 0.091885276 0.19733775 -0.04102674
000260 2c 4b 5c 3e e0 b1 0a 3c c8 e7 59 3e 9e 4f cb be
       0.21513051 0.00846526 0.21279824 -0.3970918
000270 18 49 c0 3e e7 3d 8d 3c a4 d2 b0 3e 38 aa 52 3d
       0.37555766 0.017241431 0.34535706 0.051431865
000280 93 c3 b3 3e f1 b9 81 3c f8 ec 36 3e 70 73 08 be
       0.3511015 0.015835734 0.17863834 -0.13325286
000290 b4 a3 92 be 1a 62 b1 be df a2 a9 be a0 ed 1e 3e
       -0.2864052 -0.34645158 -0.33132073 0.15520334
0002a0 b0 68 81 bc 09 7e 59 be 4c 87 96 3e 72 f0 aa be
       -0.01579699 -0.21239485 0.29400098 -0.3338657
0002b0 d0 85 10 3e 45 18 4c be 12 52 a3 3e 2d 2e 85 bc
       0.14113545 -0.19931133 0.31898552 -0.01625737
0002c0 23 75 1e 3e ec fa a0 3e 12 17 9f be 84 bb a5 be
       0.15474372 0.31441438 -0.3107229 -0.32369626
0002d0 0c e9 c4 be a8 b9 cd 3d d7 9f 8e be 96 7d a9 3e
       -0.3845905 0.10045177 -0.27856323 0.33103627
0002e0 ac 4c 54 3e c0 8c dd 3c c0 99 af 3e de 21 73 be
       0.20732373 0.027044654 0.3429699 -0.23743388
0002f0 18 4e 5f 3e 48 63 8a 3d 22 3b f7 3d b8 75 de 3d
       0.21807134 0.06757218 0.120718256 0.10862297
000300 f0 1c 86 3c f8 a7 c2 3d fc e4 70 3e 88 af 09 3e
       0.01637122 0.09504694 0.2352485 0.13445866
000310 70 64 31 3e 8e 56 13 3e 45 11 b8 be 98 dd b5 bd
       0.1732347 0.14388487 -0.35950676 -0.08880156
000320 95 86 a1 be 52 07 62 be 2a 98 80 3e 62 3d c1 3e
       -0.3154799 -0.22073105 0.25116092 0.37742144
000330 20 b2 c3 bc 7e 87 66 be 84 65 0e 3e 28 39 90 3d
       -0.023888648 -0.22512624 0.13905913 0.07042152
000340 f9 d4 2f 3e 15 d2 cb 3d 5e e0 1e 3e 8f a4 42 3e
       0.17171086 0.09952179 0.15515277 0.19008087
000350 50 bc 5c 3d c8 6a 8b 3e f2 85 a1 be ce e2 d3 3e
       0.053890526 0.27229905 -0.31547505 0.41383976
000360 4b a2 a5 3e ef cc 38 be 20 59 d9 3e 88 29 68 3e
       0.32350382 -0.18046926 0.4245081 0.22672093
000370 68 29 9e 3e 40 a9 69 3d 78 51 68 bd e5 54 42 be
       0.30890965 0.057046175 -0.05671832 -0.18977697
000380 db 0b c6 be 4e 0c 8f be 04 f7 ee bd d0 2b c2 be
       -0.3868092 -0.27939075 -0.11668208 -0.3792405
000390 56 6f 60 3e 70 5b cb 3c 6f ff ac be 90 c2 a9 bc
       0.21917471 0.024823874 -0.3378863 -0.020722657
0003a0 e8 5c 04 3e 7c ce af 3e 40 e3 85 bc 29 90 dd 3e
       0.12926066 0.34337223 -0.016343713 0.43274048
0003b0 eb 59 29 be 94 42 de 3e 53 68 7a be 05 00 30 3e
       -0.16538207 0.4341017 -0.24453859 0.17187507
0003c0 72 64 13 be e4 d2 d3 be 94 11 53 be 06 d3 a9 3e
       -0.14393786 -0.41371834 -0.20612174 0.3316881
0003d0 5a 26 37 be 84 58 ab 3e 29 3c 79 be a8 2f e3 bd
       -0.17885724 0.3346597 -0.24339356 -0.11093074
0003e0 7e 1b 02 be 81 cb c6 3e 6a f3 88 3e 40 dc d8 bb
       -0.127058 0.38827136 0.2674821 -0.0066180527
0003f0 64 78 a0 bd cc 5e 1f 3e 1d b0 c5 be 28 0d 83 3d
       -0.07835463 0.15563506 -0.38610926 0.06398994

fc2.weight f4 [256, 256]
000000 ca 75 a3 3b 48 88 7d 3d 78 65 3e bd f0 0c 2e bd
       0.004988407 0.061897546 -0.046483487 -0.042492807
000010 50 05 ea 3b 90 1a 5a bd 04 83 e8 bc 77 25 d2 3c
       0.0071417466 -0.05324799 -0.028382786 0.02565263
000020 3a 3c 18 bd 72 80 45 bd c0 32 3c 3b 97 71 30 bd
       -0.03716681 -0.048218198 0.0028716773 -0.043077078
000030 02 bd 72 3d 88 65 52 bd e9 2b 0e 3d 4f 9b 1d 3c
       0.059262283 -0.05136636 0.034709845 0.009619548
000040 a0 ee ee bb 0b e9 dd bc e9 5b 07 3d c8 e8 67 bd
       -0.00729163 -0.027088663 0.033046637 -0.056618482
000050 60 2e 53 bb e2 f8 2f 3d a8 06 c8 bc fc d6 b6 bc
       -0.0032223687 0.042961963 -0.024417236 -0.02231931
000060 a5 4c 07 3b 0e 47 68 bd 02 4d 68 bd f0 47 ec bb
       0.002064505 -0.056708388 -0.056714065 -0.007210724
000070 50 09 83 bb 08 eb 9d bc 8b 0f 83 bc e0 28 6a 3d
       -0.003998913 -0.01927711 -0.015998622 0.057167888
000080 59 d6 ef bc 52 5c b4 ba 20 87 d2 bc 12 78 57 3d
       -0.029277014 -0.0013760424 -0.025699198 0.052604742
000090 0c 44 6d 3d d8 21 88 bc e6 a9 cc 3c ae 76 46 bc
       0.057926223 -0.0166177 0.024983358 -0.012113256
0000a0 ea cf 58 3d 78 48 1d bc ea 9d 3f 3d f8 77 bc bc
       0.052932657 -0.009599797 0.046781458 -0.023006424
0000b0 08 9e 94 bc cf 4a 2a 3c a4 de 51 3d 2a aa 5f bd
       -0.018141761 0.010393812 0.051237717 -0.05460564
0000c0 d7 22 73 bc f1 e0 66 3d 48 0e 61 bd 60 04 5c 3b
       -0.014839849 0.056366865 -0.05494526 0.0033571944
0000d0 bc fa 78 3d c0 a4 14 3c 43 91 50 3d 8c 43 06 bd
       0.060785994 0.009072483 0.050919782 -0.03277926
0000e0 c6 be 09 3d dc ac a9 bc fa 66 20 3d be fe 0a bd
       0.0336292 -0.020712309 0.039160706 -0.033934347
0000f0 d7 bb 5f 3d 4e 53 83 3c 0a 1a 03 bd e0 1a e8 3b
       0.054622497 0.016030934 -0.032007255 0.007083282
000100 e2 34 50 bd 74 7e 6d bd d6 d9 ff 3b 01 5b 12 bc
       -0.050831683 -0.057981923 0.0078079505 -0.00893283
000110 57 a8 5e bb 8f 7b 39 bc a4 d7 b0 3c 7e 13 53 3d
       -0.003397485 -0.011320963 0.0215872 0.05153226
000120 00 e3 90 3b d0 18 8a 3c df 46 55 3d 78 cb ab bc
       0.0044215918 0.016857535 0.05206954 -0.020971045
000130 85 70 68 bd fd 3d f8 bc c0 b7 bd 3c ed 1b 60 bd
       -0.056747932 -0.030302996 0.023158908 -0.054714132
000140 c1 f1 41 3d b0 0c 0c bc bd fe 5f 3d b5 a7 b0 bc
       0.047349695 -0.008547947 0.054686297 -0.021564344
000150 8e c9 48 bd f8 ee 84 3c e1 7e 06 bd a0 ea e7 3b
       -0.049020343 0.01622723 -0.032835845 0.00707753
000160 7e 85 e2 3c 61 93 53 3c 2d de 7e bd 58 8d 0d 3c
       0.027651545 0.012913556 -0.062223602 0.008639656
000170 a0 3e 47 bc 9c ec d7 bc ed 9d 4f 3d ac e4 ad 3c
       -0.012160927 -0.026357941 0.05068772 0.021227203
000180 40 1e e6 ba a1 28 2f 3d 38 49 06 3d f4 2f 78 bd
       -0.0017556623 0.042763356 0.03278467 -0.060592607
000190 f8 98 1d bc 50 37 63 bd 0c 4c c2 3b 68 ef 56 3d
       -0.00961899 -0.055472672 0.0059294757 0.05247441
0001a0 89 f2 05 bc 20 f1 df 3c 58 3f 87 3c 68 3a 19 3d
       -0.008175501 0.027336657 0.016509697 0.037409216
0001b0 ed 0f 6a bd a7 5c 07 3d 66 6d 2c bd 2a 79 25 bd
       -0.057144094 0.033047345 -0.042096518 -0.040398754
0001c0 9c fd 1c 3d 10 72 65 bc 30 75 a5 bc 7f 77 3c 3d
       0.0383278 -0.014004245 -0.02019748 0.046012398
0001d0 3a 0b 4f 3c 32 6e 79 bd 0f 14 43 3d 54 42 32 ba
       0.012636954 -0.060896106 0.04762655 -0.0006800045
0001e0 c0 aa c5 3b 67 cc ef bc a4 35 c5 3c 54 c1 44 3d
       0.006032318 -0.029272271 0.02407343 0.048035935
0001f0 6c 6c 54 3d 50 79 d7 3b 17 50 a5 3c 3c 0f 8f bc
       0.05186121 0.006575741 0.020179791 -0.017463319
000200 93 c8 57 bd 34 03 f9 bc 02 3d 55 bd 42 48 62 bd
       -0.052681517 -0.030397035 -0.052060135 -0.05524469
000210 40 54 bf 3c 0c f9 d4 3c a8 b2 0d bd 4d a4 30 3d
       0.023355603 0.025997661 -0.034594208 0.04312544
000220 0e 10 13 3d 03 1c 44 bd c6 da 10 3d ba 4c 83 3c
       0.035903983 -0.047878277 0.03536489 0.016027797
000230 5e 14 41 3d 95 63 a2 3c 62 6b 90 bb d2 2f 02 bd
       0.047138564 0.019822875 -0.0044073323 -0.031783886
000240 68 44 c9 bc 6a ad 38 3d 5d fe 3f 3d 7c 82 15 bd
       -0.024568751 0.045087256 0.04687344 -0.036501393
000250 dc a2 a3 bc 4e da 86 3c ba b2 30 3d d2 c5 0e bd
       -0.019975118 0.016461518 0.043139197 -0.034856625
000260 20 dd 91 3b c8 a0 57 3d 86 39 08 bd 95 82 04 3d
       0.004451409 0.052643567 -0.033257984 0.032351095
000270 e0 b9 84 3b df 11 82 bc e0 89 1c bb 40 5b 59 bb
       0.0040504783 -0.015877662 -0.002388589 -0.0033165962
000280 77 a6 d7 3c 21 ab 37 bd 64 7f 7c 3d 03 64 9e bc
       0.026324494 -0.044840936 0.061644927 -0.019334799
000290 75 32 bd bc e2 42 54 bd d0 73 c6 3c e8 a6 2c bc
       -0.023095349 -0.051821597 0.024225146 -0.01053784
0002a0 58 48 04 bc b6 75 aa bc 1a 3a 23 bc f8 83 17 bc
       -0.008073889 -0.020808082 -0.009962583 -0.009247772
0002b0 2a b1 a5 3c 9f 10 b9 bc 8a 9a b1 bc a8 f3 4b 3d
       0.02022608 -0.022590933 -0.021680135 0.049792916
0002c0 a3 e9 0f 3d 30 22 5f 3c 45 e7 47 3b 69 8d f6 bc
       0.035134923 0.013618991 0.0030502838 -0.030096726
0002d0 40 26 6b 3d a0 df e4 3c e1 46 34 3d 90 0a 36 3d
       0.057409525 0.027938664 0.044012908 0.044443667
0002e0 3a 99 01 bd 44 9b 61 3d e8 39 1a 3c 84 37 38 3d
       -0.03164027 0.055079713 0.00941322 0.04497482
0002f0 da 09 0d 3d d8 73 7b 3c 46 b7 0f 3d 80 5d 44 3a
       0.034433223 0.0153474435 0.035086893 0.0007490739
000300 3c f8 97 3c c4 6d 8c 3c 0d 0c bc bc ae d7 4d bd
       0.018550985 0.017142184 -0.022954965 -0.050254516
000310 d8 c5 97 bc 3e 8b 87 3c 51 6c 22 bd 68 32 d8 3c
       -0.018526956 0.016545888 -0.03965408 0.026391223
000320 4e 1c fd bc 92 68 b2 3c 4d 93 c3 3c 42 09 0b 3d
       -0.030897286 0.021778379 0.02387395 0.033944376
000330 4c 58 e1 bc d4 cf 56 bc d0 c1 a5 bc 44 7f 2d 3d
       -0.027507924 -0.0131110735 -0.020234019 0.042357698
000340 58 d9 78 bd 40 96 51 3d 2d 72 92 3c 5a c3 ee 3c
       -0.06075415 0.05116868 0.017876709 0.029145885
000350 be 53 4f bd 84 06 a6 3c 9a 0c 16 3d 9b e9 2f 3d
       -0.050616972 0.020266779 0.03663311 0.042947393
000360 33 79 23 3d 6b ad 51 3d 1c 66 ad 3c 7c a0 c8 bc
       0.039910506 0.051190775 0.021166854 -0.024490587
000370 b0 8e 29 3d ec 44 60 bd d7 c6 2b 3c 9e df 14 bd
       0.041395843 -0.05475323 0.010484419 -0.03634607
000380 f0 60 4a bd 7f d4 b9 3c 98 7d 3b 3d 48 c2 02 3d
       -0.049408853 0.022684334 0.045774072 0.031923562
000390 58 bb 05 bd 40 bf 01 3b 83 74 58 3d 90 eb ba bb
       -0.032649368 0.0019797832 0.05284549 -0.005704351
0003a0 70 a1 94 bb dc 82 aa bc 5e 06 17 bd 3a aa 0b bd
       -0.0045358464 -0.020814352 -0.036871307 -0.034097888
0003b0 b9 9a 5e 3d c6 6e 03 3d 20 0b b4 3c f9 cd 0a bd
       0.054346774 0.032088064 0.021977961 -0.033887837
0003c0 14 3c 44 3d 9a 6d 74 bd f3 6d 67 3c 8e 2a 0f bd
       0.047908857 -0.059674837 0.014125335 -0.034952693
0003d0 dd fe 17 bc 60 3d 1d bc aa 1f 08 bd 70 34 cb bc
       -0.009277073 -0.0095971525 -0.033233322 -0.024805278
0003e0 5c a3 4c 3d d1 1a 2b bd 79 7b 65 bd f0 c5 77 3c
       0.04996048 -0.04177362 -0.056025956 0.015122876
0003f0 9a b2 37 bd e8 d1 c3 bc 2d ef 1a 3d 74 2e 22 bd
       -0.044848062 -0.023903802 0.037825752 -0.039595082

fc2.bias f4 [256]
000000 7a 67 27 bd 28 15 6e 3d 83 75 5e bd 0c fa 8c bc
       -0.040870167 0.058125645 -0.054311287 -0.017209075
000010 80 17 68 3b fd 71 26 bd d0 3e 36 3c a7 b5 79 bc
       0.0035414398 -0.04063605 0.011123374 -0.015241063
000020 30 fd 13 bd c7 fe 24 bd 5c ca c6 3c 70 19 84 bb
       -0.03613013 -0.040282037 0.024266414 -0.0040313527
000030 ea 91 64 bd 94 7c f9 3c 6c 93 7d bd b3 ca e7 bc
       -0.055803217 0.030454911 -0.06190817 -0.028294897
000040 76 cd 6e 3d 60 17 60 bc 50 49 57 bc cc 85 52 bd
       0.05830141 -0.013677448 -0.013140038 -0.05139713
000050 37 41 0b bd 04 98 19 bd 4e 84 7f bd 20 01 5c 3d
       -0.03399774 -0.03749849 -0.062382035 0.05371201
000060 80 bf 30 3c d6 10 1e 3d 10 e7 72 bc 80 df 5b 3c
       0.010787845 0.038590275 -0.014825597 0.013419986
000070 70 0b fc bc b7 67 48 3d e6 5e 57 bd e0 2f 41 bc
       -0.030767173 0.048927035 -0.052580737 -0.011791199
000080 60 ea 77 bd 44 b8 ba bc f5 ea 2e 3d f0 0e 76 bc
       -0.06052625 -0.022792943 0.04270454 -0.01501821
000090 84 2e 66 bd 8d bf 34 3d 7b a4 6c bd 15 ee 29 bd
       -0.056196705 0.04412799 -0.05777405 -0.04148682
0000a0 62 7b 4b bd 6b 7b 94 b9 fa 8a 5f bd a6 2a 60 3d
       -0.049678214 -0.00028320713 -0.054575898 0.054728173
0000b0 cc d9 44 bd 5f ea 62 3d 20 5d 4b 3c a4 5b 17 3d
       -0.04805927 0.055399295 0.012412339 0.03695263
0000c0 f0 5f e1 bb c4 19 d9 bc 3d 40 e6 3c 21 54 e0 bc
       -0.0068778917 -0.026501544 0.028106803 -0.027383866
0000d0 73 0d 58 bd 70 f9 c5 3c f0 47 79 bc c0 d6 b0 3b
       -0.0527472 0.024166793 -0.015214905 0.005396694
0000e0 d6 86 7b bd e2 b1 0c bc 7c cc 60 3d 00 12 b9 3c
       -0.061407886 -0.008587332 0.05488251 0.02259159
0000f0 6c 8e 4b bd a6 9e 23 bd 34 36 64 3d 78 1a 60 bc
       -0.04969637 -0.03994622 0.055715755 -0.013678186
000100 4c c0 3c 3d 02 cd 5d 3d fd 11 1a bd fc cf 1a 3d
       0.046081826 0.05415059 -0.03761481 0.037796006
000110 c0 7f 26 bb e9 0f 40 3d fe f4 52 3d f6 c1 4a 3d
       -0.0025405735 0.046890173 0.051503174 0.04950138
000120 07 39 70 3d 2c f2 fc 3c 50 11 ba bc 84 f5 54 bd
       0.058648136 0.030877195 -0.022713333 -0.051991954
000130 86 dc 7d bd c5 a7 61 3d 4f 12 d4 3c 84 02 ea 3c
       -0.061977886 0.055091638 0.025887636 0.028565653
000140 2c 75 c1 bc bd fe 6a bd bb eb 36 3c f6 be 6c 3d
       -0.023615442 -0.057371844 0.011164601 0.057799302
000150 f8 a9 79 3d 7e 0f cf bc 98 3c 6d bc 52 68 5c 3d
       0.06095311 -0.025275942 -0.014479779 0.053810425
000160 30 12 dd 3c c8 67 10 3d 8e 1f 63 3d 02 7a 41 3d
       0.026986212 0.035255224 0.055450015 0.047235496
000170 6d d7 de 3c ae e4 96 3c 78 70 4e bd 84 40 a2 bc
       0.027202332 0.01841959 -0.050400227 -0.019806154
000180 70 0d e2 3c 00 18 a1 b9 42 df 3c 3b da a2 30 bd
       0.027594298 -0.00030726194 0.0028819595 -0.043124057
000190 88 4c 83 3c 74 e9 6d bd f0 3e ec bc 88 fc 34 3c
       0.016027704 -0.058083966 -0.028838605 0.011046536
0001a0 42 01 c6 bb cb 3c 61 3d c8 ff 85 bc 80 9d 97 3b
       -0.0060426304 0.054989617 -0.016357318 0.0046269298
0001b0 a1 5a 54 3d b0 f5 5e 3d 04 fd 3b bd 50 c2 5b 3d
       0.051844243 0.054433525 -0.04589559 0.053652108
0001c0 f2 a5 6c bd 73 a4 28 3d 20 3c d3 bb c8 30 3b bc
       -0.057775445 0.041172456 -0.0064463764 -0.011425205
0001d0 78 51 c9 3c 04 c5 64 3d b7 8d 07 bd 7c e8 29 3d
       0.02457498 0.05585195 -0.033094134 0.04148148
0001e0 98 8c b0 bc 12 81 5c bd f0 50 6e bc 73 bc cb 3c
       -0.021551415 -0.05383403 -0.014545664 0.024870133
0001f0 47 14 27 bd 62 8a 7c 3d 23 e6 48 bc 2b 6f 57 bd
       -0.040790822 0.06165541 -0.0122619 -0.052596252
000200 16 5a 1e 3d 5c 7f 81 bd c8 73 2a 3d e8 79 15 3c
       0.03866013 -0.0632312 0.041614324 0.009123303
000210 9a a7 3d bd 47 fb d4 bc df 57 73 bd 58 ab 92 3c
       -0.046302415 -0.025998725 -0.059409972 0.017903969
000220 48 cb 3b bd dc 8e ca 3c a8 cf 4d bd 1f 37 09 bd
       -0.04584816 0.024726324 -0.050246865 -0.033499833
000230 3c 78 3f bd c8 35 5d bc 27 09 08 bd b8 49 5a bd
       -0.046745524 -0.013501592 -0.033211853 -0.05329296
000240 09 cc 01 3d 09 72 11 3d 9c 62 94 bc 60 3e ef bc
       0.031688724 0.035509143 -0.018113427 -0.029204547
000250 c0 bb 27 bb 71 a9 28 3d c5 ec 44 bd 58 df 44 3d
       -0.0025594085 0.041177217 -0.048077364 0.04806456
000260 6c 4d de 3c cc 64 43 bd 22 90 49 bc 41 65 c4 bc
       0.027136527 -0.04770355 -0.01230243 -0.023974063
000270 15 e1 45 3d ce 3c 00 bd de 27 61 3d 06 93 44 bd
       0.048310358 -0.031307988 0.05496966 -0.047991775
000280 14 8d 3a bd 40 59 f2 ba 1c 41 2e bd 7e 80 00 3d
       -0.0455447 -0.0018489733 -0.042542562 0.03137254
000290 f6 14 19 3d 1e 5a 6a 3d 20 c5 f7 3c cc 92 23 bd
       0.037373506 0.05721485 0.030245364 -0.03993492
0002a0 7e 6c 4f bd b3 5e 0e 3c 6e 6e 5b 3d 27 8d 0d bc
       -0.050640576 0.00868957 0.05357211 -0.00863961
0002b0 90 4c 35 bd 30 b5 b9 bb 54 40 f3 bc c0 63 ab 3b
       -0.04426247 -0.005667351 -0.02969376 0.005230397
0002c0 97 e9 ff 3c d0 8c 70 3c 3e 83 65 bd 60 ec fb 3c
       0.031239314 0.01468201 -0.056033365 0.03075236
0002d0 7d a4 1f bd de db 10 bc 24 08 24 3d ce ac 02 3d
       -0.038975228 -0.008841483 0.040046826 0.03190308
0002e0 44 e9 01 bd e8 16 10 3d 89 99 36 bc d7 39 f5 3c
       -0.0317166 0.035178095 -0.011145004 0.029934807
0002f0 3b 98 6f bd 4a 17 56 bd 6c 3a 7a 3d 3d 7e 6a bd
       -0.058494788 -0.052268304 0.06109087 -0.057249296
000300 ca cd 34 bd b6 1b 47 bd 92 3c 49 3d 3a 4b 15 bd
       -0.04414157 -0.04861041 0.04913003 -0.036448695
000310 2d d3 34 3d ab 1c c1 3c 40 98 73 3d b4 75 52 3d
       0.044146705 0.02357324 0.05947137 0.05138178
000320 e6 7e ab 3c fc 84 d9 3c 37 d7 1f bd c7 66 92 3c
       0.020934533 0.02655267 -0.039023604 0.017871274
000330 27 40 0e bd 46 de 21 bd 90 e4 04 bd fc fe 4c bd
       -0.03472915 -0.039518617 -0.032444537 -0.05004786
000340 a2 61 d4 bc 9f ca 4b bd bf 44 4f bd 28 cd 1d 3d
       -0.025925461 -0.04975378 -0.05060267 0.03852573
000350 a5 65 8d 3b ba ed 3e 3d df b3 1d bc ba f6 44 bd
       0.0043150955 0.046613432 -0.009625404 -0.04808686
000360 b0 62 73 3d a8 73 3c bd 9b 89 1f bb 81 38 84 3c
       0.059420288 -0.046008736 -0.0024343494 0.016140224
000370 60 6a 5d bc fa 2c 5a bd 00 aa 29 bd 78 f3 31 bc
       -0.013514131 -0.05326555 -0.04142189 -0.01086127
000380 30 9e 99 bb 56 94 b7 3b 39 58 e1 3c 37 f2 c4 3c
       -0.004688047 0.0056024 0.027507888 0.024041278
000390 1b 25 6c 3c a0 ca 25 3b 16 61 67 3d a0 07 fa 3c
       0.0144131435 0.0025297776 0.056489073 0.030521214
0003a0 94 43 a2 3c 0b 40 dd 3b 5a 82 78 bd e0 c6 35 bb
       0.019807614 0.0067520193 -0.060671188 -0.0027736947
0003b0 a0 8e 67 3d 80 bb 2f 3b ac 63 d2 3c bc ac 7c 3d
       0.056532502 0.002681464 0.025682293 0.06168817
0003c0 4c 84 c6 38 9f f9 2d bc 48 2a 45 3c 52 2b e8 3c
       9.466018e-05 -0.010618596 0.012034006 0.02834097
0003d0 a1 6a d0 3c 00 a2 40 3c 8d 25 88 bc d6 86 18 3d
       0.02544147 0.011757374 -0.016619468 0.037237965
0003e0 4c 7a 65 3d e4 53 34 bd 94 72 06 bd aa 44 2d 3d
       0.056024835 -0.044025317 -0.032824114 0.04230181
0003f0 ee 6c 9b 3c 8e 37 3d bd 8c ca 06 3d f6 e6 0a bd
       0.01897284 -0.04619556 0.032908008 -0.033911668

V.weight f4 [1, 256]
000000 08 a8 46 bd 1e dd 0d bd cd bb 46 bd bc fb af bc
       -0.04850009 -0.034634702 -0.048518945 -0.021482341
000010 58 f0 03 bd 16 f0 9b 3c 28 9a 63 bd a3 5e 4c bd
       -0.03221163 0.01903538 -0.055566937 -0.04989494
000020 d2 e2 56 bd 0a 5e 32 bb 20 9b 7e bb 0b e7 fb 3b
       -0.052462406 -0.0027216696 -0.0038849786 0.0076874546
000030 2e d6 3c 3d 5c 9e 96 3c 2c 87 5a ba bb 11 18 bd
       0.046102695 0.018386059 -0.0008336182 -0.037126284
000040 18 4d c0 bc 6c e0 2c 3d f4 6d 87 3c a4 24 b9 3c
       -0.023474261 0.042206213 0.016531922 0.02260048
000050 85 cd 6f 3b 5e ab 53 3d c0 21 7b bc 84 6f 22 3d
       0.0036591005 0.0516771 -0.015327871 0.03965713
000060 58 f3 23 3d ee 00 33 3d e4 a8 49 bd 68 4d fb bc
       0.040026993 0.04370206 -0.049233332 -0.030676559
000070 92 05 0e 3d a4 07 05 3d d0 d0 85 bb 94 58 31 3d
       0.03467328 0.03247799 -0.0040837303 0.043297365
000080 e5 6e 73 3d c0 e6 3d 3b c5 f9 fc 3c f2 f5 78 3d
       0.05943193 0.002897665 0.030880818 0.060781427
000090 40 e4 57 bd 07 18 15 3c 10 09 17 3d d1 82 48 3d
       -0.05270791 0.009099967 0.036873877 0.04895288
0000a0 74 a7 f5 3c 74 54 0e bd 88 5e bc 3c cd 2c 07 bd
       0.029987074 -0.03474851 0.022994295 -0.03300171
0000b0 a0 61 65 3c 26 d4 2e bd 84 23 64 3d 88 74 93 3c
       0.014000326 -0.04268279 0.055697933 0.017999902
0000c0 aa d0 7f 3d 08 0b 47 bd fb 4a 15 3d da b8 24 3d
       0.062454857 -0.048594505 0.03644846 0.04021535
0000d0 3a 7a 4e bd df 36 03 3d 42 ec 5e bd 40 5c 5c 3c
       -0.050409533 0.03203475 -0.05442453 0.0134497285
0000e0 2c 0c 58 bd 49 3c 23 bc c0 90 8e ba 80 d7 be 3b
       -0.052745983 -0.009963104 -0.0010876879 0.0058240294
0000f0 88 2c bf bc 38 7d e9 3c 34 41 c7 bc 10 49 96 3b
       -0.023336664 0.028502092 -0.024323083 0.0045863464
000100 00 a4 ee 3b 90 7d d2 3c 7f c8 03 3d 2c 2a cc 3c
       0.007282734 0.025694638 0.03217363 0.024922453
000110 70 c1 15 3d 86 d4 ec 3c db b5 65 3c f4 40 a2 bc
       0.03656143 0.028909933 0.0140204085 -0.019806363
000120 f3 57 55 3d b0 0e 64 3d c8 5a 3c bd 38 5a c5 3b
       0.052085828 0.05567807 -0.045985013 0.006022718
000130 e6 3d 5a bd 02 03 0c 3d 35 ff 0a bd 60 1d 9b bb
       -0.053281687 0.034182556 -0.03393479 -0.0047337264
000140 54 ed cf bc 2d de 50 bd 52 39 05 bc a6 7d 6d 3d
       -0.025381722 -0.050993133 -0.008131342 0.057981156
000150 48 c3 32 bd 0c 67 fe 37 44 c9 39 3d c4 69 40 3d
       -0.043643266 3.0327144e-05 0.045357957 0.046975866
000160 ea 42 2b bd 85 44 39 3d 30 7f 18 bd 9b 6b d8 bc
       -0.04181186 0.04523136 -0.03723067 -0.026418498
000170 55 36 da bc 40 e1 3b bd e5 4a 34 bc a2 1a 61 bd
       -0.026637236 -0.045869112 -0.011004184 -0.05495704
000180 9e cc 56 bd e0 6d 72 3b 6e 94 9c 3c 50 9a 6b 3d
       -0.052441232 0.003699176 0.019113746 0.05752021
000190 b0 82 6b bc 9c 0c eb 3c 08 a5 5b 3d b0 89 aa bb
       -0.01437442 0.028692536 0.053624183 -0.005204402
0001a0 c3 8c e0 bc 9b 30 5b bb 57 ef 15 bd d4 f1 36 3d
       -0.02741087 -0.003344572 -0.036605205 0.04466422
0001b0 9e 2c 39 bd d8 74 ff bc 70 e6 ee bc 81 fe 24 3d
       -0.045208566 -0.031183645 -0.029162616 0.040281776
0001c0 00 f6 20 3d 74 9e e9 bc 80 b5 0a 3a b8 4c 09 bc
       0.039297104 -0.02851794 0.0005291328 -0.008380108
0001d0 44 ee b9 bc fc 64 a6 bc 00 94 9c bc ed 27 70 3d
       -0.022696622 -0.020311825 -0.01911354 0.058631826
0001e0 9c cd bd bc 98 d7 b1 bc 78 53 16 3c a4 31 2c bc
       -0.023169331 -0.021709248 0.009175174 -0.010509882
0001f0 bf 9b 0b 3d e4 21 26 3d d7 88 bb 3c 7c be 2f 3d
       0.034084078 0.040559664 0.022892399 0.04290627
000200 00 14 9f 38 0c 6f 96 3c 40 6b c6 ba 70 c6 57 3d
       7.585436e-05 0.018363498 -0.0015138164 0.05267948
000210 2a 3d 0e 3d a5 02 9c bc 4f 04 9d bb 40 cf 11 3d
       0.0347263 -0.01904423 -0.0047917734 0.03559804
000220 b4 aa 5f 3d da 71 43 3d 2a 9d 1e 3d 6b 51 45 3d
       0.054606155 0.047716 0.038724102 0.04817335
000230 68 2a 54 3c 50 53 d9 bc 53 28 3b bb a0 05 0d bc
       0.012949564 -0.026528984 -0.002855797 -0.008607298
000240 00 db 46 bd 90 cb 8a bc f4 0c bf bc 7e 11 4e 3c
       -0.0485487 -0.01694277 -0.023321606 0.012577413
000250 40 7f a5 3b d3 00 b8 3b f2 7e db bb e4 4c 65 bd
       0.00505057 0.0056153326 -0.0066984827 -0.05598153
000260 20 d4 3f bc f0 94 fa 3b 26 fe e0 bc 24 87 2b bd
       -0.011708289 0.0076471493 -0.027464937 -0.041876927
000270 81 cb c5 3c 5e c9 1e bc 0c cf 2f 3d 22 0b 5d 3d
       0.02414489 -0.009691564 0.042922065 0.053965695
000280 16 3f 3b 3d 36 3a 4a bd a7 4a a0 3b b4 49 17 bd
       0.04571446 -0.04937192 0.0048917118 -0.036935523
000290 18 44 48 3d ec 2c f1 3c fa 8b 5a 3d 18 90 6c bc
       0.048893064 0.029440366 0.05335615 -0.0144386515
0002a0 9d 36 d9 bc 88 9e b8 bc 76 5a 7a 3d 97 62 03 3c
       -0.0265153 -0.022536531 0.061121427 0.008019111
0002b0 a0 7d c0 bc 18 6d 52 bc 64 ac b9 bc 82 29 39 3d
       -0.023497403 -0.012843393 -0.02266521 0.0452056
0002c0 2b 6e aa ba dc 9e 38 bd 48 7e c3 3c f7 6b fa 3c
       -0.0013002803 -0.045073375 0.023863927 0.03056906
0002d0 b3 b9 e4 3b 20 00 dd bc 05 89 a3 3c 5c 75 01 bd
       0.006980145 -0.026977599 0.019962797 -0.031606063
0002e0 7a bd 76 3d 56 14 90 3c 44 de 6b 3d ac 42 ce 3c
       0.060239293 0.017587822 0.057585016 0.025178276
0002f0 a0 88 ec 3c b2 01 73 bd 00 02 99 39 50 16 ce bc
       0.028873742 -0.05932779 0.00029183924 -0.025157124
000300 28 09 68 bd a1 3d 09 bc 9e 3b 32 bd 00 44 2b 3a
       -0.056649357 -0.00837651 -0.043513887 0.0006533265
000310 66 cf 5d bd c8 39 cc 3b 3b f3 6a 3d 94 cb 63 3d
       -0.05415287 0.006232474 0.05736087 0.05561407
000320 e7 c9 11 3d 1c 2d 7a bd f7 49 13 bc 41 35 eb bc
       0.03559294 -0.061078176 -0.008989803 -0.028711917
000330 dd 02 06 bd 15 4a 32 bd 5e a4 3e bd 8c bb 85 bc
       -0.032717574 -0.04352768 -0.04654347 -0.01632478
000340 42 03 c3 bc 73 20 0d 3d 53 31 0a 3c 39 68 06 bc
       -0.023805264 0.034454774 0.008434611 -0.00820356
000350 23 da 27 bd 0a 0d 63 3d 2c c0 6c ba 61 e7 30 3d
       -0.040979516 0.055432357 -0.00090313214 0.04318941
000360 d4 e6 7c bd 04 5c 29 bd 51 46 34 3d 5a 1d d4 3c
       -0.061743572 -0.04134752 0.04401237 0.025892902
000370 d4 d7 0a 3d dc 88 53 bd 9e 09 74 bc e0 7c f7 bc
       0.033897236 -0.05164419 -0.014894871 -0.030210912
000380 b8 6a f0 3c c7 c7 c6 bb 63 ad 26 bc f3 c5 73 bd
       0.029347762 -0.006066296 -0.010173175 -0.05951495
000390 39 48 e7 bc 74 ac 9e bc 70 ab 5c 3d fa a8 5e 3d
       -0.02823268 -0.019369341 0.053874433 0.054360367
0003a0 14 33 fe 3c f5 8d 21 3d 00 ad b4 3c 74 56 2c 3d
       0.031030215 0.03944202 0.02205515 0.042074636
0003b0 1e a1 02 bd f2 6c 5c bd f4 59 40 bd 14 b8 30 3d
       -0.031891935 -0.053814836 -0.046960786 0.0431443
0003c0 0e c2 0b bd d5 83 4f 3d d6 e2 5e 3d 57 eb 2a 3c
       -0.03412061 0.050662834 0.054415546 0.010432086
0003d0 fd 25 39 3d 0c c2 04 3d 5d 15 d8 b9 f4 45 f9 3c
       0.045202244 0.03241162 -0.00041214647 0.030428864
0003e0 f3 1c 99 bc d0 85 2c bd d0 76 b5 bc c2 d1 32 bd
       -0.018690562 -0.0421198 -0.02215138 -0.043657072
0003f0 2a 11 35 3d 2c b5 07 3d 3f 56 96 bc 71 52 38 bd
       0.044205822 0.033131763 -0.018351672 -0.045000497

A.weight f4 [6, 256]
000000 8c 4a 86 bd b0 b9 db bc ea d6 ed 3c b2 8c 4d 3d
       -0.065571874 -0.026821941 0.029033143 0.050183006
000010 fc b1 e8 bc 18 63 69 3d 52 98 26 bd b6 c6 f1 bc
       -0.028405182 0.05697927 -0.040672608 -0.029513698
000020 38 ae f6 bc 34 fd 71 bc 80 a5 5d bd a2 44 36 3d
       -0.03011237 -0.014769841 -0.05411291 0.044499047
000030 76 45 22 3d 40 41 76 3c 14 db 14 3d 0f 48 0a 3d
       0.039617024 0.015030205 0.03634174 0.033760127
000040 64 74 57 3d 70 29 67 bc 32 c2 35 bd 18 34 70 bd
       0.052601233 -0.014109001 -0.044374652 -0.05864343
000050 1d 99 0d bb 20 9b ab bb 06 a6 43 bd 8e 9a 2d bd
       -0.0021606155 -0.005236998 -0.047765754 -0.042383723
000060 d4 b3 08 bd 76 85 43 3d dc bb 96 3c 58 9e 17 bd
       -0.033374622 0.0477347 0.018400125 -0.037016243
000070 d0 a9 d0 bc f0 04 ba bc 82 59 4a bd d2 4c 1d bd
       -0.025471598 -0.022707433 -0.049401768 -0.03840334
000080 b2 cf b0 bb e4 9c 48 3d ef 7d 30 3d e6 0d 0c 3d
       -0.005395853 0.048977748 0.04308885 0.034192942
000090 52 0a 7e 3d 6a 17 88 3b f0 47 5b 3d e5 f6 c7 3c
       0.06202156 0.004153182 0.0535354 0.02440972
0000a0 c0 f2 cf 3c 7c 53 61 3c a8 20 cd 3c 9f 40 64 bd
       0.025384307 0.013752814 0.025039986 -0.05572569
0000b0 00 38 00 3a 65 3f 92 bc 08 21 09 bc 34 72 00 bd
       0.0004891157 -0.017852494 -0.008369692 -0.031358913
0000c0 f2 ee 09 3d e0 f5 36 bc 55 77 ef bc a0 16 6c bc
       0.03367514 -0.01116702 -0.029231707 -0.014409691
0000d0 5f 3a d1 bc b4 95 d5 3c 6a 3b 6b 3d 88 81 7c bd
       -0.025540529 0.02607236 0.05742971 -0.061646968
0000e0 2c d4 c9 3c b8 30 db bc 12 40 3d 3d 24 35 10 3d
       0.024637304 -0.02675663 0.04620368 0.03520693
0000f0 b8 e2 79 bd b4 f0 62 3d 20 91 5f 3b de c6 2b 3d
       -0.06100723 0.055405334 0.00341136 0.0419377
000100 78 89 29 bd 10 d1 42 bd 4f 94 5f 3a 26 cf 07 bd
       -0.041390866 -0.04756266 0.00085288746 -0.033156537
000110 1c 3f 8a 3c 64 69 98 bc a9 4d 1b bc 68 4d 7d 3d
       0.016875796 -0.018604942 -0.009478965 0.0618414
000120 b3 a9 dd bb 4e 3e 29 bd 40 b1 6c 3d e4 72 31 3d
       -0.0067646145 -0.041319184 0.057786226 0.04332246
000130 88 33 44 3d 64 9f 18 bb 4a 90 16 3d c0 70 fa 3b
       0.047900707 -0.0023288364 0.0367587 0.0076428354
000140 1e ba 15 bd 30 9a 65 3d 62 98 8e 3c 08 ee 5d 3d
       -0.03655445 0.056055248 0.017406646 0.054182082
000150 00 4d 0a bb a7 1a 2c bd f2 da 18 3d b0 f6 a4 3b
       -0.0021103024 -0.042017605 0.037318178 0.0050342903
000160 30 51 4e bd 13 32 26 bd a4 6e 25 bd 4f 32 8e bc
       -0.050370395 -0.0405751 -0.04038872 -0.017357973
000170 2e f4 41 3c d7 09 e8 3c 2b d1 4e 3c 00 1e 5f 3c
       0.011838002 0.028325005 0.012623112 0.013617992
000180 2b 89 41 3d 20 45 d6 bb c0 2c 69 3d 52 ec 7f 3d
       0.047249954 -0.006539002 0.056927443 0.062481232
000190 ec 85 a5 bc e8 2a c6 3c a8 d9 7d 3c 00 9f 54 3d
       -0.02020546 0.024190381 0.015493788 0.051909447
0001a0 c7 b6 a6 bc d5 fd 04 bd d8 4b 61 3d e7 06 fa 3c
       -0.020350827 -0.032468636 0.05500397 0.03052087
0001b0 80 51 cb 3b 7c 2d e5 bc 44 ac 9a 3c a7 e6 19 3c
       0.006204784 -0.02797579 0.01888097 0.009393371
0001c0 00 d4 3e bd 94 09 cf 39 ce 41 24 3d 00 f1 98 bb
       -0.046588898 0.00039489253 0.04010182 -0.0046674013
0001d0 b0 a6 bb bb ac d7 73 3d 05 36 35 3c 20 8d 48 3d
       -0.005726658 0.059531853 0.011060243 0.048962712
0001e0 0a 7c 76 3d f6 55 32 3d 26 43 42 3d 21 9e 06 bd
       0.060176887 0.04353901 0.04742732 -0.032865647
0001f0 40 7d 1c 3d 78 54 57 3d 6d 53 31 bd 71 3f 14 3d
       0.038205385 0.05257079 -0.04329245 0.036193315
000200 54 42 86 3c 29 20 95 3c cc c2 df 3c 54 85 e3 bc
       0.01638905 0.018203812 0.027314566 -0.027773537
000210 00 c5 a8 3b 2b b7 35 bd 69 de 19 bd 86 9e 10 3d
       0.0051504374 -0.044364136 -0.037565622 0.03530743
000220 38 d5 76 bd a0 8a a4 3b 90 a6 c0 bc b0 60 f1 3c
       -0.060261935 0.005021408 -0.023516923 0.02946505
000230 32 da 01 3d ae 89 36 bd 90 28 5c 3d b8 a4 64 3c
       0.031702228 -0.044564895 0.05374962 0.013955288
000240 55 a3 cb bc 4c 7d 47 bd b0 c4 70 bc c7 bb 07 bd
       -0.024858156 -0.048703477 -0.014695331 -0.033138063
000250 d8 0e 0b bc ea 83 40 bc f4 10 3c bd 22 02 04 bd
       -0.008487426 -0.011750201 -0.045914605 -0.032228597
000260 22 2d 0d 3d d8 41 47 3c 9a 86 f6 bc fa bf 4c bd
       0.03446687 0.0121616945 -0.03009348 -0.04998777
000270 ff a9 3c bc 12 a3 e6 bc 7a b9 3a 3d be 03 34 bd
       -0.01151514 -0.02815393 0.04558704 -0.04394888
000280 04 a4 14 bd 00 92 a9 39 7a 06 00 3d 38 bb 4c bc
       -0.03628923 0.0003234297 0.031256177 -0.012495808
000290 c4 92 c3 bc a8 82 2b bd e0 2f 00 bd 10 a7 5c 3c
       -0.023873694 -0.04187265 -0.031295657 0.013467565
0002a0 b7 12 31 3d c0 9c 36 3d 34 a4 24 3d c3 20 36 3d
       0.04323074 0.044583082 0.04019566 0.044464838
0002b0 26 b1 7f 3d 2a 4e 39 bd 00 aa d1 b9 68 49 c2 3c
       0.0624248 -0.04524056 -0.00039990246 0.023716643
0002c0 db a9 d0 3c 80 20 52 bd 24 f3 4e 3d 7c af a5 bc
       0.025471618 -0.051300526 0.050524846 -0.020225279
0002d0 d3 fa 4f 3d 58 03 3a bc 35 41 63 3d 55 93 cd 3c
       0.050776314 -0.011353336 0.05548211 0.025094667
0002e0 aa 1e 3e bd fe 51 1e ba de 1f ff 3c 42 c6 fa bc
       -0.046415962 -0.00060394395 0.031143125 -0.030612115
0002f0 35 b7 06 3b 48 bc 4e 3c 30 2d 33 bd b8 01 17 bd
       0.0020555977 0.012618132 -0.043744266 -0.036866874
000300 1e dd 35 bd 70 ff 11 bb 70 88 3b bd 78 b0 00 bd
       -0.044400327 -0.0022277497 -0.045784414 -0.031418294
000310 f2 fb 67 3d fd ee 87 3c bb 12 46 bd 80 90 6d ba
       0.05663676 0.01659345 -0.048357707 -0.00090623647
000320 ee b9 85 bc 30 dd ad bb f7 d8 6f bd c4 c0 59 3d
       -0.01632401 -0.0053059086 -0.058556523 0.05316235
000330 3c 58 04 3d aa 1b 1d bd cc c2 6d bc 00 c9 02 ba
       0.03231071 -0.03835646 -0.014511775 -0.0004989058
000340 89 0d 0e bd 22 e8 14 bd cb 02 54 bd 09 01 b7 bc
       -0.034680877 -0.03635419 -0.051760476 -0.02233936
000350 b3 de c0 bc 12 e6 2e bc 29 75 0a bd 8e 8d f1 3c
       -0.023543691 -0.01067497 -0.03380314 0.029486444
000360 72 5e 56 bd 98 c2 48 3c 47 ae 31 bc 4a 08 37 bd
       -0.052336164 0.012253426 -0.010844774 -0.04468564
000370 88 20 84 3c 1e 67 d4 3b 6b 09 6a bc 60 cd a7 3c
       0.016128793 0.006482019 -0.014284472 0.020483673
000380 00 20 51 38 97 9e fb bc c2 10 94 bc b7 cb 36 bd
       4.9859285e-05 -0.03071527 -0.018074397 -0.04462787
000390 21 1a 04 bc 78 52 c4 3c 2c 55 58 bd b6 bb 19 bd
       -0.00806287 0.023965105 -0.0528156 -0.03753253
0003a0 a0 d1 8d 3b ff 2f 09 b9 80 ce 14 ba 10 0b 0f bc
       0.0043279678 -0.00013083218 -0.0005676523 -0.008730665
0003b0 26 d4 6c 3d a2 c4 22 3d d6 e8 55 bd ba 35 6f 3d
       0.057819508 0.039738305 -0.052224003 0.058400847
0003c0 a9 38 d2 bc 0f b5 cf 3c 42 b2 3f bd a2 ed a5 bc
       -0.025661783 0.02535489 -0.04680086 -0.020254914
0003d0 a0 aa 45 bc 74 2d c8 3c 2e e0 5e bd 7a 6a 37 3d
       -0.012064606 0.024435736 -0.054413013 0.04477928
0003e0 65 fb 31 bd f4 4d de 3c a4 70 26 3d 00 31 72 3d
       -0.04345264 0.02713678 0.040634766 0.05912876
0003f0 03 9b 30 bd 47 76 53 3c b8 79 2f 3d 19 a5 fb 3c
       -0.04311658 0.0129066175 0.04284069 0.030718373

A.bias f4 [6]
000000 ac cd 3d 3d 30 98 67 3d 3b be 34 3d df cc 59 bd
       0.046338722 0.05654162 0.04412673 -0.053173896
000010 b8 34 da bc cb fe fa bb
       -0.026636466 -0.007659768
