cool/checkpoints/D3QN/Q_eval/D3QN_q_eval_4850.pth (torch, 278863 bytes, 7 tensors)

fc1.weight f4 [256, 5]
00000000: 6b20 e4be edd4 01bf 98e3 73be b7c2 143d
00000010: 1e00 243f 5267 21be fcdc a93e 6040 a93e
00000020: 1844 33be 9085 963d b982 b6be 8448 7d3e
00000030: 2889 40be 7c16 aebd aacc 913e 8698 0fbe
00000040: e0f5 eebd d06c 463d 6071 23be 6807 013d
00000050: 04e9 833e cf10 aabe 3815 4b3e c1e5 85be
00000060: 8c19 853e 12bd 73bd f77c d7bd 24e3 7a3e
00000070: 0caa e93d 991e 6f3e 0071 233e b056 9c3e
00000080: 00e8 f53c 3c29 ddbd 18fd 8dbe 913a aa3e
00000090: d24b 86bd 85c4 5abe f40f 8f3e 89f5 2e3e
000000a0: 908b 42bd 14ed 793e 4460 c5bd b28a 14be
000000b0: 0054 9fbc b43b a6bd fe6d ab3e a2bc 8f3e
000000c0: f0ea e8bd c8df 06bd 4dca e4be 327f d4be
000000d0: a69b d03e cf20 dbbe 61ac bfbe 05a9 d43e
000000e0: 569e 61bf dc4c 9b3e 6778 983e 7dad b83d
000000f0: 6492 37be 45e6 1bbf 91b7 433e 777d c13d
00000100: 4646 92bb 7e46 01be d6ce a23e 3497 a03e
00000110: 7eab 3fbe de9f 19be bb55 ad3e ed66 483d
00000120: 06f3 52be a425 0b3e 61c9 3bbe 905f ac3c
00000130: 33b3 cabe 037b 9e3e fef5 2cbc a0bb 073e
00000140: 3a7c 5dbe 4c2e d8be 9e09 c93e a060 5cbc
00000150: e00d ae3c 05fe f4be 0ad8 6abc c6b8 77be
00000160: 513f b53e 443d 17be bd32 8fbe ed93 823d
00000170: 4c09 cf3b e995 c33e ed03 9cbd da5f a1be
00000180: c995 14be 667f 37bd 8844 293e 9780 ddbd
00000190: 3e56 b33e 54f9 003e 747b 193e efd9 92be
000001a0: 96e1 92be 2457 6fbe 06eb ad3e 6020 6c3e
000001b0: 3efe 82be 03a4 aebe 048c cb3e a8f4 d7bd
000001c0: b0ac a13e e8a6 79bd e25e 973e 26ab 34be
000001d0: 2455 c43e 00e6 873b ed9f b7be fc24 a7be
000001e0: 84c9 e8be 8acc e0be a4e9 cdbe 08f2 d93d
000001f0: 3774 013f ad2f 2a3e d9c6 1c3f a41f 183e
00000200: 07aa f13c 8373 dfbc cab4 3fbe 402f fd3c
00000210: c83f 9b3d 22af 62be 905a 983e cce0 633e
00000220: ab2e bebe e2df 6abe bbbb 73be e0d1 ac3d
00000230: 26c7 bbbe a0d0 cd3d d4cb 1dbe b2fa 19be
00000240: 188d dc3d f886 003d ef00 6bbe 54b0 bb3e
00000250: a838 74be 381c fcbd b996 e23e c47f b1be
00000260: 2191 e6bb 035c b33e eb9e 44be 3c78 a73e
00000270: bce4 2b3e 4847 453d 8b92 6bbe 4acd b13e
00000280: 39c7 ab3e 40e0 d73e d762 b83e 200e c33e
00000290: aeb8 09bf 625c d9bc 61bf 53bf 8537 353e
000002a0: 8767 c63e 15a5 363c 90cf 21bd a413 d0bd
000002b0: c4d3 db3e 0068 59bc fcdd c1be 9aa7 e03e
000002c0: 2ee5 17be b07b cf3e 1a77 39be 945a d8be
000002d0: d0bb 783d 2874 9c3d 305b 2ebe ba37 90be
000002e0: 744e 343e c66e aa3e e051 f63d 8878 91be
000002f0: 38c3 9fbe 5ad4 893e 64a8 ccbe 9041 ecbd
00000300: f73a f43d dd5d 1e3e 457b 76bb 0516 2e3e
00000310: 89e2 f43e 5d07 95be 2171 c13e 3e80 22bf
00000320: ee31 9dbe 1841 2dbd c042 cbbb c639 84be
00000330: c092 853c 04d7 bf3e 0028 6a3c 2063 ecbd
00000340: dbfb afbe a103 b1be 3de4 3d3e 5acf 91be
00000350: 4b36 bf3e 08d3 933d a433 4c3e 0dc7 9cbe
00000360: c0b2 9f3d dce7 9b3e d94f e0be c837 1d3d
00000370: 34e2 003e 3401 8bbe 6837 c93e d4c4 08be
00000380: 4056 473e aff2 ad3e 09b9 2e3c 59b6 02be
00000390: 20f3 c53e b769 6cbe 50c0 5f3d 066a 3bbe
000003a0: 08c1 6fbe 30bf bbbd 4843 a5be 8c00 3ebe
000003b0: 5f5f d3be d8dd 8c3e 93ce bdbe fa79 e1be
000003c0: 3c24 85bd f621 dd3b abff b93e 1f3d 393e
000003d0: 8d36 e33d 2a88 ab3e 8837 9cbe c4c3 2d3e
000003e0: 05cc 343e afcc c63e 4252 bdbe 202e 39be
000003f0: 30e1 3fbe d42f b8bd e092 7dbc 00d0 58ba
-0.44555983 -0.50715524 -0.23817289 0.036318507 0.6406268 -0.1576207 0.3317641 0.33056927
-0.17506444 0.07349694 -0.35646608 0.24734694 -0.18802321 -0.08500382 0.2847646 -0.14023027
-0.11667991 0.048443615 -0.15961218 0.031501204 0.25763714 -0.3321595 0.19832313 -0.2615185
0.25996053 -0.059506483 -0.10521882 0.2450071 0.11409387 0.23351516 0.15961075 0.30534887
0.030017853 -0.107988805 -0.27732158 0.33247808 -0.0655743 -0.21364029 0.2794186 0.17085852
-0.04749638 0.24406844 -0.09637502 -0.14506033 -0.019449234 -0.08116856 0.33482355 0.28073603
-0.11372936 -0.03292826 -0.44685593 -0.41503292 0.4074375 -0.42798468 -0.37436202 0.41535202
-0.88132226 0.30332077 0.2977936 0.09017465 -0.17926937 -0.6089824 0.19112994 0.09447759
-0.0044639437 -0.12624547 0.31798428 0.3136536 -0.18717763 -0.1500239 0.3385447 0.048926283
-0.20600519 0.13588578 -0.18338539 0.021041662 -0.39589843 0.30953225 -0.010556696 0.13255167
-0.2162942 -0.42222822 0.3926515 -0.013450772 0.02124685 -0.47850052 -0.014333734 -0.24191579
0.3539987 -0.14769465 -0.27968398 0.06375871 0.006318247 0.3820031 -0.07617936 -0.3151844
-0.14510264 -0.04479923 0.16530049 -0.10815542 0.35026735 0.12595111 0.149885 -0.28681895
-0.28687733 -0.23373085 0.3396837 0.23059225 -0.25584596 -0.34109506 0.3975526 -0.10544711
0.31577063 -0.06095019 0.29564577 -0.17643413 0.38346207 0.004147291 -0.358642 -0.32645404
-0.45466244 -0.4390605 -0.40217316 0.10641867 0.50567955 0.1661975 0.6124092 0.1485582
0.02950002 -0.02727676 -0.1872131 0.03090632 0.07580525 -0.2213712 0.29756594 0.22253722
-0.3714498 -0.22936967 -0.23802082 0.08438468 -0.36675376 0.10049558 -0.15409786 -0.15037039
0.10769099 0.031378716 -0.22949575 0.36657965 -0.23849738 -0.1231007 0.44255617 -0.3466779
-0.0070363437 0.35031137 -0.19201247 0.3270892 0.16786474 0.048163682 -0.2300512 0.34726936
0.33550432 0.42163277 0.3601291 0.38096714 -0.53797424 -0.02653331 -0.82713896 0.1769696
0.3875086 0.011147757 -0.039504588 -0.10159996 0.42935002 -0.013269424 -0.37864673 0.4387787
-0.14833519 0.40524054 -0.1811184 -0.42256606 0.060725987 0.076393425 -0.17026973 -0.28167516
0.17608052 0.33287638 0.12027335 -0.2841227 -0.31203628 0.26919824 -0.39972222 -0.115359426
0.11925309 0.15465494 -0.0037610095 0.17000587 0.47829083 -0.2910718 0.37781623 -0.6347693
-0.30702156 -0.042298406 -0.0062030256 -0.25825328 0.016305327 0.3746873 0.014291763 -0.11542344
-0.34371838 -0.3457308 0.18544097 -0.2847851 0.3734611 0.072179854 0.19941574 -0.30620614
0.07797766 0.30450332 -0.4381092 0.038383275 0.1258629 -0.27149355 0.39300084 -0.13356334
0.19466496 0.33974215 0.010664233 -0.12764873 0.38662052 -0.23087202 0.054626763 -0.18302163
-0.2341348 -0.091673255 -0.32277894 -0.18554896 -0.412837 0.27513003 -0.37071666 -0.44038373
-0.06501052 0.006748433 0.36327872 0.18089722 0.11094389 0.33502322 -0.30511117 0.1696921
0.17655952 0.38828036 -0.3697682 -0.18084002 -0.18738246 -0.089934975 -0.015476912 -0.00082707405

fc1.bias f4 [256]
00000000: a14e 313e c0e3 743d d017 653e 0087 a13a
00000010: 2026 d7bc 2033 513e 1567 55be b152 95be
00000020: 780e 48be c006 dd3d b875 c03e ad1b b2bd
00000030: db7a ae3e 8bcc c5be 4367 98be b06a 373e
00000040: a085 37bd 8106 b53e 52c0 0e3e fe2c c13c
00000050: 7c08 073e 1c62 9dbe a820 a5be 3713 d8be
00000060: 4dca 413b c2ef b7be 40fe ccbd d463 823e
00000070: 034c d9be 9ccc 9e3e 7068 933e 60c7 873e
00000080: 7910 d4be bf6a afbe e82b 83be e0f1 c4bd
00000090: 1c64 4e3e 04e7 dbbd f751 74be aa79 873d
000000a0: 3e7a e33e 3e38 d13e 4055 dc3e 446e 793e
000000b0: d8ed 063e 9c75 8ebd da49 0dbe a201 98be
000000c0: 8372 c43e 6b23 b8be f40d 97be c4b8 ecbd
000000d0: fe5a 983e 2815 953e 456f a2be a051 033e
000000e0: 44e4 a03e 3c79 973e 18b0 d0be 7cd0 e1be
000000f0: e100 39be cf97 d43d f023 e93d ec98 19be
00000100: 0bb8 b4be 14d3 d0bd c8d8 86bd cacf 983e
00000110: b56c c8be 568b b43e 20b8 c83e 2410 d93e
00000120: d38f c8be 0c17 10be 98b1 213e f951 a33e
00000130: df17 0abe 1cc7 733e d6c9 8ebe 15e3 f93d
00000140: fde4 bfbe 82fc d43e d5e8 543e 0215 013e
00000150: 980e bdbe ba18 843e cf2c c5bd 581b 653e
00000160: 2e1f 95be c23b 51be 0df8 863d 70a1 c4bc
00000170: 8855 d33d 22b6 89be 2486 8fbe e096 593e
00000180: d023 b33d 0c2b d7be bc24 6f3e 4c1f 273e
00000190: 56b2 18be e096 b6bc f035 163e b000 96bd
000001a0: 316f fb3c bc0d 483e 3809 963e 4465 1e3e
000001b0: 5bdf 383e 073b 023e 7a4b 17be 0cf6 e5bd
000001c0: 40b6 d7b9 a0eb c73e ccee 1c3e 1a52 303e
000001d0: 33af ce3d bc72 d5bd 2a9b 83be 8227 943e
000001e0: e646 be3e c049 683d 40e8 843d b85e fa3d
000001f0: 11db c8be b8bd d63d 5728 c63e c08a 2fbc
00000200: 7335 68bc 9607 72be 70c5 a7bd 1067 803e
00000210: 6e2f c73e 1c00 823e 48ff 70be ed89 adbe
00000220: 30a3 7c3e f387 94bd e2fd c63e c077 c93e
00000230: 62a8 c6be e0c8 56be d8c6 143e 0ec7 583e
00000240: 8497 323e cc64 9cbd b7db cdbe b2fc b7be
00000250: a80b 9cbd e508 a93d e812 4a3e a80b 28bd
00000260: 2c4b 5c3e e0b1 0a3c 824e 363e 8df5 cebe
00000270: eea9 a93e eb3d ea3b a4d2 b03e 38aa 523d
00000280: bbb9 a93e 1cfa b8bc f8ec 363e 63d0 19be
00000290: 3214 95be 1a62 b1be dfa2 a9be a0ed 1e3e
000002a0: b068 81bc 38b5 61be 7b5c 8f3e 72f0 aabe
000002b0: d057 003e f782 59be c1a2 a83e a732 54bd
000002c0: 7b62 0b3e ecfa a03e 078b a9be 5772 aebe
000002d0: be40 c3be a8b9 cd3d a838 8ebe 967d a93e
000002e0: ac4c 543e c08c dd3c c099 af3e 6b8b 75be
000002f0: 184e 5f3e 4863 8a3d 7b30 f03d b875 de3d
00000300: f01c 863c f8a7 c23d 4c76 653e 88af 093e
00000310: 7064 313e 36ec 063e 45f2 c6be 98dd b5bd
00000320: f4b2 a7be df7b 5fbe 876c 693e 623d c13e
00000330: 20b2 c3bc e25f 76be 8465 0e3e 2839 903d
00000340: da75 1c3e c6c1 c73d 650d 013e e06d 303e
00000350: 50bc 5c3d c86a 8b3e f84c a0be 6901 cb3e
00000360: 668e a13e 5345 3ebe 2059 d93e 8829 683e
00000370: 6829 9e3e 40a9 693d 4c01 89bd d00e 43be
00000380: db0b c6be 8387 95be 04f7 eebd d02b c2be
00000390: ef09 4d3e 705b cb3c 1463 adbe 90c2 a9bc
000003a0: e85c 043e 7cce af3e 40e3 85bc 95a0 d53e
000003b0: edc3 27be 9442 de3e 5368 7abe eee0 263e
000003c0: 7264 13be 875f d9be 9d4c 6dbe 06d3 a93e
000003d0: 6647 49be 8458 ab3e 293c 79be a82f e3bd
000003e0: 7e1b 02be 9aac c33e 6605 7d3e 40dc d8bb
000003f0: 6478 a0bd 1a74 153e 335b c9be 280d 833d
0.17315151 0.05978751 0.22372365 0.0012323558 -0.026263297 0.20429659 -0.20840104 -0.2916465
-0.1953677 0.10792303 0.37589812 -0.08696685 0.34078106 -0.38632616 -0.29766282 0.17911792
-0.04480517 0.35356525 0.13940552 0.023581024 0.1318683 -0.30738914 -0.32251477 -0.4220216
0.0029570044 -0.35925108 -0.10009432 0.25466788 -0.42440805 0.3101548 0.28790617 0.265193
-0.41418818 -0.34261128 -0.25619435 -0.096164465 0.20155376 -0.10737422 -0.23859392 0.066150025
0.444292 0.40863222 0.4303379 0.24358469 0.13176668 -0.06956026 -0.13797703 -0.29688746
0.38368616 -0.35964522 -0.29502833 -0.11558679 0.29756922 0.29117703 -0.31725517 0.12824106
0.31424153 0.29584682 -0.4075935 -0.44104373 -0.18066742 0.10380518 0.11383808 -0.14999741
-0.35296664 -0.1019651 -0.065843165 0.2984603 -0.39145437 0.35262555 0.39202976 0.42395127
-0.3917223 -0.14071292 0.15790403 0.31898478 -0.13485669 0.23806423 -0.27888364 0.122015156
-0.37479392 0.41598898 0.20791943 0.1260567 -0.36925197 0.25800115 -0.09627687 0.22373712
-0.2912535 -0.20432952 0.06590281 -0.02400276 0.10319048 -0.2689677 -0.2803203 0.2124896
0.08747065 -0.4202503 0.23353857 0.16320533 -0.1491178 -0.02228874 0.14669013 -0.0732435
0.030692669 0.19536489 0.29303908 0.15468317 0.18053953 0.1271783 -0.14774886 -0.1122857
-0.00041143782 0.39046955 0.15325469 0.1721882 0.1009201 -0.104222745 -0.25704318 0.28936392
0.37163466 0.05671096 0.06489611 0.122250974 -0.39229634 0.10485405 0.38702652 -0.010714233
-0.0141729 -0.23635706 -0.08191955 0.2507863 0.38903373 0.25390708 -0.23534882 -0.33894292
0.24671626 -0.07252493 0.38865572 0.39349174 -0.3880034 -0.20975065 0.14528978 0.21169683
0.17440611 -0.07636413 -0.40206692 -0.3593498 -0.07619411 0.082536496 0.19733775 -0.04102674
0.21513051 0.00846526 0.17803386 -0.40421715 0.3313746 0.0071484945 0.34535706 0.051431865
0.33149514 -0.022580199 0.17863834 -0.150209 -0.2911697 -0.34645158 -0.33132073 0.15520334
-0.01579699 -0.22041786 0.28000244 -0.3338657 0.12533498 -0.21241365 0.3293667 -0.05180612
0.13611786 0.31441438 -0.33113882 -0.3407161 -0.38135332 0.10045177 -0.277776 0.33103627
0.20732373 0.027044654 0.3429699 -0.23978965 0.21807134 0.06757218 0.11727997 0.10862297
0.01637122 0.09504694 0.22408408 0.13445866 0.1732347 0.13176045 -0.38856712 -0.08880156
-0.32753718 -0.21824597 0.22795306 0.37742144 -0.023888648 -0.24060014 0.13905913 0.07042152
0.15279332 0.09753756 0.12602766 0.17229414 0.053890526 0.27229905 -0.31308722 0.39649513
0.31553954 -0.18581133 0.4245081 0.22672093 0.30890965 0.057046175 -0.066897005 -0.1904862
-0.3868092 -0.2920495 -0.11668208 -0.3792405 0.2002332 0.024823874 -0.33864653 -0.020722657
0.12926066 0.34337223 -0.016343713 0.41724077 -0.16383334 0.4341017 -0.24453859 0.16296741
-0.14393786 -0.42455694 -0.23173757 0.3316881 -0.19656143 0.3346597 -0.24339356 -0.11093074
-0.127058 0.38217622 0.2470909 -0.0066180527 -0.07835463 0.1459507 -0.39327392 0.06398994

fc2.weight f4 [256, 256]
00000000: 9139 e7b9 4888 7d3d 7865 3ebd f00c 2ebd
00000010: 5005 ea3b 294f 78bd 0483 e8bc 578a 933c
00000020: 3a3c 18bd 7280 45bd c032 3c3b 16e3 4fbd
00000030: 2661 533d 8865 52bd 792c d93c 4f9b 1d3c
00000040: a0ee eebb 0bf5 0dbd 4171 ce3c 1b6c 83bd
00000050: 602e 53bb e2f8 2f3d a806 c8bc fcd6 b6bc
00000060: ebc9 8bbb a74d 81bd 024d 68bd f047 ecbb
00000070: 5009 83bb 08eb 9dbc a112 c3bc e028 6a3d
00000080: e015 18bd aaa2 10bc 2087 d2bc 1278 573d
00000090: 0c44 6d3d d821 88bc bb46 8f3c c03f a3bc
000000a0: eacf 583d 7848 1dbc 8d80 233d f877 bcbc
000000b0: 089e 94bc 0a9b 273b a4de 513d 2aaa 5fbd
000000c0: 1d2f b6bc cd50 493d 480e 61bd 6004 5c3b
000000d0: bcfa 783d c0a4 143c 8ff4 323d 8c43 06bd
000000e0: 2d81 d43c dcac a9bc 5d33 113d befe 0abd
000000f0: 0716 433d 6097 173c 0a1a 03bd e01a e83b
00000100: e234 50bd 747e 6dbd d9bc 58b7 e447 83bc
00000110: f1c5 36bc bb58 98bc a4d7 b03c 7e13 533d
00000120: 00e3 903b d018 8a3c 95f1 343d c068 ecbc
00000130: 8a43 84bd 93dd 19bd c0b7 bd3c 2e0d 7fbd
00000140: 2f40 223d b00c 0cbc 1bf0 423d 47c8 eebc
00000150: 8415 65bd f8ee 843c 6bfc 26bd a0ea e73b
00000160: c1ce a23c a82e a93b 1591 8fbd 588d 0d3c
00000170: a03e 47bc 9cec d7bc 5cf3 353d ace4 ad3c
00000180: 401e e6ba 6c8b 0f3d 6468 c73c f42f 78bd
00000190: f898 1dbc 5037 63bd a391 c4ba 68ef 563d
000001a0: 63e3 81bc 20f1 df3c 27ce 0c3c 683a 193d
000001b0: d6d4 84bd cac1 d43c 666d 2cbd 2a79 25bd
000001c0: b3c8 f83c 1072 65bc 3075 a5bc 192e 1e3d
000001d0: d4ec 113c 326e 79bd 26da 233d 91f2 08bc
000001e0: c0aa c53b 49c9 16bd a435 c53c 54c1 443d
000001f0: 95cb 143d 5079 d73b 6051 4e3c 3c0f 8fbc
00000200: 0a3e 76bd 3403 f9bc 023d 55bd 4248 62bd
00000210: 4054 bf3c 0cf9 d43c a8b2 0dbd 6ded 123d
00000220: 0e10 133d c27b 62bd c6da 103d 51a0 033c
00000230: 5e14 413d c9b6 473c 1499 48bc 3879 20bd
00000240: 6844 c9bc 6aad 383d 2964 223d 7c82 15bd
00000250: dca2 a3bc e1c8 1f3c bab2 303d d2c5 0ebd
00000260: 20dd 913b c8a0 573d 6181 28bd e40f ca3c
00000270: 30e1 6abb ecff c0bc e089 1cbb 405b 59bb
00000280: 7379 9e3c 2924 58bd 647f 7c3d e2fc e0bc
00000290: 61d4 f9bc e242 54bd d073 c63c e8a6 2cbc
000002a0: 5848 04bc 04e8 eabc 50b7 8fbc f883 17bc
000002b0: 15dd 4d3c 1d4c f5bc 2e7d f3bc 3bca 2e3d
000002c0: 9d99 ee3c 3022 5f3c 6392 97bb 06a1 1bbd
000002d0: 476f 4a3d a0df e43c ec77 133d 900a 363d
000002e0: 3a99 01bd 449b 613d e839 1a3c c126 153d
000002f0: da09 0d3d d873 7b3c 067a e63c 805d 443a
00000300: 3cf8 973c c46d 8c3c b763 f9bc aed7 4dbd
00000310: d8c5 97bc 97d5 103c d505 41bd 6832 d83c
00000320: c4a7 1fbd b440 6c3c e107 863c 4209 0b3d
00000330: 4c58 e1bc ab01 c2bc d0c1 a5bc 447f 2d3d
00000340: 9dc1 8bbd 6afc 333d 63a5 243c d6b4 b23c
00000350: be53 4fbd 8406 a63c 618b f33c f507 103d
00000360: af1c 043d 12dc 403d 1c66 ad3c 7ca0 c8bc
00000370: b08e 293d ec44 60bd fdbb 1d3b 31c2 32bd
00000380: f060 4abd b17e 733c 987d 3b3d 48c2 023d
00000390: d216 24bd 40bf 013b cf56 393d 90eb babb
000003a0: 70a1 94bb dc82 aabc 5e06 17bd 981d 2ebd
000003b0: 79e0 423d c66e 033d 200b b43c fa57 28bd
000003c0: 143c 443d 4ace 8abd 775b 0d3c 8e2a 0fbd
000003d0: 2b5f 73bc 603d 1dbc aa1f 08bd 7034 cbbc
000003e0: 5ca3 4c3d d9f4 4abd be25 83bd f0c5 773c
000003f0: 9ab2 37bd 00b7 08bd 454f fa3c 742e 22bd
-0.00044102644 0.061897546 -0.046483487 -0.042492807 0.0071417466 -0.060622368 -0.028382786 0.018010302
-0.03716681 -0.048218198 0.0028716773 -0.050753675 0.05160632 -0.05136636 0.026510464 0.009619548
-0.00729163 -0.03465752 0.025200488 -0.06417104 -0.0032223687 0.042961963 -0.024417236 -0.02231931
-0.004266014 -0.06313639 -0.056714065 -0.007210724 -0.003998913 -0.01927711 -0.023812594 0.057167888
-0.037130237 -0.008827845 -0.025699198 0.052604742 0.057926223 -0.0166177 0.017489782 -0.01992786
0.052932657 -0.009599797 0.039917517 -0.023006424 -0.018141761 0.0025574588 0.051237717 -0.05460564
-0.022239262 0.049149323 -0.05494526 0.0033571944 0.060785994 0.009072483 0.04369026 -0.03277926
0.025940502 -0.020712309 0.035449374 -0.033934347 0.04762843 0.009252399 -0.032007255 0.007083282
-0.050831683 -0.057981923 -1.2918573e-05 -0.016025491 -0.011155591 -0.018596997 0.0215872 0.05153226
0.0044215918 0.016857535 0.044175703 -0.028858542 -0.064581946 -0.037564825 0.023158908 -0.06226843
0.03961199 -0.008547947 0.047592264 -0.029148234 -0.055928722 0.01622723 -0.04076807 0.00707753
0.019873979 0.0051630326 -0.07010094 0.008639656 -0.012160927 -0.026357941 0.04442154 0.021227203
-0.0017556623 0.035045072 0.02434177 -0.060592607 -0.00961899 -0.055472672 -0.0014997016 0.05247441
-0.015855497 0.027336657 0.008594072 0.037409216 -0.06485908 0.025971312 -0.042096518 -0.040398754
0.030369138 -0.014004245 -0.02019748 0.03861818 0.008906562 -0.060896106 0.040002964 -0.008358614
0.006032318 -0.036813054 0.02407343 0.048035935 0.036326963 0.006575741 0.0125926435 -0.017463319
-0.06011776 -0.030397035 -0.052060135 -0.05524469 0.023355603 0.025997661 -0.034594208 0.035870958
0.035903983 -0.055293806 0.03536489 0.008033828 0.047138564 0.0121895755 -0.012243528 -0.039178103
-0.024568751 0.045087256 0.0396463 -0.036501393 -0.019975118 0.009752483 0.043139197 -0.034856625
0.004451409 0.052643567 -0.04113901 0.02466578 -0.0035839789 -0.023559533 -0.002388589 -0.0033165962
0.01934502 -0.05276886 0.061644927 -0.027464334 -0.030496778 -0.051821597 0.024225146 -0.01053784
-0.008073889 -0.028675087 -0.017543465 -0.009247772 0.012564917 -0.02994352 -0.029722776 0.04267333
0.029125983 0.013618991 -0.004625605 -0.03799536 0.04942253 0.027938664 0.03600304 0.044443667
-0.03164027 0.055079713 0.00941322 0.03641391 0.034433223 0.0153474435 0.028134357 0.0007490739
0.018550985 0.017142184 -0.030443056 -0.050254516 -0.018526956 0.008839986 -0.047124702 0.026391223
-0.038978353 0.014419723 0.016361179 0.033944376 -0.027507924 -0.023682436 -0.020234019 0.042357698
-0.06824038 0.043941893 0.010049197 0.021814745 -0.050616972 0.020266779 0.029729547 0.03516384
0.032253917 0.047084875 0.021166854 -0.024490587 0.041395843 -0.05475323 0.0024068349 -0.043642227
-0.049408853 0.014861749 0.045774072 0.031923562 -0.040060826 0.0019797832 0.045248803 -0.005704351
-0.0045358464 -0.020814352 -0.036871307 -0.04250869 0.047577355 0.032088064 0.021977961 -0.041099526
0.047908857 -0.06777628 0.008627764 -0.034952693 -0.014854233 -0.0095971525 -0.033233322 -0.024805278
0.04996048 -0.04954991 -0.06403683 0.015122876 -0.044848062 -0.033377647 0.030555377 -0.039595082

fc2.bias f4 [256]
00000000: 22c0 43bd d1c1 4a3d df11 4bbd 0cfa 8cbc
00000010: 8017 683b 36e4 4dbd d03e 363c a7b5 79bc
00000020: 30fd 13bd e532 27bd 5cca c63c 3845 90bb
00000030: ea91 64bd 947c f93c 8e4d 7fbd b3ca e7bc
00000040: 76cd 6e3d 6017 60bc 5049 57bc cc85 52bd
00000050: 062e 45bc 0498 19bd 36fb 92bd 2001 5c3d
00000060: 80bf 303c d610 1e3d 10e7 72bc 0342 683c
00000070: 700b fcbc 6d0f 283d e65e 57bd e02f 41bc
00000080: 86b3 8cbd 44b8 babc 2fe7 253d f00e 76bc
00000090: 842e 66bd 6224 253d 24dc 7bbd 15ee 29bd
000000a0: db57 65bd 5b90 79bb fa8a 5fbd da0a 733d
000000b0: ccd9 44bd c45b 683d 205d 4b3c a45b 173d
000000c0: f05f e1bb c419 d9bc 3030 b13c 5f43 1bbd
000000d0: 6225 52bd f39f b33c f047 79bc c0d6 b03b
000000e0: d686 7bbd 4dd4 ebbb 7ccc 603d 0012 b93c
000000f0: 5866 28bd a69e 23bd 3436 643d 781a 60bc
00000100: 4cc0 3c3d 02cd 5d3d 51a8 2abd fccf 1a3d
00000110: c07f 26bb 3a39 2f3d f12b 2e3d f6c1 4a3d
00000120: 76c2 393d 2cf2 fc3c 5011 babc 5ed9 4fbd
00000130: 86dc 7dbd 2288 273d 3840 173d 8402 ea3c
00000140: 2c75 c1bc 0a36 61bd 4c43 a23c c6d7 453d
00000150: f8a9 793d 5da0 dfbc 983c 6dbc 5268 5c3d
00000160: 27df ed3c c867 103d 8e1f 633d 5d01 413d
00000170: 6822 f93c 7d5a a33c 15a9 5fbd 8440 a2bc
00000180: 4729 ef3c 0018 a1b9 42df 3c3b daa2 30bd
00000190: 884c 833c 74e9 6dbd f03e ecbc 88fc 343c
000001a0: 5cfa 06bb 401c 263d c1ca 4bbc 9165 2bbc
000001b0: 1772 503d b0f5 5e3d 04fd 3bbd 50c2 5b3d
000001c0: f2a5 6cbd 9566 383d 203c d3bb c830 3bbc
000001d0: 7851 c93c 04c5 643d c5c7 edbc 1eeb 133d
000001e0: 988c b0bc 1281 5cbd f050 6ebc 7380 db3c
000001f0: 58af 43bd 628a 7c3d 98f4 88bc 92ad 67bd
00000200: 165a 1e3d e834 84bd c873 2a3d e879 153c
00000210: 9aa7 3dbd 47fb d4bc d911 7ebd 58ab 923c
00000220: 48cb 3bbd dc8e ca3c a8cf 4dbd 7cac 36bd
00000230: 3c78 3fbd c835 5dbc 5b82 11bd b849 5abd
00000240: 9cb6 163d 3305 443d 9c62 94bc fca2 02bd
00000250: c0bb 27bb 71a9 283d afd6 35bd 58df 443d
00000260: 6c4d de3c cc64 43bd 00e2 87bb 88ee c4bc
00000270: a796 1e3d 3322 b0bc de27 613d 0693 44bd
00000280: 148d 3abd 4059 f2ba da90 5bbd 7e80 003d
00000290: f614 193d 1e5a 6a3d 20c5 f73c cc92 23bd
000002a0: 2468 58bd bcc2 7d3c 6e6e 5b3d 278d 0dbc
000002b0: 904c 35bd 30b5 b9bb 5440 f3bc c063 ab3b
000002c0: aa08 063d d08c 703c 3e83 65bd 4459 9e3c
000002d0: 0cc9 26bd 7368 32bc f2a0 263d f45a 033d
000002e0: 44e9 01bd 06f6 033d 0c8c 43bc 7e45 953c
000002f0: 9d68 7cbd 4a17 56bd 6c3a 7a3d 5fa0 6fbd
00000300: cacd 34bd b61b 47bd 923c 493d 3a4b 15bd
00000310: 00a5 423d ab1c c13c ac8b 5a3d b475 523d
00000320: e67e ab3c fc84 d93c a95d 1fbd 3863 ac3c
00000330: fab8 0cbd 9e6a ffbc f0ad 12bd 2e89 5cbd
00000340: a9bd c2bc 1f64 75bd 0817 6dbd 28cd 1d3d
00000350: c6ae f8ba baed 3e3d 79a3 11bc 92fd 63bd
00000360: b062 733d a873 3cbd 9b89 1fbb f84a 623c
00000370: 606a 5dbc 38bb 4fbd fd6e 0cbd 78f3 31bc
00000380: 309e 99bb 5694 b73b bef8 c53c d307 f03c
00000390: 1b25 6c3c a0ca 253b 1661 673d a007 fa3c
000003a0: 9443 a23c 37b1 693b 5a82 78bd e0c6 35bb
000003b0: a08e 673d 80bb 2f3b ac63 d23c bcac 7c3d
000003c0: 28fd 863a bb79 aabc 482a 453c 522b e83c
000003d0: 8010 a93c 00a2 403c 49f5 abbb d686 183d
000003e0: 196e 4f3d e453 34bd 9472 06bd aa44 2d3d
000003f0: ab55 3bbb 8e37 3dbd d7c6 0c3d b684 f4bc
-0.047790654 0.049501244 -0.04957759 -0.017209075 0.0035414398 -0.050266467 0.011123374 -0.015241063
-0.03613013 -0.04082002 0.024266414 -0.004402783 -0.055803217 0.030454911 -0.06232982 -0.028294897
0.05830141 -0.013677448 -0.013140038 -0.05139713 -0.012034899 -0.03749849 -0.07176821 0.05371201
0.010787845 0.038590275 -0.014825597 0.014175895 -0.030767173 0.041030336 -0.052580737 -0.011791199
-0.06870179 -0.022792943 0.040503677 -0.01501821 -0.056196705 0.0403179 -0.06148924 -0.04148682
-0.05599199 -0.0038080427 -0.054575898 0.05933652 -0.04805927 0.05672814 0.012412339 0.03695263
-0.0068778917 -0.026501544 0.021629423 -0.037906047 -0.051305182 0.021926856 -0.015214905 0.005396694
-0.061407886 -0.007196939 0.05488251 0.02259159 -0.041113228 -0.03994622 0.055715755 -0.013678186
0.046081826 0.05415059 -0.041664425 0.037796006 -0.0025405735 0.042779185 0.042522375 0.04950138
0.045351468 0.030877195 -0.022713333 -0.050744407 -0.061977886 0.04090131 0.03692648 0.028565653
-0.023615442 -0.054983176 0.01980748 0.04830148 0.06095311 -0.027298147 -0.014479779 0.053810425
0.029037071 0.035255224 0.055450015 0.04712044 0.030411914 0.01994061 -0.05460461 -0.019806154
0.029194487 -0.00030726194 0.0028819595 -0.043124057 0.016027704 -0.058083966 -0.028838605 0.011046536
-0.0020596003 0.040554285 -0.012438477 -0.010461227 0.050890055 0.054433525 -0.04589559 0.053652108
-0.057775445 0.045019705 -0.0064463764 -0.011425205 0.02457498 0.05585195 -0.029025922 0.036112897
-0.021551415 -0.05383403 -0.014545664 0.026794648 -0.047774643 0.06165541 -0.016718194 -0.056562014
0.03866013 -0.064554036 0.041614324 0.009123303 -0.046302415 -0.025998725 -0.06202874 0.017903969
-0.04584816 0.024726324 -0.050246865 -0.044598088 -0.046745524 -0.013501592 -0.035524707 -0.05329296
0.036795244 0.04785652 -0.018113427 -0.031893715 -0.0025594085 0.041177217 -0.04439419 0.04806456
0.027136527 -0.04770355 -0.0041468143 -0.024039522 0.038717892 -0.021500682 0.05496966 -0.047991775
-0.0455447 -0.0018489733 -0.053604938 0.03137254 0.037373506 0.05721485 0.030245364 -0.03993492
-0.05283369 0.015488323 0.05357211 -0.00863961 -0.04426247 -0.005667351 -0.02969376 0.005230397
0.032723106 0.01468201 -0.056033365 0.019329675 -0.040719077 -0.01088916 0.040680833 0.03206916
-0.0317166 0.032217048 -0.011935245 0.018221613 -0.061623204 -0.052268304 0.06109087 -0.05850255
-0.04414157 -0.04861041 0.04913003 -0.036448695 0.047520638 0.02357324 0.053355858 0.05138178
0.020934533 0.02655267 -0.03890768 0.021043405 -0.034356095 -0.031178769 -0.03581041 -0.053841762
-0.023772078 -0.059909936 -0.057883292 0.03852573 -0.0018972985 0.046613432 -0.008889073 -0.055661745
0.059420288 -0.046008736 -0.0024343494 0.013811819 -0.013514131 -0.050715655 -0.034285534 -0.01086127
-0.004688047 0.0056024 0.024166461 0.029300606 0.0144131435 0.0025297776 0.056489073 0.030521214
0.019807614 0.0035658607 -0.060671188 -0.0027736947 0.056532502 0.002681464 0.025682293 0.06168817
0.0010298835 -0.020809999 0.012034006 0.02834097 0.02063775 0.011757374 -0.005247746 0.037237965
0.050642107 -0.044025317 -0.032824114 0.04230181 -0.0028584998 -0.04619556 0.034369316 -0.029848438

V.weight f4 [1, 256]
00000000: 0dd8 c2bc b2d1 d3bc 01f0 ffbc bcfb afbc
00000010: 58f0 03bd 667e 203c 289a 63bd a35e 4cbd
00000020: d2e2 56bd 0985 80ba 209b 7ebb 0bed fb3b
00000030: 2ed6 3c3d 5c9e 963c 4050 b53a bb11 18bd
00000040: 184d c0bc 6ce0 2c3d f46d 873c a424 b93c
00000050: 8f3c 88bb 5eab 533d 7a2c f4bb 846f 223d
00000060: 58f3 233d ee00 333d e4a8 49bd 6f43 8cbc
00000070: 9205 0e3d 6046 883c d0d0 85bb 9458 313d
00000080: f229 4f3d c0e6 3d3b 9f2c c23c f2f5 783d
00000090: 40e4 57bd 28d3 6c3c f60e ed3c d182 483d
000000a0: 2f3b 643c c900 8dbc 885e bc3c 6d9e c5bc
000000b0: a061 653c 3fbc e5bc 8423 643d 8874 933c
000000c0: aad0 7f3d 080b 47bd 4bc0 233c 7410 0c3d
000000d0: 079d c8bc e246 ad3c 42ec 5ebd 405c 5c3c
000000e0: 2c0c 58bd 1ceb 2ebc c090 8eba 80d7 be3b
000000f0: fbc5 8abc 387d e93c 3441 c7bc 1049 963b
00000100: 00a4 ee3b 907d d23c ceeb 2d3c 2c2a cc3c
00000110: 70c1 153d 5604 4b3c f83e 823b f440 a2bc
00000120: 0c5f c63c b00e 643d c85a 3cbd 78dc 5bbb
00000130: e63d 5abd 6bbb dd3c f8a1 bcbc 601d 9bbb
00000140: 54ed cfbc b6cc a9bc a065 7dba 265e 473d
00000150: 48c3 32bd 7de8 633b 44c9 393d c469 403d
00000160: 01e7 e2bc 8544 393d 307f 18bd cff2 aabb
00000170: c04d 91bc 15d5 1cbd ea81 41bb a21a 61bd
00000180: 67ed bbbc e06d 723b 6e94 9c3c 509a 6b3d
00000190: b082 6bbc 9c0c eb3c 08a5 5b3d b089 aabb
000001a0: 6bbb 4fbc 63f1 85bb 059b c4bb 6a28 ed3c
000001b0: 56d3 a8bc d874 ffbc 70e6 eebc 81fe 243d
000001c0: 00f6 203d a79e bbbc 80b5 0a3a b84c 09bc
000001d0: 44ee b9bc fc64 a6bc dc38 84bc 04d7 063d
000001e0: 9ccd bdbc 98d7 b1bc 7853 163c 3623 e4bb
000001f0: d060 d33c e421 263d 739f 413c 1199 be3c
00000200: 0014 9f38 e2ed 533c 406b c6ba 70c6 573d
00000210: 2a3d 0e3d a502 9cbc a745 cebb 40cf 113d
00000220: b4aa 5f3d da71 433d 2a9d 1e3d 1293 203d
00000230: 682a 543c 5053 d9bc c8d4 e73b a005 0dbc
00000240: 65c4 c1bc b4e4 9cbc f40c bfbc 337a 9f3b
00000250: 407f a53b d300 b83b fb57 02ba e44c 65bd
00000260: 20d4 3fbc f094 fa3b 58db babc c03d f0bc
00000270: 5f4f 9a3b 40ea 65bc 0ccf 2f3d 220b 5d3d
00000280: 163f 3b3d 363a 4abd 132c 223c b449 17bd
00000290: 1844 483d ec2c f13c fa8b 5a3d 1890 6cbc
000002a0: ef57 18bc e5bb 3dbc 765a 7a3d 9762 033c
000002b0: a07d c0bc 186d 52bc 64ac b9bc 8229 393d
000002c0: 6bde 313a dc9e 38bd 487e c33c 47f9 bc3c
000002d0: b61c 003c 2437 febb 1d38 223c 9c51 76bc
000002e0: 7abd 763d d47d 123c 7115 153d c867 ab3c
000002f0: 3a67 343c b201 73bd 0002 9939 8c3b a4bc
00000300: 2809 68bd a13d 09bc 9e3b 32bd 0044 2b3a
00000310: cd7c 3fbd c839 cc3b 4c18 3a3d 94cb 633d
00000320: e7c9 113d 1c2d 7abd 8c93 663a 1c72 77bb
00000330: 88e5 b0bc 8116 09bd fd39 a1bc 1d32 54bc
00000340: b21d 3dbc 0cfa bd3c d61e 3a3c 3968 06bc
00000350: 0d0b e2bc 0a0d 633d 78de 88b8 30b6 a63c
00000360: d4e6 7cbd 045c 29bd 5146 343d 28a0 e93b
00000370: d4d7 0a3d f191 f2bc b270 04bc e07c f7bc
00000380: b86a f03c c7c7 c6bb b1d4 26bb e5ee 3dbd
00000390: 3948 e7bc 74ac 9ebc 70ab 5c3d faa8 5e3d
000003a0: 1433 fe3c 45d4 a83c 00ad b43c 7456 2c3d
000003b0: 1ea1 02bd f26c 5cbd f459 40bd 14b8 303d
000003c0: 1012 9abc 0d4a f23c d6e2 5e3d 57eb 2a3c
000003d0: 3dbe ac3c 0cc2 043d f67d 35bc f445 f93c
000003e0: 526f efbb d085 2cbd d076 b5bc c2d1 32bd
000003f0: 8430 b33c 2cb5 073d 1975 09bc 61dd 1bbd
-0.023784662 -0.025856826 -0.031242372 -0.021482341 -0.03221163 0.009795761 -0.055566937 -0.04989494
-0.052462406 -0.0009805273 -0.0038849786 0.00768817 0.046102695 0.018386059 0.001383312 -0.037126284
-0.023474261 0.042206213 0.016531922 0.02260048 -0.00415761 0.0516771 -0.007451591 0.03965713
0.040026993 0.04370206 -0.049233332 -0.017121999 0.03467328 0.01663512 -0.0040837303 0.043297365
0.05057711 0.002897665 0.023702918 0.060781427 -0.05270791 0.01445464 0.028937798 0.04895288
0.013930126 -0.017212288 0.022994295 -0.024123395 0.014000326 -0.028043864 0.055697933 0.017999902
0.062454857 -0.048594505 0.009994577 0.03419538 -0.024488939 0.021151964 -0.05442453 0.0134497285
-0.052745983 -0.010676172 -0.0010876879 0.0058240294 -0.016940108 0.028502092 -0.024323083 0.0045863464
0.007282734 0.025694638 0.010615302 0.024922453 0.03656143 0.0123911705 0.0039747916 -0.019806363
0.024215244 0.05567807 -0.045985013 -0.0033548158 -0.053281687 0.027066907 -0.023026451 -0.0047337264
-0.025381722 -0.020727497 -0.00096663274 0.04867377 -0.043643266 0.0034776025 0.045357957 0.046975866
-0.027698042 0.04523136 -0.03723067 -0.0052169333 -0.01773727 -0.03828915 -0.0029526898 -0.05495704
-0.02294035 0.003699176 0.019113746 0.05752021 -0.01437442 0.028692536 0.053624183 -0.005204402
-0.012678961 -0.0040876134 -0.005999925 0.028949935 -0.020608585 -0.031183645 -0.029162616 0.040281776
0.039297104 -0.0229028 0.0005291328 -0.008380108 -0.022696622 -0.020311825 -0.016140394 0.0329199
-0.023169331 -0.021709248 0.009175174 -0.0069622053 0.025803 0.040559664 0.011817801 0.023266347
7.585436e-05 0.012935134 -0.0015138164 0.05267948 0.0347263 -0.01904423 -0.0062949243 0.03559804
0.054606155 0.047716 0.038724102 0.039202757 0.012949564 -0.026528984 0.007074926 -0.008607298
-0.023653219 -0.019152023 -0.023321606 0.004866862 0.00505057 0.0056153326 -0.00049722166 -0.05598153
-0.011708289 0.0076471493 -0.02280967 -0.02932632 0.004709169 -0.0140329 0.042922065 0.053965695
0.04571446 -0.04937192 0.009898203 -0.036935523 0.048893064 0.029440366 0.05335615 -0.0144386515
-0.009298309 -0.011580442 0.061121427 0.008019111 -0.023497403 -0.012843393 -0.02266521 0.0452056
0.0006785157 -0.045073375 0.023863927 0.023068083 0.007819345 -0.007758038 0.009901074 -0.015034106
0.060239293 0.008941133 0.0363974 0.02092351 0.011010939 -0.05932779 0.00029183924 -0.020047925
-0.056649357 -0.00837651 -0.043513887 0.0006533265 -0.04674988 0.006232474 0.045433328 0.05561407
0.03559294 -0.061078176 0.000879579 -0.0037757223 -0.021593824 -0.033468727 -0.019680971 -0.012951401
-0.011542724 0.02319052 0.011359891 -0.00820356 -0.02759316 0.055432357 -6.5264234e-05 0.020350546
-0.061743572 -0.04134752 0.04401237 0.007129688 0.033897236 -0.029610606 -0.008083509 -0.030210912
0.029347762 -0.006066296 -0.0025456364 -0.046370406 -0.02823268 -0.019369341 0.053874433 0.054360367
0.031030215 0.02060903 0.02205515 0.042074636 -0.031891935 -0.053814836 -0.046960786 0.0431443
-0.018807441 0.029576326 0.054415546 0.010432086 0.021086806 0.03241162 -0.011077395 0.030428864
-0.0073069716 -0.0421198 -0.02215138 -0.043657072 0.02187372 0.033131763 -0.008389735 -0.03805292

A.weight f4 [6, 256]
00000000: 1a1a c2bd cf67 13bd 1769 5e3c b28c 4d3d
00000010: fcb1 e8bc 7af9 863d 5298 26bd b6c6 f1bc
00000020: 38ae f6bc 3d60 8ebc 80a5 5dbd 2d42 363d
00000030: 7645 223d 4041 763c 06c8 043d 0f48 0a3d
00000040: 6474 573d 7029 67bc 32c2 35bd 1834 70bd
00000050: 2fce 9d3b 209b abbb 64ec 54bd 8e9a 2dbd
00000060: d4b3 08bd 7685 433d dcbb 963c 5eaa 61bd
00000070: d0a9 d0bc c7c4 58bb 8259 4abd d24c 1dbd
00000080: 44a7 dc3a e49c 483d 3ec8 403d e60d 0c3d
00000090: 520a 7e3d df23 a339 62f1 743d e5f6 c73c
000000a0: c483 0e3d 2317 82bb a820 cd3c 24c1 82bd
000000b0: 0038 003a 3aba f5bc 0821 09bc 3472 00bd
000000c0: f2ee 093d e0f5 36bc 9b06 bd38 5f61 31bc
000000d0: 41ea 43bd cfda 1b3d 6a3b 6b3d 8881 7cbd
000000e0: 2cd4 c93c 53da dabc 1240 3d3d 2435 103d
000000f0: 4941 55bd b4f0 623d 2091 5f3b dec6 2b3d
00000100: 7889 29bd 10d1 42bd aab5 5b3c 26cf 07bd
00000110: 1c3f 8a3c 9c0b 053b a445 06bc 684d 7d3d
00000120: 84b8 d23c 4e3e 29bd 40b1 6c3d 1d21 433d
00000130: 8833 443d d124 743b dec1 9f3c c070 fa3b
00000140: 1eba 15bd eedd ab3c 9fd0 123c fb14 803d
00000150: 004d 0abb b091 2fbd f2da 183d b0f6 a43b
00000160: a599 72bd 1332 26bd a46e 25bd 47fc 1dbd
00000170: 3db5 a33a 0155 a43c f16d 8a3b 001e 5f3c
00000180: a7fd 863c 2045 d6bb c02c 693d 52ec 7f3d
00000190: ec85 a5bc e82a c63c a8d9 7d3c 009f 543d
000001a0: 699b 09bd 8874 e9bc 53b5 873c 3edb 253d
000001b0: face 8abc 7c2d e5bc 44ac 9a3c a7e6 193c
000001c0: 00d4 3ebd 53d0 f3bb ce41 243d 00f1 98bb
000001d0: b0a6 bbbb acd7 733d 5153 093c d4dc a43d
000001e0: 0a7c 763d f655 323d 2643 423d dd94 0cbd
000001f0: 05ac 3a3d 7854 573d 545b f3bc b331 5f3d
00000200: 5442 863c 5928 cb3c ccc2 df3c 5485 e3bc
00000210: 00c5 a83b 2bb7 35bd f893 d8bc 869e 103d
00000220: 38d5 76bd a08a a43b 90a6 c0bc 705b 133d
00000230: 32da 013d ae89 36bd cbc4 2c3d b8a4 643c
00000240: aa9d 2bbd 1021 23bd b0c4 70bc d889 d5bc
00000250: d80e 0bbc ea83 40bc e3c8 2cbd 2202 04bd
00000260: 222d 0d3d d841 473c 4294 1abd 44e2 7abd
00000270: 4eb7 de3b fe2b debc 7ab9 3a3d be03 34bd
00000280: 04a4 14bd 0092 a939 df8b ca3c 38bb 4cbc
00000290: c492 c3bc a882 2bbd e02f 00bd 10a7 5c3c
000002a0: f662 b93c 821b ee3c 34a4 243d c320 363d
000002b0: 26b1 7f3d 2a4e 39bd 00aa d1b9 6849 c23c
000002c0: 73d4 b93c 8020 52bd 24f3 4e3d 16d9 77bc
000002d0: e6e8 473d fa90 e7bc 54fe 7c3d 45f2 103c
000002e0: aa1e 3ebd f4e6 f73b cf2b 3f3d 04ca d6bc
000002f0: 5a8b 963c 48bc 4e3c 302d 33bd fc95 0bbd
00000300: 1edd 35bd 70ff 11bb 7088 3bbd 78b0 00bd
00000310: 8fba 403d fdee 873c 0b2d 22bd 8090 6dba
00000320: eeb9 85bc 30dd adbb 8139 6cbd 900f d33c
00000330: 4f7a 833c c1dd 4fbd 8ece f2bc 1d6f 47b9
00000340: 5453 1fbd e8c1 ccbc 6424 4fbd 0901 b7bc
00000350: 1fa8 25bd 12e6 2ebc 0fe2 03bd f0a9 583d
00000360: 725e 56bd 98c2 483c 47ae 31bc e5df d1bc
00000370: 8820 843c c4ab 7bbc 61ba 98bc 60cd a73c
00000380: 0020 5138 979e fbbc 6f0d c0bc f692 75bd
00000390: 211a 04bc 7852 c43c 2c55 58bd b6bb 19bd
000003a0: a0d1 8d3b 2e06 903c 80ce 14ba 100b 0fbc
000003b0: 26d4 6c3d a2c4 223d d6e8 55bd ba35 6f3d
000003c0: 4374 2cbd 95e7 1e3d 42b2 3fbd a2ed a5bc
000003d0: 3c24 7d3c 742d c83c c7a6 1abd 7a6a 373d
000003e0: e440 68bd f44d de3c a470 263d 0031 723d
000003f0: 7a1f e5bc 4776 533c 2065 f03c 52d3 ab3c
-0.09477635 -0.03598767 0.01357486 0.050183006 -0.028405182 0.06590553 -0.040672608 -0.029513698
-0.03011237 -0.017379874 -0.05411291 0.044496704 0.039617024 0.015030205 0.03241732 0.033760127
0.052601233 -0.014109001 -0.044374652 -0.05864343 0.0048158388 -0.005236998 -0.051983252 -0.042383723
-0.033374622 0.0477347 0.018400125 -0.055094115 -0.025471598 -0.0033076273 -0.049401768 -0.03840334
0.0016834517 0.048977748 0.047065966 0.034192942 0.06202156 0.0003111651 0.059800513 0.02440972
0.03479363 -0.0039700433 0.025039986 -0.06384495 0.0004891157 -0.029996026 -0.008369692 -0.031358913
0.03367514 -0.01116702 9.013453e-05 -0.010826438 -0.047830824 0.03805047 0.05742971 -0.061646968
0.024637304 -0.026715433 0.04620368 0.03520693 -0.052064214 0.055405334 0.00341136 0.0419377
-0.041390866 -0.04756266 0.013410011 -0.033156537 0.016875796 0.002030111 -0.008195315 0.0618414
0.02572275 -0.041319184 0.057786226 0.047639 0.047900707 0.003725339 0.019501623 0.0076428354
-0.03655445 0.020979848 0.008960872 0.06254002 -0.0021103024 -0.042863548 0.037318178 0.0050342903
-0.059228558 -0.0405751 -0.04038872 -0.03857067 0.0012489926 0.020060064 0.004224532 0.013617992
0.016478373 -0.006539002 0.056927443 0.062481232 -0.02020546 0.024190381 0.015493788 0.051909447
-0.033595476 -0.02849795 0.016565954 0.04049229 -0.016944397 -0.02797579 0.01888097 0.009393371
-0.046588898 -0.0074406057 0.04010182 -0.0046674013 -0.005726658 0.059531853 0.008381681 0.08049932
0.060176887 0.04353901 0.04742732 -0.034321655 0.045574207 0.05257079 -0.029706635 0.054490756
0.01638905 0.024799513 0.027314566 -0.027773537 0.0051504374 -0.044364136 -0.026437744 0.03530743
-0.060261935 0.005021408 -0.023516923 0.035975873 0.031702228 -0.044564895 0.042179864 0.013955288
-0.041898407 -0.039826453 -0.014695331 -0.026066706 -0.008487426 -0.011750201 -0.042183768 -0.032228597
0.03446687 0.0121616945 -0.037739046 -0.06125094 0.006796754 -0.027120586 0.04558704 -0.04394888
-0.03628923 0.0003234297 0.024724899 -0.012495808 -0.023873694 -0.04187265 -0.031295657 0.013467565
0.022630196 0.029065851 0.04019566 0.044464838 0.0624248 -0.04524056 -0.00039990246 0.023716643
0.022684311 -0.051300526 0.050524846 -0.015127441 0.048806094 -0.028267372 0.061765984 0.008846824
-0.046415962 0.0075653736 0.04667264 -0.026219375 0.018376995 0.012618132 -0.043744266 -0.034078583
-0.044400327 -0.0022277497 -0.045784414 -0.031418294 0.047052916 0.01659345 -0.039593738 -0.00090623647
-0.01632401 -0.0053059086 -0.057672027 0.025764257 0.016049532 -0.05074859 -0.029639509 -0.00019019512
-0.038897827 -0.024994805 -0.050571814 -0.02233936 -0.040443536 -0.01067497 -0.03219801 0.05289644
-0.052336164 0.012253426 -0.010844774 -0.025619457 0.016128793 -0.015360776 -0.01864356 0.020483673
4.9859285e-05 -0.03071527 -0.023443906 -0.059954606 -0.00806287 0.023965105 -0.0528156 -0.03753253
0.0043279678 0.017581072 -0.0005676523 -0.008730665 0.057819508 0.039738305 -0.052224003 0.058400847
-0.042103063 0.038795073 -0.04680086 -0.020254914 0.0154505335 0.024435736 -0.037756708 0.04477928
-0.05670251 0.02713678 0.040634766 0.05912876 -0.02796911 0.0129066175 0.029345095 0.020974789

A.bias f4 [6]
00000000: 9b12 4e3d 2b5a 883d 8747 943c 12a1 9bbd
00000010: bdb8 a3bc d086 87ba
0.050310712 0.06657823 0.018100513 -0.07599081 -0.019985551 -0.001033986
