cool/checkpoints/D3QN/Q_eval/D3QN_q_eval_18100.pth (torch, 278863 bytes, 7 tensors)

fc1.weight f4 [256, 5]
-0.18344247 -2.21574 -0.24274954 0.27851722 0.2926515 -2.8082721 -2.8248532 0.03752345
0.10576129 0.01646598 0.4045963 0.60303396 -0.16310602 -0.0016196663 -0.47288078 -2.6874506
-5.1735806 -0.16919047 0.031937588 0.4033322 0.07924356 0.16380683 -0.2193461 -0.055537827
0.0538788 -1.5857694 -3.0185425 -0.35491908 0.12052805 -0.19690792 -3.06685 -4.4978857
0.41476464 0.010843039 0.12697063 0.18670452 -0.36829987 -0.066176 -0.28606427 -0.28486478
-0.36763638 -0.0018545702 -0.24233791 -0.11772515 0.10603335 -1.7925534 -4.226036 -0.30606914
0.1571613 0.15625983 -2.6980758 -4.170837 0.21216387 0.0060888818 -1.3251406 -2.7413602
-3.8092754 -0.32277396 0.40725023 -0.46468475 0.12834136 0.17761311 -0.3653325 -0.3507306
0.35259974 -0.45722228 0.004105422 0.098471284 -0.23713233 0.2478568 0.34899324 0.1656891
-0.4311512 -0.22543891 0.22188406 -2.6230116 -3.9422517 0.27278227 0.06290692 0.30796492
-2.6060677 -4.4755044 -0.4259776 0.1279012 -0.11204045 3.2048638 3.6727278 0.30089563
0.041816086 -0.03267729 0.19363075 0.005952567 -0.2179506 -0.025862724 -0.07905996 -0.5517603
-2.1208255 -0.15976682 0.36823398 0.2493733 0.0824084 0.789142 0.3102799 -0.022664726
0.021819144 0.42437792 0.43744445 0.41335803 -0.020707786 -0.06088856 -0.08725393 1.4980056
-0.055737883 0.1706353 -0.21515356 -0.22158448 0.41347614 -0.30593473 0.26946795 -0.39100125
-1.9420521 -3.7200532 0.27809906 0.14181253 0.122793615 -1.8642063 -2.9118629 -0.22642738
0.16811 0.052417975 0.014947087 0.1743586 0.036464185 -0.34732014 -0.37971908 2.8835285
3.2498162 -0.14378822 -0.012302956 -0.6172258 0.3122265 -0.41657907 -0.045393527 0.08581435
-0.43577722 -0.16464317 0.2283839 0.28292882 -0.36895305 0.385624 2.2890992 4.364695
0.13435888 0.049838416 -0.06551151 1.1480563 0.9855112 -0.02025804 0.007230725 0.25421503
-3.0042665 -3.5135384 0.14423871 0.3806171 0.33630446 1.4877521 3.8561103 0.2307918
0.13512674 0.2326349 -3.641383 -2.9287682 -0.26674944 0.017702509 0.13138324 0.42972195
0.4374907 0.42678165 -0.13092238 -0.24383572 -0.3196241 -0.25664744 -0.3588234 -0.12831113
0.13169688 1.3526906 0.20607212 -0.17763984 0.23887087 -0.23186897 -0.1538311 0.7622375
0.17462242 -0.16523683 0.43389067 2.9183648 3.5672166 -0.19699445 -0.003512824 0.2610878
-0.50989765 -0.5570526 0.05124873 0.22810099 0.12178071 -1.2822555 -2.0922942 -0.13793626
-0.036511127 0.3121296 0.17462426 -0.3582446 -0.41341117 -0.1351617 -0.34107748 -1.4695187
-3.5535996 0.09782773 0.31371683 0.1832961 -0.625814 -0.974336 -0.0148772 0.24855852
0.23018433 -2.5730557 -3.151791 -0.0013771057 0.06951441 0.12423105 1.1564932 1.4946423
0.33269113 0.26014525 0.019199964 -0.2605021 0.2894262 -0.18447438 -0.1346668 -0.2160727
0.014974773 0.35626316 -0.3085928 -0.17523003 0.024490148 0.1400283 -0.40680414 0.1664424
-0.39165166 -0.16330713 -0.9937535 0.1592723 0.094717145 0.047159903 -0.011117037 -0.46507117
00000000: 58d8 3bbe afce 0dc0 5693 78be cf99 8e3e
00000010: 6bd6 953e bbba 33c0 65ca 34c0 30b2 193d
00000020: 6099 d83d aae3 863c 3f27 cf3e 6f60 1a3f
00000030: 4405 27be fc4a d4ba 6e1d f2be 31ff 2bc0
00000040: f98d a5c0 4440 2dbe fdd0 023d 8f81 ce3e
00000050: 734a a23d fabc 273e 449c 60be a27b 63bd
00000060: 04b0 5c3d 7efa cabf cd2f 41c0 f4b7 b5be
00000070: 69d7 f63d 3ba2 49be 4547 44c0 aeee 8fc0
00000080: 085c d43e 00a7 313c 9704 023e 782f 3f3e
00000090: cd91 bcbe 4887 87bd 0477 92be ccd9 91be
000000a0: d63a bcbe 0d15 f3ba 6e27 78be e219 f1bd
000000b0: 0328 d93d 6472 e5bf b03b 87c0 18b5 9cbe
000000c0: e4ee 203e 9402 203e 46ad 2cc0 7f77 85c0
000000d0: 7c41 593e 3e85 c73b 359e a9bf 7272 2fc0
000000e0: 2bcb 73c0 a142 a5be 1a83 d03e 29eb edbe
000000f0: eb6b 033e 36e0 353e dd0c bbbe f692 b3be
00000100: f487 b43e 0a19 eabe c786 863b 50ab c93d
00000110: d1d2 72be 2cce 7d3e 3eaf b23e 67aa 293e
00000120: dabf dcbe 75d9 66be 9335 633e 6cdf 27c0
00000130: da4d 7cc0 1eaa 8b3e 58d5 803d 94ad 9d3e
00000140: d0c9 26c0 5537 8fc0 bc19 dabe 88f8 023e
00000150: 7775 e5bd 7d1c 4d40 f90d 6b40 fe0e 9a3e
00000160: 5847 2b3d 9fd8 05bd 2447 463e c00d c33b
00000170: 712e 5fbe 10de d3bc 30ea a1bd 2a40 0dbf
00000180: 9bbb 07c0 ea99 23be 2a89 bc3e b75b 7f3e
00000190: bcc5 a83d 3605 4a3f 02dd 9e3e 60ab b9bc
000001a0: 10be b23c 1048 d93e b8f8 df3e aaa3 d33e
000001b0: 60a3 a9bc 4866 79bd 30b2 b2bd a6be bf3f
000001c0: 684d 64bd 05bb 2e3e 3751 5cbe 0be7 62be
000001d0: 25b3 d33e 7aa3 9cbe b4f7 893e 5131 c8be
000001e0: 2a95 f8bf 5a15 6ec0 0063 8e3e 4e37 113e
000001f0: 387b fb3d 509e eebf f65b 3ac0 94dc 67be
00000200: 0725 2c3e 3bb4 563d a0e4 743c 108b 323e
00000210: 785b 153d f2d3 b1be 8a6a c2be bb8b 3840
00000220: fdfc 4f40 383d 13be 5692 49bc 8302 1ebf
00000230: 27dc 9f3e da49 d5be 90ee 39bd 6fbf af3d
00000240: 311e dfbe 3898 28be 78dd 693e 0cdc 903e
00000250: 6ae7 bcbe 8270 c53e 9a80 1240 95ab 8b40
00000260: 6095 093e 5e23 4c3d e62a 86bd 82f3 923f
00000270: 764a 7c3f 30f4 a5bc b8ef ec3b 7928 823e
00000280: e745 40c0 d0dd 60c0 50b3 133e 3fe0 c23e
00000290: 1930 ac3e a96e be3f 83ca 7640 b054 6c3e
000002a0: aa5e 0a3e d837 6e3e 6b0c 69c0 f070 3bc0
000002b0: 6293 88be da04 913c 5489 063e 8404 dc3e
000002c0: c8fe df3e 2083 da3e 8410 06be 12b0 79be
000002d0: c5a5 a3be 4b67 83be b3b7 b7be fe63 03be
000002e0: 8cdb 063e f724 ad3f 9204 533e 38e7 35be
000002f0: 919a 743e 0f6f 6dbe e685 1dbe ff21 433f
00000300: 38d0 323e d833 29be eb26 de3e 7dc6 3a40
00000310: 474d 6440 eab8 49be 6837 66bb 4dad 853e
00000320: a788 02bf 009b 0ebf 30ea 513d 4e93 693e
00000330: 2a68 f93d f320 a4bf 26e8 05c0 2a3f 0dbe
00000340: b18c 15bd 73cf 9f3e b4d0 323e d66b b7be
00000350: a1aa d3be d467 0abe b5a1 aebe 3019 bcbf
00000360: 2d6e 63c0 e859 c83d 7e9f a03e f9b1 3b3e
00000370: 5935 20bf 166e 79bf 80bf 73bc 2086 7e3e
00000380: 71b5 6b3e f2ac 24c0 f2b6 49c0 0080 b4ba
00000390: 925d 8e3d d96c fe3d f807 943f 7050 bf3f
000003a0: 7e56 aa3e c231 853e 3e49 9d3c 8860 85be
000003b0: ac2f 943e dae6 3cbe 18e6 09be 2942 5dbe
000003c0: c058 753c 2068 b63e e0ff 9dbe 806f 33be
000003d0: 909f c83c 9463 0f3e a248 d0be e06f 2a3e
000003e0: 9186 c8be fc39 27be a166 7ebf 4718 233e
000003f0: 10fb c13d be2a 413d 3c24 36bc cf1d eebe

fc1.bias f4 [256]
-0.04928346 0.1254353 0.3450485 0.41640463 -0.19427373 -0.08035486 0.33162323 -0.30857462
-0.49835935 -0.1444219 -0.15701276 0.13073619 -0.45441604 -0.22806346 -0.3565108 -0.474903
0.3041539 0.098176755 -0.17951548 -0.27333933 -0.3652597 -0.19891 0.22773722 0.034022164
0.09767077 0.13771212 0.061390996 0.12772651 -0.06466682 0.10045475 -0.39561638 -0.031711947
0.2530312 -0.43576163 0.36006707 -0.31030247 0.28604454 -0.3456138 -0.25851366 0.31492165
-0.36352995 0.40740746 -0.28643453 -0.04379734 -0.34907386 -0.20138185 0.14461054 -0.044847995
0.39284188 0.3996194 -0.49278912 0.1556497 0.042279523 -0.38014323 -0.45784813 -0.2956294
-0.42527866 0.016906697 -0.21544851 -0.24391487 -0.16849145 -0.38299075 -0.13997318 -0.21752587
0.09609225 -0.15128592 -0.09115667 0.27984118 -0.1877567 0.24653794 -0.07246415 0.25473017
-0.23574503 -0.14361684 -0.39186832 0.28081432 -0.51456594 0.38772184 -0.31856662 0.0808199
0.119809836 -0.30354565 -0.15997437 0.5867478 0.19953409 -0.26171935 0.1094836 -0.28057235
0.35760662 0.105734766 -0.24315245 -0.4589413 -0.4772722 0.48103765 -0.020021837 0.14381218
-0.24561079 -0.14540169 0.3441275 0.05583205 -0.46276742 0.03644785 -0.44480342 0.07729772
-0.16641347 -0.24224511 -0.23904742 0.22683264 -0.5059465 0.30832273 -0.4656609 -0.3405846
-0.40420815 -0.048185945 -0.21825148 -0.060959067 0.034833055 0.30122697 -0.21028762 0.35788298
0.20289373 -0.51077384 0.38045424 -0.21303838 -0.15739429 0.00036886788 0.40611845 0.1346454
0.3244314 -0.033885807 -0.2745616 -0.32538247 0.16397393 -0.30418894 -0.26366696 -0.5243335
-0.28500617 -0.5684798 -0.22421311 0.16503969 -0.3265982 -0.121282846 -0.3716532 -0.0379017
-0.15611741 -0.16940267 -0.3466848 -0.40953383 0.39101943 0.17232662 0.007822535 -0.10504588
-0.2943444 -0.19236764 -0.039815422 -0.35821724 0.3372674 -0.42066994 -0.0018171396 -0.19008105
0.14249356 0.25626603 0.071633406 0.29966253 0.27403072 0.044426274 -0.21634746 0.034201708
0.3304531 0.16027482 0.3493169 0.1495384 0.41881 -0.35339448 -0.5358691 -0.27000958
-0.204118 -0.08151256 -0.07273671 -0.31517914 0.3907299 -0.37916464 0.20157273 0.008539388
0.20184313 0.18140465 0.077892445 -0.21790433 0.39442065 -0.3101029 -0.19733885 -0.031597015
-0.29149333 0.26148868 -0.098968536 0.33924267 -0.40308505 -0.3022157 -0.08673337 0.2617663
0.05498077 0.19111496 -0.43568078 -0.25864047 -0.44826475 0.38722306 -0.14591828 -0.23810612
-0.06619131 -0.30863807 -0.39099687 -0.11920006 -0.06222126 0.26183128 0.2667976 -0.4420703
0.28688923 -0.4151527 -0.19929044 -0.12112948 0.3201138 0.0994179 0.4066701 0.2547911
0.16259384 -0.31527737 0.14615822 -0.5146593 0.38203654 0.30422494 -0.43158656 -0.5033617
-0.1025964 0.4100374 0.14740103 0.42428857 -0.22181344 -0.38155356 -0.5481769 0.30695647
-0.2900519 0.34832078 -0.38613322 0.14764723 -0.21645369 0.07289568 -0.002915814 0.18199152
-0.105213225 -0.35695612 0.2368807 -0.33064425 0.2393527 0.29036874 0.20811081 -0.13322917
00000000: 74dd 49bd 1c72 003e 32aa b03e fd32 d53e
00000010: b1ef 46be 1791 a4bd 85ca a93e 7efd 9dbe
00000020: f528 ffbe 56e3 13be f4c7 20be b5df 053e
00000030: 38a9 e8be 7889 69be 9588 b6be 7c26 f3be
00000040: 0fba 9b3e e510 c93d e8d2 37be 22f3 8bbe
00000050: 5203 bbbe 10af 4bbe f233 693e d35a 0b3d
00000060: 9d07 c83d 6804 0d3e 2075 7b3d bdca 023e
00000070: 0a70 84bd 38bb cd3d 3b8e cabe 63e4 01bd
00000080: 4e8d 813e 261c dfbe b65a b83e f7df 9ebe
00000090: 6e74 923e 4bf4 b0be e75b 84be 693d a13e
000000a0: 9920 babe b697 d03e 8ca7 92be d764 33bd
000000b0: cfb9 b2be 0b37 4ebe c914 143e 88b2 37bd
000000c0: 9222 c93e ea9a cc3e db4e fcbe a362 1f3e
000000d0: 4b2d 2d3d 22a2 c2be 126b eabe bd5c 97be
000000e0: 20be d9be ea7f 8a3c 899e 5cbe d2c4 79be
000000f0: 0689 2cbe 5d17 c4be 2155 0fbe 1abf 5ebe
00000100: 03cc c43d b2ea 1abe 59b0 babd 5847 8f3e
00000110: 4b43 40be 7174 7c3e 1668 94bd fe6b 823e
00000120: 2567 71be 4b10 13be f7a2 c8be e5c6 8f3e
00000130: 98ba 03bf 7a83 c63e 2a1b a3be e784 a53d
00000140: dc5e f53d 566a 9bbe 52d0 23be 1b35 163f
00000150: aa52 4c3e 1400 86be f038 e03d 2ea7 8fbe
00000160: 3718 b73e 788b d83d f5fc 78be 5bfa eabe
00000170: 065d f4be 914a f63e d604 a4bc 8043 133e
00000180: 6581 7bbe 2ee4 14be 7b31 b03e 26b0 643d
00000190: daef ecbe 574a 153d 46bd e3be 444e 9e3d
000001a0: 4b68 2abe 1a0f 78be d9c8 74be d146 683e
000001b0: b685 01bf 7adc 9d3e 1b6b eebe 1b61 aebe
000001c0: 5ff4 cebe a05e 45bd 517d 5fbe 37b0 79bd
000001d0: 1bad 0e3d 6c3a 9a3e a355 57be 703c b73e
000001e0: 60c3 4f3e 13c2 02bf e6ca c23e bc26 5abe
000001f0: f82b 21be 9c64 c139 c2ee cf3e 7ce0 093e
00000200: df1b a63e d8cb 0abd 5793 8cbe 8898 a6be
00000210: c8e8 273e a7be 9bbe 5bff 86be b83a 06bf
00000220: 54ec 91be e487 11bf 1f98 65be 2a00 293e
00000230: e137 a7be 2463 f8bd 5449 bebe d03e 1bbd
00000240: 3edd 1fbe e577 2dbe ac80 b1be 6bae d1be
00000250: b333 c83e 6476 303e 172a 003c 4b22 d7bd
00000260: 4fb4 96be 06fc 44be 7f15 23bd 4068 b7be
00000270: 50ae ac3e 0d62 d7be 162d eeba 9ba4 42be
00000280: d5e9 113e 4d35 833e 89b4 923d 5e6d 993e
00000290: c14d 8c3e 53f8 353d 308a 5dbe 1717 0c3d
000002a0: 2631 a93e 151f 243e aad9 b23e 9820 193e
000002b0: 446e d63e 1ff0 b4be b82e 09bf b23e 8abe
000002c0: 4f04 51be 0ff0 a6bd fcf6 94bd 295f a1be
000002d0: c00d c83e de21 c2be 1569 4e3e cae8 0b3c
000002e0: f7af 4e3e 24c2 393e 1386 9f3d 5022 5fbe
000002f0: 81f1 c93e cfc5 9ebe 3213 4abe df6b 01bd
00000300: 9d3e 95be d8e1 853e 04b0 cabd 37b1 ad3e
00000310: 2a61 cebe 04bc 9abe 44a1 b1bd 3c06 863e
00000320: 8433 613d a4b3 433e 8d11 dfbe 866c 84be
00000330: f582 e5be 1a42 c63e 9a6b 15be 17d2 73be
00000340: 4f8f 87bd cf05 9ebe be30 c8be 291f f4bd
00000350: b8db 7ebd c00e 863e b299 883e 0a57 e2be
00000360: 25e3 923e e58e d4be cb12 4cbe bc12 f8bd
00000370: f5e5 a33e 9d9b cb3d 1037 d03e fb73 823e
00000380: 007f 263e 096c a1be 80aa 153e b6c0 03bf
00000390: 4b9a c33e 5fc3 9b3e eaf8 dcbe 50dc 00bf
000003a0: 101e d2bd 6cf0 d13e 4cf0 163e 5a3c d93e
000003b0: 1023 63be fd5a c3be 5255 0cbf 6629 9d3e
000003c0: af81 94be 1a57 b23e 41b3 c5be d630 173e
000003d0: 09a6 5dbe 554a 953d 3e17 3fbb fc5b 3a3e
000003e0: 087a d7bd f4c2 b6be db90 723e 344a a9be
000003f0: e018 753e 36ab 943e 001b 553e 3a6d 08be

fc2.weight f4 [256, 256]
0.027501073 0.010946421 0.012775569 -0.032919105 -0.03350855 0.014369466 -0.06654987 0.044400103
0.025084253 -0.013576452 0.09201815 -0.010943756 -0.001549895 0.017699962 0.05101324 -0.030915648
-0.04697298 -0.02687978 -0.049330942 0.026997142 0.03395622 -0.02984336 0.03656541 0.0122794565
-0.016429095 -0.06545904 0.0008340478 -0.21411626 -0.032732982 0.021080047 0.001240676 -0.06992873
-0.0013672785 0.021923224 -0.07145822 -0.009724788 -0.037075464 -0.067519866 0.017283734 0.0048522814
-0.05727392 -0.027941711 -0.030781128 0.017447194 0.013170727 0.016228277 0.03142376 0.05613239
-0.0066039413 -0.019831926 -0.049779344 -0.033376638 0.03132096 -0.006772175 -0.059873648 -0.010055095
0.0004193355 -0.027860055 -0.0025660396 -0.048992753 -0.019216448 0.02035436 -0.060977675 0.013474233
-0.07949477 -0.015955776 -0.05733577 0.028513603 -0.066083595 -0.04596994 0.03414883 0.005954489
0.010308929 0.026372839 -0.02630438 -0.0050316676 0.0077641313 0.06248326 -0.003913744 -0.029066363
-0.07101835 -0.033895798 0.036978357 -0.015397204 -0.059185524 -0.01647907 -0.041172475 -0.035300158
0.012121205 -0.076353215 0.05550529 -0.06586736 -0.09660803 -0.020663606 -0.009440853 0.0052975416
0.05504191 0.035947934 0.049175676 0.03335897 -0.26095366 -0.04490793 -0.007832959 -0.0009990584
-0.032389507 -0.01898899 0.013755993 0.0018754953 -0.036368877 -0.06946155 0.045426752 -0.049602672
-0.007887538 0.048597142 -0.09570719 0.006302683 0.01582906 0.02005139 -0.017239394 -0.011423528
0.04154834 -0.027997242 -0.006701097 -0.023756914 0.03033512 0.028616419 0.025754495 0.042258628
0.011786918 0.0097261965 0.029433204 0.025481438 -0.01251291 -0.04141549 0.00440691 0.008300847
-0.024766028 -0.053561788 -0.02256492 -0.04487073 0.03213397 -0.033873532 0.017560259 -0.015106298
-0.039874412 -0.05473801 0.022623561 -0.0059117675 -0.02941278 0.060425937 -0.018334614 0.026598088
0.019940203 -0.046848867 -0.023874799 0.031089472 0.023927659 -0.062970385 -0.08052822 -0.066106364
0.015624629 -0.022095136 -0.015448979 -0.030390292 -0.034059323 -0.010883182 0.059764132 -0.040621836
-0.0073546693 -0.053043004 -0.06059003 -0.05592546 0.032382235 0.05929415 -0.002324836 -0.044821866
-0.0010200888 0.03732717 0.0054817786 -0.08026306 0.029817574 0.0601144 0.04464003 0.0050828224
0.020742292 -0.031887107 -0.0054762415 -0.034319755 -0.04938685 -0.018634481 -0.049907297 -0.01007728
-0.05153143 -0.032340974 -0.024704859 -0.023786938 -0.011962243 -0.043817706 -0.005824581 0.013683326
-0.011675421 0.024744138 -0.03688725 -0.00036681202 0.025298793 0.010456215 0.045827486 0.026554337
-0.046514302 0.003405489 0.0613285 -0.0017599103 -0.0023453534 0.037019104 0.034731194 0.0060206633
-0.018154545 -0.044743508 0.024445992 0.010615736 -0.02878121 0.058053553 -0.0593696 0.031818233
-0.05376197 0.041238263 -0.0057971925 -0.053809907 -0.037270322 0.027325958 -0.06105326 0.011011324
-0.03156031 0.0045639523 0.05025801 0.044394143 0.0040493878 0.03075388 0.03187736 0.043275557
0.026541984 0.055190787 0.016197119 -0.0031634604 -0.035949193 0.03808875 0.005597969 -0.038328767
0.023884967 0.066722 -0.075352795 -0.08023555 0.062370054 -0.05051442 0.059965797 -0.014108576
00000000: ee49 e13c 9e58 333c 9f50 513c 2fd6 06bd
00000010: 4340 09bd e96d 6b3c 4c4b 88bd e2dc 353d
00000020: 7e7d cd3c c46f 5ebc 0374 bc3d 714d 33bc
00000030: d925 cbba 83ff 903c 42f3 503d d042 fdbc
00000040: bd66 40bd fc32 dcbc 3e0f 4abd 1c29 dd3c
00000050: ad15 0b3d 107a f4bc 9dc5 153d c62f 493c
00000060: 4f96 86bc 640f 86bd 00a4 5a3a 4b41 5bbe
00000070: 0513 06bd 10b0 ac3c 2e9e a23a cb36 8fbd
00000080: 4136 b3ba 5598 b33c b058 92bd b854 1fbc
00000090: 71dc 17bd db47 8abd 9e96 8d3c e3ff 9e3b
000000a0: 0f98 6abd 04e6 e4bc b428 fcbc 6bed 8e3c
000000b0: 08ca 573c 2af1 843c 33b6 003d 14eb 653d
000000c0: e065 d8bb 9076 a2bc 6de5 4bbd f1b5 08bd
000000d0: 684a 003d 1fe9 ddbb 123e 75bd 20be 24bc
000000e0: 42da db39 c53a e4bc 002b 28bb a0ac 48bd
000000f0: d06b 9dbc 30be a63c bac3 79bd 08c3 5c3c
00000100: 27ce a2bd b0b5 82bc ead8 6abd 5c95 e93c
00000110: d656 87bd fa4a 3cbd a5df 0b3d e01d c33b
00000120: c8e6 283c da0b d83c 487c d7bc b0e0 a4bb
00000130: 416a fe3b 72ee 7f3d dd3e 80bb 951c eebc
00000140: 1272 91bd 52d6 0abd 9e76 173d 8e44 7cbc
00000150: 856c 72bd 1dff 86bc 78a4 28bd e696 10bd
00000160: 0598 463c 135f 9cbd 8459 633d 77e5 86bd
00000170: 6eda c5bd b946 a9bc cfad 1abc 0097 ad3b
00000180: a073 613d 243e 133d 6f6c 493d 6aa3 083d
00000190: b89b 85be 61f1 37bd d055 00bc d6f2 82ba
000001a0: dcaa 04bd cc8e 9bbc d160 613c 2ed3 f53a
000001b0: 88f7 14bd db41 8ebd 6711 3a3d 2c2c 4bbd
000001c0: bb3a 01bc cc0d 473d 2202 c4bd bd86 ce3b
000001d0: f2ab 813c d042 a43c a139 8dbc c029 3bbc
000001e0: 982e 2a3d 795a e5bc e094 dbbb dc9d c2bc
000001f0: 5c81 f83c fb6c ea3c 17fb d23c 6217 2d3d
00000200: eb1d 413c a05a 1f3c e71d f13c 73be d03c
00000210: f302 4dbc 4aa3 29bd d767 903b 4700 083c
00000220: 20e2 cabc 9b63 5bbd 11da b8bc 5fca 37bd
00000230: e99e 033d f9be 0abd 88da 8f3c 6880 77bc
00000240: 5a53 23bd f734 60bd 0c55 b93c 80b7 c1bb
00000250: 12f3 f0bc 3081 773d 7932 96bc 3ce4 d93c
00000260: a359 a33c 99e4 3fbd 1595 c3bc 59af fe3c
00000270: f003 c43c 9ef6 80bd fbeb a4bd c662 87bd
00000280: 72fe 7f3c dc00 b5bc b71d 7dbc 10f5 f8bc
00000290: ca81 0bbd 604f 32bc 3ccb 743d 1563 26bd
000002a0: 70ff f0bb 9f43 59bd 402d 78bd 1812 65bd
000002b0: 3ca3 043d 6cde 723d 475c 18bb 2297 37bd
000002c0: 80b4 85ba 60e4 183d 7ea0 b33b f660 a4bd
000002d0: fc43 f43c 843a 763d 77d8 363d ce8d a63b
000002e0: bdeb a93c 0e9c 02bd 0b72 b3bb df92 0cbd
000002f0: de49 4abd 57a7 98bc 986b 4cbd 2d1b 25bc
00000300: 9f12 53bd f877 04bd d861 cabc d3dc c2bc
00000310: 49fd 43bc 327a 33bd 20dc bebb 0730 603c
00000320: 444a 3fbc 38b4 ca3c 1617 17bd ad50 c0b9
00000330: 6a3f cf3c 8b50 2b3c 9ab5 3b3d 7b88 d93c
00000340: c885 3ebd a02e 5f3b 9833 7b3d caac e6ba
00000350: 80b4 19bb 58a1 173d 4c42 0e3d fc48 c53b
00000360: d7b8 94bc f844 37bd f642 c83c a0ed 2d3c
00000370: 92c6 ebbc 90c9 6d3d 8a2d 73bd d653 023d
00000380: 8335 5cbd 74e9 283d 60f6 bdbb c767 5cbd
00000390: c4a8 18bd b0da df3c fc12 7abd d768 343c
000003a0: 6245 01bd 358d 953b 58db 4d3d a2d6 353d
000003b0: bab0 843b 90ef fb3c d691 023d b641 313d
000003c0: 936e d93c bc0f 623d d2af 843c 0f52 4fbb
000003d0: 763f 13bd f302 1c3d 2b6f b73b a0fe 1cbd
000003e0: 68aa c33c 8ba5 883d 9152 9abd 8952 a4bd
000003f0: be77 7f3d 35e8 4ebd b29e 753d a827 67bc

fc2.bias f4 [256]
-0.012433773 -0.025456242 -0.049684525 -0.023581894 0.013826816 -0.0045395344 -0.03581669 -0.023057185
-0.029271599 0.039977543 -0.015196203 -0.016637921 -0.010313063 -0.004080963 0.0036971169 -0.021403061
0.01138518 -0.009892255 0.006900496 -0.056543477 -0.058395423 0.028146975 -0.009901404 0.0216255
-0.06217965 -0.058242332 -0.056366492 0.041263282 -0.006947433 0.034193546 0.014650279 0.04075732
0.042475007 0.03176686 -0.004244974 -0.022841996 -0.0021865126 0.01810041 -0.05147642 -0.0012385224
0.032095112 -0.015101753 -0.038130753 0.025638424 0.006044604 0.032392964 -0.027627133 0.028108194
-0.073327005 0.011667712 0.024369607 0.05021061 0.03226301 -0.07195901 0.03657398 0.0034838426
-0.02788923 -0.06219408 -0.010631252 0.037570685 0.04361835 -0.0071156304 0.050741687 -0.06721937
-0.01872729 0.030720739 0.040928997 0.042623565 0.056673788 -0.005630706 0.0386885 -0.00044360012
-0.04357661 0.053620312 -0.043970913 0.025008447 0.036302418 -0.055629373 -0.039063998 -0.045631714
-0.03883439 -0.01845184 -0.008561695 -0.03241322 0.007510995 0.045456227 -0.037000038 -0.036021557
-0.015477237 -0.01531726 0.0059206183 0.0028180259 0.033932455 -0.025366582 -0.043216065 -0.044506002
0.0040699635 -0.029770462 0.045663606 -0.0073943343 -0.066066936 -0.001683823 -0.045700803 0.023771577
-0.009817515 -0.0123673035 -0.015713401 0.035084955 0.03539946 0.044285048 0.02024646 0.02058044
-0.006860733 -0.0069478992 0.047173835 -0.02361288 -0.00291574 -0.028828839 -0.046534345 0.0045595355
-0.009148926 -0.035147507 -0.03892047 -0.05760425 -0.055913385 0.026361391 -0.005621891 -0.022926599
0.013853684 0.016850661 0.04994324 -0.062273767 0.055057265 0.0020954236 -0.029306015 -0.0153230345
-0.06743704 0.015695257 0.009245776 -0.056326017 0.04012333 -0.009819217 -0.049179614 -0.015891068
-0.011157066 -0.059646733 0.019833092 0.016285228 0.0060813585 -0.047038574 -0.013278218 -0.032406535
0.0064151795 -0.022812935 0.05407554 -0.028283611 -0.043649428 -0.04583236 -0.04112654 -0.053055696
-0.045077052 -0.01662976 -0.033320066 0.0280971 -0.024770591 0.011289584 0.015792076 -0.03254144
0.023337603 -0.062497858 -0.0028266478 0.028855642 0.03187181 0.029238708 0.0426191 0.041582447
0.0020582564 0.039132837 0.038034547 -0.027036207 -0.0030023307 -0.07146221 -0.03353628 -0.028878888
-0.063124426 0.04495719 0.019793049 0.05050674 -0.008173779 -0.015227721 0.029347315 -0.0024271384
-0.002780448 0.0059524234 -0.022048049 -0.053631496 -0.008321375 -0.02183625 -0.067784 0.014570957
-0.00072412344 0.010863448 0.01750798 0.008154062 -0.043753795 -0.012759317 -0.040466517 -0.039301068
-0.03353228 -0.0070061153 -0.032446124 -0.05421997 0.051974 0.04833579 0.030142874 -0.06715865
-0.028099604 -0.05833227 -0.02970299 -0.051048394 0.055738635 -0.004037099 -0.0017927542 -0.027416361
-0.013712841 -0.019954203 -0.041648004 -0.03963223 0.052511256 0.049770936 -0.017566107 -0.030541787
0.011413352 -0.0072960714 -0.04238588 -0.04293916 -0.06502626 0.011347823 -0.02863186 -0.07102605
-0.02098621 -0.017131498 -0.030415738 0.04036549 -0.05339164 0.040425874 -0.003636323 0.019363783
-0.06635081 0.003604602 -0.031993784 -0.021791022 -0.014976533 0.047888435 -0.043985255 -0.03212144
00000000: 06b7 4bbc 9c89 d0bc 0082 4bbd d12e c1bc
00000010: df89 623c 60c0 94bb 86b4 12bd 6ce2 bcbc
00000020: feca efbc 7ebf 233d 7ff9 78bc 404c 88bc
00000030: 1ff8 28bc 99b9 85bb 544b 723b 7955 afbc
00000040: e888 3a3c 2013 22bc 8e1d e23b 229a 67bd
00000050: 0a30 6fbd 7c94 e63c 8039 22bc f627 b13c
00000060: 17b0 7ebd 838f 6ebd 8de0 66bd b003 293d
00000070: 4ba7 e3bb 880e 0c3d b907 703c 26f1 263d
00000080: 46fa 2d3d f81d 023d 6c19 8bbb 231f bbbc
00000090: 984b 0fbb 5047 943c f0d8 52bd ea55 a2ba
000000a0: 2a76 033d 586d 77bc fe2e 1cbd ac07 d23c
000000b0: d011 c63b 7cae 043d 4c52 e2bc 2843 e63c
000000c0: 782c 96bd ee29 3f3c c5a2 c73c a4a9 4d3d
000000d0: 3826 043d 3f5f 93bd 99ce 153d 2e51 643b
000000e0: f477 e4bc 38bf 7ebd b42e 2ebc b8e3 193d
000000f0: 28a9 323d 3c2a e9bb 84d6 4f3d 4faa 89bd
00000100: f969 99bc 0faa fb3c 2aa5 273d 0c96 2e3d
00000110: c622 683d c981 b8bb d577 1e3d 0093 e8b9
00000120: 637d 32bd f9a0 5b3d d81a 34bd 84de cc3c
00000130: d8b1 143d a0db 63bd 9201 20bd 52e8 3abd
00000140: cf10 1fbd 5028 97bc 5a46 0cbc b9c3 04bd
00000150: cb1e f63b 4f30 3a3d 5a8d 17bd 578b 13bd
00000160: 3d94 7dbc 3ff5 7abc bf01 c23b a1ae 383b
00000170: c2fc 0a3d 94cd cfbc 5403 31bd ed4b 36bd
00000180: 545d 853b 2fe1 f3bc c309 3b3d 2c4c f2bb
00000190: 1a4e 87bd b9b3 dcba c430 3bbd 9cbc c23c
000001a0: a4d9 20bc 3ba0 4abc 64b9 80bc 3eb5 0f3d
000001b0: 06ff 103d 3d64 353d e7db a53c 5098 a83c
000001c0: 00d0 e0bb 34ab e3bb 5a39 413d cc6f c1bc
000001d0: 0016 3fbb 752a ecbc cc9a 3ebd 2868 953b
000001e0: 60e5 15bc d5f6 0fbd 126b 1fbd 6ff2 6bbd
000001f0: 6f05 65bd d8f3 d73c d737 b8bb 90d0 bbbc
00000200: 90fa 623c 660a 8a3c 4891 4c3d c712 7fbd
00000210: ba83 613d 6053 093b 2b13 f0bc 770d 7bbc
00000220: 6e1c 8abd 5793 803c 987b 173c 1cb6 66bd
00000230: 5c58 243d c8e0 20bc 9070 49bd fc2d 82bc
00000240: 20cc 36bc 2250 74bd 0279 a23c 9968 853c
00000250: 2246 c73b 85ab 40bd e28c 59bc b7bc 04bd
00000260: 6d36 d23b 31e2 babc 507e 5d3d 08b3 e7bc
00000270: bec9 32bd b6ba 3bbd 4e74 28bd ee50 59bd
00000280: b7a2 38bd 223b 88bc 9f7a 08bd e42b e63c
00000290: b2eb cabc f3f7 383c 625e 813c 2c4a 05bd
000002a0: 802e bf3c c1fd 7fbd 483f 39bb ab62 ec3c
000002b0: 048c 023d 0486 ef3c 5e91 2e3d 5b52 2a3d
000002c0: d0e3 063b c149 203d 1dca 1b3d 097b ddbc
000002d0: c0c2 44bb c75a 92bd 575d 09bd 6b93 ecbc
000002e0: 6147 81bd 0825 383d 0825 a23c 28e0 4e3d
000002f0: 50eb 05bc b17d 79bc c869 f03c a010 1fbb
00000300: 2d38 36bb 8c0c c33b 1c9e b4bc b3ac 5bbd
00000310: 6056 08bc efe1 b2bc 56d2 8abd 06bb 6e3c
00000320: 1ad3 3dba 9afc 313c e56c 8f3c 9d98 053c
00000330: 2e37 33bd 740c 51bc 38c0 25bd 28fa 20bd
00000340: 2559 09bd 8e93 e5bb 3ae6 04bd c215 5ebd
00000350: b0e2 543d c0fb 453d 30ee f63c 798a 89bd
00000360: 2431 e6bc d1ed 6ebd af53 f3bc 1f18 51bd
00000370: 324e 643d a449 84bb d9fa eaba 4798 e0bc
00000380: d3ab 60bc ff76 a3bc 1997 2abd 6855 22bd
00000390: 0b16 573d 9cdc 4b3d cce6 8fbc c532 fabc
000003a0: 11ff 3a3c e213 efbb d19c 2dbd f9e0 2fbd
000003b0: 7d2c 85bd 38ec 393c 5d8d eabc 1b76 91bd
000003c0: 46eb abbc 5b57 8cbc 6d2a f9bc 4956 253d
000003d0: 31b1 5abd 9a95 253d 604f 6ebb cca0 9e3c
000003e0: efe2 87bd 303b 6c3b ea0b 03bd 1683 b2bc
000003f0: 2260 75bc aa26 443d e229 34bd c591 03bd

V.weight f4 [1, 256]
-0.025983838 0.022514636 0.031853944 0.010409641 -0.010324627 -0.025600985 -0.03734155 0.036813974
-0.02989184 0.011353061 -0.030409748 0.046267472 -0.02641509 -0.05159543 -0.021775099 0.022045357
-0.022082783 -0.034857526 -0.009914656 0.048849702 0.017015554 0.003911214 -0.028875954 -0.012930046
-0.0062514576 0.035419196 0.03853421 -0.024872683 0.0023422376 -0.03576334 -0.014316733 0.045445394
0.019505888 0.05722163 0.0141962 -0.023311133 -0.043177404 0.026641328 -0.0050365105 -0.03539292
-0.06112542 0.0040499284 0.05001699 0.051419824 -0.005058959 -0.014259052 0.036210954 -0.05838981
0.011140969 0.0016916813 0.12795168 0.046918124 0.003554263 -0.009058914 0.0016041942 0.01243732
0.047903337 -0.041292593 -0.005690786 -0.017772675 0.040459953 0.039683983 -0.03717672 -0.012077536
-0.016855694 -0.003408661 -0.002440296 -0.03544654 -0.022535466 -0.0045771436 0.04993559 -0.038937263
0.0055838996 -0.003551974 -0.0040656207 0.045898564 0.00012245029 -0.041247353 -0.03776154 -0.035262354
-0.014301041 -0.033965066 -0.037583478 -0.050479773 -0.055784263 -0.014237465 0.0007507056 -0.03398966
-0.02179606 -0.030251594 -0.014744229 0.02484908 -0.029365964 -0.015892558 -0.045909308 0.026969908
-0.004161932 -7.298083e-05 -0.0042370586 0.03078284 -0.017103834 0.004700035 -0.033240378 0.004584749
0.029089307 0.0018162611 -0.019644052 -0.012419595 0.044200704 0.020976802 -0.026585966 0.008920516
0.0313925 -0.031655654 0.050604887 0.0170635 0.0052862167 -0.01581096 0.020076305 -0.04566493
0.029588073 -0.0006469473 0.008257492 0.0029096305 -0.00024062942 -0.056209385 -0.015309438 -0.049314253
-0.007131369 -0.008027462 -0.0011182848 -0.0040563582 -0.012155056 -0.014812373 -0.0005677051 -0.010188628
-0.032365352 -0.048057094 -0.030618083 -0.019255895 0.0044087544 0.055701084 -0.00408313 -0.04973498
0.038728632 0.039232187 -0.030956484 -0.026007473 -0.017275652 -0.03556331 -0.011302055 -0.0011062679
-0.021477608 0.012639803 -0.0550846 0.0013724882 -0.031262368 0.005504296 0.01733394 -0.004716007
-0.0064603444 0.046455402 0.035123516 -0.018938722 0.005111762 -0.0010415023 0.027329994 -0.00200746
-0.000348113 0.007973469 -0.012426188 0.0008598221 0.0071514165 0.0024578439 0.025463268 -0.027023008
-0.0074909558 -0.06816401 0.009673247 -0.07292547 0.009725578 -0.017230382 -0.021233583 -0.021602878
0.0004366605 0.006215695 -0.023898035 0.029829986 0.036551006 0.023894945 -0.0038364902 0.0026004836
-0.020131554 0.029278353 -0.0015269358 -0.026501928 0.052342013 0.046972018 0.009706208 0.011194234
-0.00446278 -0.02088474 0.013329726 0.034021184 -0.020550529 -0.0022958913 -0.0040631443 0.009326488
-0.004989778 -0.031006835 -0.031603463 0.008317679 0.037323825 -0.0093872575 -0.013642572 0.009529984
0.005744517 0.007319946 -0.008834289 -0.02244016 -0.0023125187 -0.04903435 0.040385056 0.05165061
0.0018463031 -0.021018887 -0.0340617 -0.008322952 -0.05114847 0.0066959155 -0.025597416 -0.028236894
-0.004713806 -0.011922973 -0.008127583 0.0070750015 0.026435172 -0.0574423 -0.040468168 0.0059582004
0.019688236 0.05409945 -0.043851357 0.0032936663 -0.0050238613 -0.017334938 0.0572732 0.051379815
-0.0055947946 -0.0027965342 0.022419797 -0.008642133 -0.013285294 -0.030178986 -0.005376708 -0.0043924563
00000000: 0fdc d4bc 9d70 b83c 4879 023d 338d 2a3c
00000010: a028 29bc 28b9 d1bc 74f3 18bd 40ca 163d
00000020: bbdf f4bc 3002 3a3c dd1d f9bc f682 3d3d
00000030: 7564 d8bc bb55 53bd b161 b2bc 7798 b43c
00000040: f4e6 b4bc c4c6 0ebd 1571 22bc a016 483d
00000050: 3464 8b3c a429 803b 448d ecbc 8bd8 53bc
00000060: 07d9 ccbb b813 113d 0cd6 1d3d ccc1 cbbc
00000070: 3a80 193b 947c 12bd bb90 6abc f324 3a3d
00000080: d0ca 9f3c 3a61 6a3d 2e97 683c fdf6 bebc
00000090: cada 30bd ea3e da3c 5009 a5bb 2bf8 10bd
000000a0: a65e 7abd 43b5 843b 9ede 4c3d 989d 523d
000000b0: a0c5 a5bb cd9e 69bc f051 143d 272a 6fbd
000000c0: 9c88 363c 68bb dd3a c405 033e 382d 403d
000000d0: a3ee 683b d76b 14bc d343 d23a e7c5 4b3c
000000e0: 4a36 443d 6c22 29bd c679 babb 0098 91bc
000000f0: 56b9 253d ac8b 223d 9e46 18bd dce0 45bc
00000100: f414 8abc d863 5fbb 60ed 1fbb 6430 11bd
00000110: 4c9c b8bc ddfb 95bb 4389 4c3d ae7c 1fbd
00000120: 25f9 b63b 3cc8 68bb e638 85bb 2200 3c3d
00000130: 0066 0039 fcf2 28bd d8ab 1abd 426f 10bd
00000140: ea4e 6abc f41e 0bbd 22f1 19bd e1c3 4ebd
00000150: 0a7e 64bd 4244 69bc 00cb 443a be38 0bbd
00000160: a78d b2bc 31d2 f7bc c791 71bc 4c90 cb3c
00000170: e490 f0bc 1c31 82bc 660b 3cbd ffef dc3c
00000180: d160 88bb 490d 99b8 06d7 8abb 4b2c fc3c
00000190: 571d 8cbc c002 9a3b 1027 08bd aa3b 963b
000001a0: b34c ee3c 9c0f ee3a 90ec a0bc 8f7b 4bbc
000001b0: cc0b 353d 8bd7 ab3c d0ca d9bc 5b27 123c
000001c0: 6c95 003d 5ca9 01bd 1247 4f3d c1c8 8b3c
000001d0: 0038 ad3b fd85 81bc 1077 a43c 260b 3bbd
000001e0: b062 f23c e697 29ba 6f4a 073c 80af 3e3b
000001f0: 7851 7cb9 d03b 66bd 70d4 7abc befd 49bd
00000200: 42ae e9bb 9e85 03bc 6993 92ba 33eb 84bb
00000210: 0026 47bc 98af 72bc 0bd2 14ba 34ee 26bc
00000220: 8891 04bd 84d7 44bd c6d2 fabc 8abe 9dbc
00000230: 5077 903b d226 643d c7cb 85bb e8b6 4bbd
00000240: eaa1 1e3d eeb1 203d 7498 fdbc a00d d5bc
00000250: ab85 8dbc d5aa 11bd 412c 39bc 3100 91ba
00000260: cff1 afbc 2d17 4f3c 64a0 61bd 10e5 b33a
00000270: f80c 00bd 625d b43b e8ff 8d3c bc88 9abb
00000280: 4cb1 d3bb 0548 3e3d addd 0f3d 6125 9bbc
00000290: 9180 a73b 0583 88ba 27e3 df3c 978f 03bb
000002a0: f082 b6b9 27a3 023c 3697 4bbc af65 613a
000002b0: 6e56 ea3b c713 213b 5898 d03c 5b5f ddbc
000002c0: b176 f5bb 9399 8bbd 8a7c 1e3c f359 95bd
000002d0: 0858 1f3c bb26 8dbc 0df2 adbc 85f8 b0bc
000002e0: 95ef e439 07ad cb3b d0c5 c3bc 045e f43c
000002f0: 82b6 153d 55bf c33c a06d 7bbb e06c 2a3b
00000300: eeea a4bc 28d9 ef3c 7723 c8ba 921a d9bc
00000310: 9464 563d bb65 403d c906 1f3c 0568 373c
00000320: 833c 92bb 7916 abbc ec64 5a3c cc59 0b3d
00000330: 9559 a8bc aa76 16bb 2024 85bb 20ce 183c
00000340: 4b81 a3bb 0c02 febc a272 01bd e046 083c
00000350: dee0 183d 03cd 19bc 1885 5fbc a623 1c3c
00000360: 803c bc3b 28dc ef3b b2bd 10bc 6dd4 b7bc
00000370: a08d 17bb 3ed8 48bd cd6a 253d 978f 533d
00000380: a7ff f13a cd2f acbc 4884 0bbd fe5c 08bc
00000390: 0f81 51bd 6969 db3b acb1 d1bc 0f51 e7bc
000003a0: 4576 9abb 9358 43bc 8e29 05bc 6ad5 e73b
000003b0: 938e d83c 9e48 6bbd f3c1 25bd 023d c33b
000003c0: 3949 a13c 6397 5d3d 7b9d 33bd 8dda 573b
000003d0: 349f a4bb 0002 8ebc 4e97 6a3d a473 523d
000003e0: 8a54 b7bb 0f46 37bb b9a9 b73c bc97 0dbc
000003f0: 90aa 59bc ec39 f7bc 192f b0bb 98ee 8fbb

A.weight f4 [6, 256]
-0.025207063 0.03516514 -0.031015031 0.07317898 0.041786678 -0.017011233 -0.037522107 -0.0099457055
0.0010309614 -0.02769202 -0.07064775 -0.022339769 0.025550727 0.030299569 -0.023602888 0.030964047
-0.011130646 0.003472127 0.023858229 -0.022431977 0.021109514 0.022579838 -0.031139024 -0.046076946
-0.04847964 0.060335707 -0.0059504937 0.006945625 0.007574284 0.051633947 -0.006889264 0.033925507
0.027903803 -0.044495538 0.02097406 -0.0023235125 0.00036239377 0.050615236 -0.017606251 0.03738567
-0.05432269 0.02022257 0.006216889 0.018085718 0.031998493 -0.026374465 -0.008172005 -0.107293084
-0.01937057 0.022055184 0.2249899 -0.0432565 -0.060284898 -0.015347179 -0.012276931 0.009130001
0.042219512 -0.0013709962 -0.033542875 -0.004306525 -0.008279957 0.060386352 0.018350422 0.010268298
-0.010101813 -0.009535728 -0.015405841 0.05495414 0.030113973 -0.015249798 -0.050670937 0.0068390816
-0.015017367 0.03416512 0.022784084 0.03651 0.023628794 -0.018273689 0.03925257 0.055017292
-0.034808315 -0.031154439 -0.00044385486 -0.045250464 0.034337897 -0.02280109 -0.020497374 0.044280514
-0.0073327115 -0.035687223 0.0032587925 0.03038427 0.04207047 0.048685066 -0.058148384 0.022662358
0.00017141207 0.022708097 0.0009420695 0.07168737 0.032541756 0.041298706 0.02158776 -0.040174134
0.023375273 -0.00584818 -0.0006952815 0.017072266 0.029314637 0.039231308 0.010709211 0.009712665
-0.021560699 0.03103032 0.020588122 -0.037458904 0.030808866 -0.0015472067 -0.019797198 -0.03660601
0.051221706 -0.017560545 0.022236079 -0.0041671814 0.029510535 0.024146743 0.036248967 0.032010414
0.006611964 -0.0030687416 -0.027638432 -0.008226519 0.029826708 -0.016211271 0.009685785 0.051957306
-0.017487798 0.002785353 0.039772324 -0.020795042 0.010469057 -0.0019080415 -0.015271134 -0.0028600395
-0.04113614 0.01165425 0.03212028 -0.05061097 -0.038729284 0.0016768905 -0.039995782 -0.03724624
0.054015037 -0.00895862 0.049188778 0.0009628449 -0.026382305 -0.0056832125 -0.029646136 0.004440043
-0.0039221207 0.04150324 0.020645056 -0.013905924 0.024928994 0.018916348 -0.0537346 0.018122805
-0.042264823 0.021994516 -0.03188742 0.033715695 0.021493543 -0.0009308368 -0.041179582 0.008185112
-0.00486134 -0.036853675 0.045573987 -0.13453609 0.014665715 -0.031121137 0.0071610045 0.045355543
0.024179855 0.02665854 0.028309904 0.012069702 -0.029800616 0.024401573 0.035651907 -0.0149113685
0.02312028 -0.012480344 -0.010596207 -0.038085148 0.052580893 0.06144953 -0.022021519 -0.015450793
-0.011060038 -0.040823445 0.02171258 -0.027844628 -0.06429575 -0.014337172 0.04184845 -0.06039691
-0.015288012 0.009235248 0.022744806 -0.022265807 0.042676136 0.03135685 0.0467475 -0.0128504215
-0.006332308 0.017115606 -0.041036468 0.06529531 -0.013767727 0.02651236 0.05266799 0.046892595
-0.026046434 -0.038821127 0.037658848 -0.04491754 0.042075593 0.0090197185 -0.036975335 -0.055860672
-0.004035601 -0.027698824 -0.007255139 0.0028799844 0.04385764 -0.040018693 -0.11746441 -0.011720363
0.04553903 -0.048101354 0.040846307 0.022343196 0.056031253 0.052618146 0.029687889 0.03306275
0.015868086 -0.009865291 0.04212123 -0.041068494 -0.03553995 -0.050813667 0.057618357 -0.013145348
00000000: 0b7f cebc 5209 103d 3c13 febc dcde 953d
00000010: 8228 2b3d 245b 8bbc c8b0 19bd 50f3 22bc
00000020: 5321 873a 60da e2bc c4af 90bd e401 b7bc
00000030: c24f d13c cd36 f83c d85a c1bc 50a8 fd3c
00000040: 505d 36bc a08c 633b 5572 c33c 44c3 b7bc
00000050: dced ac3c 5af9 b83c 4417 ffbc 2ebb 3cbd
00000060: 9692 46bd 9322 773d 5cfc c2bb 2098 e33b
00000070: b331 f83b 1e7e 533d 56bf e1bb 79f5 0a3d
00000080: 8496 e43c f440 36bd cbd1 ab3c 1246 18bb
00000090: abff bd39 ec51 4f3d fc3a 90bc b721 193d
000000a0: 7881 5ebd cea9 a53c 0bb7 cb3b 8028 943c
000000b0: da10 033d 430f d8bc e0e3 05bc 7abc dbbd
000000c0: 08af 9ebc 13ad b43c c163 663e ba2d 31bd
000000d0: 4ced 76bd bc72 7bbc 2e25 49bc 0096 153c
000000e0: 5eee 2c3d 00b3 b3ba 4164 09bd c01d 8dbb
000000f0: a8a8 07bc ae57 773d a053 963c 5d3c 283c
00000100: 1382 25bc be3b 1cbc c868 7cbc 9817 613d
00000110: 94b1 f63c 4ada 79bc 548c 4fbd 601a e03b
00000120: 670b 76bc baf0 0b3d b0a5 ba3c 828b 153d
00000130: 2c91 c13c b4b2 95bc 4ec7 203d d059 613d
00000140: 2a93 0ebd 9837 ffbc 31b5 e8b9 8d58 39bd
00000150: e5a5 0c3d 5ac9 babc 1cea a7bc 7c5f 353d
00000160: 3e47 f0bb c42c 12bd 7791 553b 6fe8 f83c
00000170: 1652 2c3d fe69 473d 002d 6ebd 69a6 b93c
00000180: 14bd 3339 5506 ba3c 37f5 763a d4d0 923d
00000190: 814a 053d d528 293d d0d8 b03c a28d 24bd
000001a0: 807d bf3c 17a2 bfbb 8d43 36ba 23db 8b3c
000001b0: 4025 f03c 02b1 203d b075 2f3c df21 1f3c
000001c0: 10a0 b0bc 4c33 fe3c 6ca8 a83c 826e 19bd
000001d0: e062 fc3c a4cb caba bc2d a2bc 2ff0 15bd
000001e0: dacd 513d 22db 8fbc 7028 b63c da8c 88bb
000001f0: 14c0 f13c 64cf c53c cc79 143d 5a1d 033d
00000200: 2da9 d83b f11c 49bb fe69 e2bc 86c8 06bc
00000210: 2457 f43c 80cd 84bc 20b1 1e3c 2fd1 543d
00000220: 9242 8fbc 788a 363b 4ee8 223d 5d5a aabc
00000230: 6886 2b3c 4017 faba c733 7abc 806f 3bbb
00000240: 5e7e 28bd 78f1 3e3c 8e90 033d 734d 4fbd
00000250: 99a2 1ebd 1ccb db3a 9ed2 23bd 838f 18bd
00000260: df3e 5d3d 2dc7 12bc 2c7a 493d 6d67 7c3a
00000270: b41f d8bc 3e3a babb 74dc f2bc c87d 913b
00000280: 2285 80bb 4dff 293d d21f a93c acd5 63bc
00000290: e437 cc3c 75f6 9a3c d018 5cbd 4776 943c
000002a0: e11d 2dbd d82d b43c 629c 02bd 7819 0a3d
000002b0: 3a13 b03c 6603 74ba ecab 28bd d91a 063c
000002c0: e04b 9fbb e1f3 16bd caab 3a3d d4c3 09be
000002d0: 7848 703c c1f1 febc dca6 ea3b bcc6 393d
000002e0: d514 c63c 0363 da3c 2cea e73c 00c0 453c
000002f0: 6c20 f4bc cfe5 c73c bc07 123d d04e 74bc
00000300: be66 bd3c 5b7a 4cbc b79b 2dbc 2cff 1bbd
00000310: 105f 573d 81b2 7b3d 7966 b4bc 5325 7dbc
00000320: 2935 35bc 7c36 27bd 95de b13c 6b1a e4bc
00000330: 7dad 83bd 75e6 6abc 4869 2b3d c062 77bd
00000340: 927a 7abc 704f 173c 5153 ba3c c866 b6bc
00000350: 2ccd 2e3d 0a70 003d 4e7a 3f3d 938a 52bc
00000360: 407f cfbb 0736 8c3c db15 28bd 8cb9 853d
00000370: 0892 61bc 7330 d93c 64ba 573d 7312 403d
00000380: 555f d5bc e702 1fbd 2a40 1a3d 74fb 37bd
00000390: 7557 2c3d 71c7 133c 7373 17bd 29ce 64bd
000003a0: 133d 84bb a5e8 e2bc 84bc edbb 1fbe 3c3b
000003b0: 12a4 333d a4ea 23bd 2e91 f0bd c406 40bc
000003c0: 2287 3a3d ed05 45bd 754e 273d 1409 b73c
000003d0: 0781 653d 2086 573d 0434 f33c ce6c 073d
000003e0: cafd 813c 08a2 21bc 5087 2c3d 7037 28bd
000003f0: 5792 11bd fe21 50bd 3a01 6c3d 965f 57bc

A.bias f4 [6]
0.02301093 0.023043407 0.0221546 0.022139255 0.022886062 0.022471657
00000000: 6b81 bc3c 87c5 bc3c 907d b53c 625d b53c
00000010: 8d7b bb3c 7b16 b83c
