cool/checkpoints/D3QN/Q_eval/D3QN_q_eval_1800.pth (torch, 278863 bytes, 7 tensors)

fc1.weight f4 [256, 5]
00000000: 8a09 ddbe 21cc 92be 254e 60be 276d 2c3d
00000010: 754c bc3e 5267 21be fcdc a93e 6040 a93e
00000020: 1844 33be 9085 963d b982 b6be 8448 7d3e
00000030: 2889 40be 7c16 aebd aacc 913e 8698 0fbe
00000040: e0f5 eebd d06c 463d 6071 23be 6807 013d
00000050: 04e9 833e cf10 aabe 3815 4b3e c1e5 85be
00000060: 8c19 853e 7945 1ebd aabe 15be 8e43 763e
00000070: 7bf0 f93d 1cf1 763e 0071 233e b056 9c3e
00000080: 00e8 f53c 3c29 ddbd 18fd 8dbe 1c32 9c3e
00000090: 2ba9 be3d 91fd 4fbe b06e 933e 3461 013e
000000a0: 908b 42bd 14ed 793e 4460 c5bd b28a 14be
000000b0: 0054 9fbc b43b a6bd fe6d ab3e a2bc 8f3e
000000c0: f0ea e8bd c8df 06bd 4dca e4be 327f d4be
000000d0: a69b d03e cf20 dbbe 61ac bfbe 8b45 c33e
000000e0: 031d f2be 8bba a63e 91db 9f3e 240b 24be
000000f0: b955 50be 2196 f1be 1dcf 443e 2c47 c93d
00000100: df2b 61bd 7e46 01be d6ce a23e 3497 a03e
00000110: 7eab 3fbe de9f 19be 9bb3 b43e 5a9b 273e
00000120: 3f79 53be d5f3 0f3e 15bc a5be 905f ac3c
00000130: 33b3 cabe 037b 9e3e fef5 2cbc a0bb 073e
00000140: 3a7c 5dbe 4c2e d8be 9e09 c93e a060 5cbc
00000150: e00d ae3c 2aa1 cfbe 18f0 83be 3e51 79be
00000160: b1fa bd3e 2e8f 01bd 8063 97be 9ab5 503e
00000170: c7e7 d53b 9ed8 c63e e123 0ebe d009 92be
00000180: 1e43 47be 37f7 45bd 2df6 343e a2d7 95bd
00000190: 3e56 b33e 54f9 003e 747b 193e efd9 92be
000001a0: 96e1 92be 2457 6fbe 06eb ad3e 6020 6c3e
000001b0: 3efe 82be 03a4 aebe 048c cb3e a8f4 d7bd
000001c0: b0ac a13e e8a6 79bd e25e 973e 26ab 34be
000001d0: 2455 c43e 00e6 873b ed9f b7be fc24 a7be
000001e0: 7b67 d3be 64ae 8abe 932c c8be 2076 073e
000001f0: ce2c ce3e 2b77 6f3e 695d bc3e ae16 283e
00000200: 6a61 523d 68a4 d73d cab4 3fbe 402f fd3c
00000210: c83f 9b3d 22af 62be 905a 983e cce0 633e
00000220: ab2e bebe e2df 6abe bbbb 73be e0d1 ac3d
00000230: 26c7 bbbe a0d0 cd3d d4cb 1dbe b2fa 19be
00000240: 188d dc3d f886 003d ef00 6bbe 54b0 bb3e
00000250: a838 74be 381c fcbd c716 a43e d7c3 2e3e
00000260: 24cc 1a3c 2088 bc3e 9507 90be 3c78 a73e
00000270: bce4 2b3e 4847 453d 8b92 6bbe 4acd b13e
00000280: b445 dc3e bfa7 2e3e 1704 c73e 0601 ce3e
00000290: f0d4 eebe 372b afbd e21d f5be 67b0 7f3e
000002a0: 250e d93e 603d 1ebc 90cf 21bd a413 d0bd
000002b0: c4d3 db3e 0068 59bc fcdd c1be 9aa7 e03e
000002c0: 2ee5 17be b07b cf3e 1a77 39be 945a d8be
000002d0: d0bb 783d 2874 9c3d 305b 2ebe ba37 90be
000002e0: 744e 343e c66e aa3e e051 f63d 8878 91be
000002f0: 38c3 9fbe 5ad4 893e d3bf c3be 92f9 55be
00000300: a882 063e e96b 233e 0477 733d a1d6 3d3e
00000310: 734e 873e 562e 86be 0123 cb3e c4a7 d8be
00000320: ee31 9dbe 1841 2dbd c042 cbbb c639 84be
00000330: c092 853c 04d7 bf3e 0028 6a3c 2063 ecbd
00000340: dbfb afbe a103 b1be 5e21 393e f1ff 87be
00000350: ebd9 c13e 0cf3 9c3d eb69 643e 0dc7 9cbe
00000360: c0b2 9f3d dce7 9b3e d94f e0be c837 1d3d
00000370: 34e2 003e 3401 8bbe 6837 c93e d4c4 08be
00000380: 4056 473e 850f ca3e 4b38 53bd 549b e8bd
00000390: b253 ca3e 68eb 91be 50c0 5f3d 066a 3bbe
000003a0: 08c1 6fbe 30bf bbbd 4843 a5be 8c00 3ebe
000003b0: 5f5f d3be d8dd 8c3e 93ce bdbe fa79 e1be
000003c0: 866b 13be 75f1 2c3e 4b52 ca3e c8c2 4a3e
000003d0: 946d 7f3e 36e6 c63e a578 b2be 5236 3b3e
000003e0: a0b5 423e f651 b23e 4252 bdbe 202e 39be
000003f0: 30e1 3fbe d42f b8bd e092 7dbc 00d0 58ba
-0.4317134 -0.28671363 -0.2190481 0.042096283 0.36777082 -0.1576207 0.3317641 0.33056927
-0.17506444 0.07349694 -0.35646608 0.24734694 -0.18802321 -0.08500382 0.2847646 -0.14023027
-0.11667991 0.048443615 -0.15961218 0.031501204 0.25763714 -0.3321595 0.19832313 -0.2615185
0.25996053 -0.038640473 -0.14623514 0.24049208 0.12204071 0.24115413 0.15961075 0.30534887
0.030017853 -0.107988805 -0.27732158 0.3050698 0.0930961 -0.20311572 0.28795385 0.12634736
-0.04749638 0.24406844 -0.09637502 -0.14506033 -0.019449234 -0.08116856 0.33482355 0.28073603
-0.11372936 -0.03292826 -0.44685593 -0.41503292 0.4074375 -0.42798468 -0.37436202 0.38138995
-0.4728776 0.32564196 0.31222203 -0.16019875 -0.203452 -0.47184852 0.19219632 0.09828028
-0.05497348 -0.12624547 0.31798428 0.3136536 -0.18717763 -0.1500239 0.35293278 0.16367856
-0.2065172 0.14057858 -0.32370058 0.021041662 -0.39589843 0.30953225 -0.010556696 0.13255167
-0.2162942 -0.42222822 0.3926515 -0.013450772 0.02124685 -0.40552646 -0.25769114 -0.24347398
0.37105325 -0.031630687 -0.295681 0.20381775 0.006527874 0.3883714 -0.13880874 -0.2852311
-0.19459197 -0.048331466 0.17672034 -0.07316519 0.35026735 0.12595111 0.149885 -0.28681895
-0.28687733 -0.23373085 0.3396837 0.23059225 -0.25584596 -0.34109506 0.3975526 -0.10544711
0.31577063 -0.06095019 0.29564577 -0.17643413 0.38346207 0.004147291 -0.358642 -0.32645404
-0.41289887 -0.27086174 -0.39096507 0.13228655 0.40268558 0.23385303 0.36790016 0.16414902
0.051362433 0.10529405 -0.1872131 0.03090632 0.07580525 -0.2213712 0.29756594 0.22253722
-0.3714498 -0.22936967 -0.23802082 0.08438468 -0.36675376 0.10049558 -0.15409786 -0.15037039
0.10769099 0.031378716 -0.22949575 0.36657965 -0.23849738 -0.1231007 0.32048628 0.17066894
0.009448085 0.36822605 -0.28130785 0.3270892 0.16786474 0.048163682 -0.2300512 0.34726936
0.4302193 0.17056178 0.38870308 0.40235156 -0.46646833 -0.085531645 -0.4787436 0.24969636
0.42393604 -0.009658188 -0.039504588 -0.10159996 0.42935002 -0.013269424 -0.37864673 0.4387787
-0.14833519 0.40524054 -0.1811184 -0.42256606 0.060725987 0.076393425 -0.17026973 -0.28167516
0.17608052 0.33287638 0.12027335 -0.2841227 -0.31203628 0.26919824 -0.38232288 -0.20895985
0.13135779 0.15959133 0.059439674 0.18538906 0.2642704 -0.26207227 0.39675143 -0.42315495
-0.30702156 -0.042298406 -0.0062030256 -0.25825328 0.016305327 0.3746873 0.014291763 -0.11542344
-0.34371838 -0.3457308 0.18079135 -0.26562455 0.3786157 0.07663545 0.2230603 -0.30620614
0.07797766 0.30450332 -0.4381092 0.038383275 0.1258629 -0.27149355 0.39300084 -0.13356334
0.19466496 0.39464965 -0.051567357 -0.113577515 0.3951698 -0.28499913 0.054626763 -0.18302163
-0.2341348 -0.091673255 -0.32277894 -0.18554896 -0.412837 0.27513003 -0.37071666 -0.44038373
-0.14396486 0.16888984 0.3951591 0.19800866 0.24944144 0.38847512 -0.3485767 0.1828244
0.19014597 0.34828156 -0.3697682 -0.18084002 -0.18738246 -0.089934975 -0.015476912 -0.00082707405

fc1.bias f4 [256]
00000000: a5a4 2e3e c0e3 743d d017 653e 0087 a13a
00000010: 2026 d7bc 7b15 553e 1567 55be 2824 91be
00000020: 780e 48be c006 dd3d b875 c03e 2094 9abd
00000030: 3a1b b03e 8bcc c5be 6d30 99be b06a 373e
00000040: a085 37bd f24b bd3e 263f 133e 1484 183d
00000050: 7c08 073e 1c62 9dbe a820 a5be 3713 d8be
00000060: a5f1 e03c 1ba4 aebe 40fe ccbd d463 823e
00000070: 034c d9be 9ccc 9e3e fcc6 a13e 60c7 873e
00000080: 9d0a cdbe d3f7 98be e82b 83be e0f1 c4bd
00000090: 1c64 4e3e 04e7 dbbd c0f6 6cbe 6ad4 b53d
000000a0: 3e7a e33e 3e38 d13e 6fbb e03e 446e 793e
000000b0: d8ed 063e 2abd 8fbd da49 0dbe a201 98be
000000c0: ddce d33e 35b9 b4be f40d 97be c4b8 ecbd
000000d0: fe5a 983e 2815 953e 142a 98be a051 033e
000000e0: f030 b33e 3c79 973e 1add c7be 7cd0 e1be
000000f0: 6c19 35be dbad fe3d f023 e93d ec98 19be
00000100: 0bb8 b4be 14d3 d0bd 2641 6abd 47ee 943e
00000110: 61e8 c2be 4ad8 bf3e 20b8 c83e 2410 d93e
00000120: d38f c8be 0c17 10be 6e71 2c3e 4d6d ab3e
00000130: 7313 fdbd d44f 7b3e d6c9 8ebe 0284 1f3e
00000140: 3ffa babe 82fc d43e 7c52 603e 6ccd 163e
00000150: e621 b5be ba18 843e d9e3 adbd 581b 653e
00000160: 7a6c 8cbe d161 54be 5732 b13d 70a1 c4bc
00000170: 8855 d33d 22b6 89be c198 76be e096 593e
00000180: d023 b33d 60e8 cebe dad3 7c3e 4c1f 273e
00000190: 56b2 18be e096 b6bc 77ee 223e b000 96bd
000001a0: 5380 293d bc0d 483e 9742 9c3e 4465 1e3e
000001b0: 6886 6a3e cf4b 063e 7a4b 17be 0cf6 e5bd
000001c0: 49a9 fc3c a0eb c73e ccee 1c3e d7d3 303e
000001d0: c6c6 d93d bc72 d5bd 8f57 86be 055c 943e
000001e0: e646 be3e 28ee d43d 40e8 843d b85e fa3d
000001f0: fe10 bebe b8bd d63d fc19 d13e c08a 2fbc
00000200: 72da cf3c 9607 72be 70c5 a7bd 1067 803e
00000210: 6e2f c73e 1c00 823e 48ff 70be 5c15 a6be
00000220: 30a3 7c3e b020 63bd e2fd c63e 2ccf ca3e
00000230: 62a8 c6be 5117 4dbe 76c5 133e c4d9 5a3e
00000240: 8497 323e cc64 9cbd 80ee c7be b2fc b7be
00000250: a80b 9cbd 7174 b83d e812 4a3e a80b 28bd
00000260: 2c4b 5c3e e0b1 0a3c a371 533e b551 ccbe
00000270: 3d9f be3e 6185 663c a4d2 b03e 38aa 523d
00000280: cb71 b23e 4d6e a03b f8ec 363e 86d6 0cbe
00000290: 6d25 93be 1a62 b1be dfa2 a9be a0ed 1e3e
000002a0: b068 81bc e6a9 5abe f9ee 953e 72f0 aabe
000002b0: b010 0e3e cb44 50be 8298 a23e d7c1 a8bc
000002c0: 829c 1b3e ecfa a03e 36af a2be d305 a7be
000002d0: 0dd0 c4be a8b9 cd3d c2dc 8ebe 967d a93e
000002e0: ac4c 543e c08c dd3c c099 af3e f486 74be
000002f0: 184e 5f3e 4863 8a3d 5003 f73d b875 de3d
00000300: f01c 863c f8a7 c23d 0447 6f3e 88af 093e
00000310: 7064 313e 2d4a 103e f591 bcbe 98dd b5bd
00000320: c550 a4be f917 62be 848b 7d3e 623d c13e
00000330: 20b2 c3bc 0512 6abe 8465 0e3e 2839 903d
00000340: d11e 2b3e ceb1 cb3d 5de9 1a3e 1138 3d3e
00000350: 50bc 5c3d c86a 8b3e 4537 a2be 27ca d13e
00000360: 9400 a53e 3611 3abe 2059 d93e 8829 683e
00000370: 6829 9e3e 40a9 693d 82c2 71bd b247 42be
00000380: db0b c6be 4f01 90be 04f7 eebd d02b c2be
00000390: 273a 5d3e 705b cb3c 116b adbe 90c2 a9bc
000003a0: e85c 043e 7cce af3e 40e3 85bc e3fe da3e
000003b0: 0601 2abe 9442 de3e 5368 7abe fb14 2e3e
000003c0: 7264 13be 6815 d5be 3248 59be 06d3 a93e
000003d0: cfa7 3dbe 8458 ab3e 293c 79be a82f e3bd
000003e0: 7e1b 02be dbd2 c53e 7b82 873e 40dc d8bb
000003f0: 6478 a0bd c5f5 1d3e e90e c6be 280d 833d
0.17054994 0.05978751 0.22372365 0.0012323558 -0.026263297 0.20808975 -0.20840104 -0.28347898
-0.1953677 0.10792303 0.37589812 -0.07547784 0.34395772 -0.38632616 -0.29919758 0.17911792
-0.04480517 0.36972004 0.14379558 0.037235335 0.1318683 -0.30738914 -0.32251477 -0.4220216
0.027458975 -0.34109578 -0.10009432 0.25466788 -0.42440805 0.3101548 0.31597126 0.265193
-0.4004716 -0.29876575 -0.25619435 -0.096164465 0.20155376 -0.10737422 -0.23141003 0.088784054
0.444292 0.40863222 0.43893 0.24358469 0.13176668 -0.07018502 -0.13797703 -0.29688746
0.41368762 -0.35297552 -0.29502833 -0.11558679 0.29756922 0.29117703 -0.29719603 0.12824106
0.34998274 0.29584682 -0.39035875 -0.44104373 -0.17685479 0.12435504 0.11383808 -0.14999741
-0.35296664 -0.1019651 -0.057191037 0.2908804 -0.38067916 0.37469703 0.39202976 0.42395127
-0.3917223 -0.14071292 0.16840145 0.33481827 -0.12357225 0.24542171 -0.27888364 0.155777
-0.36519048 0.41598898 0.21906465 0.147268 -0.35377425 0.25800115 -0.08490724 0.22373712
-0.2742651 -0.20740439 0.0865218 -0.02400276 0.10319048 -0.2689677 -0.24081708 0.2124896
0.08747065 -0.40411663 0.2469019 0.16320533 -0.1491178 -0.02228874 0.1591128 -0.0732435
0.041382145 0.19536489 0.30519554 0.15468317 0.22902834 0.13114856 -0.14774886 -0.1122857
0.03084244 0.39046955 0.15325469 0.1726831 0.10633616 -0.104222745 -0.26238677 0.28976455
0.37163466 0.10396987 0.06489611 0.122250974 -0.3712234 0.10485405 0.40840137 -0.010714233
0.025372718 -0.23635706 -0.08191955 0.2507863 0.38903373 0.25390708 -0.23534882 -0.3243817
0.24671626 -0.055451095 0.38865572 0.39611185 -0.3880034 -0.20028426 0.14430794 0.21372133
0.17440611 -0.07636413 -0.3904915 -0.3593498 -0.07619411 0.090065844 0.19733775 -0.04102674
0.21513051 0.00846526 0.20648818 -0.39906088 0.37230864 0.014069886 0.34535706 0.051431865
0.34852442 0.0048959614 0.17863834 -0.13753709 -0.2873949 -0.34645158 -0.33132073 0.15520334
-0.01579699 -0.21353874 0.29283884 -0.3338657 0.13873553 -0.20338742 0.3175698 -0.020600243
0.15196422 0.31441438 -0.317743 -0.3262163 -0.3843998 0.10045177 -0.279028 0.33103627
0.20732373 0.027044654 0.3429699 -0.23879606 0.21807134 0.06757218 0.12061179 0.10862297
0.01637122 0.09504694 0.23366934 0.13445866 0.1732347 0.14090796 -0.36830106 -0.08880156
-0.32092872 -0.22079457 0.24760252 0.37742144 -0.023888648 -0.22858436 0.13905913 0.07042152
0.16710974 0.09946023 0.15128084 0.18478419 0.053890526 0.27229905 -0.31682792 0.40974542
0.32227004 -0.18170628 0.4245081 0.22672093 0.30890965 0.057046175 -0.059023388 -0.18972662
-0.3868092 -0.28125998 -0.11668208 -0.3792405 0.21604215 0.024823874 -0.33870748 -0.020722657
0.12926066 0.34337223 -0.016343713 0.42772588 -0.16601953 0.4341017 -0.24453859 0.17000191
-0.14393786 -0.41617894 -0.21218947 0.3316881 -0.18521045 0.3346597 -0.24339356 -0.11093074
-0.127058 0.38637432 0.26466736 -0.0066180527 -0.07835463 0.15425785 -0.3868325 0.06398994

fc2.weight f4 [256, 256]
00000000: d96a 9f3b 4888 7d3d 7865 3ebd f00c 2ebd
00000010: 5005 ea3b 8617 5bbd 0483 e8bc 0b9b cf3c
00000020: 3a3c 18bd 7280 45bd c032 3c3b 36aa 31bd
00000030: 0287 713d 8865 52bd 385e 0c3d 4f9b 1d3c
00000040: a0ee eebb d536 e0bc f101 063d f302 69bd
00000050: 602e 53bb e2f8 2f3d a806 c8bc fcd6 b6bc
00000060: 89bc f83a 1705 69bd 024d 68bd f047 ecbb
00000070: 5009 83bb 08eb 9dbc ffd3 85bc e028 6a3d
00000080: 2368 f2bc aaf7 d6ba 2087 d2bc 1278 573d
00000090: 0c44 6d3d d821 88bc b3cc ca3c 6add 4bbc
000000a0: eacf 583d 7848 1dbc 976c 3f3d f877 bcbc
000000b0: 089e 94bc ced8 243c a4de 513d 2aaa 5fbd
000000c0: 5abb 76bc 85f1 653d 480e 61bd 6004 5c3b
000000d0: bcfa 783d c0a4 143c feae 4f3d 8c43 06bd
000000e0: 1957 083d dcac a9bc 2557 213d befe 0abd
000000f0: 03f8 5e3d 7b45 823c 0a1a 03bd e01a e83b
00000100: e234 50bd 747e 6dbd 7760 f53b f010 14bc
00000110: 3d46 75bb 0e5a 3dbc a4d7 b03c 7e13 533d
00000120: 00e3 903b d018 8a3c 30b2 533d d05a aebc
00000130: cbd8 69bd 805f fabc c0b7 bd3c b956 61bd
00000140: f2ee 403d b00c 0cbc 4b72 5f3d 98f3 b2bc
00000150: a6d3 49bd f8ee 843c b5dd 07bd a0ea e73b
00000160: cd20 e03c 7dfe 4e3c 7e21 80bd 588d 0d3c
00000170: a03e 47bc 9cec d7bc 7e51 4e3d ace4 ad3c
00000180: 401e e6ba 96fe 2d3d 0e9d 043d f42f 78bd
00000190: f898 1dbc 5037 63bd 1ea0 b93b 68ef 563d
000001a0: 729b 0abc 20f1 df3c d472 843c 683a 193d
000001b0: 5678 6bbd 4b5c 063d 666d 2cbd 2a79 25bd
000001c0: c493 1b3d 1072 65bc 3075 a5bc 5d5d 3b3d
000001d0: 0ef0 4e3c 326e 79bd a8f0 413d 537d 82ba
000001e0: c0aa c53b b55f f2bc a435 c53c 54c1 443d
000001f0: 5ca9 4d3d 5079 d73b e7df a23c 3c0f 8fbc
00000200: 29fe 58bd 3403 f9bc 023d 55bd 4248 62bd
00000210: 4054 bf3c 0cf9 d43c a8b2 0dbd 3ae0 2f3d
00000220: 0e10 133d f427 45bd c6da 103d 5059 803c
00000230: 5e14 413d 9ad4 9f3c 560d 9bbb d431 03bd
00000240: 6844 c9bc 6aad 383d 552d 3f3d 7c82 15bd
00000250: dca2 a3bc 9db9 853c bab2 303d d2c5 0ebd
00000260: 20dd 913b c8a0 573d 11b8 09bd a365 033d
00000270: 0b87 733b e896 84bc e089 1cbb 405b 59bb
00000280: 8188 d53c d30b 39bd 647f 7c3d cd72 a1bc
00000290: 3c0a bfbc e242 54bd d073 c63c e8a6 2cbc
000002a0: 5848 04bc 6305 adbc 6254 28bc f883 17bc
000002b0: fc34 a33c 5f21 bbbc 716d b4bc 2506 4b3d
000002c0: e48e 0f3d 3022 5f3c bd6d 333b 101b f9bc
000002d0: a3b8 693d a0df e43c ced9 323d 900a 363d
000002e0: 3a99 01bd 449b 613d e839 1a3c fb71 363d
000002f0: da09 0d3d d873 7b3c 5304 0f3d 805d 443a
00000300: 3cf8 973c c46d 8c3c 2cd7 bdbc aed7 4dbd
00000310: d8c5 97bc d7c6 853c dc7c 23bd 6832 d83c
00000320: 6fd3 ffbc d68e b03c 3c1b c13c 4209 0b3d
00000330: 4c58 e1bc 6803 64bc d0c1 a5bc 447f 2d3d
00000340: aecd 79bd 3fcf 503d 2aab 8f3c 1b49 ec3c
00000350: be53 4fbd 8406 a63c 4227 153d b685 2e3d
00000360: 3069 223d 27d9 4f3d 1c66 ad3c 7ca0 c8bc
00000370: b08e 293d ec44 60bd 76ee 253c 7c2c 16bd
00000380: f060 4abd fa21 b73c 987d 3b3d 48c2 023d
00000390: 6bf9 06bd 40bf 013b f350 573d 90eb babb
000003a0: 70a1 94bb dc82 aabc 5e06 17bd 7159 0dbd
000003b0: e98a 5d3d c66e 033d 200b b43c a685 0bbd
000003c0: 143c 443d eeee 75bd 943c 663c 8e2a 0fbd
000003d0: 215d 1bbc 603d 1dbc aa1f 08bd 7034 cbbc
000003e0: 5ca3 4c3d db78 2cbd 22ff 66bd f0c5 773c
000003f0: 9ab2 37bd 937c c8bc 94d1 193d 742e 22bd
0.004865032 0.061897546 -0.046483487 -0.042492807 0.0071417466 -0.05348923 -0.028382786 0.025342485
-0.03716681 -0.048218198 0.0028716773 -0.043375216 0.058966644 -0.05136636 0.03426954 0.009619548
-0.00729163 -0.027369896 0.032716695 -0.05688758 -0.0032223687 0.042961963 -0.024417236 -0.02231931
0.0018977086 -0.05688962 -0.056714065 -0.007210724 -0.003998913 -0.01927711 -0.01633644 0.057167888
-0.029590672 -0.0016400714 -0.025699198 0.052604742 0.057926223 -0.0166177 0.024755811 -0.012442926
0.052932657 -0.009599797 0.04673442 -0.023006424 -0.018141761 0.010061456 0.051237717 -0.05460564
-0.0150593165 0.056138534 -0.05494526 0.0033571944 0.060785994 0.009072483 0.050703995 -0.03277926
0.033286188 -0.020712309 0.039389748 -0.033934347 0.05443574 0.015902271 -0.032007255 0.007083282
-0.050831683 -0.057981923 0.007488306 -0.009037241 -0.0037425898 -0.011557115 0.0215872 0.05153226
0.0044215918 0.016857535 0.051683605 -0.021283537 -0.057091516 -0.030563116 0.023158908 -0.055014346
0.047102876 -0.008547947 0.054552358 -0.02184467 -0.04927411 0.01622723 -0.03317042 0.00707753
0.02735939 0.012633917 -0.06256388 0.008639656 -0.012160927 -0.026357941 0.050370686 0.021227203
-0.0017556623 0.04247912 0.03237634 -0.060592607 -0.00961899 -0.055472672 0.0056648394 0.05247441
-0.008459913 0.027336657 0.016168036 0.037409216 -0.05748781 0.03280286 -0.042096518 -0.040398754
0.037982717 -0.014004245 -0.02019748 0.045743335 0.012630476 -0.060896106 0.04734865 -0.0009955562
0.006032318 -0.029586652 0.02407343 0.048035935 0.05021034 0.006575741 0.019882156 -0.017463319
-0.05297676 -0.030397035 -0.052060135 -0.05524469 0.023355603 0.025997661 -0.034594208 0.04293845
0.035903983 -0.048133805 0.03536489 0.015667588 0.047138564 0.019510556 -0.0047318144 -0.03202994
-0.024568751 0.045087256 0.04667409 -0.036501393 -0.019975118 0.016323859 0.043139197 -0.034856625
0.004451409 0.052643567 -0.033622805 0.03207935 0.003715935 -0.016185239 -0.002388589 -0.0033165962
0.026066067 -0.045177292 0.061644927 -0.019708062 -0.02332031 -0.051821597 0.024225146 -0.01053784
-0.008073889 -0.021120733 -0.010274025 -0.009247772 0.019922726 -0.022843061 -0.022024842 0.049566407
0.03504838 0.013618991 0.0027378642 -0.030408412 0.05706085 0.027938664 0.043664746 0.044443667
-0.03164027 0.055079713 0.00941322 0.044542294 0.034433223 0.0153474435 0.034916233 0.0007490739
0.018550985 0.017142184 -0.023173891 -0.050254516 -0.018526956 0.016330166 -0.039913997 0.026391223
-0.03122875 0.021552484 0.023572557 0.033944376 -0.027507924 -0.013916828 -0.020234019 0.042357698
-0.060987167 0.050978895 0.017537672 0.028843453 -0.050616972 0.020266779 0.036414392 0.042607985
0.039651096 0.050744202 0.021166854 -0.024490587 0.041395843 -0.05475323 0.010127654 -0.036663517
-0.049408853 0.022355068 0.045774072 0.031923562 -0.032952707 0.0019797832 0.052567434 -0.005704351
-0.0045358464 -0.020814352 -0.036871307 -0.034509126 0.054087553 0.032088064 0.021977961 -0.034063004
0.047908857 -0.060042314 0.014052529 -0.034952693 -0.009482653 -0.0095971525 -0.033233322 -0.024805278
0.04996048 -0.042107444 -0.056395657 0.015122876 -0.044848062 -0.024473464 0.037553385 -0.039595082

fc2.bias f4 [256]
00000000: 30aa 27bd d1c1 4a3d d53a 5cbd 0cfa 8cbc
00000010: 8017 683b 06d1 27bd d03e 363c a7b5 79bc
00000020: 30fd 13bd e532 27bd 5cca c63c 7019 84bb
00000030: ea91 64bd 947c f93c 8e4d 7fbd b3ca e7bc
00000040: 76cd 6e3d 6017 60bc 5049 57bc cc85 52bd
00000050: d974 04bd 0498 19bd 4e84 7fbd 2001 5c3d
00000060: 80bf 303c d610 1e3d 10e7 72bc 169a 6d3c
00000070: 700b fcbc fadc 423d e65e 57bd e02f 41bc
00000080: 3e5e 7cbd 44b8 babc df4e 2d3d f00e 76bc
00000090: 842e 66bd 9b77 2a3d e44a 74bd 15ee 29bd
000000a0: db55 4fbd 0601 26ba fa8a 5fbd 97dc 613d
000000b0: ccd9 44bd 57c6 633d 205d 4b3c a45b 173d
000000c0: f05f e1bb c419 d9bc ad93 df3c 26ab ebbc
000000d0: 7ad6 56bd e6ac c03c f047 79bc c0d6 b03b
000000e0: d686 7bbd 4dd4 ebbb 7ccc 603d 0012 b93c
000000f0: b0d1 44bd a69e 23bd 3436 643d 781a 60bc
00000100: 4cc0 3c3d 02cd 5d3d ad5f 1dbd fccf 1a3d
00000110: c07f 26bb 168a 3d3d 513d 4c3d f6c1 4a3d
00000120: 1d6a 6a3d 2cf2 fc3c 5011 babc 1511 56bd
00000130: 86dc 7dbd 4e23 5a3d 8305 dd3c 8402 ea3c
00000140: 2c75 c1bc ec26 6abd 45c0 473c c6d7 453d
00000150: f8a9 793d a879 d8bc 983c 6dbc 5268 5c3d
00000160: 3aee e33c c867 103d 8e1f 633d 7c79 413d
00000170: d3bf e03c 8327 983c d3e4 51bd 8440 a2bc
00000180: d047 e53c 0018 a1b9 42df 3c3b daa2 30bd
00000190: 884c 833c 74e9 6dbd f03e ecbc 88fc 343c
000001a0: ea8a aebb cea8 503d 2a45 83bc 9f4d 083b
000001b0: a83a 533d b0f5 5e3d 04fd 3bbd 50c2 5b3d
000001c0: f2a5 6cbd 9954 303d 203c d3bb c830 3bbc
000001d0: 7851 c93c 04c5 643d ad92 02bd 39cc 263d
000001e0: 988c b0bc 1281 5cbd f050 6ebc a974 d73c
000001f0: 7404 2bbd 628a 7c3d 3794 62bc d97a 5abd
00000200: 165a 1e3d 7b74 83bd c873 2a3d e879 153c
00000210: 9aa7 3dbd 47fb d4bc d0dc 76bd 58ab 923c
00000220: 48cb 3bbd dc8e ca3c a8cf 4dbd abcf 0ebd
00000230: 3c78 3fbd c835 5dbc 21fa 0bbd b849 5abd
00000240: 9400 043d 0470 183d 9c62 94bc 2083 ffbc
00000250: c0bb 27bb 71a9 283d a0bf 43bd 58df 443d
00000260: 6c4d de3c cc64 43bd 5d43 35bc 823d c3bc
00000270: 8560 423d c98a f6bc de27 613d 0693 44bd
00000280: 148d 3abd 4059 f2ba d733 3bbd 7e80 003d
00000290: f614 193d 1e5a 6a3d 20c5 f73c cc92 23bd
000002a0: 969e 50bd bd39 2f3c 6e6e 5b3d 278d 0dbc
000002b0: 904c 35bd 30b5 b9bb 5440 f3bc c063 ab3b
000002c0: a878 063d d08c 703c 3e83 65bd bab2 f03c
000002d0: 0cc9 26bd c6d4 16bc bb2c 253d 991b 033d
000002e0: 44e9 01bd a71f 093d 1fcf 3abc 34d9 dc3c
000002f0: e97f 71bd 4a17 56bd 6c3a 7a3d 23b3 6cbd
00000300: cacd 34bd b61b 47bd 923c 493d 3a4b 15bd
00000310: bc4a 363d ab1c c13c 7056 703d b475 523d
00000320: e67e ab3c fc84 d93c 4fbd 1fbd 8aa3 953c
00000330: 2668 0cbd d23e 1ebd 750d 05bd 2e89 5cbd
00000340: eedb cebc 49ee 50bd 89cc 5cbd 28cd 1d3d
00000350: 5a6a 743b baed 3e3d 79a3 11bc f1aa 48bd
00000360: b062 733d a873 3cbd 9b89 1fbb 7046 7c3c
00000370: 606a 5dbc 2056 57bd 80d7 1fbd 78f3 31bc
00000380: 309e 99bb 5694 b73b eb43 d83c f4d4 c93c
00000390: 1b25 6c3c a0ca 253b 1661 673d a007 fa3c
000003a0: 9443 a23c aef0 b93b 5a82 78bd e0c6 35bb
000003b0: a08e 673d 80bb 2f3b ac63 d23c bcac 7c3d
000003c0: 4612 a43a 6290 4cbc 482a 453c 522b e83c
000003d0: 8704 c33c 00a2 403c 9c42 80bc d686 183d
000003e0: 453b 613d e453 34bd 9472 06bd aa44 2d3d
000003f0: a926 853c 8e37 3dbd e5db 073d d95c 09bd
-0.040933788 0.049501244 -0.053767044 -0.017209075 0.0035414398 -0.040970825 0.011123374 -0.015241063
-0.03613013 -0.04082002 0.024266414 -0.0040313527 -0.055803217 0.030454911 -0.06232982 -0.028294897
0.05830141 -0.013677448 -0.013140038 -0.05139713 -0.032337997 -0.03749849 -0.062382035 0.05371201
0.010787845 0.038590275 -0.014825597 0.014502069 -0.030767173 0.04757402 -0.052580737 -0.011791199
-0.061613314 -0.022792943 0.042311545 -0.01501821 -0.056196705 0.04161797 -0.059641734 -0.04148682
-0.050618988 -0.000633255 -0.054575898 0.05514201 -0.04805927 0.055609073 0.012412339 0.03695263
-0.0068778917 -0.026501544 0.027292097 -0.028768133 -0.052450635 0.023519944 -0.015214905 0.005396694
-0.061407886 -0.007196939 0.05488251 0.02259159 -0.048051536 -0.03994622 0.055715755 -0.013678186
0.046081826 0.05415059 -0.03842132 0.037796006 -0.0025405735 0.046274267 0.049863163 0.04950138
0.057230104 0.030877195 -0.022713333 -0.052262384 -0.061977886 0.053256325 0.026980167 0.028565653
-0.023615442 -0.057166025 0.012191837 0.04830148 0.06095311 -0.026425198 -0.014479779 0.053810425
0.027823556 0.035255224 0.055450015 0.047234997 0.027435219 0.018573528 -0.051243614 -0.019806154
0.027988344 -0.00030726194 0.0028819595 -0.043124057 0.016027704 -0.058083966 -0.028838605 0.011046536
-0.0053266184 0.050942235 -0.016024191 0.002079822 0.05156961 0.054433525 -0.04589559 0.053652108
-0.057775445 0.04304943 -0.0064463764 -0.011425205 0.02457498 0.05585195 -0.031878162 0.040722106
-0.021551415 -0.05383403 -0.014545664 0.026300745 -0.041752294 0.06165541 -0.0138292825 -0.053339813
0.03866013 -0.06418701 0.041614324 0.009123303 -0.046302415 -0.025998725 -0.060269177 0.017903969
-0.04584816 0.024726324 -0.050246865 -0.034866016 -0.046745524 -0.013501592 -0.03417409 -0.05329296
0.032227114 0.0372162 -0.018113427 -0.031190455 -0.0025594085 0.041177217 -0.04779017 0.04806456
0.027136527 -0.04770355 -0.011063424 -0.02383304 0.04745533 -0.030095475 0.05496966 -0.047991775
-0.0455447 -0.0018489733 -0.045703735 0.03137254 0.037373506 0.05721485 0.030245364 -0.03993492
-0.05093249 0.010694918 0.05357211 -0.00863961 -0.04426247 -0.005667351 -0.02969376 0.005230397
0.03282991 0.01468201 -0.056033365 0.029382098 -0.040719077 -0.009206003 0.04032586 0.03200874
-0.0317166 0.03347745 -0.011401921 0.02695904 -0.058959875 -0.052268304 0.06109087 -0.057788026
-0.04414157 -0.04861041 0.04913003 -0.036448695 0.044504866 0.02357324 0.058676183 0.05138178
0.020934533 0.02655267 -0.038998898 0.018266458 -0.03427901 -0.03863413 -0.032483537 -0.053841762
-0.025251355 -0.051008496 -0.053905997 0.03852573 0.0037294836 0.046613432 -0.008889073 -0.048991147
0.059420288 -0.046008736 -0.0024343494 0.015397653 -0.013514131 -0.05257237 -0.039023876 -0.01086127
-0.004688047 0.0056024 0.026399573 0.024637677 0.0144131435 0.0025297776 0.056489073 0.030521214
0.019807614 0.005674443 -0.060671188 -0.0027736947 0.056532502 0.002681464 0.025682293 0.06168817
0.0012517653 -0.012485595 0.012034006 0.02834097 0.02380587 0.011757374 -0.015656762 0.037237965
0.054988164 -0.044025317 -0.032824114 0.04230181 0.016253786 -0.04619556 0.033168692 -0.033535812

V.weight f4 [1, 256]
00000000: 5f0e 2fbd b2d1 d3bc 2d60 3fbd bcfb afbc
00000010: 58f0 03bd fa21 9e3c 289a 63bd a35e 4cbd
00000020: d2e2 56bd 0985 80ba 209b 7ebb 0be7 fb3b
00000030: 2ed6 3c3d 5c9e 963c 4050 b53a bb11 18bd
00000040: 184d c0bc 6ce0 2c3d f46d 873c a424 b93c
00000050: cdf2 dc3a 5eab 533d c021 7bbc 846f 223d
00000060: 58f3 233d ee00 333d e4a8 49bd 50a2 97bc
00000070: 9205 0e3d 3fea f43c d0d0 85bb 9458 313d
00000080: 8683 6e3d c0e6 3d3b 673c f53c f2f5 783d
00000090: 40e4 57bd f9b4 553c ea2a 073d d182 483d
000000a0: 5097 e73c 8f51 08bd 885e bc3c b7bc 02bd
000000b0: a061 653c 9831 28bd 8423 643d 8874 933c
000000c0: aad0 7f3d 080b 47bd efe6 093d 5345 213d
000000d0: 2b37 39bd e703 fb3c 42ec 5ebd 405c 5c3c
000000e0: 2c0c 58bd 1ceb 2ebc c090 8eba 80d7 be3b
000000f0: 55ab bdbc 387d e93c 3441 c7bc 1049 963b
00000100: 00a4 ee3b 907d d23c e6e4 ef3c 2c2a cc3c
00000110: 70c1 153d 39d4 db3c 019c 533c f440 a2bc
00000120: 2e02 4b3d b00e 643d c85a 3cbd a759 a23b
00000130: e63d 5abd 023e 083d 7fcc 06bd 601d 9bbb
00000140: 54ed cfbc 1d6c 46bd 0605 f1bb 265e 473d
00000150: 48c3 32bd f5f7 5b3b 44c9 393d c469 403d
00000160: 7cee 14bd 8544 393d 307f 18bd 1cf9 b8bc
00000170: 6c1e d2bc 5409 38bd 011e ffbb a21a 61bd
00000180: 151f 3abd e06d 723b 6e94 9c3c 509a 6b3d
00000190: b082 6bbc 9c0c eb3c 08a5 5b3d b089 aabb
000001a0: 203b c6bc 57ff 55bb 00f1 07bd 16d1 303d
000001b0: 2bc9 1cbd d874 ffbc 70e6 eebc 81fe 243d
000001c0: 00f6 203d 3344 d4bc 80b5 0a3a b84c 09bc
000001d0: 44ee b9bc fc64 a6bc bbc7 96bc c3f0 623d
000001e0: 9ccd bdbc 98d7 b1bc 7853 163c 9704 05bc
000001f0: 893b 073d e421 263d 2bd3 9a3c 0a8e 213d
00000200: 0014 9f38 26d8 543c 406b c6ba 70c6 573d
00000210: 2a3d 0e3d a502 9cbc 6922 b0bb 40cf 113d
00000220: b4aa 5f3d da71 433d 2a9d 1e3d ddc2 403d
00000230: 682a 543c 5053 d9bc 0669 423b a005 0dbc
00000240: 6ed1 3cbd fc70 96bc f40c bfbc 097c bb3b
00000250: 407f a53b d300 b83b c04b b3bb e44c 65bd
00000260: 20d4 3fbc f094 fa3b 7b71 dcbc f8ad 19bd
00000270: 4672 7f3c f8f6 31bc 0ccf 2f3d 220b 5d3d
00000280: 163f 3b3d 363a 4abd 5677 cd3b b449 17bd
00000290: 1844 483d ec2c f13c fa8b 5a3d 1890 6cbc
000002a0: 71f2 c9bc ca65 a2bc 765a 7a3d 9762 033c
000002b0: a07d c0bc 186d 52bc 64ac b9bc 8229 393d
000002c0: 2deb 1739 dc9e 38bd 487e c33c 6a8e f23c
000002d0: b61c 003c 10df bebc 36f1 7d3c 3ccd ddbc
000002e0: 7abd 763d ae2e 503c 3396 613d 54dc c63c
000002f0: 396e d93c b201 73bd 0002 9939 2ba6 b5bc
00000300: 2809 68bd a13d 09bc 9e3b 32bd 0044 2b3a
00000310: 36ef 59bd c839 cc3b 118f 643d 94cb 633d
00000320: e7c9 113d 1c2d 7abd b08e f0bb 0031 c7bc
00000330: ae81 c4bc ec32 2dbd 1af1 2abd 1d32 54bc
00000340: 10e3 98bc 3241 073d 85ff 353c 3968 06bc
00000350: 88e4 21bd 0a0d 633d 78de 88b8 ca4c 283d
00000360: d4e6 7cbd 045c 29bd 5146 343d 13e4 a43c
00000370: d4d7 0a3d 55c0 3abd ee92 50bc e07c f7bc
00000380: b86a f03c c7c7 c6bb 1fd9 c2bb e0ad 6cbd
00000390: 3948 e7bc 74ac 9ebc 70ab 5c3d faa8 5e3d
000003a0: 1433 fe3c 3292 0c3d 00ad b43c 7456 2c3d
000003b0: 1ea1 02bd f26c 5cbd f459 40bd 14b8 303d
000003c0: d6a7 acbc f2d4 443d d6e2 5e3d 57eb 2a3c
000003d0: 8cc9 183d 0cc2 043d 1d24 2ebb f445 f93c
000003e0: 0a21 86bc d085 2cbd d076 b5bc c2d1 32bd
000003f0: f7d2 2e3d 2cb5 073d 63fd 88bc 0ebb 34bd
-0.042738315 -0.025856826 -0.04672258 -0.021482341 -0.03221163 0.01930331 -0.055566937 -0.04989494
-0.052462406 -0.0009805273 -0.0038849786 0.0076874546 0.046102695 0.018386059 0.001383312 -0.037126284
-0.023474261 0.042206213 0.016531922 0.02260048 0.0016857028 0.0516771 -0.015327871 0.03965713
0.040026993 0.04370206 -0.049233332 -0.018510014 0.03467328 0.029896853 -0.0040837303 0.043297365
0.0582309 0.002897665 0.029936029 0.060781427 -0.05270791 0.0130436355 0.03299991 0.04895288
0.028270394 -0.033280905 0.022994295 -0.031918254 0.014000326 -0.04106292 0.055697933 0.017999902
0.062454857 -0.048594505 0.0336675 0.039372753 -0.045218628 0.03064151 -0.05442453 0.0134497285
-0.052745983 -0.010676172 -0.0010876879 0.0058240294 -0.023152987 0.028502092 -0.024323083 0.0045863464
0.007282734 0.025694638 0.029283952 0.024922453 0.03656143 0.026834594 0.012915612 -0.019806363
0.049562626 0.05567807 -0.045985013 0.004954535 -0.053281687 0.03326226 -0.032909866 -0.0047337264
-0.025381722 -0.04844295 -0.007355335 0.04867377 -0.043643266 0.0033564542 0.045357957 0.046975866
-0.03636025 0.04523136 -0.03723067 -0.022579722 -0.025649272 -0.04493077 -0.007785559 -0.05495704
-0.0454398 0.003699176 0.019113746 0.05752021 -0.01437442 0.028692536 0.053624183 -0.005204402
-0.024198115 -0.0032653415 -0.03318882 0.04316815 -0.038277786 -0.031183645 -0.029162616 0.040281776
0.039297104 -0.025911426 0.0005291328 -0.008380108 -0.022696622 -0.020311825 -0.018405786 0.05540539
-0.023169331 -0.021709248 0.009175174 -0.00811877 0.03301576 0.040559664 0.01889952 0.0394421
7.585436e-05 0.012990987 -0.0015138164 0.05267948 0.0347263 -0.01904423 -0.0053751958 0.03559804
0.054606155 0.047716 0.038724102 0.047060836 0.012949564 -0.026528984 0.002966465 -0.008607298
-0.046098165 -0.018364422 -0.023321606 0.0057215733 0.00505057 0.0056153326 -0.0054716766 -0.05598153
-0.011708289 0.0076471493 -0.02690958 -0.037519425 0.01559121 -0.010862105 0.042922065 0.053965695
0.04571446 -0.04937192 0.0062703295 -0.036935523 0.048893064 0.029440366 0.05335615 -0.0144386515
-0.024651738 -0.019823927 0.061121427 0.008019111 -0.023497403 -0.012843393 -0.02266521 0.0452056
0.00014488092 -0.045073375 0.023863927 0.029608924 0.007819345 -0.023299724 0.015499404 -0.027075402
0.060239293 0.012706442 0.05507488 0.024274983 0.026541816 -0.05932779 0.00029183924 -0.022173962
-0.056649357 -0.00837651 -0.043513887 0.0006533265 -0.053206645 0.006232474 0.0558005 0.05561407
0.03559294 -0.061078176 -0.0073412284 -0.024315357 -0.023987617 -0.04228489 -0.04173384 -0.012951401
-0.01866296 0.03302116 0.011108284 -0.00820356 -0.039524585 0.055432357 -6.5264234e-05 0.041088857
-0.061743572 -0.04134752 0.04401237 0.020128286 0.033897236 -0.04559358 -0.012730343 -0.030210912
0.029347762 -0.006066296 -0.005946293 -0.057783008 -0.02823268 -0.019369341 0.053874433 0.054360367
0.031030215 0.03431911 0.02205515 0.042074636 -0.031891935 -0.053814836 -0.046960786 0.0431443
-0.021076124 0.048054643 0.054415546 0.010432086 0.037301585 0.03241162 -0.0026571818 0.030428864
-0.016373176 -0.0421198 -0.02215138 -0.043657072 0.04268166 0.033131763 -0.016722387 -0.0441237

A.weight f4 [6, 256]
00000000: 53a6 95bd cf67 13bd 8456 de3c b28c 4d3d
00000010: fcb1 e8bc ab08 673d 5298 26bd b6c6 f1bc
00000020: 38ae f6bc 3d60 8ebc 80a5 5dbd a244 363d
00000030: 7645 223d 4041 763c 06c8 043d 0f48 0a3d
00000040: 6474 573d 7029 67bc 32c2 35bd 1834 70bd
00000050: 00b5 a8b9 209b abbb 06a6 43bd 8e9a 2dbd
00000060: d4b3 08bd 7685 433d dcbb 963c 4780 58bd
00000070: d0a9 d0bc 280c a1bc 8259 4abd d24c 1dbd
00000080: 751e 92bb e49c 483d 32bd 323d e60d 0c3d
00000090: 520a 7e3d 00a1 213a 98d8 683d e5f6 c73c
000000a0: cc7f db3c 1f59 443c a820 cd3c 7813 69bd
000000b0: 0038 003a d8f9 9fbc 0821 09bc 3472 00bd
000000c0: f2ee 093d e0f5 36bc b55f dabc ecc4 62bc
000000d0: 1fc9 fdbc ffdc e13c 6a3b 6b3d 8881 7cbd
000000e0: 2cd4 c93c 53da dabc 1240 3d3d 2435 103d
000000f0: 80ba 79bd b4f0 623d 2091 5f3b dec6 2b3d
00000100: 7889 29bd 10d1 42bd d198 4f3b 26cf 07bd
00000110: 1c3f 8a3c 63b4 87bc 8ddf 14bc 684d 7d3d
00000120: 687c 82bb 4e3e 29bd 40b1 6c3d 3019 353d
00000130: 8833 443d b3d6 cbba fdbd 0f3d c070 fa3b
00000140: 1eba 15bd 9b61 573d 2db9 853c fb14 803d
00000150: 004d 0abb 1089 39bd f2da 183d b0f6 a43b
00000160: dc57 5fbd 1332 26bd a46e 25bd f385 b4bc
00000170: 374f 2b3c 44b3 de3c f0a8 123c 001e 5f3c
00000180: 989a 223d 2045 d6bb c02c 693d 52ec 7f3d
00000190: ec85 a5bc e82a c63c a8d9 7d3c 009f 543d
000001a0: 68df c2bc 7c6b 05bd 74d4 4f3d e4d3 003d
000001b0: dd7a 2eba 7c2d e5bc 44ac 9a3c a7e6 193c
000001c0: 00d4 3ebd 9b27 63bb ce41 243d 00f1 98bb
000001d0: b0a6 bbbb acd7 733d 70ef 253c 0cbe 573d
000001e0: 0a7c 763d f655 323d 2643 423d 956c 0cbd
000001f0: ece5 1f3d 7854 573d bd3c 1dbd 0502 243d
00000200: 5442 863c 5d1d ca3c ccc2 df3c 5485 e3bc
00000210: 00c5 a83b 2bb7 35bd 4aed 14bd 869e 103d
00000220: 38d5 76bd a08a a43b 90a6 c0bc 45bb f73c
00000230: 32da 013d ae89 36bd af33 3f3d b8a4 643c
00000240: fabf dcbc 6fc7 40bd b0c4 70bc 70f0 dbbc
00000250: d80e 0bbc ea83 40bc 1d7b 42bd 2202 04bd
00000260: 222d 0d3d d841 473c c6a9 febc 0753 63bd
00000270: 5ce4 43bb 7d7e dfbc 7ab9 3a3d be03 34bd
00000280: 04a4 14bd 0092 a939 8f99 f03c 38bb 4cbc
00000290: c492 c3bc a882 2bbd e02f 00bd 10a7 5c3c
000002a0: 0316 273d 0d64 273d 34a4 243d c320 363d
000002b0: 26b1 7f3d 2a4e 39bd 00aa d1b9 6849 c23c
000002c0: 2b82 c03c 8020 52bd 24f3 4e3d cece a0bc
000002d0: e6e8 473d 0a04 77bc 9b60 713d b338 a83c
000002e0: aa1e 3ebd 9df1 903b a298 073d 74b0 f4bc
000002f0: 0828 923b 48bc 4e3c 302d 33bd 8752 17bd
00000300: 1edd 35bd 70ff 11bb 7088 3bbd 78b0 00bd
00000310: 383e 623d fdee 873c ea7b 41bd 8090 6dba
00000320: eeb9 85bc 30dd adbb 19a1 77bd 1b87 443d
00000330: 2c9b a13c b102 24bd 96da a1bc 1d6f 47b9
00000340: 1bc6 1dbd 8177 0fbd 89a4 5bbd 0901 b7bc
00000350: 0979 d1bc 12e6 2ebc 0fe2 03bd 2823 023d
00000360: 725e 56bd 98c2 483c 47ae 31bc 54e3 1dbd
00000370: 8820 843c cce1 0fba f18d 83bc 60cd a73c
00000380: 0020 5138 979e fbbc 1297 bdbc da7f 3fbd
00000390: 211a 04bc 7852 c43c 2c55 58bd b6bb 19bd
000003a0: a0d1 8d3b 3881 a33b 80ce 14ba 100b 0fbc
000003b0: 26d4 6c3d a2c4 223d d6e8 55bd ba35 6f3d
000003c0: ddeb 24bd a21d dd3c 42b2 3fbd a2ed a5bc
000003d0: 5368 29bb 742d c83c cf21 55bd 7a6a 373d
000003e0: dec4 3ebd f44d de3c a470 263d 0031 723d
000003f0: d413 2dbd 4776 533c 61b2 263d a30b f13c
-0.073071145 -0.03598767 0.027140863 0.050183006 -0.028405182 0.05640475 -0.040672608 -0.029513698
-0.03011237 -0.017379874 -0.05411291 0.044499047 0.039617024 0.015030205 0.03241732 0.033760127
0.052601233 -0.014109001 -0.044374652 -0.05864343 -0.00032178313 -0.005236998 -0.047765754 -0.042383723
-0.033374622 0.0477347 0.018400125 -0.05285671 -0.025471598 -0.019659117 -0.049401768 -0.03840334
-0.004459197 0.048977748 0.043637462 0.034192942 0.06202156 0.00061656535 0.056847185 0.02440972
0.026794337 0.011984139 0.025039986 -0.056903332 0.0004891157 -0.019528314 -0.008369692 -0.031358913
0.03367514 -0.01116702 -0.026656965 -0.013840895 -0.030979691 0.0275712 0.05742971 -0.061646968
0.024637304 -0.026715433 0.04620368 0.03520693 -0.060968876 0.055405334 0.00341136 0.0419377
-0.041390866 -0.04756266 0.003167678 -0.033156537 0.016875796 -0.016565507 -0.009086502 0.0618414
-0.0039821155 -0.041319184 0.057786226 0.044213474 0.047900707 -0.0015551656 0.035093296 0.0076428354
-0.03655445 0.05258332 0.01632365 0.06254002 -0.0021103024 -0.04529673 0.037318178 0.0050342903
-0.05452715 -0.0405751 -0.04038872 -0.022036528 0.010455898 0.02718509 0.008951411 0.013617992
0.039698213 -0.006539002 0.056927443 0.062481232 -0.02020546 0.024190381 0.015493788 0.051909447
-0.023788169 -0.03257321 0.05073972 0.031452075 -0.00066558813 -0.02797579 0.01888097 0.009393371
-0.046588898 -0.0034661058 0.04010182 -0.0046674013 -0.005726658 0.059531853 0.010127887 0.052671477
0.060176887 0.04353901 0.04742732 -0.03428324 0.03903763 0.05257079 -0.038388003 0.04004099
0.01638905 0.024672205 0.027314566 -0.027773537 0.0051504374 -0.044364136 -0.03635911 0.03530743
-0.060261935 0.005021408 -0.023516923 0.030240664 0.031702228 -0.044564895 0.04668015 0.013955288
-0.02694701 -0.047065195 -0.014695331 -0.026848048 -0.008487426 -0.011750201 -0.04748069 -0.032228597
0.03446687 0.0121616945 -0.031086814 -0.055499103 -0.0029890751 -0.027281994 0.04558704 -0.04394888
-0.03628923 0.0003234297 0.029370097 -0.012495808 -0.023873694 -0.04187265 -0.031295657 0.013467565
0.040792476 0.0408669 0.04019566 0.044464838 0.0624248 -0.04524056 -0.00039990246 0.023716643
0.023499569 -0.051300526 0.050524846 -0.019629862 0.048806094 -0.015076647 0.05893002 0.020534849
-0.046415962 0.004423334 0.033104546 -0.029869296 0.0044603385 0.012618132 -0.043744266 -0.03694394
-0.044400327 -0.0022277497 -0.045784414 -0.031418294 0.055235118 0.01659345 -0.047237314 -0.00090623647
-0.01632401 -0.0053059086 -0.06045637 0.04798041 0.019727312 -0.04004163 -0.01975755 -0.00019019512
-0.038519006 -0.035026077 -0.05362371 -0.02233936 -0.02557041 -0.01067497 -0.03219801 0.03177181
-0.052336164 0.012253426 -0.010844774 -0.038546875 0.016128793 -0.00054886634 -0.016058894 0.020483673
4.9859285e-05 -0.03071527 -0.023143325 -0.046752788 -0.00806287 0.023965105 -0.0528156 -0.03753253
0.0043279678 0.0049897693 -0.0005676523 -0.008730665 0.057819508 0.039738305 -0.052224003 0.058400847
-0.040264 0.02699167 -0.04680086 -0.020254914 -0.0025849536 0.024435736 -0.052034196 0.04477928
-0.046574466 0.02713678 0.040634766 0.05912876 -0.042255238 0.0129066175 0.04069746 0.029424494

A.bias f4 [6]
00000000: d7b3 3e3d f74e 6d3d 9f03 273d ecbd 63bd
00000010: 58e5 d3bc 90c3 ddbb
0.046558227 0.057936635 0.040774938 -0.055601045 -0.025866196 -0.0067676976
