cool/checkpoints/D3QN/Q_eval/D3QN_q_eval_4150.pth (torch, 278863 bytes, 7 tensors)

fc1.weight f4 [256, 5]
000000 12 a8 df be ea 9a d2 be 4a be 69 be 55 62 1b 3d
       -0.43682915 -0.41133815 -0.22826496 0.037935574
000010 ba a1 00 3f 52 67 21 be fc dc a9 3e 60 40 a9 3e
       0.50246775 -0.1576207 0.3317641 0.33056927
000020 18 44 33 be 90 85 96 3d b9 82 b6 be 84 48 7d 3e
       -0.17506444 0.07349694 -0.35646608 0.24734694
000030 28 89 40 be 7c 16 ae bd aa cc 91 3e 86 98 0f be
       -0.18802321 -0.08500382 0.2847646 -0.14023027
000040 e0 f5 ee bd d0 6c 46 3d 60 71 23 be 68 07 01 3d
       -0.11667991 0.048443615 -0.15961218 0.031501204
000050 04 e9 83 3e cf 10 aa be 38 15 4b 3e c1 e5 85 be
       0.25763714 -0.3321595 0.19832313 -0.2615185
000060 8c 19 85 3e a5 05 57 bd 4e 3b ea bd a7 80 76 3e
       0.25996053 -0.052495617 -0.11437093 0.24072514
000070 74 b9 eb 3d 87 10 69 3e 00 71 23 3e b0 56 9c 3e
       0.11509982 0.22760211 0.15961075 0.30534887
000080 00 e8 f5 3c 3c 29 dd bd 18 fd 8d be 1d b6 a2 3e
       0.030017853 -0.107988805 -0.27732158 0.31779566
000090 db e9 29 bb 0a 26 53 be fb d2 8f 3e 75 d6 1b 3e
       -0.0025926742 -0.2061998 0.28090653 0.15218528
0000a0 90 8b 42 bd 14 ed 79 3e 44 60 c5 bd b2 8a 14 be
       -0.04749638 0.24406844 -0.09637502 -0.14506033
0000b0 00 54 9f bc b4 3b a6 bd fe 6d ab 3e a2 bc 8f 3e
       -0.019449234 -0.08116856 0.33482355 0.28073603
0000c0 f0 ea e8 bd c8 df 06 bd 4d ca e4 be 32 7f d4 be
       -0.11372936 -0.03292826 -0.44685593 -0.41503292
0000d0 a6 9b d0 3e cf 20 db be 61 ac bf be 62 7d d0 3e
       0.4074375 -0.42798468 -0.37436202 0.4072066
0000e0 94 4f 3d bf 71 d7 a0 3e 7b 40 9a 3e b6 a6 a0 bc
       -0.7394955 0.3141437 0.3012732 -0.019610744
0000f0 4b 20 47 be c7 f1 0b bf 5e b2 45 3e a5 1e c3 3d
       -0.19445913 -0.546658 0.19306323 0.09527329
000100 49 3f b5 bc 7e 46 01 be d6 ce a2 3e 34 97 a0 3e
       -0.022124903 -0.12624547 0.31798428 0.3136536
000110 7e ab 3f be de 9f 19 be 3b 05 b1 3e 25 1e c5 3d
       -0.18717763 -0.1500239 0.34574303 0.0962489
000120 a2 bd 52 be 14 d8 0c 3e 92 5b 7a be 90 5f ac 3c
       -0.20580152 0.13754302 -0.24448994 0.021041662
000130 33 b3 ca be 03 7b 9e 3e fe f5 2c bc a0 bb 07 3e
       -0.39589843 0.30953225 -0.010556696 0.13255167
000140 3a 7c 5d be 4c 2e d8 be 9e 09 c9 3e a0 60 5c bc
       -0.2162942 -0.42222822 0.3926515 -0.013450772
000150 e0 0d ae 3c f1 ef e3 be 1b 62 fe bd 01 c6 80 be
       0.02124685 -0.44518998 -0.12421056 -0.25151065
000160 4e 0a b7 3e 20 1e e6 bd 3b 72 96 be 7a 18 f3 3d
       0.3575005 -0.11236215 -0.29384026 0.11869903
000170 01 4d bf 3b 8f 73 c4 3e 2d f5 b1 bd 06 8b 9c be
       0.005838037 0.38369414 -0.08689342 -0.30574816
000180 90 29 14 be e8 95 43 bd f3 b5 2b 3e aa 06 e7 bd
       -0.1446898 -0.047750384 0.16768627 -0.11280568
000190 3e 56 b3 3e 54 f9 00 3e 74 7b 19 3e ef d9 92 be
       0.35026735 0.12595111 0.149885 -0.28681895
0001a0 96 e1 92 be 24 57 6f be 06 eb ad 3e 60 20 6c 3e
       -0.28687733 -0.23373085 0.3396837 0.23059225
0001b0 3e fe 82 be 03 a4 ae be 04 8c cb 3e a8 f4 d7 bd
       -0.25584596 -0.34109506 0.3975526 -0.10544711
0001c0 b0 ac a1 3e e8 a6 79 bd e2 5e 97 3e 26 ab 34 be
       0.31577063 -0.06095019 0.29564577 -0.17643413
0001d0 24 55 c4 3e 00 e6 87 3b ed 9f b7 be fc 24 a7 be
       0.38346207 0.004147291 -0.358642 -0.32645404
0001e0 9e 50 e2 be c5 bf cd be 9b 4b d7 be c0 f3 e5 3d
       -0.4420213 -0.4018537 -0.4204987 0.11228132
0001f0 5e f0 f4 3e 0d 6f 2a 3e 13 93 f5 3e 84 52 1c 3e
       0.47839636 0.16643925 0.4796377 0.15265852
000200 29 51 12 3d 82 6d be 3d ca b4 3f be 40 2f fd 3c
       0.03572193 0.09298231 -0.1872131 0.03090632
000210 c8 3f 9b 3d 22 af 62 be 90 5a 98 3e cc e0 63 3e
       0.07580525 -0.2213712 0.29756594 0.22253722
000220 ab 2e be be e2 df 6a be bb bb 73 be e0 d1 ac 3d
       -0.3714498 -0.22936967 -0.23802082 0.08438468
000230 26 c7 bb be a0 d0 cd 3d d4 cb 1d be b2 fa 19 be
       -0.36675376 0.10049558 -0.15409786 -0.15037039
000240 18 8d dc 3d f8 86 00 3d ef 00 6b be 54 b0 bb 3e
       0.10769099 0.031378716 -0.22949575 0.36657965
000250 a8 38 74 be 38 1c fc bd ef b6 c8 3e 2e 8a 27 be
       -0.23849738 -0.1231007 0.39202067 -0.16361305
000260 35 e5 20 3c 32 09 b6 3e 02 2b 5f be 3c 78 a7 3e
       0.009820272 0.3555389 -0.2179375 0.3270892
000270 bc e4 2b 3e 48 47 45 3d 8b 92 6b be 4a cd b1 3e
       0.16786474 0.048163682 -0.2300512 0.34726936
000280 b5 5c b8 3e 43 8f 9d 3e 76 3c bf 3e 37 18 c6 3e
       0.3600823 0.30773363 0.37350816 0.3869035
000290 14 a3 f7 be e3 1d 97 bd 22 87 1c bf 8b 8d 5e 3e
       -0.48366606 -0.07378747 -0.61143696 0.21733682
0002a0 1b 09 cc 3e 01 3c 00 bd 90 cf 21 bd a4 13 d0 bd
       0.39850697 -0.031307224 -0.039504588 -0.10159996
0002b0 c4 d3 db 3e 00 68 59 bc fc dd c1 be 9a a7 e0 3e
       0.42935002 -0.013269424 -0.37864673 0.4387787
0002c0 2e e5 17 be b0 7b cf 3e 1a 77 39 be 94 5a d8 be
       -0.14833519 0.40524054 -0.1811184 -0.42256606
0002d0 d0 bb 78 3d 28 74 9c 3d 30 5b 2e be ba 37 90 be
       0.060725987 0.076393425 -0.17026973 -0.28167516
0002e0 74 4e 34 3e c6 6e aa 3e e0 51 f6 3d 88 78 91 be
       0.17608052 0.33287638 0.12027335 -0.2841227
0002f0 38 c3 9f be 5a d4 89 3e 82 6b c7 be 84 23 1c be
       -0.31203628 0.26919824 -0.3894921 -0.15247923
000300 8e 92 ff 3d e8 77 1f 3e 8d e9 48 3c fd 6a 2b 3e
       0.12479125 0.15573084 0.012262714 0.16740032
000310 f1 d7 d2 3e 74 41 8e be b2 22 c3 3e 5c ec 13 bf
       0.41180375 -0.27784312 0.38112408 -0.5778253
000320 ee 31 9d be 18 41 2d bd c0 42 cb bb c6 39 84 be
       -0.30702156 -0.042298406 -0.0062030256 -0.25825328
000330 c0 92 85 3c 04 d7 bf 3e 00 28 6a 3c 20 63 ec bd
       0.016305327 0.3746873 0.014291763 -0.11542344
000340 db fb af be a1 03 b1 be ec 74 3e 3e e1 0c 94 be
       -0.34371838 -0.3457308 0.1859929 -0.28916076
000350 3c 5c c0 3e f9 84 95 3d e3 dd 56 3e 0d c7 9c be
       0.3757037 0.07300753 0.2098308 -0.30620614
000360 c0 b2 9f 3d dc e7 9b 3e d9 4f e0 be c8 37 1d 3d
       0.07797766 0.30450332 -0.4381092 0.038383275
000370 34 e2 00 3e 34 01 8b be 68 37 c9 3e d4 c4 08 be
       0.1258629 -0.27149355 0.39300084 -0.13356334
000380 40 56 47 3e 59 a6 b7 3e d4 c4 ef 3b ef ad 00 be
       0.19466496 0.358691 0.007317165 -0.1256635
000390 32 cf c6 3e cb 5d 89 be 50 c0 5f 3d 06 6a 3b be
       0.38829952 -0.2682937 0.054626763 -0.18302163
0003a0 08 c1 6f be 30 bf bb bd 48 43 a5 be 8c 00 3e be
       -0.2341348 -0.091673255 -0.32277894 -0.18554896
0003b0 5f 5f d3 be d8 dd 8c 3e 93 ce bd be fa 79 e1 be
       -0.412837 0.27513003 -0.37071666 -0.44038373
0003c0 72 6e dd bd 38 3a 2b 3e 0e 4c c4 3e 24 22 3f 3e
       -0.108120814 0.16721427 0.38339275 0.18665367
0003d0 c9 fd a2 3d 6f 19 b3 3e 82 c8 8e be 16 96 33 3e
       0.07958562 0.34980342 -0.2788735 0.17537722
0003e0 35 fb 37 3e 06 cf ad 3e 42 52 bd be 20 2e 39 be
       0.17966922 0.3394701 -0.3697682 -0.18084002
0003f0 30 e1 3f be d4 2f b8 bd e0 92 7d bc 00 d0 58 ba
       -0.18738246 -0.089934975 -0.015476912 -0.00082707405

fc1.bias f4 [256]
000000 b1 5f 30 3e c0 e3 74 3d d0 17 65 3e 00 87 a1 3a
       0.17224003 0.05978751 0.22372365 0.0012323558
000010 20 26 d7 bc cc ca 50 3e 15 67 55 be f8 a0 94 be
       -0.026263297 0.20389861 -0.20840104 -0.2902906
000020 78 0e 48 be c0 06 dd 3d b8 75 c0 3e be 8d ad bd
       -0.1953677 0.10792303 0.37589812 -0.08474301
000030 dd fc ae 3e 8b cc c5 be 8d 5c 98 be b0 6a 37 3e
       0.34177294 -0.38632616 -0.2975811 0.17911792
000040 a0 85 37 bd 0d 65 b6 3e 30 cf 10 3e 31 1a d9 3c
       -0.04480517 0.3562397 0.14141536 0.026501747
000050 7c 08 07 3e 1c 62 9d be a8 20 a5 be 37 13 d8 be
       0.1318683 -0.30738914 -0.32251477 -0.4220216
000060 03 29 1b 3c 17 67 b4 be 40 fe cc bd d4 63 82 3e
       0.009470227 -0.352349 -0.10009432 0.25466788
000070 03 4c d9 be 9c cc 9e 3e 2c 1c 98 3e 60 c7 87 3e
       -0.42440805 0.3101548 0.29708993 0.265193
000080 13 c8 d1 be 43 5c a8 be e8 2b 83 be e0 f1 c4 bd
       -0.40972957 -0.3288289 -0.25619435 -0.096164465
000090 1c 64 4e 3e 04 e7 db bd 56 ce 72 be 74 13 8d 3d
       0.20155376 -0.10737422 -0.23711523 0.06888476
0000a0 3e 7a e3 3e 3e 38 d1 3e 72 72 dd 3e 44 6e 79 3e
       0.444292 0.40863222 0.43251377 0.24358469
0000b0 d8 ed 06 3e d7 26 90 bd da 49 0d be a2 01 98 be
       0.13176668 -0.07038658 -0.13797703 -0.29688746
0000c0 56 6b c8 3e ce ca b7 be f4 0d 97 be c4 b8 ec bd
       0.3914439 -0.35896915 -0.29502833 -0.11558679
0000d0 fe 5a 98 3e 28 15 95 3e cb d7 a0 be a0 51 03 3e
       0.29756922 0.29117703 -0.31414637 0.12824106
0000e0 33 c1 a4 3e 3c 79 97 3e 42 91 ce be 7c d0 e1 be
       0.3217865 0.29584682 -0.40345198 -0.44104373
0000f0 2e 87 3a be cf ab dd 3d f0 23 e9 3d ec 98 19 be
       -0.1821563 0.108237855 0.11383808 -0.14999741
000100 0b b8 b4 be 14 d3 d0 bd ac 2b 80 bd 2f c2 97 3e
       -0.35296664 -0.1019651 -0.0625833 0.29640338
000110 1e f9 c6 be 82 06 b6 3e 20 b8 c8 3e 24 10 d9 3e
       -0.38861936 0.3555184 0.39202976 0.42395127
000120 d3 8f c8 be 0c 17 10 be 29 6d 24 3e bf 11 a5 3e
       -0.3917223 -0.14071292 0.16057266 0.32240102
000130 a6 11 08 be 9a 04 71 3e d6 c9 8e be 00 44 ff 3d
       -0.13287982 0.23536912 -0.27888364 0.12464142
000140 6e e9 be be 82 fc d4 3e fe 24 58 3e 20 26 06 3e
       -0.37287468 0.41598898 0.21107861 0.13100481
000150 f4 ff bb be ba 18 84 3e 8e 25 c0 bd 58 1b 65 3e
       -0.36718714 0.25800115 -0.09382163 0.22373712
000160 65 70 93 be 34 f8 55 be 58 c3 8e 3d 70 a1 c4 bc
       -0.28796688 -0.20895463 0.069708526 -0.02400276
000170 88 55 d3 3d 22 b6 89 be ad 6c 8b be e0 96 59 3e
       0.10319048 -0.2689677 -0.2723135 0.2124896
000180 d0 23 b3 3d 9a de d5 be b9 0c 72 3e 4c 1f 27 3e
       0.08747065 -0.41771394 0.23637666 0.16320533
000190 56 b2 18 be e0 96 b6 bc b1 36 1b 3e b0 00 96 bd
       -0.1491178 -0.02228874 0.15157582 -0.0732435
0001a0 43 9a 08 3d bc 0d 48 3e 41 cb 97 3e 44 65 1e 3e
       0.03335024 0.19536489 0.29647258 0.15468317
0001b0 b0 ca 44 3e 8f 9b 00 3e 7a 4b 17 be 0c f6 e5 bd
       0.19217944 0.12559341 -0.14774886 -0.1122857
0001c0 4e 09 a0 3b a0 eb c7 3e cc ee 1c 3e 94 3c 30 3e
       0.0048839217 0.39046955 0.15325469 0.17210609
0001d0 b9 bf d0 3d bc 72 d5 bd d2 a4 84 be 61 cd 93 3e
       0.10192818 -0.104222745 -0.25906998 0.2886763
0001e0 e6 46 be 3e a0 e5 8c 3d 40 e8 84 3d b8 5e fa 3d
       0.37163466 0.06879735 0.06489611 0.122250974
0001f0 c6 95 c7 be b8 bd d6 3d 22 b7 c8 3e c0 8a 2f bc
       -0.38981456 0.10485405 0.3920222 -0.010714233
000200 4c 7d dd bb 96 07 72 be 70 c5 a7 bd 10 67 80 3e
       -0.0067593213 -0.23635706 -0.08191955 0.2507863
000210 6e 2f c7 3e 1c 00 82 3e 48 ff 70 be 0c 19 ac be
       0.38903373 0.25390708 -0.23534882 -0.3361286
000220 30 a3 7c 3e b0 26 8a bd e2 fd c6 3e cd f1 c8 3e
       0.24671626 -0.0674566 0.38865572 0.3924698
000230 62 a8 c6 be b1 75 55 be 97 2c 13 3e 21 68 58 3e
       -0.3880034 -0.20845677 0.14372478 0.21133472
000240 84 97 32 3e cc 64 9c bd 4c 6b cc be b2 fc b7 be
       0.17440611 -0.07636413 -0.3992561 -0.3593498
000250 a8 0b 9c bd 2b f9 ab 3d e8 12 4a 3e a8 0b 28 bd
       -0.07619411 0.083971344 0.19733775 -0.04102674
000260 2c 4b 5c 3e e0 b1 0a 3c 1b de 3a 3e ba 2a cf be
       0.21513051 0.00846526 0.18248789 -0.40462285
000270 4c 1f ae 3e 1e cc f2 3b a4 d2 b0 3e 38 aa 52 3d
       0.34008253 0.0074095866 0.34535706 0.051431865
000280 fb 90 ab 3e c5 09 a4 bc f8 ec 36 3e 50 e1 16 be
       0.3350905 -0.02002419 0.17863834 -0.14734387
000290 e4 32 94 be 1a 62 b1 be df a2 a9 be a0 ed 1e 3e
       -0.28945076 -0.34645158 -0.33132073 0.15520334
0002a0 b0 68 81 bc eb 19 60 be fc 77 92 3e 72 f0 aa be
       -0.01579699 -0.21884887 0.28607166 -0.3338657
0002b0 f3 7d 04 3e ec b6 58 be 09 fe a6 3e e0 fe 37 bd
       0.12938671 -0.21163529 0.32615688 -0.044920802
0002c0 df 92 0f 3e ec fa a0 3e 1c 9c a9 be 9e 8c ac be
       0.1402087 0.31441438 -0.33126915 -0.33701032
0002d0 b2 bd c3 be a8 b9 cd 3d ea bd 8e be 96 7d a9 3e
       -0.38230664 0.10045177 -0.27879268 0.33103627
0002e0 ac 4c 54 3e c0 8c dd 3c c0 99 af 3e 73 0b 76 be
       0.20732373 0.027044654 0.3429699 -0.24027805
0002f0 18 4e 5f 3e 48 63 8a 3d 86 0a f2 3d b8 75 de 3d
       0.21807134 0.06757218 0.118184134 0.10862297
000300 f0 1c 86 3c f8 a7 c2 3d cb 94 68 3e 88 af 09 3e
       0.01637122 0.09504694 0.2271301 0.13445866
000310 70 64 31 3e 64 d1 07 3e 22 75 c5 be 98 dd b5 bd
       0.1732347 0.1326347 -0.38565928 -0.08880156
000320 64 66 a7 be c5 8c 60 be fe ed 6a 3e 62 3d c1 3e
       -0.32695305 -0.219287 0.2294235 0.37742144
000330 20 b2 c3 bc bb d8 73 be 84 65 0e 3e 28 39 90 3d
       -0.023888648 -0.23813145 0.13905913 0.07042152
000340 c2 a4 1f 3e 48 2a c8 3d fb 17 09 3e c3 0a 32 3e
       0.15590194 0.097736895 0.13388054 0.17386918
000350 50 bc 5c 3d c8 6a 8b 3e 5d 3c a2 be 35 d9 cb 3e
       0.053890526 0.27229905 -0.3168668 0.39814153
000360 10 5d a2 3e fd bb 3c be 20 59 d9 3e 88 29 68 3e
       0.31711626 -0.18431087 0.4245081 0.22672093
000370 68 29 9e 3e 40 a9 69 3d 96 78 87 bd ad a9 42 be
       0.30890965 0.057046175 -0.06614797 -0.19010039
000380 db 0b c6 be 80 67 93 be 04 f7 ee bd d0 2b c2 be
       -0.3868092 -0.28789902 -0.11668208 -0.3792405
000390 ad 47 50 3e 70 5b cb 3c 73 b8 ad be 90 c2 a9 bc
       0.20339842 0.024823874 -0.33929786 -0.020722657
0003a0 e8 5c 04 3e 7c ce af 3e 40 e3 85 bc 06 b7 d6 3e
       0.12926066 0.34337223 -0.016343713 0.4193651
0003b0 10 8f 29 be 94 42 de 3e 53 68 7a be 89 2a 28 3e
       -0.1655848 0.4341017 -0.24453859 0.16422476
0003c0 72 64 13 be e4 a1 d8 be d9 f5 6b be 06 d3 a9 3e
       -0.14393786 -0.42311013 -0.23043002 0.3316881
0003d0 8d 33 49 be 84 58 ab 3e 29 3c 79 be a8 2f e3 bd
       -0.19648571 0.3346597 -0.24339356 -0.11093074
0003e0 7e 1b 02 be cf c3 c3 3e 42 b7 7e 3e 40 dc d8 bb
       -0.127058 0.38235328 0.24874595 -0.0066180527
0003f0 64 78 a0 bd fb a3 17 3e f4 e1 c8 be 28 0d 83 3d
       -0.07835463 0.14808647 -0.3923489 0.06398994

fc2.weight f4 [256, 256]
000000 24 c9 b1 3b 48 88 7d 3d 78 65 3e bd f0 0c 2e bd
       0.005425589 0.061897546 -0.046483487 -0.042492807
000010 50 05 ea 3b 19 4c 5e bd 04 83 e8 bc f6 cb c7 3c
       0.0071417466 -0.05427179 -0.028382786 0.024389248
000020 3a 3c 18 bd 72 80 45 bd c0 32 3c 3b 12 c8 35 bd
       -0.03716681 -0.048218198 0.0028716773 -0.044380255
000030 de a7 6d 3d 88 65 52 bd 0a be 06 3d 4f 9b 1d 3c
       0.05802142 -0.05136636 0.03289608 0.009619548
000040 a0 ee ee bb f1 f5 e7 bc eb 89 01 3d 59 ea 6c bd
       -0.00729163 -0.028315516 0.03162567 -0.05784068
000050 60 2e 53 bb e2 f8 2f 3d a8 06 c8 bc fc d6 b6 bc
       -0.0032223687 0.042961963 -0.024417236 -0.02231931
000060 5f eb cf 3a fe be 6c bd 02 4d 68 bd f0 47 ec bb
       0.0015862993 -0.05779933 -0.056714065 -0.007210724
000070 50 09 83 bb 08 eb 9d bc 48 00 8f bc e0 28 6a 3d
       -0.003998913 -0.01927711 -0.017456189 0.057167888
000080 78 f1 fb bc d5 e5 27 bb 20 87 d2 bc 12 78 57 3d
       -0.03075479 -0.0025619168 -0.025699198 0.052604742
000090 0c 44 6d 3d d8 21 88 bc 4d b9 c3 3c 76 7c 5e bc
       0.057926223 -0.0166177 0.02389207 -0.0135794785
0000a0 ea cf 58 3d 78 48 1d bc 40 b3 3d 3d f8 77 bc bc
       0.052932657 -0.009599797 0.046313524 -0.023006424
0000b0 08 9e 94 bc d8 fa 12 3c a4 de 51 3d 2a aa 5f bd
       -0.018141761 0.008970939 0.051237717 -0.05460564
0000c0 ce a1 82 bc d2 1b 63 3d 48 0e 61 bd 60 04 5c 3b
       -0.015946295 0.055446453 -0.05494526 0.0033571944
0000d0 bc fa 78 3d c0 a4 14 3c 1b f3 4c 3d 8c 43 06 bd
       0.060785994 0.009072483 0.05003653 -0.03277926
0000e0 11 eb 03 3d dc ac a9 bc 02 92 25 3d be fe 0a bd
       0.0322066 -0.020712309 0.040422447 -0.033934347
0000f0 68 0b 5d 3d fd ae 7a 3c 0a 1a 03 bd e0 1a e8 3b
       0.053965956 0.0153005095 -0.032007255 0.007083282
000100 e2 34 50 bd 74 7e 6d bd 71 c9 d1 3b 9a aa 1f bc
       -0.050831683 -0.057981923 0.0064021875 -0.009745264
000110 9e fe 9e bb d6 9c 49 bc a4 d7 b0 3c 7e 13 53 3d
       -0.00485213 -0.012305459 0.0215872 0.05153226
000120 00 e3 90 3b d0 18 8a 3c bf c0 4e 3d 47 c8 b7 bc
       0.0044215918 0.016857535 0.050476786 -0.022434367
000130 a0 e3 6e bd 06 ee 00 bd c0 b7 bd 3c 40 2d 65 bd
       -0.05832255 -0.031476997 0.023158908 -0.055951357
000140 08 a5 3c 3d b0 0c 0c bc 37 ea 5c 3d 97 7d ba bc
       0.046055824 -0.008547947 0.053934302 -0.022764964
000150 3e 95 4c bd f8 ee 84 3c eb c1 0c bd a0 ea e7 3b
       -0.049947016 0.01622723 -0.034364622 0.00707753
000160 62 2e d7 3c 6b 00 3e 3c 84 86 82 bd 58 8d 0d 3c
       0.026267234 0.011596779 -0.06373313 0.008639656
000170 a0 3e 47 bc 9c ec d7 bc 55 54 4c 3d ac e4 ad 3c
       -0.012160927 -0.026357941 0.049885113 0.021227203
000180 40 1e e6 ba 30 e3 29 3d 3a 7d f9 3c f4 2f 78 bd
       -0.0017556623 0.04147643 0.03045522 -0.060592607
000190 f8 98 1d bc 50 37 63 bd c5 0b 9f 3b 68 ef 56 3d
       -0.00961899 -0.055472672 0.004853698 0.05247441
0001a0 8c 94 1a bc 20 f1 df 3c c8 bc 75 3c 68 3a 19 3d
       -0.00943483 0.027336657 0.014998622 0.037409216
0001b0 7a 5e 70 bd 69 8d 03 3d 66 6d 2c bd 2a 79 25 bd
       -0.05868385 0.03211728 -0.042096518 -0.040398754
0001c0 b6 25 16 3d 10 72 65 bc 30 75 a5 bc 9d 64 38 3d
       0.036657058 -0.014004245 -0.02019748 0.045017827
0001d0 ba 18 5c 3c 32 6e 79 bd 59 3b 3e 3d 9d ed 02 bb
       0.01343363 -0.060896106 0.046443317 -0.0019978054
0001e0 c0 aa c5 3b 93 ab fa bc a4 35 c5 3c 54 c1 44 3d
       0.006032318 -0.030599391 0.02407343 0.048035935
0001f0 e3 c2 2a 3d 50 79 d7 3b cb c6 9a 3c 3c 0f 8f bc
       0.041689765 0.006575741 0.01889362 -0.017463319
000200 6e 83 5d bd 34 03 f9 bc 02 3d 55 bd 42 48 62 bd
       -0.05408042 -0.030397035 -0.052060135 -0.05524469
000210 40 54 bf 3c 0c f9 d4 3c a8 b2 0d bd 2a f2 2c 3d
       0.023355603 0.025997661 -0.034594208 0.042223133
000220 0e 10 13 3d 67 64 48 bd c6 da 10 3d 40 b1 6c 3c
       0.035903983 -0.048923876 0.03536489 0.014446557
000230 5e 14 41 3d 30 e2 95 3c 9b 4d bf bb 15 71 06 bd
       0.047138564 0.018296331 -0.0058381087 -0.032822687
000240 68 44 c9 bc 6a ad 38 3d 1d a2 3c 3d 7c 82 15 bd
       -0.024568751 0.045087256 0.04605304 -0.036501393
000250 dc a2 a3 bc 6d 6f 83 3c ba b2 30 3d d2 c5 0e bd
       -0.019975118 0.016044343 0.043139197 -0.034856625
000260 20 dd 91 3b c8 a0 57 3d 3b 33 0f bd b6 7b fd 3c
       0.004451409 0.052643567 -0.034960967 0.030942779
000270 25 43 2e 3b 3c ad 8c bc e0 89 1c bb 40 5b 59 bb
       0.0026590314 -0.017172448 -0.002388589 -0.0033165962
000280 c8 e2 d0 3c 5b 5d 3e bd 64 7f 7c 3d a1 f4 ac bc
       0.025498763 -0.04647575 0.061644927 -0.021112742
000290 d1 79 c5 bc e2 42 54 bd d0 73 c6 3c e8 a6 2c bc
       -0.024105938 -0.051821597 0.024225146 -0.01053784
0002a0 58 48 04 bc ca 1a b6 bc 77 59 37 bc f8 83 17 bc
       -0.008073889 -0.02222957 -0.011190764 -0.009247772
0002b0 69 1e 9b 3c 4c fa c1 bc 6c 0f bf bc a4 28 48 3d
       0.0189354 -0.023678921 -0.023322783 0.048866883
0002c0 b9 9a 0f 3d 30 22 5f 3c 3b 5d e2 3a 5a 37 01 bd
       0.035059664 0.013618991 0.0017270216 -0.031546928
0002d0 38 da 64 3d a0 df e4 3c 72 e3 2d 3d 90 0a 36 3d
       0.055872172 0.027938664 0.042453237 0.044443667
0002e0 3a 99 01 bd 44 9b 61 3d e8 39 1a 3c 04 8c 2f 3d
       -0.03164027 0.055079713 0.00941322 0.04285814
0002f0 da 09 0d 3d d8 73 7b 3c 95 55 0d 3d 80 5d 44 3a
       0.034433223 0.0153474435 0.034505446 0.0007490739
000300 3c f8 97 3c c4 6d 8c 3c 7a a9 c4 bc ae d7 4d bd
       0.018550985 0.017142184 -0.024006594 -0.050254516
000310 d8 c5 97 bc 11 78 79 3c 33 eb 26 bd 68 32 d8 3c
       -0.018526956 0.01522638 -0.040751647 0.026391223
000320 5d b6 05 bd 94 91 aa 3c 7a f2 b8 3c 42 09 0b 3d
       -0.03264462 0.02082137 0.02257656 0.033944376
000330 4c 58 e1 bc 07 13 8f bc d0 c1 a5 bc 44 7f 2d 3d
       -0.027507924 -0.017465128 -0.020234019 0.042357698
000340 5c 3a 7d bd 8c 2e 4d 3d a4 2a 86 3c 04 22 e5 3c
       -0.061823234 0.05009322 0.016377755 0.027970321
000350 be 53 4f bd 84 06 a6 3c 88 21 12 3d 8a c1 29 3d
       -0.050616972 0.020266779 0.03567651 0.04144434
000360 ee 88 1e 3d 4a 18 4f 3d 1c 66 ad 3c 7c a0 c8 bc
       0.038704805 0.050560273 0.021166854 -0.024490587
000370 b0 8e 29 3d ec 44 60 bd b4 01 10 3c 4a 0c 19 bd
       0.041395843 -0.05475323 0.008789469 -0.037365235
000380 f0 60 4a bd 0c 05 ae 3c 98 7d 3b 3d 48 c2 02 3d
       -0.049408853 0.02124264 0.045774072 0.031923562
000390 03 ff 0a bd 40 bf 01 3b bb 9f 53 3d 90 eb ba bb
       -0.033934604 0.0019797832 0.051666003 -0.005704351
0003a0 70 a1 94 bb dc 82 aa bc 5e 06 17 bd 3d 03 14 bd
       -0.0045358464 -0.020814352 -0.036871307 -0.0361359
0003b0 02 74 5c 3d c6 6e 03 3d 20 0b b4 3c 78 1d 0e bd
       0.05382157 0.032088064 0.021977961 -0.034696072
0003c0 14 3c 44 3d 68 67 7b bd c2 2a 65 3c 8e 2a 0f bd
       0.047908857 -0.061377913 0.013987245 -0.034952693
0003d0 bf 7d 1b bc 60 3d 1d bc aa 1f 08 bd 70 34 cb bc
       -0.009490429 -0.0095971525 -0.033233322 -0.024805278
0003e0 5c a3 4c 3d 2b ce 30 bd 31 22 6c bd f0 c5 77 3c
       0.04996048 -0.043165367 -0.057649795 0.015122876
0003f0 9a b2 37 bd 50 5e dd bc 4d ca 16 3d 74 2e 22 bd
       -0.044848062 -0.02702251 0.036814023 -0.039595082

fc2.bias f4 [256]
000000 b2 97 29 bd d1 c1 4a 3d f7 eb 4f bd 0c fa 8c bc
       -0.041404434 0.049501244 -0.050762143 -0.017209075
000010 80 17 68 3b d4 84 28 bd d0 3e 36 3c a7 b5 79 bc
       0.0035414398 -0.0411423 0.011123374 -0.015241063
000020 30 fd 13 bd e5 32 27 bd 5c ca c6 3c 38 45 90 bb
       -0.03613013 -0.04082002 0.024266414 -0.004402783
000030 ea 91 64 bd 94 7c f9 3c 8e 4d 7f bd b3 ca e7 bc
       -0.055803217 0.030454911 -0.06232982 -0.028294897
000040 76 cd 6e 3d 60 17 60 bc 50 49 57 bc cc 85 52 bd
       0.05830141 -0.013677448 -0.013140038 -0.05139713
000050 3c 9c 9d bc 04 98 19 bd 4e 84 7f bd 20 01 5c 3d
       -0.019239537 -0.03749849 -0.062382035 0.05371201
000060 80 bf 30 3c d6 10 1e 3d 10 e7 72 bc 03 42 68 3c
       0.010787845 0.038590275 -0.014825597 0.014175895
000070 70 0b fc bc 6d 0f 28 3d e6 5e 57 bd e0 2f 41 bc
       -0.030767173 0.041030336 -0.052580737 -0.011791199
000080 10 c9 88 bd 44 b8 ba bc a1 ec 27 3d f0 0e 76 bc
       -0.06678975 -0.022792943 0.04099715 -0.01501821
000090 84 2e 66 bd 62 24 25 3d 24 dc 7b bd 15 ee 29 bd
       -0.056196705 0.0403179 -0.06148924 -0.04148682
0000a0 90 69 60 bd 81 32 29 bb fa 8a 5f bd e6 02 6b 3d
       -0.054788172 -0.0025817456 -0.054575898 0.05737581
0000b0 cc d9 44 bd ad 85 66 3d 20 5d 4b 3c a4 5b 17 3d
       -0.04805927 0.056279827 0.012412339 0.03695263
0000c0 f0 5f e1 bb c4 19 d9 bc aa 8d bc 3c 7a 0e 11 bd
       -0.0068778917 -0.026501544 0.02301677 -0.035414197
0000d0 62 25 52 bd f9 a1 b3 3c f0 47 79 bc c0 d6 b0 3b
       -0.051305182 0.02192782 -0.015214905 0.005396694
0000e0 d6 86 7b bd 4d d4 eb bb 7c cc 60 3d 00 12 b9 3c
       -0.061407886 -0.007196939 0.05488251 0.02259159
0000f0 d8 49 28 bd a6 9e 23 bd 34 36 64 3d 78 1a 60 bc
       -0.041086048 -0.03994622 0.055715755 -0.013678186
000100 4c c0 3c 3d 02 cd 5d 3d b0 89 2a bd fc cf 1a 3d
       0.046081826 0.05415059 -0.041635215 0.037796006
000110 c0 7f 26 bb 6b 46 32 3d 56 4a 30 3d f6 c1 4a 3d
       -0.0025405735 0.043524187 0.043039642 0.04950138
000120 a8 af 49 3d 2c f2 fc 3c 50 11 ba bc ce de 53 bd
       0.049239784 0.030877195 -0.022713333 -0.051726155
000130 86 dc 7d bd 98 4c 35 3d c5 21 0a 3d 84 02 ea 3c
       -0.061977886 0.0442625 0.03372361 0.028565653
000140 2c 75 c1 bc 7c 81 63 bd 50 97 8f 3c c6 d7 45 3d
       -0.023615442 -0.055543408 0.017528206 0.04830148
000150 f8 a9 79 3d 5d a0 df bc 98 3c 6d bc 52 68 5c 3d
       0.06095311 -0.027298147 -0.014479779 0.053810425
000160 27 df ed 3c c8 67 10 3d 8e 1f 63 3d 5d 01 41 3d
       0.029037071 0.035255224 0.055450015 0.04712044
000170 f8 a3 ed 3c c2 66 a0 3c 15 a9 5f bd 84 40 a2 bc
       0.02900885 0.019580249 -0.05460461 -0.019806154
000180 b7 9e ef 3c 00 18 a1 b9 42 df 3c 3b da a2 30 bd
       0.029250486 -0.00030726194 0.0028819595 -0.043124057
000190 88 4c 83 3c 74 e9 6d bd f0 3e ec bc 88 fc 34 3c
       0.016027704 -0.058083966 -0.028838605 0.011046536
0001a0 5c fa 06 bb 40 1c 26 3d 9e b9 57 bc a2 ec 2a bc
       -0.0020596003 0.040554285 -0.013166813 -0.010432394
0001b0 17 72 50 3d b0 f5 5e 3d 04 fd 3b bd 50 c2 5b 3d
       0.050890055 0.054433525 -0.04589559 0.053652108
0001c0 f2 a5 6c bd 95 66 38 3d 20 3c d3 bb c8 30 3b bc
       -0.057775445 0.045019705 -0.0064463764 -0.011425205
0001d0 78 51 c9 3c 04 c5 64 3d c5 c7 ed bc 76 2a 19 3d
       0.02457498 0.05585195 -0.029025922 0.03739401
0001e0 98 8c b0 bc 12 81 5c bd f0 50 6e bc 73 80 db 3c
       -0.021551415 -0.05383403 -0.014545664 0.026794648
0001f0 89 ae 3b bd 62 8a 7c 3d 98 f4 88 bc 92 ad 67 bd
       -0.045820747 0.06165541 -0.016718194 -0.056562014
000200 16 5a 1e 3d e8 34 84 bd c8 73 2a 3d e8 79 15 3c
       0.03866013 -0.064554036 0.041614324 0.009123303
000210 9a a7 3d bd 47 fb d4 bc d9 11 7e bd 58 ab 92 3c
       -0.046302415 -0.025998725 -0.06202874 0.017903969
000220 48 cb 3b bd dc 8e ca 3c a8 cf 4d bd ca 28 2b bd
       -0.04584816 0.024726324 -0.050246865 -0.041786946
000230 3c 78 3f bd c8 35 5d bc 5b 82 11 bd b8 49 5a bd
       -0.046745524 -0.013501592 -0.035524707 -0.05329296
000240 f0 73 10 3d ed cf 44 3d 9c 62 94 bc fc a2 02 bd
       0.035266817 0.048049856 -0.018113427 -0.031893715
000250 c0 bb 27 bb 71 a9 28 3d d1 76 37 bd 58 df 44 3d
       -0.0025594085 0.041177217 -0.044791047 0.04806456
000260 6c 4d de 3c cc 64 43 bd 6a c2 87 bb 88 ee c4 bc
       0.027136527 -0.04770355 -0.004143049 -0.024039522
000270 1f 88 3e 3d f3 fa af bc de 27 61 3d 06 93 44 bd
       0.046516534 -0.021481967 0.05496966 -0.047991775
000280 14 8d 3a bd 40 59 f2 ba da 90 5b bd 7e 80 00 3d
       -0.0455447 -0.0018489733 -0.053604938 0.03137254
000290 f6 14 19 3d 1e 5a 6a 3d 20 c5 f7 3c cc 92 23 bd
       0.037373506 0.05721485 0.030245364 -0.03993492
0002a0 24 26 57 bd bc c2 7d 3c 6e 6e 5b 3d 27 8d 0d bc
       -0.052526608 0.015488323 0.05357211 -0.00863961
0002b0 90 4c 35 bd 30 b5 b9 bb 54 40 f3 bc c0 63 ab 3b
       -0.04426247 -0.005667351 -0.02969376 0.005230397
0002c0 aa 08 06 3d d0 8c 70 3c 3e 83 65 bd d9 5f b6 3c
       0.032723106 0.01468201 -0.056033365 0.0222625
0002d0 0c c9 26 bd 73 68 32 bc f2 a0 26 3d f4 5a 03 3d
       -0.040719077 -0.01088916 0.040680833 0.03206916
0002e0 44 e9 01 bd 06 f6 03 3d f4 8b 46 bc 7e 45 95 3c
       -0.0317166 0.032217048 -0.012118328 0.018221613
0002f0 0b 61 79 bd 4a 17 56 bd 6c 3a 7a 3d 5f a0 6f bd
       -0.060883563 -0.052268304 0.06109087 -0.05850255
000300 ca cd 34 bd b6 1b 47 bd 92 3c 49 3d 3a 4b 15 bd
       -0.04414157 -0.04861041 0.04913003 -0.036448695
000310 b7 8f 3f 3d ab 1c c1 3c 89 e2 5f 3d b4 75 52 3d
       0.046767917 0.02357324 0.0546594 0.05138178
000320 e6 7e ab 3c fc 84 d9 3c d7 2e 21 bd 38 63 ac 3c
       0.020934533 0.02655267 -0.03935131 0.021043405
000330 fa b8 0c bd be 26 0b bd d1 8f 05 bd 2e 89 5c bd
       -0.034356095 -0.033972494 -0.032607857 -0.053841762
000340 a9 bd c2 bc 09 60 6b bd 08 17 6d bd 28 cd 1d 3d
       -0.023772078 -0.057464633 -0.057883292 0.03852573
000350 96 b5 e1 38 ba ed 3e 3d 79 a3 11 bc ab d7 5b bd
       0.00010762659 0.046613432 -0.008889073 -0.053672474
000360 b0 62 73 3d a8 73 3c bd 9b 89 1f bb f8 4a 62 3c
       0.059420288 -0.046008736 -0.0024343494 0.013811819
000370 60 6a 5d bc 38 bb 4f bd fd 6e 0c bd 78 f3 31 bc
       -0.013514131 -0.050715655 -0.034285534 -0.01086127
000380 30 9e 99 bb 56 94 b7 3b be f8 c5 3c 36 5a e3 3c
       -0.004688047 0.0056024 0.024166461 0.027752977
000390 1b 25 6c 3c a0 ca 25 3b 16 61 67 3d a0 07 fa 3c
       0.0144131435 0.0025297776 0.056489073 0.030521214
0003a0 94 43 a2 3c 37 b1 69 3b 5a 82 78 bd e0 c6 35 bb
       0.019807614 0.0035658607 -0.060671188 -0.0027736947
0003b0 a0 8e 67 3d 80 bb 2f 3b ac 63 d2 3c bc ac 7c 3d
       0.056532502 0.002681464 0.025682293 0.06168817
0003c0 28 fd 86 3a bb 79 aa bc 48 2a 45 3c 52 2b e8 3c
       0.0010298835 -0.020809999 0.012034006 0.02834097
0003d0 80 10 a9 3c 00 a2 40 3c 01 57 02 bc d6 86 18 3d
       0.02063775 0.011757374 -0.007955314 0.037237965
0003e0 19 6e 4f 3d e4 53 34 bd 94 72 06 bd aa 44 2d 3d
       0.050642107 -0.044025317 -0.032824114 0.04230181
0003f0 8c 32 2b 3b 8e 37 3d bd d7 c6 0c 3d 5d a0 fd bc
       0.0026122658 -0.04619556 0.034369316 -0.030960256

V.weight f4 [1, 256]
000000 a3 c7 d7 bc b2 d1 d3 bc 19 e0 13 bd bc fb af bc
       -0.026340311 -0.025856826 -0.036102388 -0.021482341
000010 58 f0 03 bd 4c 1f 9e 3c 28 9a 63 bd a3 5e 4c bd
       -0.03221163 0.019302033 -0.055566937 -0.04989494
000020 d2 e2 56 bd 09 85 80 ba 20 9b 7e bb 0b ed fb 3b
       -0.052462406 -0.0009805273 -0.0038849786 0.00768817
000030 2e d6 3c 3d 5c 9e 96 3c 40 50 b5 3a bb 11 18 bd
       0.046102695 0.018386059 0.001383312 -0.037126284
000040 18 4d c0 bc 6c e0 2c 3d f4 6d 87 3c a4 24 b9 3c
       -0.023474261 0.042206213 0.016531922 0.02260048
000050 c9 48 8d bb 5e ab 53 3d c0 21 7b bc 84 6f 22 3d
       -0.004311655 0.0516771 -0.015327871 0.03965713
000060 58 f3 23 3d ee 00 33 3d e4 a8 49 bd 6f 43 8c bc
       0.040026993 0.04370206 -0.049233332 -0.017121999
000070 92 05 0e 3d 60 46 88 3c d0 d0 85 bb 94 58 31 3d
       0.03467328 0.01663512 -0.0040837303 0.043297365
000080 08 78 57 3d c0 e6 3d 3b 39 21 d0 3c f2 f5 78 3d
       0.052604705 0.002897665 0.025406467 0.060781427
000090 40 e4 57 bd 28 d3 6c 3c f6 0e ed 3c d1 82 48 3d
       -0.05270791 0.01445464 0.028937798 0.04895288
0000a0 80 94 7e 3c b5 fe bd bc 88 5e bc 3c 3a 9e d7 bc
       0.015538335 -0.023192743 0.022994295 -0.026320565
0000b0 a0 61 65 3c a1 16 03 bd 84 23 64 3d 88 74 93 3c
       0.014000326 -0.032004002 0.055697933 0.017999902
0000c0 aa d0 7f 3d 08 0b 47 bd ba 66 6c 3c 71 e3 11 3d
       0.062454857 -0.048594505 0.014428789 0.035617296
0000d0 07 9d c8 bc 61 db b0 3c 42 ec 5e bd 40 5c 5c 3c
       -0.024488939 0.021588983 -0.05442453 0.0134497285
0000e0 2c 0c 58 bd 1c eb 2e bc c0 90 8e ba 80 d7 be 3b
       -0.052745983 -0.010676172 -0.0010876879 0.0058240294
0000f0 0e be 8a bc 38 7d e9 3c 34 41 c7 bc 10 49 96 3b
       -0.016936328 0.028502092 -0.024323083 0.0045863464
000100 00 a4 ee 3b 90 7d d2 3c e3 12 2e 3c 2c 2a cc 3c
       0.007282734 0.025694638 0.01062462 0.024922453
000110 70 c1 15 3d 19 3f 63 3c 5f 7f 9e 3b f4 40 a2 bc
       0.03656143 0.013870024 0.004836961 -0.019806363
000120 dd cb 03 3d b0 0e 64 3d c8 5a 3c bd ee e7 c1 ba
       0.03217684 0.05567807 -0.045985013 -0.0014793852
000130 e6 3d 5a bd 03 f5 eb 3c 1f 73 d5 bc 60 1d 9b bb
       -0.053281687 0.028803354 -0.02605587 -0.0047337264
000140 54 ed cf bc 01 53 01 bd c6 f7 2a bb 26 5e 47 3d
       -0.025381722 -0.0315733 -0.0026087626 0.04867377
000150 48 c3 32 bd 7d e8 63 3b 44 c9 39 3d c4 69 40 3d
       -0.043643266 0.0034776025 0.045357957 0.046975866
000160 01 e7 e2 bc 85 44 39 3d 30 7f 18 bd cf f2 aa bb
       -0.027698042 0.04523136 -0.03723067 -0.0052169333
000170 b7 11 a4 bc a3 39 24 bd ea 81 41 bb a2 1a 61 bd
       -0.020027978 -0.04009403 -0.0029526898 -0.05495704
000180 3e e1 bb bc e0 6d 72 3b 6e 94 9c 3c 50 9a 6b 3d
       -0.022934552 0.003699176 0.019113746 0.05752021
000190 b0 82 6b bc 9c 0c eb 3c 08 a5 5b 3d b0 89 aa bb
       -0.01437442 0.028692536 0.053624183 -0.005204402
0001a0 6b bb 4f bc 63 f1 85 bb f5 e1 11 bc e1 4a ed 3c
       -0.012678961 -0.0040876134 -0.00890397 0.02896637
0001b0 56 d3 a8 bc d8 74 ff bc 70 e6 ee bc 81 fe 24 3d
       -0.020608585 -0.031183645 -0.029162616 0.040281776
0001c0 00 f6 20 3d a7 9e bb bc 80 b5 0a 3a b8 4c 09 bc
       0.039297104 -0.0229028 0.0005291328 -0.008380108
0001d0 44 ee b9 bc fc 64 a6 bc dc 38 84 bc cb 60 0f 3d
       -0.022696622 -0.020311825 -0.016140394 0.03500442
0001e0 9c cd bd bc 98 d7 b1 bc 78 53 16 3c 36 23 e4 bb
       -0.023169331 -0.021709248 0.009175174 -0.0069622053
0001f0 0b 74 e2 3c e4 21 26 3d 73 9f 41 3c 11 99 be 3c
       0.027643224 0.040559664 0.011817801 0.023266347
000200 00 14 9f 38 e2 ed 53 3c 40 6b c6 ba 70 c6 57 3d
       7.585436e-05 0.012935134 -0.0015138164 0.05267948
000210 2a 3d 0e 3d a5 02 9c bc a7 45 ce bb 40 cf 11 3d
       0.0347263 -0.01904423 -0.0062949243 0.03559804
000220 b4 aa 5f 3d da 71 43 3d 2a 9d 1e 3d 53 96 29 3d
       0.054606155 0.047716 0.038724102 0.041403126
000230 68 2a 54 3c 50 53 d9 bc c8 d4 e7 3b a0 05 0d bc
       0.012949564 -0.026528984 0.007074926 -0.008607298
000240 00 7d ff bc e2 5c 9d bc f4 0c bf bc 33 7a 9f 3b
       -0.031187534 -0.019209329 -0.023321606 0.004866862
000250 40 7f a5 3b d3 00 b8 3b ea 36 3a ba e4 4c 65 bd
       0.00505057 0.0056153326 -0.000710352 -0.05598153
000260 20 d4 3f bc f0 94 fa 3b 87 de ba bc c0 3d f0 bc
       -0.011708289 0.0076471493 -0.022811187 -0.02932632
000270 68 96 e2 3b 9c f2 65 bc 0c cf 2f 3d 22 0b 5d 3d
       0.0069149025 -0.014034893 0.042922065 0.053965695
000280 16 3f 3b 3d 36 3a 4a bd 13 2c 22 3c b4 49 17 bd
       0.04571446 -0.04937192 0.009898203 -0.036935523
000290 18 44 48 3d ec 2c f1 3c fa 8b 5a 3d 18 90 6c bc
       0.048893064 0.029440366 0.05335615 -0.0144386515
0002a0 a6 30 24 bc e5 bb 3d bc 76 5a 7a 3d 97 62 03 3c
       -0.010021364 -0.011580442 0.061121427 0.008019111
0002b0 a0 7d c0 bc 18 6d 52 bc 64 ac b9 bc 82 29 39 3d
       -0.023497403 -0.012843393 -0.02266521 0.0452056
0002c0 6b de 31 3a dc 9e 38 bd 48 7e c3 3c 78 9f cc 3c
       0.0006785157 -0.045073375 0.023863927 0.024978384
0002d0 b6 1c 00 3c 24 37 fe bb 1d 38 22 3c 9c 51 76 bc
       0.007819345 -0.007758038 0.009901074 -0.015034106
0002e0 7a bd 76 3d d4 7d 12 3c 21 30 2a 3d c8 67 ab 3c
       0.060239293 0.008941133 0.041549806 0.02092351
0002f0 02 98 3d 3c b2 01 73 bd 00 02 99 39 8c 3b a4 bc
       0.011571886 -0.05932779 0.00029183924 -0.020047925
000300 28 09 68 bd a1 3d 09 bc 9e 3b 32 bd 00 44 2b 3a
       -0.056649357 -0.00837651 -0.043513887 0.0006533265
000310 a3 61 46 bd c8 39 cc 3b b5 74 45 3d 94 cb 63 3d
       -0.048432957 0.006232474 0.048207004 0.05561407
000320 e7 c9 11 3d 1c 2d 7a bd 54 df 08 3a 1c 72 77 bb
       0.03559294 -0.061078176 0.0005221267 -0.0037757223
000330 88 e5 b0 bc 5f f9 11 bd a2 3e c2 bc 1d 32 54 bc
       -0.021593824 -0.03563821 -0.023711506 -0.012951401
000340 b2 1d 3d bc bb 24 d5 3c d6 1e 3a 3c 39 68 06 bc
       -0.011542724 0.026018491 0.011359891 -0.00820356
000350 98 62 00 bd 0a 0d 63 3d 78 de 88 b8 ab d9 e3 3c
       -0.031344026 0.055432357 -6.5264234e-05 0.027813753
000360 d4 e6 7c bd 04 5c 29 bd 51 46 34 3d 28 a0 e9 3b
       -0.061743572 -0.04134752 0.04401237 0.007129688
000370 d4 d7 0a 3d f1 91 f2 bc b2 70 04 bc e0 7c f7 bc
       0.033897236 -0.029610606 -0.008083509 -0.030210912
000380 b8 6a f0 3c c7 c7 c6 bb b1 d4 26 bb 93 6c 4a bd
       0.029347762 -0.006066296 -0.0025456364 -0.04941995
000390 39 48 e7 bc 74 ac 9e bc 70 ab 5c 3d fa a8 5e 3d
       -0.02823268 -0.019369341 0.053874433 0.054360367
0003a0 14 33 fe 3c 45 d4 a8 3c 00 ad b4 3c 74 56 2c 3d
       0.031030215 0.02060903 0.02205515 0.042074636
0003b0 1e a1 02 bd f2 6c 5c bd f4 59 40 bd 14 b8 30 3d
       -0.031891935 -0.053814836 -0.046960786 0.0431443
0003c0 10 12 9a bc 0d 4a f2 3c d6 e2 5e 3d 57 eb 2a 3c
       -0.018807441 0.029576326 0.054415546 0.010432086
0003d0 3d be ac 3c 0c c2 04 3d df 1c 31 bc f4 45 f9 3c
       0.021086806 0.03241162 -0.010810106 0.030428864
0003e0 52 6f ef bb d0 85 2c bd d0 76 b5 bc c2 d1 32 bd
       -0.0073069716 -0.0421198 -0.02215138 -0.043657072
0003f0 a8 5c fe 3c 2c b5 07 3d 19 75 09 bc 9c 5f 22 bd
       0.031050041 0.033131763 -0.008389735 -0.03964196

A.weight f4 [6, 256]
000000 db fd bc bd cf 67 13 bd 8d 64 89 3c b2 8c 4d 3d
       -0.092281066 -0.03598767 0.01677158 0.050183006
000010 fc b1 e8 bc a0 0a 67 3d 52 98 26 bd b6 c6 f1 bc
       -0.028405182 0.056406617 -0.040672608 -0.029513698
000020 38 ae f6 bc 3d 60 8e bc 80 a5 5d bd 2d 42 36 3d
       -0.03011237 -0.017379874 -0.05411291 0.044496704
000030 76 45 22 3d 40 41 76 3c 06 c8 04 3d 0f 48 0a 3d
       0.039617024 0.015030205 0.03241732 0.033760127
000040 64 74 57 3d 70 29 67 bc 32 c2 35 bd 18 34 70 bd
       0.052601233 -0.014109001 -0.044374652 -0.05864343
000050 b1 b0 8f 3b 20 9b ab bb 06 a6 43 bd 8e 9a 2d bd
       0.004385077 -0.005236998 -0.047765754 -0.042383723
000060 d4 b3 08 bd 76 85 43 3d dc bb 96 3c 5e aa 61 bd
       -0.033374622 0.0477347 0.018400125 -0.055094115
000070 d0 a9 d0 bc c7 c4 58 bb 82 59 4a bd d2 4c 1d bd
       -0.025471598 -0.0033076273 -0.049401768 -0.03840334
000080 40 c5 a9 b8 e4 9c 48 3d c7 81 3c 3d e6 0d 0c 3d
       -8.095289e-05 0.048977748 0.046022203 0.034192942
000090 52 0a 7e 3d df 23 a3 39 62 f1 74 3d e5 f6 c7 3c
       0.06202156 0.0003111651 0.059800513 0.02440972
0000a0 bf 49 11 3d 44 c3 97 3a a8 20 cd 3c 8a 00 80 bd
       0.03547072 0.001157858 0.025039986 -0.06250103
0000b0 00 38 00 3a 81 49 e3 bc 08 21 09 bc 34 72 00 bd
       0.0004891157 -0.02774501 -0.008369692 -0.031358913
0000c0 f2 ee 09 3d e0 f5 36 bc f6 c9 eb bb e6 ae 3e bc
       0.03367514 -0.01116702 -0.0071957065 -0.011638379
0000d0 41 ea 43 bd ad 24 0a 3d 6a 3b 6b 3d 88 81 7c bd
       -0.047830824 0.033726383 0.05742971 -0.061646968
0000e0 2c d4 c9 3c 53 da da bc 12 40 3d 3d 24 35 10 3d
       0.024637304 -0.026715433 0.04620368 0.03520693
0000f0 51 54 55 bd b4 f0 62 3d 20 91 5f 3b de c6 2b 3d
       -0.052082364 0.055405334 0.00341136 0.0419377
000100 78 89 29 bd 10 d1 42 bd 15 da 5b 3c 26 cf 07 bd
       -0.041390866 -0.04756266 0.013418694 -0.033156537
000110 1c 3f 8a 3c c1 cb 72 bb 60 7a ad bb 68 4d 7d 3d
       0.016875796 -0.0037047716 -0.0052941293 0.0618414
000120 fd 0a 66 3c 4e 3e 29 bd 40 b1 6c 3d 1b 09 44 3d
       0.014040706 -0.041319184 0.057786226 0.047860246
000130 88 33 44 3d 80 fa ef 3a 04 a9 d2 3c c0 70 fa 3b
       0.047900707 0.0018308908 0.025715359 0.0076428354
000140 1e ba 15 bd f1 09 0b 3d 2d bf 25 3c fb 14 80 3d
       -0.03655445 0.033945028 0.010116381 0.06254002
000150 00 4d 0a bb b0 91 2f bd f2 da 18 3d b0 f6 a4 3b
       -0.0021103024 -0.042863548 0.037318178 0.0050342903
000160 a5 99 72 bd 13 32 26 bd a4 6e 25 bd 47 fc 1d bd
       -0.059228558 -0.0405751 -0.04038872 -0.03857067
000170 74 a0 78 3b 0f da b0 3c f1 6d 8a 3b 00 1e 5f 3c
       0.0037937434 0.021588353 0.004224532 0.013617992
000180 c9 ee 86 3c 20 45 d6 bb c0 2c 69 3d 52 ec 7f 3d
       0.016471284 -0.006539002 0.056927443 0.062481232
000190 ec 85 a5 bc e8 2a c6 3c a8 d9 7d 3c 00 9f 54 3d
       -0.02020546 0.024190381 0.015493788 0.051909447
0001a0 69 9b 09 bd 88 74 e9 bc 17 7d b4 3c 15 d1 25 3d
       -0.033595476 -0.02849795 0.022032304 0.0404826
0001b0 fa ce 8a bc 7c 2d e5 bc 44 ac 9a 3c a7 e6 19 3c
       -0.016944397 -0.02797579 0.01888097 0.009393371
0001c0 00 d4 3e bd 53 d0 f3 bb ce 41 24 3d 00 f1 98 bb
       -0.046588898 -0.0074406057 0.04010182 -0.0046674013
0001d0 b0 a6 bb bb ac d7 73 3d 51 53 09 3c ea 22 95 3d
       -0.005726658 0.059531853 0.008381681 0.0728205
0001e0 0a 7c 76 3d f6 55 32 3d 26 43 42 3d dd 94 0c bd
       0.060176887 0.04353901 0.04742732 -0.034321655
0001f0 81 ea 31 3d 78 54 57 3d 54 5b f3 bc b3 31 5f 3d
       0.04343653 0.05257079 -0.029706635 0.054490756
000200 54 42 86 3c 59 28 cb 3c cc c2 df 3c 54 85 e3 bc
       0.01638905 0.024799513 0.027314566 -0.027773537
000210 00 c5 a8 3b 2b b7 35 bd f8 93 d8 bc 86 9e 10 3d
       0.0051504374 -0.044364136 -0.026437744 0.03530743
000220 38 d5 76 bd a0 8a a4 3b 90 a6 c0 bc 3b 44 0c 3d
       -0.060261935 0.005021408 -0.023516923 0.034244757
000230 32 da 01 3d ae 89 36 bd cb c4 2c 3d b8 a4 64 3c
       0.031702228 -0.044564895 0.042179864 0.013955288
000240 f7 1c 20 bd 5d 3f 23 bd b0 c4 70 bc d8 89 d5 bc
       -0.039090123 -0.03985535 -0.014695331 -0.026066706
000250 d8 0e 0b bc ea 83 40 bc c1 7d 36 bd 22 02 04 bd
       -0.008487426 -0.011750201 -0.044553522 -0.032228597
000260 22 2d 0d 3d d8 41 47 3c 8b 92 1a bd 44 e2 7a bd
       0.03446687 0.0121616945 -0.03773741 -0.06125094
000270 5b 71 8e 3b b5 27 de bc 7a b9 3a 3d be 03 34 bd
       0.004347009 -0.027118543 0.04558704 -0.04394888
000280 04 a4 14 bd 00 92 a9 39 df 8b ca 3c 38 bb 4c bc
       -0.03628923 0.0003234297 0.024724899 -0.012495808
000290 c4 92 c3 bc a8 82 2b bd e0 2f 00 bd 10 a7 5c 3c
       -0.023873694 -0.04187265 -0.031295657 0.013467565
0002a0 c1 c0 c4 3c 82 1b ee 3c 34 a4 24 3d c3 20 36 3d
       0.024017693 0.029065851 0.04019566 0.044464838
0002b0 26 b1 7f 3d 2a 4e 39 bd 00 aa d1 b9 68 49 c2 3c
       0.0624248 -0.04524056 -0.00039990246 0.023716643
0002c0 73 d4 b9 3c 80 20 52 bd 24 f3 4e 3d 64 9a 87 bc
       0.022684311 -0.051300526 0.050524846 -0.016553111
0002d0 e6 e8 47 3d fa 90 e7 bc 54 fe 7c 3d 45 f2 10 3c
       0.048806094 -0.028267372 0.061765984 0.008846824
0002e0 aa 1e 3e bd f4 e6 f7 3b 1d 66 32 3d 04 ca d6 bc
       -0.046415962 0.0075653736 0.043554414 -0.026219375
0002f0 35 c7 8d 3c 48 bc 4e 3c 30 2d 33 bd fc 95 0b bd
       0.017306903 0.012618132 -0.043744266 -0.034078583
000300 1e dd 35 bd 70 ff 11 bb 70 88 3b bd 78 b0 00 bd
       -0.044400327 -0.0022277497 -0.045784414 -0.031418294
000310 a8 5e 49 3d fd ee 87 3c 85 1e 2a bd 80 90 6d ba
       0.049162537 0.01659345 -0.041533012 -0.00090623647
000320 ee b9 85 bc 30 dd ad bb 08 67 7c bd 90 0f d3 3c
       -0.01632401 -0.0053059086 -0.061621696 0.025764257
000330 4f 7a 83 3c 94 05 44 bd 2c 73 18 bd 1d 6f 47 b9
       0.016049532 -0.047856882 -0.03721921 -0.00019019512
000340 54 53 1f bd 2b 49 e6 bc 64 24 4f bd 09 01 b7 bc
       -0.038897827 -0.028111061 -0.050571814 -0.02233936
000350 d4 cf 11 bd 12 e6 2e bc 0f e2 03 bd cd 8a 33 3d
       -0.03559859 -0.01067497 -0.03219801 0.043833543
000360 72 5e 56 bd 98 c2 48 3c 47 ae 31 bc e5 df d1 bc
       -0.052336164 0.012253426 -0.010844774 -0.025619457
000370 88 20 84 3c c4 ab 7b bc 61 ba 98 bc 60 cd a7 3c
       0.016128793 -0.015360776 -0.01864356 0.020483673
000380 00 20 51 38 97 9e fb bc 6f 0d c0 bc a1 1d 67 bd
       4.9859285e-05 -0.03071527 -0.023443906 -0.05642474
000390 21 1a 04 bc 78 52 c4 3c 2c 55 58 bd b6 bb 19 bd
       -0.00806287 0.023965105 -0.0528156 -0.03753253
0003a0 a0 d1 8d 3b 2e 06 90 3c 80 ce 14 ba 10 0b 0f bc
       0.0043279678 0.017581072 -0.0005676523 -0.008730665
0003b0 26 d4 6c 3d a2 c4 22 3d d6 e8 55 bd ba 35 6f 3d
       0.057819508 0.039738305 -0.052224003 0.058400847
0003c0 43 74 2c bd 95 e7 1e 3d 42 b2 3f bd a2 ed a5 bc
       -0.042103063 0.038795073 -0.04680086 -0.020254914
0003d0 3c 24 7d 3c 74 2d c8 3c 8b e5 27 bd 7a 6a 37 3d
       0.0154505335 0.024435736 -0.040990394 0.04477928
0003e0 e4 40 68 bd f4 4d de 3c a4 70 26 3d 00 31 72 3d
       -0.05670251 0.02713678 0.040634766 0.05912876
0003f0 82 ae 06 bd 47 76 53 3c 20 65 f0 3c a4 e0 be 3c
       -0.032881267 0.0129066175 0.029345095 0.023300476

A.bias f4 [6]
000000 ed c7 4b 3d fc 4e 83 3d 4c ed c6 3c a2 99 8d bd
       0.04975121 0.064115494 0.024283074 -0.06914069
000010 6f c7 b5 bc 2b 50 3a bb
       -0.022189824 -0.0028429131
